{"class_name": "Model", "config": {"name": "model_1", "layers": [{"name": "input_8", "class_name": "InputLayer", "config": {"batch_input_shape": [null, 1], "dtype": "float32", "sparse": false, "name": "input_8"}, "inbound_nodes": []}, {"name": "input_15", "class_name": "InputLayer", "config": {"batch_input_shape": [null, 1], "dtype": "float32", "sparse": false, "name": "input_15"}, "inbound_nodes": []}, {"name": "input_1", "class_name": "InputLayer", "config": {"batch_input_shape": [null, 1], "dtype": "float32", "sparse": false, "name": "input_1"}, "inbound_nodes": []}, {"name": "input_18", "class_name": "InputLayer", "config": {"batch_input_shape": [null, 1], "dtype": "float32", "sparse": false, "name": "input_18"}, "inbound_nodes": []}, {"name": "input_6", "class_name": "InputLayer", "config": {"batch_input_shape": [null, 1], "dtype": "float32", "sparse": false, "name": "input_6"}, "inbound_nodes": []}, {"name": "input_7", "class_name": "InputLayer", "config": {"batch_input_shape": [null, 1], "dtype": "float32", "sparse": false, "name": "input_7"}, "inbound_nodes": []}, {"name": "input_10", "class_name": "InputLayer", "config": {"batch_input_shape": [null, 1], "dtype": "float32", "sparse": false, "name": "input_10"}, "inbound_nodes": []}, {"name": "input_9", "class_name": "InputLayer", "config": {"batch_input_shape": [null, 1], "dtype": "float32", "sparse": false, "name": "input_9"}, "inbound_nodes": []}, {"name": "input_30", "class_name": "InputLayer", "config": {"batch_input_shape": [null, 1], "dtype": "float32", "sparse": false, "name": "input_30"}, "inbound_nodes": []}, {"name": "input_2", "class_name": "InputLayer", "config": {"batch_input_shape": [null, 1], "dtype": "float32", "sparse": false, "name": "input_2"}, "inbound_nodes": []}, {"name": "input_3", "class_name": "InputLayer", "config": {"batch_input_shape": [null, 1], "dtype": "float32", "sparse": false, "name": "input_3"}, "inbound_nodes": []}, {"name": "input_11", "class_name": "InputLayer", "config": {"batch_input_shape": [null, 1], "dtype": "float32", "sparse": false, "name": "input_11"}, "inbound_nodes": []}, {"name": "input_17", "class_name": "InputLayer", "config": {"batch_input_shape": [null, 1], "dtype": "float32", "sparse": false, "name": "input_17"}, "inbound_nodes": []}, {"name": "input_13", "class_name": "InputLayer", "config": {"batch_input_shape": [null, 1], "dtype": "float32", "sparse": false, "name": "input_13"}, "inbound_nodes": []}, {"name": "input_4", "class_name": "InputLayer", "config": {"batch_input_shape": [null, 1], "dtype": "float32", "sparse": false, "name": "input_4"}, "inbound_nodes": []}, {"name": "input_20", "class_name": "InputLayer", "config": {"batch_input_shape": [null, 1], "dtype": "float32", "sparse": false, "name": "input_20"}, "inbound_nodes": []}, {"name": "input_5", "class_name": "InputLayer", "config": {"batch_input_shape": [null, 1], "dtype": "float32", "sparse": false, "name": "input_5"}, "inbound_nodes": []}, {"name": "input_25", "class_name": "InputLayer", "config": {"batch_input_shape": [null, 1], "dtype": "float32", "sparse": false, "name": "input_25"}, "inbound_nodes": []}, {"name": "input_34", "class_name": "InputLayer", "config": {"batch_input_shape": [null, 1], "dtype": "float32", "sparse": false, "name": "input_34"}, "inbound_nodes": []}, {"name": "input_37", "class_name": "InputLayer", "config": {"batch_input_shape": [null, 1], "dtype": "float32", "sparse": false, "name": "input_37"}, "inbound_nodes": []}, {"name": "input_23", "class_name": "InputLayer", "config": {"batch_input_shape": [null, 1], "dtype": "float32", "sparse": false, "name": "input_23"}, "inbound_nodes": []}, {"name": "input_38", "class_name": "InputLayer", "config": {"batch_input_shape": [null, 1], "dtype": "float32", "sparse": false, "name": "input_38"}, "inbound_nodes": []}, {"name": "input_43", "class_name": "InputLayer", "config": {"batch_input_shape": [null, 1], "dtype": "float32", "sparse": false, "name": "input_43"}, "inbound_nodes": []}, {"name": "input_46", "class_name": "InputLayer", "config": {"batch_input_shape": [null, 1], "dtype": "float32", "sparse": false, "name": "input_46"}, "inbound_nodes": []}, {"name": "input_47", "class_name": "InputLayer", "config": {"batch_input_shape": [null, 1], "dtype": "float32", "sparse": false, "name": "input_47"}, "inbound_nodes": []}, {"name": "input_49", "class_name": "InputLayer", "config": {"batch_input_shape": [null, 1], "dtype": "float32", "sparse": false, "name": "input_49"}, "inbound_nodes": []}, {"name": "input_44", "class_name": "InputLayer", "config": {"batch_input_shape": [null, 1], "dtype": "float32", "sparse": false, "name": "input_44"}, "inbound_nodes": []}, {"name": "input_27", "class_name": "InputLayer", "config": {"batch_input_shape": [null, 1], "dtype": "float32", "sparse": false, "name": "input_27"}, "inbound_nodes": []}, {"name": "input_54", "class_name": "InputLayer", "config": {"batch_input_shape": [null, 1], "dtype": "float32", "sparse": false, "name": "input_54"}, "inbound_nodes": []}, {"name": "dense_8", "class_name": "Dense", "config": {"name": "dense_8", "trainable": true, "dtype": "float32", "units": 50, "activation": "relu", "use_bias": true, "kernel_initializer": {"class_name": "VarianceScaling", "config": {"scale": 1.0, "mode": "fan_avg", "distribution": "uniform", "seed": null}}, "bias_initializer": {"class_name": "Zeros", "config": {}}, "kernel_regularizer": null, "bias_regularizer": null, "activity_regularizer": null, "kernel_constraint": null, "bias_constraint": null}, "inbound_nodes": [[["input_8", 0, 0, {}]]]}, {"name": "dense_15", "class_name": "Dense", "config": {"name": "dense_15", "trainable": true, "dtype": "float32", "units": 50, "activation": "relu", "use_bias": true, "kernel_initializer": {"class_name": "VarianceScaling", "config": {"scale": 1.0, "mode": "fan_avg", "distribution": "uniform", "seed": null}}, "bias_initializer": {"class_name": "Zeros", "config": {}}, "kernel_regularizer": null, "bias_regularizer": null, "activity_regularizer": null, "kernel_constraint": null, "bias_constraint": null}, "inbound_nodes": [[["input_15", 0, 0, {}]]]}, {"name": "dense_1", "class_name": "Dense", "config": {"name": "dense_1", "trainable": true, "dtype": "float32", "units": 50, "activation": "relu", "use_bias": true, "kernel_initializer": {"class_name": "VarianceScaling", "config": {"scale": 1.0, "mode": "fan_avg", "distribution": "uniform", "seed": null}}, "bias_initializer": {"class_name": "Zeros", "config": {}}, "kernel_regularizer": null, "bias_regularizer": null, "activity_regularizer": null, "kernel_constraint": null, "bias_constraint": null}, "inbound_nodes": [[["input_1", 0, 0, {}]]]}, {"name": "dense_18", "class_name": "Dense", "config": {"name": "dense_18", "trainable": true, "dtype": "float32", "units": 50, "activation": "relu", "use_bias": true, "kernel_initializer": {"class_name": "VarianceScaling", "config": {"scale": 1.0, "mode": "fan_avg", "distribution": "uniform", "seed": null}}, "bias_initializer": {"class_name": "Zeros", "config": {}}, "kernel_regularizer": null, "bias_regularizer": null, "activity_regularizer": null, "kernel_constraint": null, "bias_constraint": null}, "inbound_nodes": [[["input_18", 0, 0, {}]]]}, {"name": "dense_6", "class_name": "Dense", "config": {"name": "dense_6", "trainable": true, "dtype": "float32", "units": 50, "activation": "relu", "use_bias": true, "kernel_initializer": {"class_name": "VarianceScaling", "config": {"scale": 1.0, "mode": "fan_avg", "distribution": "uniform", "seed": null}}, "bias_initializer": {"class_name": "Zeros", "config": {}}, "kernel_regularizer": null, "bias_regularizer": null, "activity_regularizer": null, "kernel_constraint": null, "bias_constraint": null}, "inbound_nodes": [[["input_6", 0, 0, {}]]]}, {"name": "dense_7", "class_name": "Dense", "config": {"name": "dense_7", "trainable": true, "dtype": "float32", "units": 50, "activation": "relu", "use_bias": true, "kernel_initializer": {"class_name": "VarianceScaling", "config": {"scale": 1.0, "mode": "fan_avg", "distribution": "uniform", "seed": null}}, "bias_initializer": {"class_name": "Zeros", "config": {}}, "kernel_regularizer": null, "bias_regularizer": null, "activity_regularizer": null, "kernel_constraint": null, "bias_constraint": null}, "inbound_nodes": [[["input_7", 0, 0, {}]]]}, {"name": "dense_10", "class_name": "Dense", "config": {"name": "dense_10", "trainable": true, "dtype": "float32", "units": 50, "activation": "relu", "use_bias": true, "kernel_initializer": {"class_name": "VarianceScaling", "config": {"scale": 1.0, "mode": "fan_avg", "distribution": "uniform", "seed": null}}, "bias_initializer": {"class_name": "Zeros", "config": {}}, "kernel_regularizer": null, "bias_regularizer": null, "activity_regularizer": null, "kernel_constraint": null, "bias_constraint": null}, "inbound_nodes": [[["input_10", 0, 0, {}]]]}, {"name": "dense_9", "class_name": "Dense", "config": {"name": "dense_9", "trainable": true, "dtype": "float32", "units": 50, "activation": "relu", "use_bias": true, "kernel_initializer": {"class_name": "VarianceScaling", "config": {"scale": 1.0, "mode": "fan_avg", "distribution": "uniform", "seed": null}}, "bias_initializer": {"class_name": "Zeros", "config": {}}, "kernel_regularizer": null, "bias_regularizer": null, "activity_regularizer": null, "kernel_constraint": null, "bias_constraint": null}, "inbound_nodes": [[["input_9", 0, 0, {}]]]}, {"name": "dense_30", "class_name": "Dense", "config": {"name": "dense_30", "trainable": true, "dtype": "float32", "units": 50, "activation": "relu", "use_bias": true, "kernel_initializer": {"class_name": "VarianceScaling", "config": {"scale": 1.0, "mode": "fan_avg", "distribution": "uniform", "seed": null}}, "bias_initializer": {"class_name": "Zeros", "config": {}}, "kernel_regularizer": null, "bias_regularizer": null, "activity_regularizer": null, "kernel_constraint": null, "bias_constraint": null}, "inbound_nodes": [[["input_30", 0, 0, {}]]]}, {"name": "dense_2", "class_name": "Dense", "config": {"name": "dense_2", "trainable": true, "dtype": "float32", "units": 50, "activation": "relu", "use_bias": true, "kernel_initializer": {"class_name": "VarianceScaling", "config": {"scale": 1.0, "mode": "fan_avg", "distribution": "uniform", "seed": null}}, "bias_initializer": {"class_name": "Zeros", "config": {}}, "kernel_regularizer": null, "bias_regularizer": null, "activity_regularizer": null, "kernel_constraint": null, "bias_constraint": null}, "inbound_nodes": [[["input_2", 0, 0, {}]]]}, {"name": "dense_3", "class_name": "Dense", "config": {"name": "dense_3", "trainable": true, "dtype": "float32", "units": 50, "activation": "relu", "use_bias": true, "kernel_initializer": {"class_name": "VarianceScaling", "config": {"scale": 1.0, "mode": "fan_avg", "distribution": "uniform", "seed": null}}, "bias_initializer": {"class_name": "Zeros", "config": {}}, "kernel_regularizer": null, "bias_regularizer": null, "activity_regularizer": null, "kernel_constraint": null, "bias_constraint": null}, "inbound_nodes": [[["input_3", 0, 0, {}]]]}, {"name": "dense_11", "class_name": "Dense", "config": {"name": "dense_11", "trainable": true, "dtype": "float32", "units": 50, "activation": "relu", "use_bias": true, "kernel_initializer": {"class_name": "VarianceScaling", "config": {"scale": 1.0, "mode": "fan_avg", "distribution": "uniform", "seed": null}}, "bias_initializer": {"class_name": "Zeros", "config": {}}, "kernel_regularizer": null, "bias_regularizer": null, "activity_regularizer": null, "kernel_constraint": null, "bias_constraint": null}, "inbound_nodes": [[["input_11", 0, 0, {}]]]}, {"name": "dense_17", "class_name": "Dense", "config": {"name": "dense_17", "trainable": true, "dtype": "float32", "units": 50, "activation": "relu", "use_bias": true, "kernel_initializer": {"class_name": "VarianceScaling", "config": {"scale": 1.0, "mode": "fan_avg", "distribution": "uniform", "seed": null}}, "bias_initializer": {"class_name": "Zeros", "config": {}}, "kernel_regularizer": null, "bias_regularizer": null, "activity_regularizer": null, "kernel_constraint": null, "bias_constraint": null}, "inbound_nodes": [[["input_17", 0, 0, {}]]]}, {"name": "dense_13", "class_name": "Dense", "config": {"name": "dense_13", "trainable": true, "dtype": "float32", "units": 50, "activation": "relu", "use_bias": true, "kernel_initializer": {"class_name": "VarianceScaling", "config": {"scale": 1.0, "mode": "fan_avg", "distribution": "uniform", "seed": null}}, "bias_initializer": {"class_name": "Zeros", "config": {}}, "kernel_regularizer": null, "bias_regularizer": null, "activity_regularizer": null, "kernel_constraint": null, "bias_constraint": null}, "inbound_nodes": [[["input_13", 0, 0, {}]]]}, {"name": "dense_4", "class_name": "Dense", "config": {"name": "dense_4", "trainable": true, "dtype": "float32", "units": 50, "activation": "relu", "use_bias": true, "kernel_initializer": {"class_name": "VarianceScaling", "config": {"scale": 1.0, "mode": "fan_avg", "distribution": "uniform", "seed": null}}, "bias_initializer": {"class_name": "Zeros", "config": {}}, "kernel_regularizer": null, "bias_regularizer": null, "activity_regularizer": null, "kernel_constraint": null, "bias_constraint": null}, "inbound_nodes": [[["input_4", 0, 0, {}]]]}, {"name": "dense_20", "class_name": "Dense", "config": {"name": "dense_20", "trainable": true, "dtype": "float32", "units": 50, "activation": "relu", "use_bias": true, "kernel_initializer": {"class_name": "VarianceScaling", "config": {"scale": 1.0, "mode": "fan_avg", "distribution": "uniform", "seed": null}}, "bias_initializer": {"class_name": "Zeros", "config": {}}, "kernel_regularizer": null, "bias_regularizer": null, "activity_regularizer": null, "kernel_constraint": null, "bias_constraint": null}, "inbound_nodes": [[["input_20", 0, 0, {}]]]}, {"name": "dense_5", "class_name": "Dense", "config": {"name": "dense_5", "trainable": true, "dtype": "float32", "units": 50, "activation": "relu", "use_bias": true, "kernel_initializer": {"class_name": "VarianceScaling", "config": {"scale": 1.0, "mode": "fan_avg", "distribution": "uniform", "seed": null}}, "bias_initializer": {"class_name": "Zeros", "config": {}}, "kernel_regularizer": null, "bias_regularizer": null, "activity_regularizer": null, "kernel_constraint": null, "bias_constraint": null}, "inbound_nodes": [[["input_5", 0, 0, {}]]]}, {"name": "dense_25", "class_name": "Dense", "config": {"name": "dense_25", "trainable": true, "dtype": "float32", "units": 50, "activation": "relu", "use_bias": true, "kernel_initializer": {"class_name": "VarianceScaling", "config": {"scale": 1.0, "mode": "fan_avg", "distribution": "uniform", "seed": null}}, "bias_initializer": {"class_name": "Zeros", "config": {}}, "kernel_regularizer": null, "bias_regularizer": null, "activity_regularizer": null, "kernel_constraint": null, "bias_constraint": null}, "inbound_nodes": [[["input_25", 0, 0, {}]]]}, {"name": "dense_34", "class_name": "Dense", "config": {"name": "dense_34", "trainable": true, "dtype": "float32", "units": 50, "activation": "relu", "use_bias": true, "kernel_initializer": {"class_name": "VarianceScaling", "config": {"scale": 1.0, "mode": "fan_avg", "distribution": "uniform", "seed": null}}, "bias_initializer": {"class_name": "Zeros", "config": {}}, "kernel_regularizer": null, "bias_regularizer": null, "activity_regularizer": null, "kernel_constraint": null, "bias_constraint": null}, "inbound_nodes": [[["input_34", 0, 0, {}]]]}, {"name": "dense_37", "class_name": "Dense", "config": {"name": "dense_37", "trainable": true, "dtype": "float32", "units": 50, "activation": "relu", "use_bias": true, "kernel_initializer": {"class_name": "VarianceScaling", "config": {"scale": 1.0, "mode": "fan_avg", "distribution": "uniform", "seed": null}}, "bias_initializer": {"class_name": "Zeros", "config": {}}, "kernel_regularizer": null, "bias_regularizer": null, "activity_regularizer": null, "kernel_constraint": null, "bias_constraint": null}, "inbound_nodes": [[["input_37", 0, 0, {}]]]}, {"name": "dense_23", "class_name": "Dense", "config": {"name": "dense_23", "trainable": true, "dtype": "float32", "units": 50, "activation": "relu", "use_bias": true, "kernel_initializer": {"class_name": "VarianceScaling", "config": {"scale": 1.0, "mode": "fan_avg", "distribution": "uniform", "seed": null}}, "bias_initializer": {"class_name": "Zeros", "config": {}}, "kernel_regularizer": null, "bias_regularizer": null, "activity_regularizer": null, "kernel_constraint": null, "bias_constraint": null}, "inbound_nodes": [[["input_23", 0, 0, {}]]]}, {"name": "dense_38", "class_name": "Dense", "config": {"name": "dense_38", "trainable": true, "dtype": "float32", "units": 50, "activation": "relu", "use_bias": true, "kernel_initializer": {"class_name": "VarianceScaling", "config": {"scale": 1.0, "mode": "fan_avg", "distribution": "uniform", "seed": null}}, "bias_initializer": {"class_name": "Zeros", "config": {}}, "kernel_regularizer": null, "bias_regularizer": null, "activity_regularizer": null, "kernel_constraint": null, "bias_constraint": null}, "inbound_nodes": [[["input_38", 0, 0, {}]]]}, {"name": "dense_43", "class_name": "Dense", "config": {"name": "dense_43", "trainable": true, "dtype": "float32", "units": 50, "activation": "relu", "use_bias": true, "kernel_initializer": {"class_name": "VarianceScaling", "config": {"scale": 1.0, "mode": "fan_avg", "distribution": "uniform", "seed": null}}, "bias_initializer": {"class_name": "Zeros", "config": {}}, "kernel_regularizer": null, "bias_regularizer": null, "activity_regularizer": null, "kernel_constraint": null, "bias_constraint": null}, "inbound_nodes": [[["input_43", 0, 0, {}]]]}, {"name": "dense_46", "class_name": "Dense", "config": {"name": "dense_46", "trainable": true, "dtype": "float32", "units": 50, "activation": "relu", "use_bias": true, "kernel_initializer": {"class_name": "VarianceScaling", "config": {"scale": 1.0, "mode": "fan_avg", "distribution": "uniform", "seed": null}}, "bias_initializer": {"class_name": "Zeros", "config": {}}, "kernel_regularizer": null, "bias_regularizer": null, "activity_regularizer": null, "kernel_constraint": null, "bias_constraint": null}, "inbound_nodes": [[["input_46", 0, 0, {}]]]}, {"name": "dense_47", "class_name": "Dense", "config": {"name": "dense_47", "trainable": true, "dtype": "float32", "units": 50, "activation": "relu", "use_bias": true, "kernel_initializer": {"class_name": "VarianceScaling", "config": {"scale": 1.0, "mode": "fan_avg", "distribution": "uniform", "seed": null}}, "bias_initializer": {"class_name": "Zeros", "config": {}}, "kernel_regularizer": null, "bias_regularizer": null, "activity_regularizer": null, "kernel_constraint": null, "bias_constraint": null}, "inbound_nodes": [[["input_47", 0, 0, {}]]]}, {"name": "dense_49", "class_name": "Dense", "config": {"name": "dense_49", "trainable": true, "dtype": "float32", "units": 50, "activation": "relu", "use_bias": true, "kernel_initializer": {"class_name": "VarianceScaling", "config": {"scale": 1.0, "mode": "fan_avg", "distribution": "uniform", "seed": null}}, "bias_initializer": {"class_name": "Zeros", "config": {}}, "kernel_regularizer": null, "bias_regularizer": null, "activity_regularizer": null, "kernel_constraint": null, "bias_constraint": null}, "inbound_nodes": [[["input_49", 0, 0, {}]]]}, {"name": "dense_44", "class_name": "Dense", "config": {"name": "dense_44", "trainable": true, "dtype": "float32", "units": 50, "activation": "relu", "use_bias": true, "kernel_initializer": {"class_name": "VarianceScaling", "config": {"scale": 1.0, "mode": "fan_avg", "distribution": "uniform", "seed": null}}, "bias_initializer": {"class_name": "Zeros", "config": {}}, "kernel_regularizer": null, "bias_regularizer": null, "activity_regularizer": null, "kernel_constraint": null, "bias_constraint": null}, "inbound_nodes": [[["input_44", 0, 0, {}]]]}, {"name": "dense_27", "class_name": "Dense", "config": {"name": "dense_27", "trainable": true, "dtype": "float32", "units": 50, "activation": "relu", "use_bias": true, "kernel_initializer": {"class_name": "VarianceScaling", "config": {"scale": 1.0, "mode": "fan_avg", "distribution": "uniform", "seed": null}}, "bias_initializer": {"class_name": "Zeros", "config": {}}, "kernel_regularizer": null, "bias_regularizer": null, "activity_regularizer": null, "kernel_constraint": null, "bias_constraint": null}, "inbound_nodes": [[["input_27", 0, 0, {}]]]}, {"name": "dense_54", "class_name": "Dense", "config": {"name": "dense_54", "trainable": true, "dtype": "float32", "units": 50, "activation": "relu", "use_bias": true, "kernel_initializer": {"class_name": "VarianceScaling", "config": {"scale": 1.0, "mode": "fan_avg", "distribution": "uniform", "seed": null}}, "bias_initializer": {"class_name": "Zeros", "config": {}}, "kernel_regularizer": null, "bias_regularizer": null, "activity_regularizer": null, "kernel_constraint": null, "bias_constraint": null}, "inbound_nodes": [[["input_54", 0, 0, {}]]]}, {"name": "concatenate_1", "class_name": "Concatenate", "config": {"name": "concatenate_1", "trainable": true, "dtype": "float32", "axis": -1}, "inbound_nodes": [[["dense_8", 0, 0, {}], ["dense_15", 0, 0, {}]]]}, {"name": "concatenate_3", "class_name": "Concatenate", "config": {"name": "concatenate_3", "trainable": true, "dtype": "float32", "axis": -1}, "inbound_nodes": [[["dense_18", 0, 0, {}], ["dense_6", 0, 0, {}]]]}, {"name": "concatenate_7", "class_name": "Concatenate", "config": {"name": "concatenate_7", "trainable": true, "dtype": "float32", "axis": -1}, "inbound_nodes": [[["dense_6", 0, 0, {}], ["dense_6", 0, 0, {}]]]}, {"name": "concatenate_9", "class_name": "Concatenate", "config": {"name": "concatenate_9", "trainable": true, "dtype": "float32", "axis": -1}, "inbound_nodes": [[["dense_6", 0, 0, {}], ["dense_7", 0, 0, {}]]]}, {"name": "input_24", "class_name": "InputLayer", "config": {"batch_input_shape": [null, 1], "dtype": "float32", "sparse": false, "name": "input_24"}, "inbound_nodes": []}, {"name": "input_53", "class_name": "InputLayer", "config": {"batch_input_shape": [null, 1], "dtype": "float32", "sparse": false, "name": "input_53"}, "inbound_nodes": []}, {"name": "concatenate_16", "class_name": "Concatenate", "config": {"name": "concatenate_16", "trainable": true, "dtype": "float32", "axis": -1}, "inbound_nodes": [[["dense_9", 0, 0, {}], ["dense_30", 0, 0, {}]]]}, {"name": "concatenate_20", "class_name": "Concatenate", "config": {"name": "concatenate_20", "trainable": true, "dtype": "float32", "axis": -1}, "inbound_nodes": [[["dense_3", 0, 0, {}], ["dense_1", 0, 0, {}]]]}, {"name": "concatenate_22", "class_name": "Concatenate", "config": {"name": "concatenate_22", "trainable": true, "dtype": "float32", "axis": -1}, "inbound_nodes": [[["dense_3", 0, 0, {}], ["dense_9", 0, 0, {}]]]}, {"name": "concatenate_30", "class_name": "Concatenate", "config": {"name": "concatenate_30", "trainable": true, "dtype": "float32", "axis": -1}, "inbound_nodes": [[["dense_6", 0, 0, {}], ["dense_3", 0, 0, {}]]]}, {"name": "concatenate_32", "class_name": "Concatenate", "config": {"name": "concatenate_32", "trainable": true, "dtype": "float32", "axis": -1}, "inbound_nodes": [[["dense_1", 0, 0, {}], ["dense_6", 0, 0, {}]]]}, {"name": "concatenate_36", "class_name": "Concatenate", "config": {"name": "concatenate_36", "trainable": true, "dtype": "float32", "axis": -1}, "inbound_nodes": [[["dense_9", 0, 0, {}], ["dense_7", 0, 0, {}]]]}, {"name": "concatenate_38", "class_name": "Concatenate", "config": {"name": "concatenate_38", "trainable": true, "dtype": "float32", "axis": -1}, "inbound_nodes": [[["dense_1", 0, 0, {}], ["dense_30", 0, 0, {}]]]}, {"name": "concatenate_60", "class_name": "Concatenate", "config": {"name": "concatenate_60", "trainable": true, "dtype": "float32", "axis": -1}, "inbound_nodes": [[["dense_1", 0, 0, {}], ["dense_10", 0, 0, {}]]]}, {"name": "concatenate_62", "class_name": "Concatenate", "config": {"name": "concatenate_62", "trainable": true, "dtype": "float32", "axis": -1}, "inbound_nodes": [[["dense_6", 0, 0, {}], ["dense_1", 0, 0, {}]]]}, {"name": "concatenate_90", "class_name": "Concatenate", "config": {"name": "concatenate_90", "trainable": true, "dtype": "float32", "axis": -1}, "inbound_nodes": [[["dense_2", 0, 0, {}], ["dense_6", 0, 0, {}]]]}, {"name": "concatenate_92", "class_name": "Concatenate", "config": {"name": "concatenate_92", "trainable": true, "dtype": "float32", "axis": -1}, "inbound_nodes": [[["dense_7", 0, 0, {}], ["dense_4", 0, 0, {}]]]}, {"name": "concatenate_96", "class_name": "Concatenate", "config": {"name": "concatenate_96", "trainable": true, "dtype": "float32", "axis": -1}, "inbound_nodes": [[["dense_3", 0, 0, {}], ["dense_1", 0, 0, {}]]]}, {"name": "concatenate_98", "class_name": "Concatenate", "config": {"name": "concatenate_98", "trainable": true, "dtype": "float32", "axis": -1}, "inbound_nodes": [[["dense_10", 0, 0, {}], ["dense_10", 0, 0, {}]]]}, {"name": "concatenate_104", "class_name": "Concatenate", "config": {"name": "concatenate_104", "trainable": true, "dtype": "float32", "axis": -1}, "inbound_nodes": [[["dense_20", 0, 0, {}], ["dense_6", 0, 0, {}]]]}, {"name": "concatenate_106", "class_name": "Concatenate", "config": {"name": "concatenate_106", "trainable": true, "dtype": "float32", "axis": -1}, "inbound_nodes": [[["dense_10", 0, 0, {}], ["dense_5", 0, 0, {}]]]}, {"name": "concatenate_110", "class_name": "Concatenate", "config": {"name": "concatenate_110", "trainable": true, "dtype": "float32", "axis": -1}, "inbound_nodes": [[["dense_5", 0, 0, {}], ["dense_6", 0, 0, {}]]]}, {"name": "concatenate_119", "class_name": "Concatenate", "config": {"name": "concatenate_119", "trainable": true, "dtype": "float32", "axis": -1}, "inbound_nodes": [[["dense_10", 0, 0, {}], ["dense_1", 0, 0, {}]]]}, {"name": "concatenate_121", "class_name": "Concatenate", "config": {"name": "concatenate_121", "trainable": true, "dtype": "float32", "axis": -1}, "inbound_nodes": [[["dense_6", 0, 0, {}], ["dense_5", 0, 0, {}]]]}, {"name": "concatenate_125", "class_name": "Concatenate", "config": {"name": "concatenate_125", "trainable": true, "dtype": "float32", "axis": -1}, "inbound_nodes": [[["dense_4", 0, 0, {}], ["dense_10", 0, 0, {}]]]}, {"name": "concatenate_132", "class_name": "Concatenate", "config": {"name": "concatenate_132", "trainable": true, "dtype": "float32", "axis": -1}, "inbound_nodes": [[["dense_10", 0, 0, {}], ["dense_5", 0, 0, {}]]]}, {"name": "concatenate_134", "class_name": "Concatenate", "config": {"name": "concatenate_134", "trainable": true, "dtype": "float32", "axis": -1}, "inbound_nodes": [[["dense_5", 0, 0, {}], ["dense_1", 0, 0, {}]]]}, {"name": "concatenate_158", "class_name": "Concatenate", "config": {"name": "concatenate_158", "trainable": true, "dtype": "float32", "axis": -1}, "inbound_nodes": [[["dense_17", 0, 0, {}], ["dense_4", 0, 0, {}]]]}, {"name": "concatenate_160", "class_name": "Concatenate", "config": {"name": "concatenate_160", "trainable": true, "dtype": "float32", "axis": -1}, "inbound_nodes": [[["dense_25", 0, 0, {}], ["dense_7", 0, 0, {}]]]}, {"name": "concatenate_164", "class_name": "Concatenate", "config": {"name": "concatenate_164", "trainable": true, "dtype": "float32", "axis": -1}, "inbound_nodes": [[["dense_34", 0, 0, {}], ["dense_6", 0, 0, {}]]]}, {"name": "input_36", "class_name": "InputLayer", "config": {"batch_input_shape": [null, 1], "dtype": "float32", "sparse": false, "name": "input_36"}, "inbound_nodes": []}, {"name": "concatenate_166", "class_name": "Concatenate", "config": {"name": "concatenate_166", "trainable": true, "dtype": "float32", "axis": -1}, "inbound_nodes": [[["dense_1", 0, 0, {}], ["dense_6", 0, 0, {}]]]}, {"name": "concatenate_172", "class_name": "Concatenate", "config": {"name": "concatenate_172", "trainable": true, "dtype": "float32", "axis": -1}, "inbound_nodes": [[["dense_8", 0, 0, {}], ["dense_10", 0, 0, {}]]]}, {"name": "concatenate_174", "class_name": "Concatenate", "config": {"name": "concatenate_174", "trainable": true, "dtype": "float32", "axis": -1}, "inbound_nodes": [[["dense_7", 0, 0, {}], ["dense_5", 0, 0, {}]]]}, {"name": "concatenate_178", "class_name": "Concatenate", "config": {"name": "concatenate_178", "trainable": true, "dtype": "float32", "axis": -1}, "inbound_nodes": [[["dense_23", 0, 0, {}], ["dense_6", 0, 0, {}]]]}, {"name": "concatenate_180", "class_name": "Concatenate", "config": {"name": "concatenate_180", "trainable": true, "dtype": "float32", "axis": -1}, "inbound_nodes": [[["dense_1", 0, 0, {}], ["dense_5", 0, 0, {}]]]}, {"name": "concatenate_188", "class_name": "Concatenate", "config": {"name": "concatenate_188", "trainable": true, "dtype": "float32", "axis": -1}, "inbound_nodes": [[["dense_6", 0, 0, {}], ["dense_6", 0, 0, {}]]]}, {"name": "concatenate_190", "class_name": "Concatenate", "config": {"name": "concatenate_190", "trainable": true, "dtype": "float32", "axis": -1}, "inbound_nodes": [[["dense_6", 0, 0, {}], ["dense_10", 0, 0, {}]]]}, {"name": "concatenate_194", "class_name": "Concatenate", "config": {"name": "concatenate_194", "trainable": true, "dtype": "float32", "axis": -1}, "inbound_nodes": [[["dense_1", 0, 0, {}], ["dense_10", 0, 0, {}]]]}, {"name": "concatenate_196", "class_name": "Concatenate", "config": {"name": "concatenate_196", "trainable": true, "dtype": "float32", "axis": -1}, "inbound_nodes": [[["dense_10", 0, 0, {}], ["dense_1", 0, 0, {}]]]}, {"name": "concatenate_202", "class_name": "Concatenate", "config": {"name": "concatenate_202", "trainable": true, "dtype": "float32", "axis": -1}, "inbound_nodes": [[["dense_10", 0, 0, {}], ["dense_5", 0, 0, {}]]]}, {"name": "concatenate_204", "class_name": "Concatenate", "config": {"name": "concatenate_204", "trainable": true, "dtype": "float32", "axis": -1}, "inbound_nodes": [[["dense_38", 0, 0, {}], ["dense_6", 0, 0, {}]]]}, {"name": "concatenate_208", "class_name": "Concatenate", "config": {"name": "concatenate_208", "trainable": true, "dtype": "float32", "axis": -1}, "inbound_nodes": [[["dense_5", 0, 0, {}], ["dense_10", 0, 0, {}]]]}, {"name": "concatenate_210", "class_name": "Concatenate", "config": {"name": "concatenate_210", "trainable": true, "dtype": "float32", "axis": -1}, "inbound_nodes": [[["dense_13", 0, 0, {}], ["dense_6", 0, 0, {}]]]}, {"name": "concatenate_220", "class_name": "Concatenate", "config": {"name": "concatenate_220", "trainable": true, "dtype": "float32", "axis": -1}, "inbound_nodes": [[["dense_3", 0, 0, {}], ["dense_1", 0, 0, {}]]]}, {"name": "concatenate_222", "class_name": "Concatenate", "config": {"name": "concatenate_222", "trainable": true, "dtype": "float32", "axis": -1}, "inbound_nodes": [[["dense_9", 0, 0, {}], ["dense_3", 0, 0, {}]]]}, {"name": "concatenate_226", "class_name": "Concatenate", "config": {"name": "concatenate_226", "trainable": true, "dtype": "float32", "axis": -1}, "inbound_nodes": [[["dense_1", 0, 0, {}], ["dense_2", 0, 0, {}]]]}, {"name": "concatenate_232", "class_name": "Concatenate", "config": {"name": "concatenate_232", "trainable": true, "dtype": "float32", "axis": -1}, "inbound_nodes": [[["dense_10", 0, 0, {}], ["dense_1", 0, 0, {}]]]}, {"name": "concatenate_234", "class_name": "Concatenate", "config": {"name": "concatenate_234", "trainable": true, "dtype": "float32", "axis": -1}, "inbound_nodes": [[["dense_4", 0, 0, {}], ["dense_5", 0, 0, {}]]]}, {"name": "concatenate_238", "class_name": "Concatenate", "config": {"name": "concatenate_238", "trainable": true, "dtype": "float32", "axis": -1}, "inbound_nodes": [[["dense_10", 0, 0, {}], ["dense_5", 0, 0, {}]]]}, {"name": "concatenate_247", "class_name": "Concatenate", "config": {"name": "concatenate_247", "trainable": true, "dtype": "float32", "axis": -1}, "inbound_nodes": [[["dense_6", 0, 0, {}], ["dense_6", 0, 0, {}]]]}, {"name": "concatenate_252", "class_name": "Concatenate", "config": {"name": "concatenate_252", "trainable": true, "dtype": "float32", "axis": -1}, "inbound_nodes": [[["dense_1", 0, 0, {}], ["dense_6", 0, 0, {}]]]}, {"name": "concatenate_254", "class_name": "Concatenate", "config": {"name": "concatenate_254", "trainable": true, "dtype": "float32", "axis": -1}, "inbound_nodes": [[["dense_4", 0, 0, {}], ["dense_6", 0, 0, {}]]]}, {"name": "concatenate_284", "class_name": "Concatenate", "config": {"name": "concatenate_284", "trainable": true, "dtype": "float32", "axis": -1}, "inbound_nodes": [[["dense_8", 0, 0, {}], ["dense_5", 0, 0, {}]]]}, {"name": "concatenate_286", "class_name": "Concatenate", "config": {"name": "concatenate_286", "trainable": true, "dtype": "float32", "axis": -1}, "inbound_nodes": [[["dense_3", 0, 0, {}], ["dense_4", 0, 0, {}]]]}, {"name": "concatenate_290", "class_name": "Concatenate", "config": {"name": "concatenate_290", "trainable": true, "dtype": "float32", "axis": -1}, "inbound_nodes": [[["dense_8", 0, 0, {}], ["dense_5", 0, 0, {}]]]}, {"name": "concatenate_292", "class_name": "Concatenate", "config": {"name": "concatenate_292", "trainable": true, "dtype": "float32", "axis": -1}, "inbound_nodes": [[["dense_4", 0, 0, {}], ["dense_4", 0, 0, {}]]]}, {"name": "concatenate_299", "class_name": "Concatenate", "config": {"name": "concatenate_299", "trainable": true, "dtype": "float32", "axis": -1}, "inbound_nodes": [[["dense_7", 0, 0, {}], ["dense_2", 0, 0, {}]]]}, {"name": "concatenate_304", "class_name": "Concatenate", "config": {"name": "concatenate_304", "trainable": true, "dtype": "float32", "axis": -1}, "inbound_nodes": [[["dense_3", 0, 0, {}], ["dense_10", 0, 0, {}]]]}, {"name": "concatenate_321", "class_name": "Concatenate", "config": {"name": "concatenate_321", "trainable": true, "dtype": "float32", "axis": -1}, "inbound_nodes": [[["dense_3", 0, 0, {}], ["dense_6", 0, 0, {}]]]}, {"name": "concatenate_323", "class_name": "Concatenate", "config": {"name": "concatenate_323", "trainable": true, "dtype": "float32", "axis": -1}, "inbound_nodes": [[["dense_4", 0, 0, {}], ["dense_8", 0, 0, {}]]]}, {"name": "concatenate_331", "class_name": "Concatenate", "config": {"name": "concatenate_331", "trainable": true, "dtype": "float32", "axis": -1}, "inbound_nodes": [[["dense_2", 0, 0, {}], ["dense_5", 0, 0, {}]]]}, {"name": "concatenate_333", "class_name": "Concatenate", "config": {"name": "concatenate_333", "trainable": true, "dtype": "float32", "axis": -1}, "inbound_nodes": [[["dense_2", 0, 0, {}], ["dense_6", 0, 0, {}]]]}, {"name": "concatenate_342", "class_name": "Concatenate", "config": {"name": "concatenate_342", "trainable": true, "dtype": "float32", "axis": -1}, "inbound_nodes": [[["dense_9", 0, 0, {}], ["dense_4", 0, 0, {}]]]}, {"name": "concatenate_344", "class_name": "Concatenate", "config": {"name": "concatenate_344", "trainable": true, "dtype": "float32", "axis": -1}, "inbound_nodes": [[["dense_6", 0, 0, {}], ["dense_4", 0, 0, {}]]]}, {"name": "concatenate_363", "class_name": "Concatenate", "config": {"name": "concatenate_363", "trainable": true, "dtype": "float32", "axis": -1}, "inbound_nodes": [[["dense_10", 0, 0, {}], ["dense_10", 0, 0, {}]]]}, {"name": "input_45", "class_name": "InputLayer", "config": {"batch_input_shape": [null, 1], "dtype": "float32", "sparse": false, "name": "input_45"}, "inbound_nodes": []}, {"name": "concatenate_365", "class_name": "Concatenate", "config": {"name": "concatenate_365", "trainable": true, "dtype": "float32", "axis": -1}, "inbound_nodes": [[["dense_10", 0, 0, {}], ["dense_6", 0, 0, {}]]]}, {"name": "concatenate_369", "class_name": "Concatenate", "config": {"name": "concatenate_369", "trainable": true, "dtype": "float32", "axis": -1}, "inbound_nodes": [[["dense_6", 0, 0, {}], ["dense_10", 0, 0, {}]]]}, {"name": "concatenate_371", "class_name": "Concatenate", "config": {"name": "concatenate_371", "trainable": true, "dtype": "float32", "axis": -1}, "inbound_nodes": [[["dense_6", 0, 0, {}], ["dense_9", 0, 0, {}]]]}, {"name": "concatenate_379", "class_name": "Concatenate", "config": {"name": "concatenate_379", "trainable": true, "dtype": "float32", "axis": -1}, "inbound_nodes": [[["dense_8", 0, 0, {}], ["dense_10", 0, 0, {}]]]}, {"name": "concatenate_381", "class_name": "Concatenate", "config": {"name": "concatenate_381", "trainable": true, "dtype": "float32", "axis": -1}, "inbound_nodes": [[["dense_6", 0, 0, {}], ["dense_6", 0, 0, {}]]]}, {"name": "concatenate_385", "class_name": "Concatenate", "config": {"name": "concatenate_385", "trainable": true, "dtype": "float32", "axis": -1}, "inbound_nodes": [[["dense_6", 0, 0, {}], ["dense_6", 0, 0, {}]]]}, {"name": "concatenate_387", "class_name": "Concatenate", "config": {"name": "concatenate_387", "trainable": true, "dtype": "float32", "axis": -1}, "inbound_nodes": [[["dense_9", 0, 0, {}], ["dense_8", 0, 0, {}]]]}, {"name": "concatenate_404", "class_name": "Concatenate", "config": {"name": "concatenate_404", "trainable": true, "dtype": "float32", "axis": -1}, "inbound_nodes": [[["dense_43", 0, 0, {}], ["dense_10", 0, 0, {}]]]}, {"name": "concatenate_406", "class_name": "Concatenate", "config": {"name": "concatenate_406", "trainable": true, "dtype": "float32", "axis": -1}, "inbound_nodes": [[["dense_10", 0, 0, {}], ["dense_5", 0, 0, {}]]]}, {"name": "concatenate_410", "class_name": "Concatenate", "config": {"name": "concatenate_410", "trainable": true, "dtype": "float32", "axis": -1}, "inbound_nodes": [[["dense_4", 0, 0, {}], ["dense_10", 0, 0, {}]]]}, {"name": "concatenate_412", "class_name": "Concatenate", "config": {"name": "concatenate_412", "trainable": true, "dtype": "float32", "axis": -1}, "inbound_nodes": [[["dense_4", 0, 0, {}], ["dense_9", 0, 0, {}]]]}, {"name": "concatenate_421", "class_name": "Concatenate", "config": {"name": "concatenate_421", "trainable": true, "dtype": "float32", "axis": -1}, "inbound_nodes": [[["dense_5", 0, 0, {}], ["dense_10", 0, 0, {}]]]}, {"name": "concatenate_430", "class_name": "Concatenate", "config": {"name": "concatenate_430", "trainable": true, "dtype": "float32", "axis": -1}, "inbound_nodes": [[["dense_46", 0, 0, {}], ["dense_49", 0, 0, {}]]]}, {"name": "concatenate_432", "class_name": "Concatenate", "config": {"name": "concatenate_432", "trainable": true, "dtype": "float32", "axis": -1}, "inbound_nodes": [[["dense_10", 0, 0, {}], ["dense_6", 0, 0, {}]]]}, {"name": "input_52", "class_name": "InputLayer", "config": {"batch_input_shape": [null, 1], "dtype": "float32", "sparse": false, "name": "input_52"}, "inbound_nodes": []}, {"name": "concatenate_436", "class_name": "Concatenate", "config": {"name": "concatenate_436", "trainable": true, "dtype": "float32", "axis": -1}, "inbound_nodes": [[["dense_5", 0, 0, {}], ["dense_10", 0, 0, {}]]]}, {"name": "concatenate_438", "class_name": "Concatenate", "config": {"name": "concatenate_438", "trainable": true, "dtype": "float32", "axis": -1}, "inbound_nodes": [[["dense_1", 0, 0, {}], ["dense_10", 0, 0, {}]]]}, {"name": "concatenate_444", "class_name": "Concatenate", "config": {"name": "concatenate_444", "trainable": true, "dtype": "float32", "axis": -1}, "inbound_nodes": [[["dense_4", 0, 0, {}], ["dense_9", 0, 0, {}]]]}, {"name": "concatenate_446", "class_name": "Concatenate", "config": {"name": "concatenate_446", "trainable": true, "dtype": "float32", "axis": -1}, "inbound_nodes": [[["dense_1", 0, 0, {}], ["dense_6", 0, 0, {}]]]}, {"name": "concatenate_450", "class_name": "Concatenate", "config": {"name": "concatenate_450", "trainable": true, "dtype": "float32", "axis": -1}, "inbound_nodes": [[["dense_1", 0, 0, {}], ["dense_7", 0, 0, {}]]]}, {"name": "concatenate_452", "class_name": "Concatenate", "config": {"name": "concatenate_452", "trainable": true, "dtype": "float32", "axis": -1}, "inbound_nodes": [[["dense_3", 0, 0, {}], ["dense_5", 0, 0, {}]]]}, {"name": "concatenate_464", "class_name": "Concatenate", "config": {"name": "concatenate_464", "trainable": true, "dtype": "float32", "axis": -1}, "inbound_nodes": [[["dense_10", 0, 0, {}], ["dense_43", 0, 0, {}]]]}, {"name": "concatenate_466", "class_name": "Concatenate", "config": {"name": "concatenate_466", "trainable": true, "dtype": "float32", "axis": -1}, "inbound_nodes": [[["dense_3", 0, 0, {}], ["dense_10", 0, 0, {}]]]}, {"name": "concatenate_470", "class_name": "Concatenate", "config": {"name": "concatenate_470", "trainable": true, "dtype": "float32", "axis": -1}, "inbound_nodes": [[["dense_1", 0, 0, {}], ["dense_6", 0, 0, {}]]]}, {"name": "concatenate_478", "class_name": "Concatenate", "config": {"name": "concatenate_478", "trainable": true, "dtype": "float32", "axis": -1}, "inbound_nodes": [[["dense_6", 0, 0, {}], ["dense_4", 0, 0, {}]]]}, {"name": "concatenate_486", "class_name": "Concatenate", "config": {"name": "concatenate_486", "trainable": true, "dtype": "float32", "axis": -1}, "inbound_nodes": [[["dense_7", 0, 0, {}], ["dense_5", 0, 0, {}]]]}, {"name": "concatenate_488", "class_name": "Concatenate", "config": {"name": "concatenate_488", "trainable": true, "dtype": "float32", "axis": -1}, "inbound_nodes": [[["dense_10", 0, 0, {}], ["dense_10", 0, 0, {}]]]}, {"name": "concatenate_492", "class_name": "Concatenate", "config": {"name": "concatenate_492", "trainable": true, "dtype": "float32", "axis": -1}, "inbound_nodes": [[["dense_46", 0, 0, {}], ["dense_13", 0, 0, {}]]]}, {"name": "concatenate_494", "class_name": "Concatenate", "config": {"name": "concatenate_494", "trainable": true, "dtype": "float32", "axis": -1}, "inbound_nodes": [[["dense_11", 0, 0, {}], ["dense_6", 0, 0, {}]]]}, {"name": "concatenate_501", "class_name": "Concatenate", "config": {"name": "concatenate_501", "trainable": true, "dtype": "float32", "axis": -1}, "inbound_nodes": [[["dense_5", 0, 0, {}], ["dense_6", 0, 0, {}]]]}, {"name": "concatenate_505", "class_name": "Concatenate", "config": {"name": "concatenate_505", "trainable": true, "dtype": "float32", "axis": -1}, "inbound_nodes": [[["dense_10", 0, 0, {}], ["dense_8", 0, 0, {}]]]}, {"name": "concatenate_507", "class_name": "Concatenate", "config": {"name": "concatenate_507", "trainable": true, "dtype": "float32", "axis": -1}, "inbound_nodes": [[["dense_6", 0, 0, {}], ["dense_6", 0, 0, {}]]]}, {"name": "concatenate_517", "class_name": "Concatenate", "config": {"name": "concatenate_517", "trainable": true, "dtype": "float32", "axis": -1}, "inbound_nodes": [[["dense_44", 0, 0, {}], ["dense_10", 0, 0, {}]]]}, {"name": "concatenate_521", "class_name": "Concatenate", "config": {"name": "concatenate_521", "trainable": true, "dtype": "float32", "axis": -1}, "inbound_nodes": [[["dense_2", 0, 0, {}], ["dense_6", 0, 0, {}]]]}, {"name": "concatenate_527", "class_name": "Concatenate", "config": {"name": "concatenate_527", "trainable": true, "dtype": "float32", "axis": -1}, "inbound_nodes": [[["dense_4", 0, 0, {}], ["dense_10", 0, 0, {}]]]}, {"name": "concatenate_529", "class_name": "Concatenate", "config": {"name": "concatenate_529", "trainable": true, "dtype": "float32", "axis": -1}, "inbound_nodes": [[["dense_27", 0, 0, {}], ["dense_10", 0, 0, {}]]]}, {"name": "concatenate_533", "class_name": "Concatenate", "config": {"name": "concatenate_533", "trainable": true, "dtype": "float32", "axis": -1}, "inbound_nodes": [[["dense_6", 0, 0, {}], ["dense_6", 0, 0, {}]]]}, {"name": "concatenate_535", "class_name": "Concatenate", "config": {"name": "concatenate_535", "trainable": true, "dtype": "float32", "axis": -1}, "inbound_nodes": [[["dense_6", 0, 0, {}], ["dense_10", 0, 0, {}]]]}, {"name": "concatenate_543", "class_name": "Concatenate", "config": {"name": "concatenate_543", "trainable": true, "dtype": "float32", "axis": -1}, "inbound_nodes": [[["dense_10", 0, 0, {}], ["dense_10", 0, 0, {}]]]}, {"name": "concatenate_545", "class_name": "Concatenate", "config": {"name": "concatenate_545", "trainable": true, "dtype": "float32", "axis": -1}, "inbound_nodes": [[["dense_1", 0, 0, {}], ["dense_7", 0, 0, {}]]]}, {"name": "concatenate_549", "class_name": "Concatenate", "config": {"name": "concatenate_549", "trainable": true, "dtype": "float32", "axis": -1}, "inbound_nodes": [[["dense_4", 0, 0, {}], ["dense_6", 0, 0, {}]]]}, {"name": "concatenate_551", "class_name": "Concatenate", "config": {"name": "concatenate_551", "trainable": true, "dtype": "float32", "axis": -1}, "inbound_nodes": [[["dense_6", 0, 0, {}], ["dense_5", 0, 0, {}]]]}, {"name": "concatenate_586", "class_name": "Concatenate", "config": {"name": "concatenate_586", "trainable": true, "dtype": "float32", "axis": -1}, "inbound_nodes": [[["dense_3", 0, 0, {}], ["dense_1", 0, 0, {}]]]}, {"name": "concatenate_602", "class_name": "Concatenate", "config": {"name": "concatenate_602", "trainable": true, "dtype": "float32", "axis": -1}, "inbound_nodes": [[["dense_5", 0, 0, {}], ["dense_4", 0, 0, {}]]]}, {"name": "concatenate_604", "class_name": "Concatenate", "config": {"name": "concatenate_604", "trainable": true, "dtype": "float32", "axis": -1}, "inbound_nodes": [[["dense_5", 0, 0, {}], ["dense_3", 0, 0, {}]]]}, {"name": "concatenate_608", "class_name": "Concatenate", "config": {"name": "concatenate_608", "trainable": true, "dtype": "float32", "axis": -1}, "inbound_nodes": [[["dense_1", 0, 0, {}], ["dense_6", 0, 0, {}]]]}, {"name": "concatenate_610", "class_name": "Concatenate", "config": {"name": "concatenate_610", "trainable": true, "dtype": "float32", "axis": -1}, "inbound_nodes": [[["dense_1", 0, 0, {}], ["dense_6", 0, 0, {}]]]}, {"name": "concatenate_620", "class_name": "Concatenate", "config": {"name": "concatenate_620", "trainable": true, "dtype": "float32", "axis": -1}, "inbound_nodes": [[["dense_5", 0, 0, {}], ["dense_7", 0, 0, {}]]]}, {"name": "concatenate_622", "class_name": "Concatenate", "config": {"name": "concatenate_622", "trainable": true, "dtype": "float32", "axis": -1}, "inbound_nodes": [[["dense_6", 0, 0, {}], ["dense_10", 0, 0, {}]]]}, {"name": "concatenate_626", "class_name": "Concatenate", "config": {"name": "concatenate_626", "trainable": true, "dtype": "float32", "axis": -1}, "inbound_nodes": [[["dense_4", 0, 0, {}], ["dense_2", 0, 0, {}]]]}, {"name": "concatenate_638", "class_name": "Concatenate", "config": {"name": "concatenate_638", "trainable": true, "dtype": "float32", "axis": -1}, "inbound_nodes": [[["dense_6", 0, 0, {}], ["dense_10", 0, 0, {}]]]}, {"name": "concatenate_643", "class_name": "Concatenate", "config": {"name": "concatenate_643", "trainable": true, "dtype": "float32", "axis": -1}, "inbound_nodes": [[["dense_38", 0, 0, {}], ["dense_5", 0, 0, {}]]]}, {"name": "concatenate_645", "class_name": "Concatenate", "config": {"name": "concatenate_645", "trainable": true, "dtype": "float32", "axis": -1}, "inbound_nodes": [[["dense_37", 0, 0, {}], ["dense_10", 0, 0, {}]]]}, {"name": "concatenate_661", "class_name": "Concatenate", "config": {"name": "concatenate_661", "trainable": true, "dtype": "float32", "axis": -1}, "inbound_nodes": [[["dense_54", 0, 0, {}], ["dense_6", 0, 0, {}]]]}, {"name": "concatenate_663", "class_name": "Concatenate", "config": {"name": "concatenate_663", "trainable": true, "dtype": "float32", "axis": -1}, "inbound_nodes": [[["dense_4", 0, 0, {}], ["dense_4", 0, 0, {}]]]}, {"name": "concatenate_667", "class_name": "Concatenate", "config": {"name": "concatenate_667", "trainable": true, "dtype": "float32", "axis": -1}, "inbound_nodes": [[["dense_2", 0, 0, {}], ["dense_47", 0, 0, {}]]]}, {"name": "concatenate_669", "class_name": "Concatenate", "config": {"name": "concatenate_669", "trainable": true, "dtype": "float32", "axis": -1}, "inbound_nodes": [[["dense_10", 0, 0, {}], ["dense_4", 0, 0, {}]]]}, {"name": "concatenate_678", "class_name": "Concatenate", "config": {"name": "concatenate_678", "trainable": true, "dtype": "float32", "axis": -1}, "inbound_nodes": [[["dense_8", 0, 0, {}], ["dense_2", 0, 0, {}]]]}, {"name": "concatenate_692", "class_name": "Concatenate", "config": {"name": "concatenate_692", "trainable": true, "dtype": "float32", "axis": -1}, "inbound_nodes": [[["dense_47", 0, 0, {}], ["dense_1", 0, 0, {}]]]}, {"name": "concatenate_718", "class_name": "Concatenate", "config": {"name": "concatenate_718", "trainable": true, "dtype": "float32", "axis": -1}, "inbound_nodes": [[["dense_4", 0, 0, {}], ["dense_9", 0, 0, {}]]]}, {"name": "concatenate_720", "class_name": "Concatenate", "config": {"name": "concatenate_720", "trainable": true, "dtype": "float32", "axis": -1}, "inbound_nodes": [[["dense_1", 0, 0, {}], ["dense_10", 0, 0, {}]]]}, {"name": "concatenate_724", "class_name": "Concatenate", "config": {"name": "concatenate_724", "trainable": true, "dtype": "float32", "axis": -1}, "inbound_nodes": [[["dense_10", 0, 0, {}], ["dense_10", 0, 0, {}]]]}, {"name": "concatenate_726", "class_name": "Concatenate", "config": {"name": "concatenate_726", "trainable": true, "dtype": "float32", "axis": -1}, "inbound_nodes": [[["dense_1", 0, 0, {}], ["dense_5", 0, 0, {}]]]}, {"name": "dense_55", "class_name": "Dense", "config": {"name": "dense_55", "trainable": true, "dtype": "float32", "units": 100, "activation": "relu", "use_bias": true, "kernel_initializer": {"class_name": "VarianceScaling", "config": {"scale": 1.0, "mode": "fan_avg", "distribution": "uniform", "seed": null}}, "bias_initializer": {"class_name": "Zeros", "config": {}}, "kernel_regularizer": null, "bias_regularizer": null, "activity_regularizer": null, "kernel_constraint": null, "bias_constraint": null}, "inbound_nodes": [[["concatenate_1", 0, 0, {}]]]}, {"name": "dense_57", "class_name": "Dense", "config": {"name": "dense_57", "trainable": true, "dtype": "float32", "units": 100, "activation": "relu", "use_bias": true, "kernel_initializer": {"class_name": "VarianceScaling", "config": {"scale": 1.0, "mode": "fan_avg", "distribution": "uniform", "seed": null}}, "bias_initializer": {"class_name": "Zeros", "config": {}}, "kernel_regularizer": null, "bias_regularizer": null, "activity_regularizer": null, "kernel_constraint": null, "bias_constraint": null}, "inbound_nodes": [[["concatenate_3", 0, 0, {}]]]}, {"name": "dense_61", "class_name": "Dense", "config": {"name": "dense_61", "trainable": true, "dtype": "float32", "units": 100, "activation": "relu", "use_bias": true, "kernel_initializer": {"class_name": "VarianceScaling", "config": {"scale": 1.0, "mode": "fan_avg", "distribution": "uniform", "seed": null}}, "bias_initializer": {"class_name": "Zeros", "config": {}}, "kernel_regularizer": null, "bias_regularizer": null, "activity_regularizer": null, "kernel_constraint": null, "bias_constraint": null}, "inbound_nodes": [[["concatenate_7", 0, 0, {}]]]}, {"name": "dense_63", "class_name": "Dense", "config": {"name": "dense_63", "trainable": true, "dtype": "float32", "units": 100, "activation": "relu", "use_bias": true, "kernel_initializer": {"class_name": "VarianceScaling", "config": {"scale": 1.0, "mode": "fan_avg", "distribution": "uniform", "seed": null}}, "bias_initializer": {"class_name": "Zeros", "config": {}}, "kernel_regularizer": null, "bias_regularizer": null, "activity_regularizer": null, "kernel_constraint": null, "bias_constraint": null}, "inbound_nodes": [[["concatenate_9", 0, 0, {}]]]}, {"name": "dense_24", "class_name": "Dense", "config": {"name": "dense_24", "trainable": true, "dtype": "float32", "units": 50, "activation": "relu", "use_bias": true, "kernel_initializer": {"class_name": "VarianceScaling", "config": {"scale": 1.0, "mode": "fan_avg", "distribution": "uniform", "seed": null}}, "bias_initializer": {"class_name": "Zeros", "config": {}}, "kernel_regularizer": null, "bias_regularizer": null, "activity_regularizer": null, "kernel_constraint": null, "bias_constraint": null}, "inbound_nodes": [[["input_24", 0, 0, {}]]]}, {"name": "dense_53", "class_name": "Dense", "config": {"name": "dense_53", "trainable": true, "dtype": "float32", "units": 50, "activation": "relu", "use_bias": true, "kernel_initializer": {"class_name": "VarianceScaling", "config": {"scale": 1.0, "mode": "fan_avg", "distribution": "uniform", "seed": null}}, "bias_initializer": {"class_name": "Zeros", "config": {}}, "kernel_regularizer": null, "bias_regularizer": null, "activity_regularizer": null, "kernel_constraint": null, "bias_constraint": null}, "inbound_nodes": [[["input_53", 0, 0, {}]]]}, {"name": "dense_70", "class_name": "Dense", "config": {"name": "dense_70", "trainable": true, "dtype": "float32", "units": 100, "activation": "relu", "use_bias": true, "kernel_initializer": {"class_name": "VarianceScaling", "config": {"scale": 1.0, "mode": "fan_avg", "distribution": "uniform", "seed": null}}, "bias_initializer": {"class_name": "Zeros", "config": {}}, "kernel_regularizer": null, "bias_regularizer": null, "activity_regularizer": null, "kernel_constraint": null, "bias_constraint": null}, "inbound_nodes": [[["concatenate_16", 0, 0, {}]]]}, {"name": "dense_74", "class_name": "Dense", "config": {"name": "dense_74", "trainable": true, "dtype": "float32", "units": 100, "activation": "relu", "use_bias": true, "kernel_initializer": {"class_name": "VarianceScaling", "config": {"scale": 1.0, "mode": "fan_avg", "distribution": "uniform", "seed": null}}, "bias_initializer": {"class_name": "Zeros", "config": {}}, "kernel_regularizer": null, "bias_regularizer": null, "activity_regularizer": null, "kernel_constraint": null, "bias_constraint": null}, "inbound_nodes": [[["concatenate_20", 0, 0, {}]]]}, {"name": "dense_76", "class_name": "Dense", "config": {"name": "dense_76", "trainable": true, "dtype": "float32", "units": 100, "activation": "relu", "use_bias": true, "kernel_initializer": {"class_name": "VarianceScaling", "config": {"scale": 1.0, "mode": "fan_avg", "distribution": "uniform", "seed": null}}, "bias_initializer": {"class_name": "Zeros", "config": {}}, "kernel_regularizer": null, "bias_regularizer": null, "activity_regularizer": null, "kernel_constraint": null, "bias_constraint": null}, "inbound_nodes": [[["concatenate_22", 0, 0, {}]]]}, {"name": "dense_84", "class_name": "Dense", "config": {"name": "dense_84", "trainable": true, "dtype": "float32", "units": 100, "activation": "relu", "use_bias": true, "kernel_initializer": {"class_name": "VarianceScaling", "config": {"scale": 1.0, "mode": "fan_avg", "distribution": "uniform", "seed": null}}, "bias_initializer": {"class_name": "Zeros", "config": {}}, "kernel_regularizer": null, "bias_regularizer": null, "activity_regularizer": null, "kernel_constraint": null, "bias_constraint": null}, "inbound_nodes": [[["concatenate_30", 0, 0, {}]]]}, {"name": "dense_86", "class_name": "Dense", "config": {"name": "dense_86", "trainable": true, "dtype": "float32", "units": 100, "activation": "relu", "use_bias": true, "kernel_initializer": {"class_name": "VarianceScaling", "config": {"scale": 1.0, "mode": "fan_avg", "distribution": "uniform", "seed": null}}, "bias_initializer": {"class_name": "Zeros", "config": {}}, "kernel_regularizer": null, "bias_regularizer": null, "activity_regularizer": null, "kernel_constraint": null, "bias_constraint": null}, "inbound_nodes": [[["concatenate_32", 0, 0, {}]]]}, {"name": "dense_90", "class_name": "Dense", "config": {"name": "dense_90", "trainable": true, "dtype": "float32", "units": 100, "activation": "relu", "use_bias": true, "kernel_initializer": {"class_name": "VarianceScaling", "config": {"scale": 1.0, "mode": "fan_avg", "distribution": "uniform", "seed": null}}, "bias_initializer": {"class_name": "Zeros", "config": {}}, "kernel_regularizer": null, "bias_regularizer": null, "activity_regularizer": null, "kernel_constraint": null, "bias_constraint": null}, "inbound_nodes": [[["concatenate_36", 0, 0, {}]]]}, {"name": "dense_92", "class_name": "Dense", "config": {"name": "dense_92", "trainable": true, "dtype": "float32", "units": 100, "activation": "relu", "use_bias": true, "kernel_initializer": {"class_name": "VarianceScaling", "config": {"scale": 1.0, "mode": "fan_avg", "distribution": "uniform", "seed": null}}, "bias_initializer": {"class_name": "Zeros", "config": {}}, "kernel_regularizer": null, "bias_regularizer": null, "activity_regularizer": null, "kernel_constraint": null, "bias_constraint": null}, "inbound_nodes": [[["concatenate_38", 0, 0, {}]]]}, {"name": "dense_114", "class_name": "Dense", "config": {"name": "dense_114", "trainable": true, "dtype": "float32", "units": 100, "activation": "relu", "use_bias": true, "kernel_initializer": {"class_name": "VarianceScaling", "config": {"scale": 1.0, "mode": "fan_avg", "distribution": "uniform", "seed": null}}, "bias_initializer": {"class_name": "Zeros", "config": {}}, "kernel_regularizer": null, "bias_regularizer": null, "activity_regularizer": null, "kernel_constraint": null, "bias_constraint": null}, "inbound_nodes": [[["concatenate_60", 0, 0, {}]]]}, {"name": "dense_116", "class_name": "Dense", "config": {"name": "dense_116", "trainable": true, "dtype": "float32", "units": 100, "activation": "relu", "use_bias": true, "kernel_initializer": {"class_name": "VarianceScaling", "config": {"scale": 1.0, "mode": "fan_avg", "distribution": "uniform", "seed": null}}, "bias_initializer": {"class_name": "Zeros", "config": {}}, "kernel_regularizer": null, "bias_regularizer": null, "activity_regularizer": null, "kernel_constraint": null, "bias_constraint": null}, "inbound_nodes": [[["concatenate_62", 0, 0, {}]]]}, {"name": "dense_144", "class_name": "Dense", "config": {"name": "dense_144", "trainable": true, "dtype": "float32", "units": 100, "activation": "relu", "use_bias": true, "kernel_initializer": {"class_name": "VarianceScaling", "config": {"scale": 1.0, "mode": "fan_avg", "distribution": "uniform", "seed": null}}, "bias_initializer": {"class_name": "Zeros", "config": {}}, "kernel_regularizer": null, "bias_regularizer": null, "activity_regularizer": null, "kernel_constraint": null, "bias_constraint": null}, "inbound_nodes": [[["concatenate_90", 0, 0, {}]]]}, {"name": "dense_146", "class_name": "Dense", "config": {"name": "dense_146", "trainable": true, "dtype": "float32", "units": 100, "activation": "relu", "use_bias": true, "kernel_initializer": {"class_name": "VarianceScaling", "config": {"scale": 1.0, "mode": "fan_avg", "distribution": "uniform", "seed": null}}, "bias_initializer": {"class_name": "Zeros", "config": {}}, "kernel_regularizer": null, "bias_regularizer": null, "activity_regularizer": null, "kernel_constraint": null, "bias_constraint": null}, "inbound_nodes": [[["concatenate_92", 0, 0, {}]]]}, {"name": "dense_150", "class_name": "Dense", "config": {"name": "dense_150", "trainable": true, "dtype": "float32", "units": 100, "activation": "relu", "use_bias": true, "kernel_initializer": {"class_name": "VarianceScaling", "config": {"scale": 1.0, "mode": "fan_avg", "distribution": "uniform", "seed": null}}, "bias_initializer": {"class_name": "Zeros", "config": {}}, "kernel_regularizer": null, "bias_regularizer": null, "activity_regularizer": null, "kernel_constraint": null, "bias_constraint": null}, "inbound_nodes": [[["concatenate_96", 0, 0, {}]]]}, {"name": "dense_152", "class_name": "Dense", "config": {"name": "dense_152", "trainable": true, "dtype": "float32", "units": 100, "activation": "relu", "use_bias": true, "kernel_initializer": {"class_name": "VarianceScaling", "config": {"scale": 1.0, "mode": "fan_avg", "distribution": "uniform", "seed": null}}, "bias_initializer": {"class_name": "Zeros", "config": {}}, "kernel_regularizer": null, "bias_regularizer": null, "activity_regularizer": null, "kernel_constraint": null, "bias_constraint": null}, "inbound_nodes": [[["concatenate_98", 0, 0, {}]]]}, {"name": "dense_158", "class_name": "Dense", "config": {"name": "dense_158", "trainable": true, "dtype": "float32", "units": 100, "activation": "relu", "use_bias": true, "kernel_initializer": {"class_name": "VarianceScaling", "config": {"scale": 1.0, "mode": "fan_avg", "distribution": "uniform", "seed": null}}, "bias_initializer": {"class_name": "Zeros", "config": {}}, "kernel_regularizer": null, "bias_regularizer": null, "activity_regularizer": null, "kernel_constraint": null, "bias_constraint": null}, "inbound_nodes": [[["concatenate_104", 0, 0, {}]]]}, {"name": "dense_160", "class_name": "Dense", "config": {"name": "dense_160", "trainable": true, "dtype": "float32", "units": 100, "activation": "relu", "use_bias": true, "kernel_initializer": {"class_name": "VarianceScaling", "config": {"scale": 1.0, "mode": "fan_avg", "distribution": "uniform", "seed": null}}, "bias_initializer": {"class_name": "Zeros", "config": {}}, "kernel_regularizer": null, "bias_regularizer": null, "activity_regularizer": null, "kernel_constraint": null, "bias_constraint": null}, "inbound_nodes": [[["concatenate_106", 0, 0, {}]]]}, {"name": "dense_164", "class_name": "Dense", "config": {"name": "dense_164", "trainable": true, "dtype": "float32", "units": 100, "activation": "relu", "use_bias": true, "kernel_initializer": {"class_name": "VarianceScaling", "config": {"scale": 1.0, "mode": "fan_avg", "distribution": "uniform", "seed": null}}, "bias_initializer": {"class_name": "Zeros", "config": {}}, "kernel_regularizer": null, "bias_regularizer": null, "activity_regularizer": null, "kernel_constraint": null, "bias_constraint": null}, "inbound_nodes": [[["concatenate_110", 0, 0, {}]]]}, {"name": "dense_173", "class_name": "Dense", "config": {"name": "dense_173", "trainable": true, "dtype": "float32", "units": 100, "activation": "relu", "use_bias": true, "kernel_initializer": {"class_name": "VarianceScaling", "config": {"scale": 1.0, "mode": "fan_avg", "distribution": "uniform", "seed": null}}, "bias_initializer": {"class_name": "Zeros", "config": {}}, "kernel_regularizer": null, "bias_regularizer": null, "activity_regularizer": null, "kernel_constraint": null, "bias_constraint": null}, "inbound_nodes": [[["concatenate_119", 0, 0, {}]]]}, {"name": "dense_175", "class_name": "Dense", "config": {"name": "dense_175", "trainable": true, "dtype": "float32", "units": 100, "activation": "relu", "use_bias": true, "kernel_initializer": {"class_name": "VarianceScaling", "config": {"scale": 1.0, "mode": "fan_avg", "distribution": "uniform", "seed": null}}, "bias_initializer": {"class_name": "Zeros", "config": {}}, "kernel_regularizer": null, "bias_regularizer": null, "activity_regularizer": null, "kernel_constraint": null, "bias_constraint": null}, "inbound_nodes": [[["concatenate_121", 0, 0, {}]]]}, {"name": "dense_179", "class_name": "Dense", "config": {"name": "dense_179", "trainable": true, "dtype": "float32", "units": 100, "activation": "relu", "use_bias": true, "kernel_initializer": {"class_name": "VarianceScaling", "config": {"scale": 1.0, "mode": "fan_avg", "distribution": "uniform", "seed": null}}, "bias_initializer": {"class_name": "Zeros", "config": {}}, "kernel_regularizer": null, "bias_regularizer": null, "activity_regularizer": null, "kernel_constraint": null, "bias_constraint": null}, "inbound_nodes": [[["concatenate_125", 0, 0, {}]]]}, {"name": "dense_186", "class_name": "Dense", "config": {"name": "dense_186", "trainable": true, "dtype": "float32", "units": 100, "activation": "relu", "use_bias": true, "kernel_initializer": {"class_name": "VarianceScaling", "config": {"scale": 1.0, "mode": "fan_avg", "distribution": "uniform", "seed": null}}, "bias_initializer": {"class_name": "Zeros", "config": {}}, "kernel_regularizer": null, "bias_regularizer": null, "activity_regularizer": null, "kernel_constraint": null, "bias_constraint": null}, "inbound_nodes": [[["concatenate_132", 0, 0, {}]]]}, {"name": "dense_188", "class_name": "Dense", "config": {"name": "dense_188", "trainable": true, "dtype": "float32", "units": 100, "activation": "relu", "use_bias": true, "kernel_initializer": {"class_name": "VarianceScaling", "config": {"scale": 1.0, "mode": "fan_avg", "distribution": "uniform", "seed": null}}, "bias_initializer": {"class_name": "Zeros", "config": {}}, "kernel_regularizer": null, "bias_regularizer": null, "activity_regularizer": null, "kernel_constraint": null, "bias_constraint": null}, "inbound_nodes": [[["concatenate_134", 0, 0, {}]]]}, {"name": "dense_212", "class_name": "Dense", "config": {"name": "dense_212", "trainable": true, "dtype": "float32", "units": 100, "activation": "relu", "use_bias": true, "kernel_initializer": {"class_name": "VarianceScaling", "config": {"scale": 1.0, "mode": "fan_avg", "distribution": "uniform", "seed": null}}, "bias_initializer": {"class_name": "Zeros", "config": {}}, "kernel_regularizer": null, "bias_regularizer": null, "activity_regularizer": null, "kernel_constraint": null, "bias_constraint": null}, "inbound_nodes": [[["concatenate_158", 0, 0, {}]]]}, {"name": "dense_214", "class_name": "Dense", "config": {"name": "dense_214", "trainable": true, "dtype": "float32", "units": 100, "activation": "relu", "use_bias": true, "kernel_initializer": {"class_name": "VarianceScaling", "config": {"scale": 1.0, "mode": "fan_avg", "distribution": "uniform", "seed": null}}, "bias_initializer": {"class_name": "Zeros", "config": {}}, "kernel_regularizer": null, "bias_regularizer": null, "activity_regularizer": null, "kernel_constraint": null, "bias_constraint": null}, "inbound_nodes": [[["concatenate_160", 0, 0, {}]]]}, {"name": "dense_218", "class_name": "Dense", "config": {"name": "dense_218", "trainable": true, "dtype": "float32", "units": 100, "activation": "relu", "use_bias": true, "kernel_initializer": {"class_name": "VarianceScaling", "config": {"scale": 1.0, "mode": "fan_avg", "distribution": "uniform", "seed": null}}, "bias_initializer": {"class_name": "Zeros", "config": {}}, "kernel_regularizer": null, "bias_regularizer": null, "activity_regularizer": null, "kernel_constraint": null, "bias_constraint": null}, "inbound_nodes": [[["concatenate_164", 0, 0, {}]]]}, {"name": "dense_36", "class_name": "Dense", "config": {"name": "dense_36", "trainable": true, "dtype": "float32", "units": 50, "activation": "relu", "use_bias": true, "kernel_initializer": {"class_name": "VarianceScaling", "config": {"scale": 1.0, "mode": "fan_avg", "distribution": "uniform", "seed": null}}, "bias_initializer": {"class_name": "Zeros", "config": {}}, "kernel_regularizer": null, "bias_regularizer": null, "activity_regularizer": null, "kernel_constraint": null, "bias_constraint": null}, "inbound_nodes": [[["input_36", 0, 0, {}]]]}, {"name": "dense_220", "class_name": "Dense", "config": {"name": "dense_220", "trainable": true, "dtype": "float32", "units": 100, "activation": "relu", "use_bias": true, "kernel_initializer": {"class_name": "VarianceScaling", "config": {"scale": 1.0, "mode": "fan_avg", "distribution": "uniform", "seed": null}}, "bias_initializer": {"class_name": "Zeros", "config": {}}, "kernel_regularizer": null, "bias_regularizer": null, "activity_regularizer": null, "kernel_constraint": null, "bias_constraint": null}, "inbound_nodes": [[["concatenate_166", 0, 0, {}]]]}, {"name": "dense_226", "class_name": "Dense", "config": {"name": "dense_226", "trainable": true, "dtype": "float32", "units": 100, "activation": "relu", "use_bias": true, "kernel_initializer": {"class_name": "VarianceScaling", "config": {"scale": 1.0, "mode": "fan_avg", "distribution": "uniform", "seed": null}}, "bias_initializer": {"class_name": "Zeros", "config": {}}, "kernel_regularizer": null, "bias_regularizer": null, "activity_regularizer": null, "kernel_constraint": null, "bias_constraint": null}, "inbound_nodes": [[["concatenate_172", 0, 0, {}]]]}, {"name": "dense_228", "class_name": "Dense", "config": {"name": "dense_228", "trainable": true, "dtype": "float32", "units": 100, "activation": "relu", "use_bias": true, "kernel_initializer": {"class_name": "VarianceScaling", "config": {"scale": 1.0, "mode": "fan_avg", "distribution": "uniform", "seed": null}}, "bias_initializer": {"class_name": "Zeros", "config": {}}, "kernel_regularizer": null, "bias_regularizer": null, "activity_regularizer": null, "kernel_constraint": null, "bias_constraint": null}, "inbound_nodes": [[["concatenate_174", 0, 0, {}]]]}, {"name": "dense_232", "class_name": "Dense", "config": {"name": "dense_232", "trainable": true, "dtype": "float32", "units": 100, "activation": "relu", "use_bias": true, "kernel_initializer": {"class_name": "VarianceScaling", "config": {"scale": 1.0, "mode": "fan_avg", "distribution": "uniform", "seed": null}}, "bias_initializer": {"class_name": "Zeros", "config": {}}, "kernel_regularizer": null, "bias_regularizer": null, "activity_regularizer": null, "kernel_constraint": null, "bias_constraint": null}, "inbound_nodes": [[["concatenate_178", 0, 0, {}]]]}, {"name": "dense_234", "class_name": "Dense", "config": {"name": "dense_234", "trainable": true, "dtype": "float32", "units": 100, "activation": "relu", "use_bias": true, "kernel_initializer": {"class_name": "VarianceScaling", "config": {"scale": 1.0, "mode": "fan_avg", "distribution": "uniform", "seed": null}}, "bias_initializer": {"class_name": "Zeros", "config": {}}, "kernel_regularizer": null, "bias_regularizer": null, "activity_regularizer": null, "kernel_constraint": null, "bias_constraint": null}, "inbound_nodes": [[["concatenate_180", 0, 0, {}]]]}, {"name": "dense_242", "class_name": "Dense", "config": {"name": "dense_242", "trainable": true, "dtype": "float32", "units": 100, "activation": "relu", "use_bias": true, "kernel_initializer": {"class_name": "VarianceScaling", "config": {"scale": 1.0, "mode": "fan_avg", "distribution": "uniform", "seed": null}}, "bias_initializer": {"class_name": "Zeros", "config": {}}, "kernel_regularizer": null, "bias_regularizer": null, "activity_regularizer": null, "kernel_constraint": null, "bias_constraint": null}, "inbound_nodes": [[["concatenate_188", 0, 0, {}]]]}, {"name": "dense_244", "class_name": "Dense", "config": {"name": "dense_244", "trainable": true, "dtype": "float32", "units": 100, "activation": "relu", "use_bias": true, "kernel_initializer": {"class_name": "VarianceScaling", "config": {"scale": 1.0, "mode": "fan_avg", "distribution": "uniform", "seed": null}}, "bias_initializer": {"class_name": "Zeros", "config": {}}, "kernel_regularizer": null, "bias_regularizer": null, "activity_regularizer": null, "kernel_constraint": null, "bias_constraint": null}, "inbound_nodes": [[["concatenate_190", 0, 0, {}]]]}, {"name": "dense_248", "class_name": "Dense", "config": {"name": "dense_248", "trainable": true, "dtype": "float32", "units": 100, "activation": "relu", "use_bias": true, "kernel_initializer": {"class_name": "VarianceScaling", "config": {"scale": 1.0, "mode": "fan_avg", "distribution": "uniform", "seed": null}}, "bias_initializer": {"class_name": "Zeros", "config": {}}, "kernel_regularizer": null, "bias_regularizer": null, "activity_regularizer": null, "kernel_constraint": null, "bias_constraint": null}, "inbound_nodes": [[["concatenate_194", 0, 0, {}]]]}, {"name": "dense_250", "class_name": "Dense", "config": {"name": "dense_250", "trainable": true, "dtype": "float32", "units": 100, "activation": "relu", "use_bias": true, "kernel_initializer": {"class_name": "VarianceScaling", "config": {"scale": 1.0, "mode": "fan_avg", "distribution": "uniform", "seed": null}}, "bias_initializer": {"class_name": "Zeros", "config": {}}, "kernel_regularizer": null, "bias_regularizer": null, "activity_regularizer": null, "kernel_constraint": null, "bias_constraint": null}, "inbound_nodes": [[["concatenate_196", 0, 0, {}]]]}, {"name": "dense_256", "class_name": "Dense", "config": {"name": "dense_256", "trainable": true, "dtype": "float32", "units": 100, "activation": "relu", "use_bias": true, "kernel_initializer": {"class_name": "VarianceScaling", "config": {"scale": 1.0, "mode": "fan_avg", "distribution": "uniform", "seed": null}}, "bias_initializer": {"class_name": "Zeros", "config": {}}, "kernel_regularizer": null, "bias_regularizer": null, "activity_regularizer": null, "kernel_constraint": null, "bias_constraint": null}, "inbound_nodes": [[["concatenate_202", 0, 0, {}]]]}, {"name": "dense_258", "class_name": "Dense", "config": {"name": "dense_258", "trainable": true, "dtype": "float32", "units": 100, "activation": "relu", "use_bias": true, "kernel_initializer": {"class_name": "VarianceScaling", "config": {"scale": 1.0, "mode": "fan_avg", "distribution": "uniform", "seed": null}}, "bias_initializer": {"class_name": "Zeros", "config": {}}, "kernel_regularizer": null, "bias_regularizer": null, "activity_regularizer": null, "kernel_constraint": null, "bias_constraint": null}, "inbound_nodes": [[["concatenate_204", 0, 0, {}]]]}, {"name": "dense_262", "class_name": "Dense", "config": {"name": "dense_262", "trainable": true, "dtype": "float32", "units": 100, "activation": "relu", "use_bias": true, "kernel_initializer": {"class_name": "VarianceScaling", "config": {"scale": 1.0, "mode": "fan_avg", "distribution": "uniform", "seed": null}}, "bias_initializer": {"class_name": "Zeros", "config": {}}, "kernel_regularizer": null, "bias_regularizer": null, "activity_regularizer": null, "kernel_constraint": null, "bias_constraint": null}, "inbound_nodes": [[["concatenate_208", 0, 0, {}]]]}, {"name": "dense_264", "class_name": "Dense", "config": {"name": "dense_264", "trainable": true, "dtype": "float32", "units": 100, "activation": "relu", "use_bias": true, "kernel_initializer": {"class_name": "VarianceScaling", "config": {"scale": 1.0, "mode": "fan_avg", "distribution": "uniform", "seed": null}}, "bias_initializer": {"class_name": "Zeros", "config": {}}, "kernel_regularizer": null, "bias_regularizer": null, "activity_regularizer": null, "kernel_constraint": null, "bias_constraint": null}, "inbound_nodes": [[["concatenate_210", 0, 0, {}]]]}, {"name": "dense_274", "class_name": "Dense", "config": {"name": "dense_274", "trainable": true, "dtype": "float32", "units": 100, "activation": "relu", "use_bias": true, "kernel_initializer": {"class_name": "VarianceScaling", "config": {"scale": 1.0, "mode": "fan_avg", "distribution": "uniform", "seed": null}}, "bias_initializer": {"class_name": "Zeros", "config": {}}, "kernel_regularizer": null, "bias_regularizer": null, "activity_regularizer": null, "kernel_constraint": null, "bias_constraint": null}, "inbound_nodes": [[["concatenate_220", 0, 0, {}]]]}, {"name": "dense_276", "class_name": "Dense", "config": {"name": "dense_276", "trainable": true, "dtype": "float32", "units": 100, "activation": "relu", "use_bias": true, "kernel_initializer": {"class_name": "VarianceScaling", "config": {"scale": 1.0, "mode": "fan_avg", "distribution": "uniform", "seed": null}}, "bias_initializer": {"class_name": "Zeros", "config": {}}, "kernel_regularizer": null, "bias_regularizer": null, "activity_regularizer": null, "kernel_constraint": null, "bias_constraint": null}, "inbound_nodes": [[["concatenate_222", 0, 0, {}]]]}, {"name": "dense_280", "class_name": "Dense", "config": {"name": "dense_280", "trainable": true, "dtype": "float32", "units": 100, "activation": "relu", "use_bias": true, "kernel_initializer": {"class_name": "VarianceScaling", "config": {"scale": 1.0, "mode": "fan_avg", "distribution": "uniform", "seed": null}}, "bias_initializer": {"class_name": "Zeros", "config": {}}, "kernel_regularizer": null, "bias_regularizer": null, "activity_regularizer": null, "kernel_constraint": null, "bias_constraint": null}, "inbound_nodes": [[["concatenate_226", 0, 0, {}]]]}, {"name": "dense_286", "class_name": "Dense", "config": {"name": "dense_286", "trainable": true, "dtype": "float32", "units": 100, "activation": "relu", "use_bias": true, "kernel_initializer": {"class_name": "VarianceScaling", "config": {"scale": 1.0, "mode": "fan_avg", "distribution": "uniform", "seed": null}}, "bias_initializer": {"class_name": "Zeros", "config": {}}, "kernel_regularizer": null, "bias_regularizer": null, "activity_regularizer": null, "kernel_constraint": null, "bias_constraint": null}, "inbound_nodes": [[["concatenate_232", 0, 0, {}]]]}, {"name": "dense_288", "class_name": "Dense", "config": {"name": "dense_288", "trainable": true, "dtype": "float32", "units": 100, "activation": "relu", "use_bias": true, "kernel_initializer": {"class_name": "VarianceScaling", "config": {"scale": 1.0, "mode": "fan_avg", "distribution": "uniform", "seed": null}}, "bias_initializer": {"class_name": "Zeros", "config": {}}, "kernel_regularizer": null, "bias_regularizer": null, "activity_regularizer": null, "kernel_constraint": null, "bias_constraint": null}, "inbound_nodes": [[["concatenate_234", 0, 0, {}]]]}, {"name": "dense_292", "class_name": "Dense", "config": {"name": "dense_292", "trainable": true, "dtype": "float32", "units": 100, "activation": "relu", "use_bias": true, "kernel_initializer": {"class_name": "VarianceScaling", "config": {"scale": 1.0, "mode": "fan_avg", "distribution": "uniform", "seed": null}}, "bias_initializer": {"class_name": "Zeros", "config": {}}, "kernel_regularizer": null, "bias_regularizer": null, "activity_regularizer": null, "kernel_constraint": null, "bias_constraint": null}, "inbound_nodes": [[["concatenate_238", 0, 0, {}]]]}, {"name": "dense_301", "class_name": "Dense", "config": {"name": "dense_301", "trainable": true, "dtype": "float32", "units": 100, "activation": "relu", "use_bias": true, "kernel_initializer": {"class_name": "VarianceScaling", "config": {"scale": 1.0, "mode": "fan_avg", "distribution": "uniform", "seed": null}}, "bias_initializer": {"class_name": "Zeros", "config": {}}, "kernel_regularizer": null, "bias_regularizer": null, "activity_regularizer": null, "kernel_constraint": null, "bias_constraint": null}, "inbound_nodes": [[["concatenate_247", 0, 0, {}]]]}, {"name": "dense_306", "class_name": "Dense", "config": {"name": "dense_306", "trainable": true, "dtype": "float32", "units": 100, "activation": "relu", "use_bias": true, "kernel_initializer": {"class_name": "VarianceScaling", "config": {"scale": 1.0, "mode": "fan_avg", "distribution": "uniform", "seed": null}}, "bias_initializer": {"class_name": "Zeros", "config": {}}, "kernel_regularizer": null, "bias_regularizer": null, "activity_regularizer": null, "kernel_constraint": null, "bias_constraint": null}, "inbound_nodes": [[["concatenate_252", 0, 0, {}]]]}, {"name": "dense_308", "class_name": "Dense", "config": {"name": "dense_308", "trainable": true, "dtype": "float32", "units": 100, "activation": "relu", "use_bias": true, "kernel_initializer": {"class_name": "VarianceScaling", "config": {"scale": 1.0, "mode": "fan_avg", "distribution": "uniform", "seed": null}}, "bias_initializer": {"class_name": "Zeros", "config": {}}, "kernel_regularizer": null, "bias_regularizer": null, "activity_regularizer": null, "kernel_constraint": null, "bias_constraint": null}, "inbound_nodes": [[["concatenate_254", 0, 0, {}]]]}, {"name": "dense_338", "class_name": "Dense", "config": {"name": "dense_338", "trainable": true, "dtype": "float32", "units": 100, "activation": "relu", "use_bias": true, "kernel_initializer": {"class_name": "VarianceScaling", "config": {"scale": 1.0, "mode": "fan_avg", "distribution": "uniform", "seed": null}}, "bias_initializer": {"class_name": "Zeros", "config": {}}, "kernel_regularizer": null, "bias_regularizer": null, "activity_regularizer": null, "kernel_constraint": null, "bias_constraint": null}, "inbound_nodes": [[["concatenate_284", 0, 0, {}]]]}, {"name": "dense_340", "class_name": "Dense", "config": {"name": "dense_340", "trainable": true, "dtype": "float32", "units": 100, "activation": "relu", "use_bias": true, "kernel_initializer": {"class_name": "VarianceScaling", "config": {"scale": 1.0, "mode": "fan_avg", "distribution": "uniform", "seed": null}}, "bias_initializer": {"class_name": "Zeros", "config": {}}, "kernel_regularizer": null, "bias_regularizer": null, "activity_regularizer": null, "kernel_constraint": null, "bias_constraint": null}, "inbound_nodes": [[["concatenate_286", 0, 0, {}]]]}, {"name": "dense_344", "class_name": "Dense", "config": {"name": "dense_344", "trainable": true, "dtype": "float32", "units": 100, "activation": "relu", "use_bias": true, "kernel_initializer": {"class_name": "VarianceScaling", "config": {"scale": 1.0, "mode": "fan_avg", "distribution": "uniform", "seed": null}}, "bias_initializer": {"class_name": "Zeros", "config": {}}, "kernel_regularizer": null, "bias_regularizer": null, "activity_regularizer": null, "kernel_constraint": null, "bias_constraint": null}, "inbound_nodes": [[["concatenate_290", 0, 0, {}]]]}, {"name": "dense_346", "class_name": "Dense", "config": {"name": "dense_346", "trainable": true, "dtype": "float32", "units": 100, "activation": "relu", "use_bias": true, "kernel_initializer": {"class_name": "VarianceScaling", "config": {"scale": 1.0, "mode": "fan_avg", "distribution": "uniform", "seed": null}}, "bias_initializer": {"class_name": "Zeros", "config": {}}, "kernel_regularizer": null, "bias_regularizer": null, "activity_regularizer": null, "kernel_constraint": null, "bias_constraint": null}, "inbound_nodes": [[["concatenate_292", 0, 0, {}]]]}, {"name": "dense_353", "class_name": "Dense", "config": {"name": "dense_353", "trainable": true, "dtype": "float32", "units": 100, "activation": "relu", "use_bias": true, "kernel_initializer": {"class_name": "VarianceScaling", "config": {"scale": 1.0, "mode": "fan_avg", "distribution": "uniform", "seed": null}}, "bias_initializer": {"class_name": "Zeros", "config": {}}, "kernel_regularizer": null, "bias_regularizer": null, "activity_regularizer": null, "kernel_constraint": null, "bias_constraint": null}, "inbound_nodes": [[["concatenate_299", 0, 0, {}]]]}, {"name": "dense_358", "class_name": "Dense", "config": {"name": "dense_358", "trainable": true, "dtype": "float32", "units": 100, "activation": "relu", "use_bias": true, "kernel_initializer": {"class_name": "VarianceScaling", "config": {"scale": 1.0, "mode": "fan_avg", "distribution": "uniform", "seed": null}}, "bias_initializer": {"class_name": "Zeros", "config": {}}, "kernel_regularizer": null, "bias_regularizer": null, "activity_regularizer": null, "kernel_constraint": null, "bias_constraint": null}, "inbound_nodes": [[["concatenate_304", 0, 0, {}]]]}, {"name": "dense_375", "class_name": "Dense", "config": {"name": "dense_375", "trainable": true, "dtype": "float32", "units": 100, "activation": "relu", "use_bias": true, "kernel_initializer": {"class_name": "VarianceScaling", "config": {"scale": 1.0, "mode": "fan_avg", "distribution": "uniform", "seed": null}}, "bias_initializer": {"class_name": "Zeros", "config": {}}, "kernel_regularizer": null, "bias_regularizer": null, "activity_regularizer": null, "kernel_constraint": null, "bias_constraint": null}, "inbound_nodes": [[["concatenate_321", 0, 0, {}]]]}, {"name": "dense_377", "class_name": "Dense", "config": {"name": "dense_377", "trainable": true, "dtype": "float32", "units": 100, "activation": "relu", "use_bias": true, "kernel_initializer": {"class_name": "VarianceScaling", "config": {"scale": 1.0, "mode": "fan_avg", "distribution": "uniform", "seed": null}}, "bias_initializer": {"class_name": "Zeros", "config": {}}, "kernel_regularizer": null, "bias_regularizer": null, "activity_regularizer": null, "kernel_constraint": null, "bias_constraint": null}, "inbound_nodes": [[["concatenate_323", 0, 0, {}]]]}, {"name": "dense_385", "class_name": "Dense", "config": {"name": "dense_385", "trainable": true, "dtype": "float32", "units": 100, "activation": "relu", "use_bias": true, "kernel_initializer": {"class_name": "VarianceScaling", "config": {"scale": 1.0, "mode": "fan_avg", "distribution": "uniform", "seed": null}}, "bias_initializer": {"class_name": "Zeros", "config": {}}, "kernel_regularizer": null, "bias_regularizer": null, "activity_regularizer": null, "kernel_constraint": null, "bias_constraint": null}, "inbound_nodes": [[["concatenate_331", 0, 0, {}]]]}, {"name": "dense_387", "class_name": "Dense", "config": {"name": "dense_387", "trainable": true, "dtype": "float32", "units": 100, "activation": "relu", "use_bias": true, "kernel_initializer": {"class_name": "VarianceScaling", "config": {"scale": 1.0, "mode": "fan_avg", "distribution": "uniform", "seed": null}}, "bias_initializer": {"class_name": "Zeros", "config": {}}, "kernel_regularizer": null, "bias_regularizer": null, "activity_regularizer": null, "kernel_constraint": null, "bias_constraint": null}, "inbound_nodes": [[["concatenate_333", 0, 0, {}]]]}, {"name": "dense_396", "class_name": "Dense", "config": {"name": "dense_396", "trainable": true, "dtype": "float32", "units": 100, "activation": "relu", "use_bias": true, "kernel_initializer": {"class_name": "VarianceScaling", "config": {"scale": 1.0, "mode": "fan_avg", "distribution": "uniform", "seed": null}}, "bias_initializer": {"class_name": "Zeros", "config": {}}, "kernel_regularizer": null, "bias_regularizer": null, "activity_regularizer": null, "kernel_constraint": null, "bias_constraint": null}, "inbound_nodes": [[["concatenate_342", 0, 0, {}]]]}, {"name": "dense_398", "class_name": "Dense", "config": {"name": "dense_398", "trainable": true, "dtype": "float32", "units": 100, "activation": "relu", "use_bias": true, "kernel_initializer": {"class_name": "VarianceScaling", "config": {"scale": 1.0, "mode": "fan_avg", "distribution": "uniform", "seed": null}}, "bias_initializer": {"class_name": "Zeros", "config": {}}, "kernel_regularizer": null, "bias_regularizer": null, "activity_regularizer": null, "kernel_constraint": null, "bias_constraint": null}, "inbound_nodes": [[["concatenate_344", 0, 0, {}]]]}, {"name": "dense_417", "class_name": "Dense", "config": {"name": "dense_417", "trainable": true, "dtype": "float32", "units": 100, "activation": "relu", "use_bias": true, "kernel_initializer": {"class_name": "VarianceScaling", "config": {"scale": 1.0, "mode": "fan_avg", "distribution": "uniform", "seed": null}}, "bias_initializer": {"class_name": "Zeros", "config": {}}, "kernel_regularizer": null, "bias_regularizer": null, "activity_regularizer": null, "kernel_constraint": null, "bias_constraint": null}, "inbound_nodes": [[["concatenate_363", 0, 0, {}]]]}, {"name": "dense_45", "class_name": "Dense", "config": {"name": "dense_45", "trainable": true, "dtype": "float32", "units": 50, "activation": "relu", "use_bias": true, "kernel_initializer": {"class_name": "VarianceScaling", "config": {"scale": 1.0, "mode": "fan_avg", "distribution": "uniform", "seed": null}}, "bias_initializer": {"class_name": "Zeros", "config": {}}, "kernel_regularizer": null, "bias_regularizer": null, "activity_regularizer": null, "kernel_constraint": null, "bias_constraint": null}, "inbound_nodes": [[["input_45", 0, 0, {}]]]}, {"name": "dense_419", "class_name": "Dense", "config": {"name": "dense_419", "trainable": true, "dtype": "float32", "units": 100, "activation": "relu", "use_bias": true, "kernel_initializer": {"class_name": "VarianceScaling", "config": {"scale": 1.0, "mode": "fan_avg", "distribution": "uniform", "seed": null}}, "bias_initializer": {"class_name": "Zeros", "config": {}}, "kernel_regularizer": null, "bias_regularizer": null, "activity_regularizer": null, "kernel_constraint": null, "bias_constraint": null}, "inbound_nodes": [[["concatenate_365", 0, 0, {}]]]}, {"name": "dense_423", "class_name": "Dense", "config": {"name": "dense_423", "trainable": true, "dtype": "float32", "units": 100, "activation": "relu", "use_bias": true, "kernel_initializer": {"class_name": "VarianceScaling", "config": {"scale": 1.0, "mode": "fan_avg", "distribution": "uniform", "seed": null}}, "bias_initializer": {"class_name": "Zeros", "config": {}}, "kernel_regularizer": null, "bias_regularizer": null, "activity_regularizer": null, "kernel_constraint": null, "bias_constraint": null}, "inbound_nodes": [[["concatenate_369", 0, 0, {}]]]}, {"name": "dense_425", "class_name": "Dense", "config": {"name": "dense_425", "trainable": true, "dtype": "float32", "units": 100, "activation": "relu", "use_bias": true, "kernel_initializer": {"class_name": "VarianceScaling", "config": {"scale": 1.0, "mode": "fan_avg", "distribution": "uniform", "seed": null}}, "bias_initializer": {"class_name": "Zeros", "config": {}}, "kernel_regularizer": null, "bias_regularizer": null, "activity_regularizer": null, "kernel_constraint": null, "bias_constraint": null}, "inbound_nodes": [[["concatenate_371", 0, 0, {}]]]}, {"name": "dense_433", "class_name": "Dense", "config": {"name": "dense_433", "trainable": true, "dtype": "float32", "units": 100, "activation": "relu", "use_bias": true, "kernel_initializer": {"class_name": "VarianceScaling", "config": {"scale": 1.0, "mode": "fan_avg", "distribution": "uniform", "seed": null}}, "bias_initializer": {"class_name": "Zeros", "config": {}}, "kernel_regularizer": null, "bias_regularizer": null, "activity_regularizer": null, "kernel_constraint": null, "bias_constraint": null}, "inbound_nodes": [[["concatenate_379", 0, 0, {}]]]}, {"name": "dense_435", "class_name": "Dense", "config": {"name": "dense_435", "trainable": true, "dtype": "float32", "units": 100, "activation": "relu", "use_bias": true, "kernel_initializer": {"class_name": "VarianceScaling", "config": {"scale": 1.0, "mode": "fan_avg", "distribution": "uniform", "seed": null}}, "bias_initializer": {"class_name": "Zeros", "config": {}}, "kernel_regularizer": null, "bias_regularizer": null, "activity_regularizer": null, "kernel_constraint": null, "bias_constraint": null}, "inbound_nodes": [[["concatenate_381", 0, 0, {}]]]}, {"name": "dense_439", "class_name": "Dense", "config": {"name": "dense_439", "trainable": true, "dtype": "float32", "units": 100, "activation": "relu", "use_bias": true, "kernel_initializer": {"class_name": "VarianceScaling", "config": {"scale": 1.0, "mode": "fan_avg", "distribution": "uniform", "seed": null}}, "bias_initializer": {"class_name": "Zeros", "config": {}}, "kernel_regularizer": null, "bias_regularizer": null, "activity_regularizer": null, "kernel_constraint": null, "bias_constraint": null}, "inbound_nodes": [[["concatenate_385", 0, 0, {}]]]}, {"name": "dense_441", "class_name": "Dense", "config": {"name": "dense_441", "trainable": true, "dtype": "float32", "units": 100, "activation": "relu", "use_bias": true, "kernel_initializer": {"class_name": "VarianceScaling", "config": {"scale": 1.0, "mode": "fan_avg", "distribution": "uniform", "seed": null}}, "bias_initializer": {"class_name": "Zeros", "config": {}}, "kernel_regularizer": null, "bias_regularizer": null, "activity_regularizer": null, "kernel_constraint": null, "bias_constraint": null}, "inbound_nodes": [[["concatenate_387", 0, 0, {}]]]}, {"name": "dense_458", "class_name": "Dense", "config": {"name": "dense_458", "trainable": true, "dtype": "float32", "units": 100, "activation": "relu", "use_bias": true, "kernel_initializer": {"class_name": "VarianceScaling", "config": {"scale": 1.0, "mode": "fan_avg", "distribution": "uniform", "seed": null}}, "bias_initializer": {"class_name": "Zeros", "config": {}}, "kernel_regularizer": null, "bias_regularizer": null, "activity_regularizer": null, "kernel_constraint": null, "bias_constraint": null}, "inbound_nodes": [[["concatenate_404", 0, 0, {}]]]}, {"name": "dense_460", "class_name": "Dense", "config": {"name": "dense_460", "trainable": true, "dtype": "float32", "units": 100, "activation": "relu", "use_bias": true, "kernel_initializer": {"class_name": "VarianceScaling", "config": {"scale": 1.0, "mode": "fan_avg", "distribution": "uniform", "seed": null}}, "bias_initializer": {"class_name": "Zeros", "config": {}}, "kernel_regularizer": null, "bias_regularizer": null, "activity_regularizer": null, "kernel_constraint": null, "bias_constraint": null}, "inbound_nodes": [[["concatenate_406", 0, 0, {}]]]}, {"name": "dense_464", "class_name": "Dense", "config": {"name": "dense_464", "trainable": true, "dtype": "float32", "units": 100, "activation": "relu", "use_bias": true, "kernel_initializer": {"class_name": "VarianceScaling", "config": {"scale": 1.0, "mode": "fan_avg", "distribution": "uniform", "seed": null}}, "bias_initializer": {"class_name": "Zeros", "config": {}}, "kernel_regularizer": null, "bias_regularizer": null, "activity_regularizer": null, "kernel_constraint": null, "bias_constraint": null}, "inbound_nodes": [[["concatenate_410", 0, 0, {}]]]}, {"name": "dense_466", "class_name": "Dense", "config": {"name": "dense_466", "trainable": true, "dtype": "float32", "units": 100, "activation": "relu", "use_bias": true, "kernel_initializer": {"class_name": "VarianceScaling", "config": {"scale": 1.0, "mode": "fan_avg", "distribution": "uniform", "seed": null}}, "bias_initializer": {"class_name": "Zeros", "config": {}}, "kernel_regularizer": null, "bias_regularizer": null, "activity_regularizer": null, "kernel_constraint": null, "bias_constraint": null}, "inbound_nodes": [[["concatenate_412", 0, 0, {}]]]}, {"name": "dense_475", "class_name": "Dense", "config": {"name": "dense_475", "trainable": true, "dtype": "float32", "units": 100, "activation": "relu", "use_bias": true, "kernel_initializer": {"class_name": "VarianceScaling", "config": {"scale": 1.0, "mode": "fan_avg", "distribution": "uniform", "seed": null}}, "bias_initializer": {"class_name": "Zeros", "config": {}}, "kernel_regularizer": null, "bias_regularizer": null, "activity_regularizer": null, "kernel_constraint": null, "bias_constraint": null}, "inbound_nodes": [[["concatenate_421", 0, 0, {}]]]}, {"name": "dense_484", "class_name": "Dense", "config": {"name": "dense_484", "trainable": true, "dtype": "float32", "units": 100, "activation": "relu", "use_bias": true, "kernel_initializer": {"class_name": "VarianceScaling", "config": {"scale": 1.0, "mode": "fan_avg", "distribution": "uniform", "seed": null}}, "bias_initializer": {"class_name": "Zeros", "config": {}}, "kernel_regularizer": null, "bias_regularizer": null, "activity_regularizer": null, "kernel_constraint": null, "bias_constraint": null}, "inbound_nodes": [[["concatenate_430", 0, 0, {}]]]}, {"name": "dense_486", "class_name": "Dense", "config": {"name": "dense_486", "trainable": true, "dtype": "float32", "units": 100, "activation": "relu", "use_bias": true, "kernel_initializer": {"class_name": "VarianceScaling", "config": {"scale": 1.0, "mode": "fan_avg", "distribution": "uniform", "seed": null}}, "bias_initializer": {"class_name": "Zeros", "config": {}}, "kernel_regularizer": null, "bias_regularizer": null, "activity_regularizer": null, "kernel_constraint": null, "bias_constraint": null}, "inbound_nodes": [[["concatenate_432", 0, 0, {}]]]}, {"name": "dense_52", "class_name": "Dense", "config": {"name": "dense_52", "trainable": true, "dtype": "float32", "units": 50, "activation": "relu", "use_bias": true, "kernel_initializer": {"class_name": "VarianceScaling", "config": {"scale": 1.0, "mode": "fan_avg", "distribution": "uniform", "seed": null}}, "bias_initializer": {"class_name": "Zeros", "config": {}}, "kernel_regularizer": null, "bias_regularizer": null, "activity_regularizer": null, "kernel_constraint": null, "bias_constraint": null}, "inbound_nodes": [[["input_52", 0, 0, {}]]]}, {"name": "dense_490", "class_name": "Dense", "config": {"name": "dense_490", "trainable": true, "dtype": "float32", "units": 100, "activation": "relu", "use_bias": true, "kernel_initializer": {"class_name": "VarianceScaling", "config": {"scale": 1.0, "mode": "fan_avg", "distribution": "uniform", "seed": null}}, "bias_initializer": {"class_name": "Zeros", "config": {}}, "kernel_regularizer": null, "bias_regularizer": null, "activity_regularizer": null, "kernel_constraint": null, "bias_constraint": null}, "inbound_nodes": [[["concatenate_436", 0, 0, {}]]]}, {"name": "dense_492", "class_name": "Dense", "config": {"name": "dense_492", "trainable": true, "dtype": "float32", "units": 100, "activation": "relu", "use_bias": true, "kernel_initializer": {"class_name": "VarianceScaling", "config": {"scale": 1.0, "mode": "fan_avg", "distribution": "uniform", "seed": null}}, "bias_initializer": {"class_name": "Zeros", "config": {}}, "kernel_regularizer": null, "bias_regularizer": null, "activity_regularizer": null, "kernel_constraint": null, "bias_constraint": null}, "inbound_nodes": [[["concatenate_438", 0, 0, {}]]]}, {"name": "dense_498", "class_name": "Dense", "config": {"name": "dense_498", "trainable": true, "dtype": "float32", "units": 100, "activation": "relu", "use_bias": true, "kernel_initializer": {"class_name": "VarianceScaling", "config": {"scale": 1.0, "mode": "fan_avg", "distribution": "uniform", "seed": null}}, "bias_initializer": {"class_name": "Zeros", "config": {}}, "kernel_regularizer": null, "bias_regularizer": null, "activity_regularizer": null, "kernel_constraint": null, "bias_constraint": null}, "inbound_nodes": [[["concatenate_444", 0, 0, {}]]]}, {"name": "dense_500", "class_name": "Dense", "config": {"name": "dense_500", "trainable": true, "dtype": "float32", "units": 100, "activation": "relu", "use_bias": true, "kernel_initializer": {"class_name": "VarianceScaling", "config": {"scale": 1.0, "mode": "fan_avg", "distribution": "uniform", "seed": null}}, "bias_initializer": {"class_name": "Zeros", "config": {}}, "kernel_regularizer": null, "bias_regularizer": null, "activity_regularizer": null, "kernel_constraint": null, "bias_constraint": null}, "inbound_nodes": [[["concatenate_446", 0, 0, {}]]]}, {"name": "dense_504", "class_name": "Dense", "config": {"name": "dense_504", "trainable": true, "dtype": "float32", "units": 100, "activation": "relu", "use_bias": true, "kernel_initializer": {"class_name": "VarianceScaling", "config": {"scale": 1.0, "mode": "fan_avg", "distribution": "uniform", "seed": null}}, "bias_initializer": {"class_name": "Zeros", "config": {}}, "kernel_regularizer": null, "bias_regularizer": null, "activity_regularizer": null, "kernel_constraint": null, "bias_constraint": null}, "inbound_nodes": [[["concatenate_450", 0, 0, {}]]]}, {"name": "dense_506", "class_name": "Dense", "config": {"name": "dense_506", "trainable": true, "dtype": "float32", "units": 100, "activation": "relu", "use_bias": true, "kernel_initializer": {"class_name": "VarianceScaling", "config": {"scale": 1.0, "mode": "fan_avg", "distribution": "uniform", "seed": null}}, "bias_initializer": {"class_name": "Zeros", "config": {}}, "kernel_regularizer": null, "bias_regularizer": null, "activity_regularizer": null, "kernel_constraint": null, "bias_constraint": null}, "inbound_nodes": [[["concatenate_452", 0, 0, {}]]]}, {"name": "dense_518", "class_name": "Dense", "config": {"name": "dense_518", "trainable": true, "dtype": "float32", "units": 100, "activation": "relu", "use_bias": true, "kernel_initializer": {"class_name": "VarianceScaling", "config": {"scale": 1.0, "mode": "fan_avg", "distribution": "uniform", "seed": null}}, "bias_initializer": {"class_name": "Zeros", "config": {}}, "kernel_regularizer": null, "bias_regularizer": null, "activity_regularizer": null, "kernel_constraint": null, "bias_constraint": null}, "inbound_nodes": [[["concatenate_464", 0, 0, {}]]]}, {"name": "dense_520", "class_name": "Dense", "config": {"name": "dense_520", "trainable": true, "dtype": "float32", "units": 100, "activation": "relu", "use_bias": true, "kernel_initializer": {"class_name": "VarianceScaling", "config": {"scale": 1.0, "mode": "fan_avg", "distribution": "uniform", "seed": null}}, "bias_initializer": {"class_name": "Zeros", "config": {}}, "kernel_regularizer": null, "bias_regularizer": null, "activity_regularizer": null, "kernel_constraint": null, "bias_constraint": null}, "inbound_nodes": [[["concatenate_466", 0, 0, {}]]]}, {"name": "dense_524", "class_name": "Dense", "config": {"name": "dense_524", "trainable": true, "dtype": "float32", "units": 100, "activation": "relu", "use_bias": true, "kernel_initializer": {"class_name": "VarianceScaling", "config": {"scale": 1.0, "mode": "fan_avg", "distribution": "uniform", "seed": null}}, "bias_initializer": {"class_name": "Zeros", "config": {}}, "kernel_regularizer": null, "bias_regularizer": null, "activity_regularizer": null, "kernel_constraint": null, "bias_constraint": null}, "inbound_nodes": [[["concatenate_470", 0, 0, {}]]]}, {"name": "dense_532", "class_name": "Dense", "config": {"name": "dense_532", "trainable": true, "dtype": "float32", "units": 100, "activation": "relu", "use_bias": true, "kernel_initializer": {"class_name": "VarianceScaling", "config": {"scale": 1.0, "mode": "fan_avg", "distribution": "uniform", "seed": null}}, "bias_initializer": {"class_name": "Zeros", "config": {}}, "kernel_regularizer": null, "bias_regularizer": null, "activity_regularizer": null, "kernel_constraint": null, "bias_constraint": null}, "inbound_nodes": [[["concatenate_478", 0, 0, {}]]]}, {"name": "dense_540", "class_name": "Dense", "config": {"name": "dense_540", "trainable": true, "dtype": "float32", "units": 100, "activation": "relu", "use_bias": true, "kernel_initializer": {"class_name": "VarianceScaling", "config": {"scale": 1.0, "mode": "fan_avg", "distribution": "uniform", "seed": null}}, "bias_initializer": {"class_name": "Zeros", "config": {}}, "kernel_regularizer": null, "bias_regularizer": null, "activity_regularizer": null, "kernel_constraint": null, "bias_constraint": null}, "inbound_nodes": [[["concatenate_486", 0, 0, {}]]]}, {"name": "dense_542", "class_name": "Dense", "config": {"name": "dense_542", "trainable": true, "dtype": "float32", "units": 100, "activation": "relu", "use_bias": true, "kernel_initializer": {"class_name": "VarianceScaling", "config": {"scale": 1.0, "mode": "fan_avg", "distribution": "uniform", "seed": null}}, "bias_initializer": {"class_name": "Zeros", "config": {}}, "kernel_regularizer": null, "bias_regularizer": null, "activity_regularizer": null, "kernel_constraint": null, "bias_constraint": null}, "inbound_nodes": [[["concatenate_488", 0, 0, {}]]]}, {"name": "dense_546", "class_name": "Dense", "config": {"name": "dense_546", "trainable": true, "dtype": "float32", "units": 100, "activation": "relu", "use_bias": true, "kernel_initializer": {"class_name": "VarianceScaling", "config": {"scale": 1.0, "mode": "fan_avg", "distribution": "uniform", "seed": null}}, "bias_initializer": {"class_name": "Zeros", "config": {}}, "kernel_regularizer": null, "bias_regularizer": null, "activity_regularizer": null, "kernel_constraint": null, "bias_constraint": null}, "inbound_nodes": [[["concatenate_492", 0, 0, {}]]]}, {"name": "dense_548", "class_name": "Dense", "config": {"name": "dense_548", "trainable": true, "dtype": "float32", "units": 100, "activation": "relu", "use_bias": true, "kernel_initializer": {"class_name": "VarianceScaling", "config": {"scale": 1.0, "mode": "fan_avg", "distribution": "uniform", "seed": null}}, "bias_initializer": {"class_name": "Zeros", "config": {}}, "kernel_regularizer": null, "bias_regularizer": null, "activity_regularizer": null, "kernel_constraint": null, "bias_constraint": null}, "inbound_nodes": [[["concatenate_494", 0, 0, {}]]]}, {"name": "dense_555", "class_name": "Dense", "config": {"name": "dense_555", "trainable": true, "dtype": "float32", "units": 100, "activation": "relu", "use_bias": true, "kernel_initializer": {"class_name": "VarianceScaling", "config": {"scale": 1.0, "mode": "fan_avg", "distribution": "uniform", "seed": null}}, "bias_initializer": {"class_name": "Zeros", "config": {}}, "kernel_regularizer": null, "bias_regularizer": null, "activity_regularizer": null, "kernel_constraint": null, "bias_constraint": null}, "inbound_nodes": [[["concatenate_501", 0, 0, {}]]]}, {"name": "dense_559", "class_name": "Dense", "config": {"name": "dense_559", "trainable": true, "dtype": "float32", "units": 100, "activation": "relu", "use_bias": true, "kernel_initializer": {"class_name": "VarianceScaling", "config": {"scale": 1.0, "mode": "fan_avg", "distribution": "uniform", "seed": null}}, "bias_initializer": {"class_name": "Zeros", "config": {}}, "kernel_regularizer": null, "bias_regularizer": null, "activity_regularizer": null, "kernel_constraint": null, "bias_constraint": null}, "inbound_nodes": [[["concatenate_505", 0, 0, {}]]]}, {"name": "dense_561", "class_name": "Dense", "config": {"name": "dense_561", "trainable": true, "dtype": "float32", "units": 100, "activation": "relu", "use_bias": true, "kernel_initializer": {"class_name": "VarianceScaling", "config": {"scale": 1.0, "mode": "fan_avg", "distribution": "uniform", "seed": null}}, "bias_initializer": {"class_name": "Zeros", "config": {}}, "kernel_regularizer": null, "bias_regularizer": null, "activity_regularizer": null, "kernel_constraint": null, "bias_constraint": null}, "inbound_nodes": [[["concatenate_507", 0, 0, {}]]]}, {"name": "dense_571", "class_name": "Dense", "config": {"name": "dense_571", "trainable": true, "dtype": "float32", "units": 100, "activation": "relu", "use_bias": true, "kernel_initializer": {"class_name": "VarianceScaling", "config": {"scale": 1.0, "mode": "fan_avg", "distribution": "uniform", "seed": null}}, "bias_initializer": {"class_name": "Zeros", "config": {}}, "kernel_regularizer": null, "bias_regularizer": null, "activity_regularizer": null, "kernel_constraint": null, "bias_constraint": null}, "inbound_nodes": [[["concatenate_517", 0, 0, {}]]]}, {"name": "dense_575", "class_name": "Dense", "config": {"name": "dense_575", "trainable": true, "dtype": "float32", "units": 100, "activation": "relu", "use_bias": true, "kernel_initializer": {"class_name": "VarianceScaling", "config": {"scale": 1.0, "mode": "fan_avg", "distribution": "uniform", "seed": null}}, "bias_initializer": {"class_name": "Zeros", "config": {}}, "kernel_regularizer": null, "bias_regularizer": null, "activity_regularizer": null, "kernel_constraint": null, "bias_constraint": null}, "inbound_nodes": [[["concatenate_521", 0, 0, {}]]]}, {"name": "dense_581", "class_name": "Dense", "config": {"name": "dense_581", "trainable": true, "dtype": "float32", "units": 100, "activation": "relu", "use_bias": true, "kernel_initializer": {"class_name": "VarianceScaling", "config": {"scale": 1.0, "mode": "fan_avg", "distribution": "uniform", "seed": null}}, "bias_initializer": {"class_name": "Zeros", "config": {}}, "kernel_regularizer": null, "bias_regularizer": null, "activity_regularizer": null, "kernel_constraint": null, "bias_constraint": null}, "inbound_nodes": [[["concatenate_527", 0, 0, {}]]]}, {"name": "dense_583", "class_name": "Dense", "config": {"name": "dense_583", "trainable": true, "dtype": "float32", "units": 100, "activation": "relu", "use_bias": true, "kernel_initializer": {"class_name": "VarianceScaling", "config": {"scale": 1.0, "mode": "fan_avg", "distribution": "uniform", "seed": null}}, "bias_initializer": {"class_name": "Zeros", "config": {}}, "kernel_regularizer": null, "bias_regularizer": null, "activity_regularizer": null, "kernel_constraint": null, "bias_constraint": null}, "inbound_nodes": [[["concatenate_529", 0, 0, {}]]]}, {"name": "dense_587", "class_name": "Dense", "config": {"name": "dense_587", "trainable": true, "dtype": "float32", "units": 100, "activation": "relu", "use_bias": true, "kernel_initializer": {"class_name": "VarianceScaling", "config": {"scale": 1.0, "mode": "fan_avg", "distribution": "uniform", "seed": null}}, "bias_initializer": {"class_name": "Zeros", "config": {}}, "kernel_regularizer": null, "bias_regularizer": null, "activity_regularizer": null, "kernel_constraint": null, "bias_constraint": null}, "inbound_nodes": [[["concatenate_533", 0, 0, {}]]]}, {"name": "dense_589", "class_name": "Dense", "config": {"name": "dense_589", "trainable": true, "dtype": "float32", "units": 100, "activation": "relu", "use_bias": true, "kernel_initializer": {"class_name": "VarianceScaling", "config": {"scale": 1.0, "mode": "fan_avg", "distribution": "uniform", "seed": null}}, "bias_initializer": {"class_name": "Zeros", "config": {}}, "kernel_regularizer": null, "bias_regularizer": null, "activity_regularizer": null, "kernel_constraint": null, "bias_constraint": null}, "inbound_nodes": [[["concatenate_535", 0, 0, {}]]]}, {"name": "dense_597", "class_name": "Dense", "config": {"name": "dense_597", "trainable": true, "dtype": "float32", "units": 100, "activation": "relu", "use_bias": true, "kernel_initializer": {"class_name": "VarianceScaling", "config": {"scale": 1.0, "mode": "fan_avg", "distribution": "uniform", "seed": null}}, "bias_initializer": {"class_name": "Zeros", "config": {}}, "kernel_regularizer": null, "bias_regularizer": null, "activity_regularizer": null, "kernel_constraint": null, "bias_constraint": null}, "inbound_nodes": [[["concatenate_543", 0, 0, {}]]]}, {"name": "dense_599", "class_name": "Dense", "config": {"name": "dense_599", "trainable": true, "dtype": "float32", "units": 100, "activation": "relu", "use_bias": true, "kernel_initializer": {"class_name": "VarianceScaling", "config": {"scale": 1.0, "mode": "fan_avg", "distribution": "uniform", "seed": null}}, "bias_initializer": {"class_name": "Zeros", "config": {}}, "kernel_regularizer": null, "bias_regularizer": null, "activity_regularizer": null, "kernel_constraint": null, "bias_constraint": null}, "inbound_nodes": [[["concatenate_545", 0, 0, {}]]]}, {"name": "dense_603", "class_name": "Dense", "config": {"name": "dense_603", "trainable": true, "dtype": "float32", "units": 100, "activation": "relu", "use_bias": true, "kernel_initializer": {"class_name": "VarianceScaling", "config": {"scale": 1.0, "mode": "fan_avg", "distribution": "uniform", "seed": null}}, "bias_initializer": {"class_name": "Zeros", "config": {}}, "kernel_regularizer": null, "bias_regularizer": null, "activity_regularizer": null, "kernel_constraint": null, "bias_constraint": null}, "inbound_nodes": [[["concatenate_549", 0, 0, {}]]]}, {"name": "dense_605", "class_name": "Dense", "config": {"name": "dense_605", "trainable": true, "dtype": "float32", "units": 100, "activation": "relu", "use_bias": true, "kernel_initializer": {"class_name": "VarianceScaling", "config": {"scale": 1.0, "mode": "fan_avg", "distribution": "uniform", "seed": null}}, "bias_initializer": {"class_name": "Zeros", "config": {}}, "kernel_regularizer": null, "bias_regularizer": null, "activity_regularizer": null, "kernel_constraint": null, "bias_constraint": null}, "inbound_nodes": [[["concatenate_551", 0, 0, {}]]]}, {"name": "dense_640", "class_name": "Dense", "config": {"name": "dense_640", "trainable": true, "dtype": "float32", "units": 100, "activation": "relu", "use_bias": true, "kernel_initializer": {"class_name": "VarianceScaling", "config": {"scale": 1.0, "mode": "fan_avg", "distribution": "uniform", "seed": null}}, "bias_initializer": {"class_name": "Zeros", "config": {}}, "kernel_regularizer": null, "bias_regularizer": null, "activity_regularizer": null, "kernel_constraint": null, "bias_constraint": null}, "inbound_nodes": [[["concatenate_586", 0, 0, {}]]]}, {"name": "dense_656", "class_name": "Dense", "config": {"name": "dense_656", "trainable": true, "dtype": "float32", "units": 100, "activation": "relu", "use_bias": true, "kernel_initializer": {"class_name": "VarianceScaling", "config": {"scale": 1.0, "mode": "fan_avg", "distribution": "uniform", "seed": null}}, "bias_initializer": {"class_name": "Zeros", "config": {}}, "kernel_regularizer": null, "bias_regularizer": null, "activity_regularizer": null, "kernel_constraint": null, "bias_constraint": null}, "inbound_nodes": [[["concatenate_602", 0, 0, {}]]]}, {"name": "dense_658", "class_name": "Dense", "config": {"name": "dense_658", "trainable": true, "dtype": "float32", "units": 100, "activation": "relu", "use_bias": true, "kernel_initializer": {"class_name": "VarianceScaling", "config": {"scale": 1.0, "mode": "fan_avg", "distribution": "uniform", "seed": null}}, "bias_initializer": {"class_name": "Zeros", "config": {}}, "kernel_regularizer": null, "bias_regularizer": null, "activity_regularizer": null, "kernel_constraint": null, "bias_constraint": null}, "inbound_nodes": [[["concatenate_604", 0, 0, {}]]]}, {"name": "dense_662", "class_name": "Dense", "config": {"name": "dense_662", "trainable": true, "dtype": "float32", "units": 100, "activation": "relu", "use_bias": true, "kernel_initializer": {"class_name": "VarianceScaling", "config": {"scale": 1.0, "mode": "fan_avg", "distribution": "uniform", "seed": null}}, "bias_initializer": {"class_name": "Zeros", "config": {}}, "kernel_regularizer": null, "bias_regularizer": null, "activity_regularizer": null, "kernel_constraint": null, "bias_constraint": null}, "inbound_nodes": [[["concatenate_608", 0, 0, {}]]]}, {"name": "dense_664", "class_name": "Dense", "config": {"name": "dense_664", "trainable": true, "dtype": "float32", "units": 100, "activation": "relu", "use_bias": true, "kernel_initializer": {"class_name": "VarianceScaling", "config": {"scale": 1.0, "mode": "fan_avg", "distribution": "uniform", "seed": null}}, "bias_initializer": {"class_name": "Zeros", "config": {}}, "kernel_regularizer": null, "bias_regularizer": null, "activity_regularizer": null, "kernel_constraint": null, "bias_constraint": null}, "inbound_nodes": [[["concatenate_610", 0, 0, {}]]]}, {"name": "dense_674", "class_name": "Dense", "config": {"name": "dense_674", "trainable": true, "dtype": "float32", "units": 100, "activation": "relu", "use_bias": true, "kernel_initializer": {"class_name": "VarianceScaling", "config": {"scale": 1.0, "mode": "fan_avg", "distribution": "uniform", "seed": null}}, "bias_initializer": {"class_name": "Zeros", "config": {}}, "kernel_regularizer": null, "bias_regularizer": null, "activity_regularizer": null, "kernel_constraint": null, "bias_constraint": null}, "inbound_nodes": [[["concatenate_620", 0, 0, {}]]]}, {"name": "dense_676", "class_name": "Dense", "config": {"name": "dense_676", "trainable": true, "dtype": "float32", "units": 100, "activation": "relu", "use_bias": true, "kernel_initializer": {"class_name": "VarianceScaling", "config": {"scale": 1.0, "mode": "fan_avg", "distribution": "uniform", "seed": null}}, "bias_initializer": {"class_name": "Zeros", "config": {}}, "kernel_regularizer": null, "bias_regularizer": null, "activity_regularizer": null, "kernel_constraint": null, "bias_constraint": null}, "inbound_nodes": [[["concatenate_622", 0, 0, {}]]]}, {"name": "dense_680", "class_name": "Dense", "config": {"name": "dense_680", "trainable": true, "dtype": "float32", "units": 100, "activation": "relu", "use_bias": true, "kernel_initializer": {"class_name": "VarianceScaling", "config": {"scale": 1.0, "mode": "fan_avg", "distribution": "uniform", "seed": null}}, "bias_initializer": {"class_name": "Zeros", "config": {}}, "kernel_regularizer": null, "bias_regularizer": null, "activity_regularizer": null, "kernel_constraint": null, "bias_constraint": null}, "inbound_nodes": [[["concatenate_626", 0, 0, {}]]]}, {"name": "dense_692", "class_name": "Dense", "config": {"name": "dense_692", "trainable": true, "dtype": "float32", "units": 100, "activation": "relu", "use_bias": true, "kernel_initializer": {"class_name": "VarianceScaling", "config": {"scale": 1.0, "mode": "fan_avg", "distribution": "uniform", "seed": null}}, "bias_initializer": {"class_name": "Zeros", "config": {}}, "kernel_regularizer": null, "bias_regularizer": null, "activity_regularizer": null, "kernel_constraint": null, "bias_constraint": null}, "inbound_nodes": [[["concatenate_638", 0, 0, {}]]]}, {"name": "dense_697", "class_name": "Dense", "config": {"name": "dense_697", "trainable": true, "dtype": "float32", "units": 100, "activation": "relu", "use_bias": true, "kernel_initializer": {"class_name": "VarianceScaling", "config": {"scale": 1.0, "mode": "fan_avg", "distribution": "uniform", "seed": null}}, "bias_initializer": {"class_name": "Zeros", "config": {}}, "kernel_regularizer": null, "bias_regularizer": null, "activity_regularizer": null, "kernel_constraint": null, "bias_constraint": null}, "inbound_nodes": [[["concatenate_643", 0, 0, {}]]]}, {"name": "dense_699", "class_name": "Dense", "config": {"name": "dense_699", "trainable": true, "dtype": "float32", "units": 100, "activation": "relu", "use_bias": true, "kernel_initializer": {"class_name": "VarianceScaling", "config": {"scale": 1.0, "mode": "fan_avg", "distribution": "uniform", "seed": null}}, "bias_initializer": {"class_name": "Zeros", "config": {}}, "kernel_regularizer": null, "bias_regularizer": null, "activity_regularizer": null, "kernel_constraint": null, "bias_constraint": null}, "inbound_nodes": [[["concatenate_645", 0, 0, {}]]]}, {"name": "dense_715", "class_name": "Dense", "config": {"name": "dense_715", "trainable": true, "dtype": "float32", "units": 100, "activation": "relu", "use_bias": true, "kernel_initializer": {"class_name": "VarianceScaling", "config": {"scale": 1.0, "mode": "fan_avg", "distribution": "uniform", "seed": null}}, "bias_initializer": {"class_name": "Zeros", "config": {}}, "kernel_regularizer": null, "bias_regularizer": null, "activity_regularizer": null, "kernel_constraint": null, "bias_constraint": null}, "inbound_nodes": [[["concatenate_661", 0, 0, {}]]]}, {"name": "dense_717", "class_name": "Dense", "config": {"name": "dense_717", "trainable": true, "dtype": "float32", "units": 100, "activation": "relu", "use_bias": true, "kernel_initializer": {"class_name": "VarianceScaling", "config": {"scale": 1.0, "mode": "fan_avg", "distribution": "uniform", "seed": null}}, "bias_initializer": {"class_name": "Zeros", "config": {}}, "kernel_regularizer": null, "bias_regularizer": null, "activity_regularizer": null, "kernel_constraint": null, "bias_constraint": null}, "inbound_nodes": [[["concatenate_663", 0, 0, {}]]]}, {"name": "dense_721", "class_name": "Dense", "config": {"name": "dense_721", "trainable": true, "dtype": "float32", "units": 100, "activation": "relu", "use_bias": true, "kernel_initializer": {"class_name": "VarianceScaling", "config": {"scale": 1.0, "mode": "fan_avg", "distribution": "uniform", "seed": null}}, "bias_initializer": {"class_name": "Zeros", "config": {}}, "kernel_regularizer": null, "bias_regularizer": null, "activity_regularizer": null, "kernel_constraint": null, "bias_constraint": null}, "inbound_nodes": [[["concatenate_667", 0, 0, {}]]]}, {"name": "dense_723", "class_name": "Dense", "config": {"name": "dense_723", "trainable": true, "dtype": "float32", "units": 100, "activation": "relu", "use_bias": true, "kernel_initializer": {"class_name": "VarianceScaling", "config": {"scale": 1.0, "mode": "fan_avg", "distribution": "uniform", "seed": null}}, "bias_initializer": {"class_name": "Zeros", "config": {}}, "kernel_regularizer": null, "bias_regularizer": null, "activity_regularizer": null, "kernel_constraint": null, "bias_constraint": null}, "inbound_nodes": [[["concatenate_669", 0, 0, {}]]]}, {"name": "dense_732", "class_name": "Dense", "config": {"name": "dense_732", "trainable": true, "dtype": "float32", "units": 100, "activation": "relu", "use_bias": true, "kernel_initializer": {"class_name": "VarianceScaling", "config": {"scale": 1.0, "mode": "fan_avg", "distribution": "uniform", "seed": null}}, "bias_initializer": {"class_name": "Zeros", "config": {}}, "kernel_regularizer": null, "bias_regularizer": null, "activity_regularizer": null, "kernel_constraint": null, "bias_constraint": null}, "inbound_nodes": [[["concatenate_678", 0, 0, {}]]]}, {"name": "dense_746", "class_name": "Dense", "config": {"name": "dense_746", "trainable": true, "dtype": "float32", "units": 100, "activation": "relu", "use_bias": true, "kernel_initializer": {"class_name": "VarianceScaling", "config": {"scale": 1.0, "mode": "fan_avg", "distribution": "uniform", "seed": null}}, "bias_initializer": {"class_name": "Zeros", "config": {}}, "kernel_regularizer": null, "bias_regularizer": null, "activity_regularizer": null, "kernel_constraint": null, "bias_constraint": null}, "inbound_nodes": [[["concatenate_692", 0, 0, {}]]]}, {"name": "dense_772", "class_name": "Dense", "config": {"name": "dense_772", "trainable": true, "dtype": "float32", "units": 100, "activation": "relu", "use_bias": true, "kernel_initializer": {"class_name": "VarianceScaling", "config": {"scale": 1.0, "mode": "fan_avg", "distribution": "uniform", "seed": null}}, "bias_initializer": {"class_name": "Zeros", "config": {}}, "kernel_regularizer": null, "bias_regularizer": null, "activity_regularizer": null, "kernel_constraint": null, "bias_constraint": null}, "inbound_nodes": [[["concatenate_718", 0, 0, {}]]]}, {"name": "dense_774", "class_name": "Dense", "config": {"name": "dense_774", "trainable": true, "dtype": "float32", "units": 100, "activation": "relu", "use_bias": true, "kernel_initializer": {"class_name": "VarianceScaling", "config": {"scale": 1.0, "mode": "fan_avg", "distribution": "uniform", "seed": null}}, "bias_initializer": {"class_name": "Zeros", "config": {}}, "kernel_regularizer": null, "bias_regularizer": null, "activity_regularizer": null, "kernel_constraint": null, "bias_constraint": null}, "inbound_nodes": [[["concatenate_720", 0, 0, {}]]]}, {"name": "dense_778", "class_name": "Dense", "config": {"name": "dense_778", "trainable": true, "dtype": "float32", "units": 100, "activation": "relu", "use_bias": true, "kernel_initializer": {"class_name": "VarianceScaling", "config": {"scale": 1.0, "mode": "fan_avg", "distribution": "uniform", "seed": null}}, "bias_initializer": {"class_name": "Zeros", "config": {}}, "kernel_regularizer": null, "bias_regularizer": null, "activity_regularizer": null, "kernel_constraint": null, "bias_constraint": null}, "inbound_nodes": [[["concatenate_724", 0, 0, {}]]]}, {"name": "dense_780", "class_name": "Dense", "config": {"name": "dense_780", "trainable": true, "dtype": "float32", "units": 100, "activation": "relu", "use_bias": true, "kernel_initializer": {"class_name": "VarianceScaling", "config": {"scale": 1.0, "mode": "fan_avg", "distribution": "uniform", "seed": null}}, "bias_initializer": {"class_name": "Zeros", "config": {}}, "kernel_regularizer": null, "bias_regularizer": null, "activity_regularizer": null, "kernel_constraint": null, "bias_constraint": null}, "inbound_nodes": [[["concatenate_726", 0, 0, {}]]]}, {"name": "concatenate_2", "class_name": "Concatenate", "config": {"name": "concatenate_2", "trainable": true, "dtype": "float32", "axis": -1}, "inbound_nodes": [[["dense_55", 0, 0, {}], ["dense_1", 0, 0, {}]]]}, {"name": "concatenate_4", "class_name": "Concatenate", "config": {"name": "concatenate_4", "trainable": true, "dtype": "float32", "axis": -1}, "inbound_nodes": [[["dense_57", 0, 0, {}], ["dense_1", 0, 0, {}]]]}, {"name": "concatenate_8", "class_name": "Concatenate", "config": {"name": "concatenate_8", "trainable": true, "dtype": "float32", "axis": -1}, "inbound_nodes": [[["dense_61", 0, 0, {}], ["dense_1", 0, 0, {}]]]}, {"name": "concatenate_10", "class_name": "Concatenate", "config": {"name": "concatenate_10", "trainable": true, "dtype": "float32", "axis": -1}, "inbound_nodes": [[["dense_63", 0, 0, {}], ["dense_10", 0, 0, {}]]]}, {"name": "concatenate_15", "class_name": "Concatenate", "config": {"name": "concatenate_15", "trainable": true, "dtype": "float32", "axis": -1}, "inbound_nodes": [[["dense_24", 0, 0, {}], ["dense_53", 0, 0, {}]]]}, {"name": "concatenate_17", "class_name": "Concatenate", "config": {"name": "concatenate_17", "trainable": true, "dtype": "float32", "axis": -1}, "inbound_nodes": [[["dense_70", 0, 0, {}], ["dense_2", 0, 0, {}]]]}, {"name": "concatenate_21", "class_name": "Concatenate", "config": {"name": "concatenate_21", "trainable": true, "dtype": "float32", "axis": -1}, "inbound_nodes": [[["dense_74", 0, 0, {}], ["dense_8", 0, 0, {}]]]}, {"name": "concatenate_23", "class_name": "Concatenate", "config": {"name": "concatenate_23", "trainable": true, "dtype": "float32", "axis": -1}, "inbound_nodes": [[["dense_76", 0, 0, {}], ["dense_7", 0, 0, {}]]]}, {"name": "concatenate_31", "class_name": "Concatenate", "config": {"name": "concatenate_31", "trainable": true, "dtype": "float32", "axis": -1}, "inbound_nodes": [[["dense_84", 0, 0, {}], ["dense_1", 0, 0, {}]]]}, {"name": "concatenate_33", "class_name": "Concatenate", "config": {"name": "concatenate_33", "trainable": true, "dtype": "float32", "axis": -1}, "inbound_nodes": [[["dense_86", 0, 0, {}], ["dense_10", 0, 0, {}]]]}, {"name": "concatenate_37", "class_name": "Concatenate", "config": {"name": "concatenate_37", "trainable": true, "dtype": "float32", "axis": -1}, "inbound_nodes": [[["dense_90", 0, 0, {}], ["dense_1", 0, 0, {}]]]}, {"name": "concatenate_39", "class_name": "Concatenate", "config": {"name": "concatenate_39", "trainable": true, "dtype": "float32", "axis": -1}, "inbound_nodes": [[["dense_92", 0, 0, {}], ["dense_10", 0, 0, {}]]]}, {"name": "input_16", "class_name": "InputLayer", "config": {"batch_input_shape": [null, 1], "dtype": "float32", "sparse": false, "name": "input_16"}, "inbound_nodes": []}, {"name": "concatenate_46", "class_name": "Concatenate", "config": {"name": "concatenate_46", "trainable": true, "dtype": "float32", "axis": -1}, "inbound_nodes": [[["dense_6", 0, 0, {}], ["dense_53", 0, 0, {}]]]}, {"name": "concatenate_47", "class_name": "Concatenate", "config": {"name": "concatenate_47", "trainable": true, "dtype": "float32", "axis": -1}, "inbound_nodes": [[["dense_10", 0, 0, {}], ["dense_1", 0, 0, {}]]]}, {"name": "concatenate_61", "class_name": "Concatenate", "config": {"name": "concatenate_61", "trainable": true, "dtype": "float32", "axis": -1}, "inbound_nodes": [[["dense_114", 0, 0, {}], ["dense_24", 0, 0, {}]]]}, {"name": "concatenate_63", "class_name": "Concatenate", "config": {"name": "concatenate_63", "trainable": true, "dtype": "float32", "axis": -1}, "inbound_nodes": [[["dense_116", 0, 0, {}], ["dense_6", 0, 0, {}]]]}, {"name": "concatenate_66", "class_name": "Concatenate", "config": {"name": "concatenate_66", "trainable": true, "dtype": "float32", "axis": -1}, "inbound_nodes": [[["dense_1", 0, 0, {}], ["dense_10", 0, 0, {}]]]}, {"name": "concatenate_79", "class_name": "Concatenate", "config": {"name": "concatenate_79", "trainable": true, "dtype": "float32", "axis": -1}, "inbound_nodes": [[["dense_3", 0, 0, {}], ["dense_1", 0, 0, {}]]]}, {"name": "concatenate_91", "class_name": "Concatenate", "config": {"name": "concatenate_91", "trainable": true, "dtype": "float32", "axis": -1}, "inbound_nodes": [[["dense_144", 0, 0, {}], ["dense_13", 0, 0, {}]]]}, {"name": "concatenate_93", "class_name": "Concatenate", "config": {"name": "concatenate_93", "trainable": true, "dtype": "float32", "axis": -1}, "inbound_nodes": [[["dense_146", 0, 0, {}], ["dense_4", 0, 0, {}]]]}, {"name": "concatenate_97", "class_name": "Concatenate", "config": {"name": "concatenate_97", "trainable": true, "dtype": "float32", "axis": -1}, "inbound_nodes": [[["dense_150", 0, 0, {}], ["dense_10", 0, 0, {}]]]}, {"name": "concatenate_99", "class_name": "Concatenate", "config": {"name": "concatenate_99", "trainable": true, "dtype": "float32", "axis": -1}, "inbound_nodes": [[["dense_152", 0, 0, {}], ["dense_3", 0, 0, {}]]]}, {"name": "concatenate_105", "class_name": "Concatenate", "config": {"name": "concatenate_105", "trainable": true, "dtype": "float32", "axis": -1}, "inbound_nodes": [[["dense_158", 0, 0, {}], ["dense_1", 0, 0, {}]]]}, {"name": "concatenate_107", "class_name": "Concatenate", "config": {"name": "concatenate_107", "trainable": true, "dtype": "float32", "axis": -1}, "inbound_nodes": [[["dense_160", 0, 0, {}], ["dense_6", 0, 0, {}]]]}, {"name": "concatenate_111", "class_name": "Concatenate", "config": {"name": "concatenate_111", "trainable": true, "dtype": "float32", "axis": -1}, "inbound_nodes": [[["dense_164", 0, 0, {}], ["dense_2", 0, 0, {}]]]}, {"name": "concatenate_112", "class_name": "Concatenate", "config": {"name": "concatenate_112", "trainable": true, "dtype": "float32", "axis": -1}, "inbound_nodes": [[["dense_6", 0, 0, {}], ["dense_6", 0, 0, {}]]]}, {"name": "concatenate_120", "class_name": "Concatenate", "config": {"name": "concatenate_120", "trainable": true, "dtype": "float32", "axis": -1}, "inbound_nodes": [[["dense_173", 0, 0, {}], ["dense_6", 0, 0, {}]]]}, {"name": "concatenate_122", "class_name": "Concatenate", "config": {"name": "concatenate_122", "trainable": true, "dtype": "float32", "axis": -1}, "inbound_nodes": [[["dense_175", 0, 0, {}], ["dense_1", 0, 0, {}]]]}, {"name": "concatenate_126", "class_name": "Concatenate", "config": {"name": "concatenate_126", "trainable": true, "dtype": "float32", "axis": -1}, "inbound_nodes": [[["dense_179", 0, 0, {}], ["dense_1", 0, 0, {}]]]}, {"name": "concatenate_127", "class_name": "Concatenate", "config": {"name": "concatenate_127", "trainable": true, "dtype": "float32", "axis": -1}, "inbound_nodes": [[["dense_1", 0, 0, {}], ["dense_53", 0, 0, {}]]]}, {"name": "concatenate_133", "class_name": "Concatenate", "config": {"name": "concatenate_133", "trainable": true, "dtype": "float32", "axis": -1}, "inbound_nodes": [[["dense_186", 0, 0, {}], ["dense_6", 0, 0, {}]]]}, {"name": "concatenate_135", "class_name": "Concatenate", "config": {"name": "concatenate_135", "trainable": true, "dtype": "float32", "axis": -1}, "inbound_nodes": [[["dense_188", 0, 0, {}], ["dense_10", 0, 0, {}]]]}, {"name": "concatenate_159", "class_name": "Concatenate", "config": {"name": "concatenate_159", "trainable": true, "dtype": "float32", "axis": -1}, "inbound_nodes": [[["dense_212", 0, 0, {}], ["dense_25", 0, 0, {}]]]}, {"name": "concatenate_161", "class_name": "Concatenate", "config": {"name": "concatenate_161", "trainable": true, "dtype": "float32", "axis": -1}, "inbound_nodes": [[["dense_214", 0, 0, {}], ["dense_6", 0, 0, {}]]]}, {"name": "concatenate_165", "class_name": "Concatenate", "config": {"name": "concatenate_165", "trainable": true, "dtype": "float32", "axis": -1}, "inbound_nodes": [[["dense_218", 0, 0, {}], ["dense_36", 0, 0, {}]]]}, {"name": "concatenate_167", "class_name": "Concatenate", "config": {"name": "concatenate_167", "trainable": true, "dtype": "float32", "axis": -1}, "inbound_nodes": [[["dense_220", 0, 0, {}], ["dense_1", 0, 0, {}]]]}, {"name": "concatenate_173", "class_name": "Concatenate", "config": {"name": "concatenate_173", "trainable": true, "dtype": "float32", "axis": -1}, "inbound_nodes": [[["dense_226", 0, 0, {}], ["dense_9", 0, 0, {}]]]}, {"name": "concatenate_175", "class_name": "Concatenate", "config": {"name": "concatenate_175", "trainable": true, "dtype": "float32", "axis": -1}, "inbound_nodes": [[["dense_228", 0, 0, {}], ["dense_1", 0, 0, {}]]]}, {"name": "concatenate_179", "class_name": "Concatenate", "config": {"name": "concatenate_179", "trainable": true, "dtype": "float32", "axis": -1}, "inbound_nodes": [[["dense_232", 0, 0, {}], ["dense_1", 0, 0, {}]]]}, {"name": "concatenate_181", "class_name": "Concatenate", "config": {"name": "concatenate_181", "trainable": true, "dtype": "float32", "axis": -1}, "inbound_nodes": [[["dense_234", 0, 0, {}], ["dense_10", 0, 0, {}]]]}, {"name": "concatenate_189", "class_name": "Concatenate", "config": {"name": "concatenate_189", "trainable": true, "dtype": "float32", "axis": -1}, "inbound_nodes": [[["dense_242", 0, 0, {}], ["dense_8", 0, 0, {}]]]}, {"name": "concatenate_191", "class_name": "Concatenate", "config": {"name": "concatenate_191", "trainable": true, "dtype": "float32", "axis": -1}, "inbound_nodes": [[["dense_244", 0, 0, {}], ["dense_6", 0, 0, {}]]]}, {"name": "concatenate_195", "class_name": "Concatenate", "config": {"name": "concatenate_195", "trainable": true, "dtype": "float32", "axis": -1}, "inbound_nodes": [[["dense_248", 0, 0, {}], ["dense_6", 0, 0, {}]]]}, {"name": "concatenate_197", "class_name": "Concatenate", "config": {"name": "concatenate_197", "trainable": true, "dtype": "float32", "axis": -1}, "inbound_nodes": [[["dense_250", 0, 0, {}], ["dense_10", 0, 0, {}]]]}, {"name": "concatenate_203", "class_name": "Concatenate", "config": {"name": "concatenate_203", "trainable": true, "dtype": "float32", "axis": -1}, "inbound_nodes": [[["dense_256", 0, 0, {}], ["dense_6", 0, 0, {}]]]}, {"name": "concatenate_205", "class_name": "Concatenate", "config": {"name": "concatenate_205", "trainable": true, "dtype": "float32", "axis": -1}, "inbound_nodes": [[["dense_258", 0, 0, {}], ["dense_6", 0, 0, {}]]]}, {"name": "concatenate_209", "class_name": "Concatenate", "config": {"name": "concatenate_209", "trainable": true, "dtype": "float32", "axis": -1}, "inbound_nodes": [[["dense_262", 0, 0, {}], ["dense_36", 0, 0, {}]]]}, {"name": "concatenate_211", "class_name": "Concatenate", "config": {"name": "concatenate_211", "trainable": true, "dtype": "float32", "axis": -1}, "inbound_nodes": [[["dense_264", 0, 0, {}], ["dense_6", 0, 0, {}]]]}, {"name": "concatenate_221", "class_name": "Concatenate", "config": {"name": "concatenate_221", "trainable": true, "dtype": "float32", "axis": -1}, "inbound_nodes": [[["dense_274", 0, 0, {}], ["dense_5", 0, 0, {}]]]}, {"name": "concatenate_223", "class_name": "Concatenate", "config": {"name": "concatenate_223", "trainable": true, "dtype": "float32", "axis": -1}, "inbound_nodes": [[["dense_276", 0, 0, {}], ["dense_3", 0, 0, {}]]]}, {"name": "concatenate_227", "class_name": "Concatenate", "config": {"name": "concatenate_227", "trainable": true, "dtype": "float32", "axis": -1}, "inbound_nodes": [[["dense_280", 0, 0, {}], ["dense_10", 0, 0, {}]]]}, {"name": "concatenate_233", "class_name": "Concatenate", "config": {"name": "concatenate_233", "trainable": true, "dtype": "float32", "axis": -1}, "inbound_nodes": [[["dense_286", 0, 0, {}], ["dense_10", 0, 0, {}]]]}, {"name": "concatenate_235", "class_name": "Concatenate", "config": {"name": "concatenate_235", "trainable": true, "dtype": "float32", "axis": -1}, "inbound_nodes": [[["dense_288", 0, 0, {}], ["dense_1", 0, 0, {}]]]}, {"name": "concatenate_239", "class_name": "Concatenate", "config": {"name": "concatenate_239", "trainable": true, "dtype": "float32", "axis": -1}, "inbound_nodes": [[["dense_292", 0, 0, {}], ["dense_10", 0, 0, {}]]]}, {"name": "concatenate_240", "class_name": "Concatenate", "config": {"name": "concatenate_240", "trainable": true, "dtype": "float32", "axis": -1}, "inbound_nodes": [[["dense_6", 0, 0, {}], ["dense_5", 0, 0, {}]]]}, {"name": "concatenate_248", "class_name": "Concatenate", "config": {"name": "concatenate_248", "trainable": true, "dtype": "float32", "axis": -1}, "inbound_nodes": [[["dense_301", 0, 0, {}], ["dense_4", 0, 0, {}]]]}, {"name": "concatenate_249", "class_name": "Concatenate", "config": {"name": "concatenate_249", "trainable": true, "dtype": "float32", "axis": -1}, "inbound_nodes": [[["dense_8", 0, 0, {}], ["dense_6", 0, 0, {}]]]}, {"name": "concatenate_253", "class_name": "Concatenate", "config": {"name": "concatenate_253", "trainable": true, "dtype": "float32", "axis": -1}, "inbound_nodes": [[["dense_306", 0, 0, {}], ["dense_10", 0, 0, {}]]]}, {"name": "concatenate_255", "class_name": "Concatenate", "config": {"name": "concatenate_255", "trainable": true, "dtype": "float32", "axis": -1}, "inbound_nodes": [[["dense_308", 0, 0, {}], ["dense_10", 0, 0, {}]]]}, {"name": "concatenate_270", "class_name": "Concatenate", "config": {"name": "concatenate_270", "trainable": true, "dtype": "float32", "axis": -1}, "inbound_nodes": [[["dense_8", 0, 0, {}], ["dense_7", 0, 0, {}]]]}, {"name": "concatenate_275", "class_name": "Concatenate", "config": {"name": "concatenate_275", "trainable": true, "dtype": "float32", "axis": -1}, "inbound_nodes": [[["dense_4", 0, 0, {}], ["dense_6", 0, 0, {}]]]}, {"name": "concatenate_277", "class_name": "Concatenate", "config": {"name": "concatenate_277", "trainable": true, "dtype": "float32", "axis": -1}, "inbound_nodes": [[["dense_1", 0, 0, {}], ["dense_2", 0, 0, {}]]]}, {"name": "concatenate_285", "class_name": "Concatenate", "config": {"name": "concatenate_285", "trainable": true, "dtype": "float32", "axis": -1}, "inbound_nodes": [[["dense_338", 0, 0, {}], ["dense_2", 0, 0, {}]]]}, {"name": "concatenate_287", "class_name": "Concatenate", "config": {"name": "concatenate_287", "trainable": true, "dtype": "float32", "axis": -1}, "inbound_nodes": [[["dense_340", 0, 0, {}], ["dense_4", 0, 0, {}]]]}, {"name": "concatenate_291", "class_name": "Concatenate", "config": {"name": "concatenate_291", "trainable": true, "dtype": "float32", "axis": -1}, "inbound_nodes": [[["dense_344", 0, 0, {}], ["dense_10", 0, 0, {}]]]}, {"name": "concatenate_293", "class_name": "Concatenate", "config": {"name": "concatenate_293", "trainable": true, "dtype": "float32", "axis": -1}, "inbound_nodes": [[["dense_346", 0, 0, {}], ["dense_5", 0, 0, {}]]]}, {"name": "concatenate_298", "class_name": "Concatenate", "config": {"name": "concatenate_298", "trainable": true, "dtype": "float32", "axis": -1}, "inbound_nodes": [[["dense_10", 0, 0, {}], ["dense_6", 0, 0, {}]]]}, {"name": "concatenate_300", "class_name": "Concatenate", "config": {"name": "concatenate_300", "trainable": true, "dtype": "float32", "axis": -1}, "inbound_nodes": [[["dense_353", 0, 0, {}], ["dense_6", 0, 0, {}]]]}, {"name": "concatenate_303", "class_name": "Concatenate", "config": {"name": "concatenate_303", "trainable": true, "dtype": "float32", "axis": -1}, "inbound_nodes": [[["dense_6", 0, 0, {}], ["dense_4", 0, 0, {}]]]}, {"name": "concatenate_305", "class_name": "Concatenate", "config": {"name": "concatenate_305", "trainable": true, "dtype": "float32", "axis": -1}, "inbound_nodes": [[["dense_358", 0, 0, {}], ["dense_1", 0, 0, {}]]]}, {"name": "concatenate_314", "class_name": "Concatenate", "config": {"name": "concatenate_314", "trainable": true, "dtype": "float32", "axis": -1}, "inbound_nodes": [[["dense_2", 0, 0, {}], ["dense_6", 0, 0, {}]]]}, {"name": "concatenate_322", "class_name": "Concatenate", "config": {"name": "concatenate_322", "trainable": true, "dtype": "float32", "axis": -1}, "inbound_nodes": [[["dense_375", 0, 0, {}], ["dense_10", 0, 0, {}]]]}, {"name": "concatenate_324", "class_name": "Concatenate", "config": {"name": "concatenate_324", "trainable": true, "dtype": "float32", "axis": -1}, "inbound_nodes": [[["dense_377", 0, 0, {}], ["dense_8", 0, 0, {}]]]}, {"name": "concatenate_332", "class_name": "Concatenate", "config": {"name": "concatenate_332", "trainable": true, "dtype": "float32", "axis": -1}, "inbound_nodes": [[["dense_385", 0, 0, {}], ["dense_6", 0, 0, {}]]]}, {"name": "concatenate_334", "class_name": "Concatenate", "config": {"name": "concatenate_334", "trainable": true, "dtype": "float32", "axis": -1}, "inbound_nodes": [[["dense_387", 0, 0, {}], ["dense_4", 0, 0, {}]]]}, {"name": "concatenate_337", "class_name": "Concatenate", "config": {"name": "concatenate_337", "trainable": true, "dtype": "float32", "axis": -1}, "inbound_nodes": [[["dense_5", 0, 0, {}], ["dense_9", 0, 0, {}]]]}, {"name": "concatenate_343", "class_name": "Concatenate", "config": {"name": "concatenate_343", "trainable": true, "dtype": "float32", "axis": -1}, "inbound_nodes": [[["dense_396", 0, 0, {}], ["dense_2", 0, 0, {}]]]}, {"name": "concatenate_345", "class_name": "Concatenate", "config": {"name": "concatenate_345", "trainable": true, "dtype": "float32", "axis": -1}, "inbound_nodes": [[["dense_398", 0, 0, {}], ["dense_1", 0, 0, {}]]]}, {"name": "concatenate_348", "class_name": "Concatenate", "config": {"name": "concatenate_348", "trainable": true, "dtype": "float32", "axis": -1}, "inbound_nodes": [[["dense_5", 0, 0, {}], ["dense_4", 0, 0, {}]]]}, {"name": "concatenate_364", "class_name": "Concatenate", "config": {"name": "concatenate_364", "trainable": true, "dtype": "float32", "axis": -1}, "inbound_nodes": [[["dense_417", 0, 0, {}], ["dense_45", 0, 0, {}]]]}, {"name": "concatenate_366", "class_name": "Concatenate", "config": {"name": "concatenate_366", "trainable": true, "dtype": "float32", "axis": -1}, "inbound_nodes": [[["dense_419", 0, 0, {}], ["dense_3", 0, 0, {}]]]}, {"name": "concatenate_370", "class_name": "Concatenate", "config": {"name": "concatenate_370", "trainable": true, "dtype": "float32", "axis": -1}, "inbound_nodes": [[["dense_423", 0, 0, {}], ["dense_10", 0, 0, {}]]]}, {"name": "concatenate_372", "class_name": "Concatenate", "config": {"name": "concatenate_372", "trainable": true, "dtype": "float32", "axis": -1}, "inbound_nodes": [[["dense_425", 0, 0, {}], ["dense_10", 0, 0, {}]]]}, {"name": "concatenate_380", "class_name": "Concatenate", "config": {"name": "concatenate_380", "trainable": true, "dtype": "float32", "axis": -1}, "inbound_nodes": [[["dense_433", 0, 0, {}], ["dense_6", 0, 0, {}]]]}, {"name": "concatenate_382", "class_name": "Concatenate", "config": {"name": "concatenate_382", "trainable": true, "dtype": "float32", "axis": -1}, "inbound_nodes": [[["dense_435", 0, 0, {}], ["dense_10", 0, 0, {}]]]}, {"name": "concatenate_386", "class_name": "Concatenate", "config": {"name": "concatenate_386", "trainable": true, "dtype": "float32", "axis": -1}, "inbound_nodes": [[["dense_439", 0, 0, {}], ["dense_10", 0, 0, {}]]]}, {"name": "concatenate_388", "class_name": "Concatenate", "config": {"name": "concatenate_388", "trainable": true, "dtype": "float32", "axis": -1}, "inbound_nodes": [[["dense_441", 0, 0, {}], ["dense_5", 0, 0, {}]]]}, {"name": "concatenate_393", "class_name": "Concatenate", "config": {"name": "concatenate_393", "trainable": true, "dtype": "float32", "axis": -1}, "inbound_nodes": [[["dense_10", 0, 0, {}], ["dense_10", 0, 0, {}]]]}, {"name": "concatenate_405", "class_name": "Concatenate", "config": {"name": "concatenate_405", "trainable": true, "dtype": "float32", "axis": -1}, "inbound_nodes": [[["dense_458", 0, 0, {}], ["dense_38", 0, 0, {}]]]}, {"name": "concatenate_407", "class_name": "Concatenate", "config": {"name": "concatenate_407", "trainable": true, "dtype": "float32", "axis": -1}, "inbound_nodes": [[["dense_460", 0, 0, {}], ["dense_47", 0, 0, {}]]]}, {"name": "concatenate_411", "class_name": "Concatenate", "config": {"name": "concatenate_411", "trainable": true, "dtype": "float32", "axis": -1}, "inbound_nodes": [[["dense_464", 0, 0, {}], ["dense_11", 0, 0, {}]]]}, {"name": "concatenate_413", "class_name": "Concatenate", "config": {"name": "concatenate_413", "trainable": true, "dtype": "float32", "axis": -1}, "inbound_nodes": [[["dense_466", 0, 0, {}], ["dense_1", 0, 0, {}]]]}, {"name": "concatenate_418", "class_name": "Concatenate", "config": {"name": "concatenate_418", "trainable": true, "dtype": "float32", "axis": -1}, "inbound_nodes": [[["dense_10", 0, 0, {}], ["dense_4", 0, 0, {}]]]}, {"name": "concatenate_422", "class_name": "Concatenate", "config": {"name": "concatenate_422", "trainable": true, "dtype": "float32", "axis": -1}, "inbound_nodes": [[["dense_475", 0, 0, {}], ["dense_4", 0, 0, {}]]]}, {"name": "concatenate_423", "class_name": "Concatenate", "config": {"name": "concatenate_423", "trainable": true, "dtype": "float32", "axis": -1}, "inbound_nodes": [[["dense_4", 0, 0, {}], ["dense_5", 0, 0, {}]]]}, {"name": "concatenate_431", "class_name": "Concatenate", "config": {"name": "concatenate_431", "trainable": true, "dtype": "float32", "axis": -1}, "inbound_nodes": [[["dense_484", 0, 0, {}], ["dense_1", 0, 0, {}]]]}, {"name": "concatenate_433", "class_name": "Concatenate", "config": {"name": "concatenate_433", "trainable": true, "dtype": "float32", "axis": -1}, "inbound_nodes": [[["dense_486", 0, 0, {}], ["dense_52", 0, 0, {}]]]}, {"name": "concatenate_437", "class_name": "Concatenate", "config": {"name": "concatenate_437", "trainable": true, "dtype": "float32", "axis": -1}, "inbound_nodes": [[["dense_490", 0, 0, {}], ["dense_7", 0, 0, {}]]]}, {"name": "concatenate_439", "class_name": "Concatenate", "config": {"name": "concatenate_439", "trainable": true, "dtype": "float32", "axis": -1}, "inbound_nodes": [[["dense_492", 0, 0, {}], ["dense_6", 0, 0, {}]]]}, {"name": "concatenate_445", "class_name": "Concatenate", "config": {"name": "concatenate_445", "trainable": true, "dtype": "float32", "axis": -1}, "inbound_nodes": [[["dense_498", 0, 0, {}], ["dense_1", 0, 0, {}]]]}, {"name": "concatenate_447", "class_name": "Concatenate", "config": {"name": "concatenate_447", "trainable": true, "dtype": "float32", "axis": -1}, "inbound_nodes": [[["dense_500", 0, 0, {}], ["dense_10", 0, 0, {}]]]}, {"name": "concatenate_451", "class_name": "Concatenate", "config": {"name": "concatenate_451", "trainable": true, "dtype": "float32", "axis": -1}, "inbound_nodes": [[["dense_504", 0, 0, {}], ["dense_10", 0, 0, {}]]]}, {"name": "concatenate_453", "class_name": "Concatenate", "config": {"name": "concatenate_453", "trainable": true, "dtype": "float32", "axis": -1}, "inbound_nodes": [[["dense_506", 0, 0, {}], ["dense_10", 0, 0, {}]]]}, {"name": "concatenate_465", "class_name": "Concatenate", "config": {"name": "concatenate_465", "trainable": true, "dtype": "float32", "axis": -1}, "inbound_nodes": [[["dense_518", 0, 0, {}], ["dense_6", 0, 0, {}]]]}, {"name": "concatenate_467", "class_name": "Concatenate", "config": {"name": "concatenate_467", "trainable": true, "dtype": "float32", "axis": -1}, "inbound_nodes": [[["dense_520", 0, 0, {}], ["dense_10", 0, 0, {}]]]}, {"name": "concatenate_471", "class_name": "Concatenate", "config": {"name": "concatenate_471", "trainable": true, "dtype": "float32", "axis": -1}, "inbound_nodes": [[["dense_524", 0, 0, {}], ["dense_6", 0, 0, {}]]]}, {"name": "concatenate_472", "class_name": "Concatenate", "config": {"name": "concatenate_472", "trainable": true, "dtype": "float32", "axis": -1}, "inbound_nodes": [[["dense_6", 0, 0, {}], ["dense_3", 0, 0, {}]]]}, {"name": "concatenate_477", "class_name": "Concatenate", "config": {"name": "concatenate_477", "trainable": true, "dtype": "float32", "axis": -1}, "inbound_nodes": [[["dense_5", 0, 0, {}], ["dense_4", 0, 0, {}]]]}, {"name": "concatenate_479", "class_name": "Concatenate", "config": {"name": "concatenate_479", "trainable": true, "dtype": "float32", "axis": -1}, "inbound_nodes": [[["dense_532", 0, 0, {}], ["dense_4", 0, 0, {}]]]}, {"name": "concatenate_487", "class_name": "Concatenate", "config": {"name": "concatenate_487", "trainable": true, "dtype": "float32", "axis": -1}, "inbound_nodes": [[["dense_540", 0, 0, {}], ["dense_4", 0, 0, {}]]]}, {"name": "concatenate_489", "class_name": "Concatenate", "config": {"name": "concatenate_489", "trainable": true, "dtype": "float32", "axis": -1}, "inbound_nodes": [[["dense_542", 0, 0, {}], ["dense_1", 0, 0, {}]]]}, {"name": "concatenate_493", "class_name": "Concatenate", "config": {"name": "concatenate_493", "trainable": true, "dtype": "float32", "axis": -1}, "inbound_nodes": [[["dense_546", 0, 0, {}], ["dense_49", 0, 0, {}]]]}, {"name": "concatenate_495", "class_name": "Concatenate", "config": {"name": "concatenate_495", "trainable": true, "dtype": "float32", "axis": -1}, "inbound_nodes": [[["dense_548", 0, 0, {}], ["dense_10", 0, 0, {}]]]}, {"name": "concatenate_500", "class_name": "Concatenate", "config": {"name": "concatenate_500", "trainable": true, "dtype": "float32", "axis": -1}, "inbound_nodes": [[["dense_2", 0, 0, {}], ["dense_53", 0, 0, {}]]]}, {"name": "concatenate_502", "class_name": "Concatenate", "config": {"name": "concatenate_502", "trainable": true, "dtype": "float32", "axis": -1}, "inbound_nodes": [[["dense_555", 0, 0, {}], ["dense_9", 0, 0, {}]]]}, {"name": "concatenate_506", "class_name": "Concatenate", "config": {"name": "concatenate_506", "trainable": true, "dtype": "float32", "axis": -1}, "inbound_nodes": [[["dense_559", 0, 0, {}], ["dense_2", 0, 0, {}]]]}, {"name": "concatenate_508", "class_name": "Concatenate", "config": {"name": "concatenate_508", "trainable": true, "dtype": "float32", "axis": -1}, "inbound_nodes": [[["dense_561", 0, 0, {}], ["dense_10", 0, 0, {}]]]}, {"name": "concatenate_518", "class_name": "Concatenate", "config": {"name": "concatenate_518", "trainable": true, "dtype": "float32", "axis": -1}, "inbound_nodes": [[["dense_571", 0, 0, {}], ["dense_4", 0, 0, {}]]]}, {"name": "concatenate_522", "class_name": "Concatenate", "config": {"name": "concatenate_522", "trainable": true, "dtype": "float32", "axis": -1}, "inbound_nodes": [[["dense_575", 0, 0, {}], ["dense_1", 0, 0, {}]]]}, {"name": "concatenate_528", "class_name": "Concatenate", "config": {"name": "concatenate_528", "trainable": true, "dtype": "float32", "axis": -1}, "inbound_nodes": [[["dense_581", 0, 0, {}], ["dense_11", 0, 0, {}]]]}, {"name": "concatenate_530", "class_name": "Concatenate", "config": {"name": "concatenate_530", "trainable": true, "dtype": "float32", "axis": -1}, "inbound_nodes": [[["dense_583", 0, 0, {}], ["dense_6", 0, 0, {}]]]}, {"name": "concatenate_534", "class_name": "Concatenate", "config": {"name": "concatenate_534", "trainable": true, "dtype": "float32", "axis": -1}, "inbound_nodes": [[["dense_587", 0, 0, {}], ["dense_10", 0, 0, {}]]]}, {"name": "concatenate_536", "class_name": "Concatenate", "config": {"name": "concatenate_536", "trainable": true, "dtype": "float32", "axis": -1}, "inbound_nodes": [[["dense_589", 0, 0, {}], ["dense_9", 0, 0, {}]]]}, {"name": "concatenate_544", "class_name": "Concatenate", "config": {"name": "concatenate_544", "trainable": true, "dtype": "float32", "axis": -1}, "inbound_nodes": [[["dense_597", 0, 0, {}], ["dense_6", 0, 0, {}]]]}, {"name": "concatenate_546", "class_name": "Concatenate", "config": {"name": "concatenate_546", "trainable": true, "dtype": "float32", "axis": -1}, "inbound_nodes": [[["dense_599", 0, 0, {}], ["dense_10", 0, 0, {}]]]}, {"name": "concatenate_550", "class_name": "Concatenate", "config": {"name": "concatenate_550", "trainable": true, "dtype": "float32", "axis": -1}, "inbound_nodes": [[["dense_603", 0, 0, {}], ["dense_10", 0, 0, {}]]]}, {"name": "concatenate_552", "class_name": "Concatenate", "config": {"name": "concatenate_552", "trainable": true, "dtype": "float32", "axis": -1}, "inbound_nodes": [[["dense_605", 0, 0, {}], ["dense_6", 0, 0, {}]]]}, {"name": "concatenate_557", "class_name": "Concatenate", "config": {"name": "concatenate_557", "trainable": true, "dtype": "float32", "axis": -1}, "inbound_nodes": [[["dense_10", 0, 0, {}], ["dense_4", 0, 0, {}]]]}, {"name": "concatenate_558", "class_name": "Concatenate", "config": {"name": "concatenate_558", "trainable": true, "dtype": "float32", "axis": -1}, "inbound_nodes": [[["dense_1", 0, 0, {}], ["dense_53", 0, 0, {}]]]}, {"name": "concatenate_573", "class_name": "Concatenate", "config": {"name": "concatenate_573", "trainable": true, "dtype": "float32", "axis": -1}, …
ros", "config": {}}, "kernel_regularizer": null, "bias_regularizer": null, "activity_regularizer": null, "kernel_constraint": null, "bias_constraint": null}, "inbound_nodes": [[["concatenate_737", 0, 0, {}]]]}, {"name": "concatenate_54", "class_name": "Concatenate", "config": {"name": "concatenate_54", "trainable": true, "dtype": "float32", "axis": -1}, "inbound_nodes": [[["dense_83", 0, 0, {}], ["dense_107", 0, 0, {}]]]}, {"name": "concatenate_86", "class_name": "Concatenate", "config": {"name": "concatenate_86", "trainable": true, "dtype": "float32", "axis": -1}, "inbound_nodes": [[["dense_126", 0, 0, {}], ["dense_139", 0, 0, {}]]]}, {"name": "concatenate_144", "class_name": "Concatenate", "config": {"name": "concatenate_144", "trainable": true, "dtype": "float32", "axis": -1}, "inbound_nodes": [[["dense_172", 0, 0, {}], ["dense_197", 0, 0, {}]]]}, {"name": "concatenate_152", "class_name": "Concatenate", "config": {"name": "concatenate_152", "trainable": true, "dtype": "float32", "axis": -1}, "inbound_nodes": [[["dense_204", 0, 0, {}], ["dense_205", 0, 0, {}]]]}, {"name": "concatenate_218", "class_name": "Concatenate", "config": {"name": "concatenate_218", "trainable": true, "dtype": "float32", "axis": -1}, "inbound_nodes": [[["dense_241", 0, 0, {}], ["dense_271", 0, 0, {}]]]}, {"name": "concatenate_266", "class_name": "Concatenate", "config": {"name": "concatenate_266", "trainable": true, "dtype": "float32", "axis": -1}, "inbound_nodes": [[["dense_300", 0, 0, {}], ["dense_319", 0, 0, {}]]]}, {"name": "concatenate_312", "class_name": "Concatenate", "config": {"name": "concatenate_312", "trainable": true, "dtype": "float32", "axis": -1}, "inbound_nodes": [[["dense_337", 0, 0, {}], ["dense_365", 0, 0, {}]]]}, {"name": "concatenate_355", "class_name": "Concatenate", "config": {"name": "concatenate_355", "trainable": true, "dtype": "float32", "axis": -1}, "inbound_nodes": [[["dense_384", 0, 0, {}], ["dense_408", 0, 0, {}]]]}, {"name": "concatenate_402", "class_name": "Concatenate", "config": {"name": "concatenate_402", "trainable": true, "dtype": "float32", "axis": -1}, "inbound_nodes": [[["dense_432", 0, 0, {}], ["dense_455", 0, 0, {}]]]}, {"name": "concatenate_460", "class_name": "Concatenate", "config": {"name": "concatenate_460", "trainable": true, "dtype": "float32", "axis": -1}, "inbound_nodes": [[["dense_483", 0, 0, {}], ["dense_513", 0, 0, {}]]]}, {"name": "concatenate_515", "class_name": "Concatenate", "config": {"name": "concatenate_515", "trainable": true, "dtype": "float32", "axis": -1}, "inbound_nodes": [[["dense_539", 0, 0, {}], ["dense_568", 0, 0, {}]]]}, {"name": "concatenate_567", "class_name": "Concatenate", "config": {"name": "concatenate_567", "trainable": true, "dtype": "float32", "axis": -1}, "inbound_nodes": [[["dense_596", 0, 0, {}], ["dense_620", 0, 0, {}]]]}, {"name": "concatenate_618", "class_name": "Concatenate", "config": {"name": "concatenate_618", "trainable": true, "dtype": "float32", "axis": -1}, "inbound_nodes": [[["dense_648", 0, 0, {}], ["dense_671", 0, 0, {}]]]}, {"name": "concatenate_657", "class_name": "Concatenate", "config": {"name": "concatenate_657", "trainable": true, "dtype": "float32", "axis": -1}, "inbound_nodes": [[["dense_691", 0, 0, {}], ["dense_710", 0, 0, {}]]]}, {"name": "concatenate_703", "class_name": "Concatenate", "config": {"name": "concatenate_703", "trainable": true, "dtype": "float32", "axis": -1}, "inbound_nodes": [[["dense_740", 0, 0, {}], ["dense_756", 0, 0, {}]]]}, {"name": "concatenate_738", "class_name": "Concatenate", "config": {"name": "concatenate_738", "trainable": true, "dtype": "float32", "axis": -1}, "inbound_nodes": [[["dense_771", 0, 0, {}], ["dense_791", 0, 0, {}]]]}, {"name": "dense_108", "class_name": "Dense", "config": {"name": "dense_108", "trainable": true, "dtype": "float32", "units": 100, "activation": "relu", "use_bias": true, "kernel_initializer": {"class_name": "VarianceScaling", "config": {"scale": 1.0, "mode": "fan_avg", "distribution": "uniform", "seed": null}}, "bias_initializer": {"class_name": "Zeros", "config": {}}, "kernel_regularizer": null, "bias_regularizer": null, "activity_regularizer": null, "kernel_constraint": null, "bias_constraint": null}, "inbound_nodes": [[["concatenate_54", 0, 0, {}]]]}, {"name": "dense_140", "class_name": "Dense", "config": {"name": "dense_140", "trainable": true, "dtype": "float32", "units": 100, "activation": "relu", "use_bias": true, "kernel_initializer": {"class_name": "VarianceScaling", "config": {"scale": 1.0, "mode": "fan_avg", "distribution": "uniform", "seed": null}}, "bias_initializer": {"class_name": "Zeros", "config": {}}, "kernel_regularizer": null, "bias_regularizer": null, "activity_regularizer": null, "kernel_constraint": null, "bias_constraint": null}, "inbound_nodes": [[["concatenate_86", 0, 0, {}]]]}, {"name": "dense_198", "class_name": "Dense", "config": {"name": "dense_198", "trainable": true, "dtype": "float32", "units": 100, "activation": "relu", "use_bias": true, "kernel_initializer": {"class_name": "VarianceScaling", "config": {"scale": 1.0, "mode": "fan_avg", "distribution": "uniform", "seed": null}}, "bias_initializer": {"class_name": "Zeros", "config": {}}, "kernel_regularizer": null, "bias_regularizer": null, "activity_regularizer": null, "kernel_constraint": null, "bias_constraint": null}, "inbound_nodes": [[["concatenate_144", 0, 0, {}]]]}, {"name": "dense_206", "class_name": "Dense", "config": {"name": "dense_206", "trainable": true, "dtype": "float32", "units": 100, "activation": "relu", "use_bias": true, "kernel_initializer": {"class_name": "VarianceScaling", "config": {"scale": 1.0, "mode": "fan_avg", "distribution": "uniform", "seed": null}}, "bias_initializer": {"class_name": "Zeros", "config": {}}, "kernel_regularizer": null, "bias_regularizer": null, "activity_regularizer": null, "kernel_constraint": null, "bias_constraint": null}, "inbound_nodes": [[["concatenate_152", 0, 0, {}]]]}, {"name": "dense_272", "class_name": "Dense", "config": {"name": "dense_272", "trainable": true, "dtype": "float32", "units": 100, "activation": "relu", "use_bias": true, "kernel_initializer": {"class_name": "VarianceScaling", "config": {"scale": 1.0, "mode": "fan_avg", "distribution": "uniform", "seed": null}}, "bias_initializer": {"class_name": "Zeros", "config": {}}, "kernel_regularizer": null, "bias_regularizer": null, "activity_regularizer": null, "kernel_constraint": null, "bias_constraint": null}, "inbound_nodes": [[["concatenate_218", 0, 0, {}]]]}, {"name": "dense_320", "class_name": "Dense", "config": {"name": "dense_320", "trainable": true, "dtype": "float32", "units": 100, "activation": "relu", "use_bias": true, "kernel_initializer": {"class_name": "VarianceScaling", "config": {"scale": 1.0, "mode": "fan_avg", "distribution": "uniform", "seed": null}}, "bias_initializer": {"class_name": "Zeros", "config": {}}, "kernel_regularizer": null, "bias_regularizer": null, "activity_regularizer": null, "kernel_constraint": null, "bias_constraint": null}, "inbound_nodes": [[["concatenate_266", 0, 0, {}]]]}, {"name": "dense_366", "class_name": "Dense", "config": {"name": "dense_366", "trainable": true, "dtype": "float32", "units": 100, "activation": "relu", "use_bias": true, "kernel_initializer": {"class_name": "VarianceScaling", "config": {"scale": 1.0, "mode": "fan_avg", "distribution": "uniform", "seed": null}}, "bias_initializer": {"class_name": "Zeros", "config": {}}, "kernel_regularizer": null, "bias_regularizer": null, "activity_regularizer": null, "kernel_constraint": null, "bias_constraint": null}, "inbound_nodes": [[["concatenate_312", 0, 0, {}]]]}, {"name": "dense_409", "class_name": "Dense", "config": {"name": "dense_409", "trainable": true, "dtype": "float32", "units": 100, "activation": "relu", "use_bias": true, "kernel_initializer": {"class_name": "VarianceScaling", "config": {"scale": 1.0, "mode": "fan_avg", "distribution": "uniform", "seed": null}}, "bias_initializer": {"class_name": "Zeros", "config": {}}, "kernel_regularizer": null, "bias_regularizer": null, "activity_regularizer": null, "kernel_constraint": null, "bias_constraint": null}, "inbound_nodes": [[["concatenate_355", 0, 0, {}]]]}, {"name": "dense_456", "class_name": "Dense", "config": {"name": "dense_456", "trainable": true, "dtype": "float32", "units": 100, "activation": "relu", "use_bias": true, "kernel_initializer": {"class_name": "VarianceScaling", "config": {"scale": 1.0, "mode": "fan_avg", "distribution": "uniform", "seed": null}}, "bias_initializer": {"class_name": "Zeros", "config": {}}, "kernel_regularizer": null, "bias_regularizer": null, "activity_regularizer": null, "kernel_constraint": null, "bias_constraint": null}, "inbound_nodes": [[["concatenate_402", 0, 0, {}]]]}, {"name": "dense_514", "class_name": "Dense", "config": {"name": "dense_514", "trainable": true, "dtype": "float32", "units": 100, "activation": "relu", "use_bias": true, "kernel_initializer": {"class_name": "VarianceScaling", "config": {"scale": 1.0, "mode": "fan_avg", "distribution": "uniform", "seed": null}}, "bias_initializer": {"class_name": "Zeros", "config": {}}, "kernel_regularizer": null, "bias_regularizer": null, "activity_regularizer": null, "kernel_constraint": null, "bias_constraint": null}, "inbound_nodes": [[["concatenate_460", 0, 0, {}]]]}, {"name": "dense_569", "class_name": "Dense", "config": {"name": "dense_569", "trainable": true, "dtype": "float32", "units": 100, "activation": "relu", "use_bias": true, "kernel_initializer": {"class_name": "VarianceScaling", "config": {"scale": 1.0, "mode": "fan_avg", "distribution": "uniform", "seed": null}}, "bias_initializer": {"class_name": "Zeros", "config": {}}, "kernel_regularizer": null, "bias_regularizer": null, "activity_regularizer": null, "kernel_constraint": null, "bias_constraint": null}, "inbound_nodes": [[["concatenate_515", 0, 0, {}]]]}, {"name": "dense_621", "class_name": "Dense", "config": {"name": "dense_621", "trainable": true, "dtype": "float32", "units": 100, "activation": "relu", "use_bias": true, "kernel_initializer": {"class_name": "VarianceScaling", "config": {"scale": 1.0, "mode": "fan_avg", "distribution": "uniform", "seed": null}}, "bias_initializer": {"class_name": "Zeros", "config": {}}, "kernel_regularizer": null, "bias_regularizer": null, "activity_regularizer": null, "kernel_constraint": null, "bias_constraint": null}, "inbound_nodes": [[["concatenate_567", 0, 0, {}]]]}, {"name": "dense_672", "class_name": "Dense", "config": {"name": "dense_672", "trainable": true, "dtype": "float32", "units": 100, "activation": "relu", "use_bias": true, "kernel_initializer": {"class_name": "VarianceScaling", "config": {"scale": 1.0, "mode": "fan_avg", "distribution": "uniform", "seed": null}}, "bias_initializer": {"class_name": "Zeros", "config": {}}, "kernel_regularizer": null, "bias_regularizer": null, "activity_regularizer": null, "kernel_constraint": null, "bias_constraint": null}, "inbound_nodes": [[["concatenate_618", 0, 0, {}]]]}, {"name": "dense_711", "class_name": "Dense", "config": {"name": "dense_711", "trainable": true, "dtype": "float32", "units": 100, "activation": "relu", "use_bias": true, "kernel_initializer": {"class_name": "VarianceScaling", "config": {"scale": 1.0, "mode": "fan_avg", "distribution": "uniform", "seed": null}}, "bias_initializer": {"class_name": "Zeros", "config": {}}, "kernel_regularizer": null, "bias_regularizer": null, "activity_regularizer": null, "kernel_constraint": null, "bias_constraint": null}, "inbound_nodes": [[["concatenate_657", 0, 0, {}]]]}, {"name": "dense_757", "class_name": "Dense", "config": {"name": "dense_757", "trainable": true, "dtype": "float32", "units": 100, "activation": "relu", "use_bias": true, "kernel_initializer": {"class_name": "VarianceScaling", "config": {"scale": 1.0, "mode": "fan_avg", "distribution": "uniform", "seed": null}}, "bias_initializer": {"class_name": "Zeros", "config": {}}, "kernel_regularizer": null, "bias_regularizer": null, "activity_regularizer": null, "kernel_constraint": null, "bias_constraint": null}, "inbound_nodes": [[["concatenate_703", 0, 0, {}]]]}, {"name": "dense_792", "class_name": "Dense", "config": {"name": "dense_792", "trainable": true, "dtype": "float32", "units": 100, "activation": "relu", "use_bias": true, "kernel_initializer": {"class_name": "VarianceScaling", "config": {"scale": 1.0, "mode": "fan_avg", "distribution": "uniform", "seed": null}}, "bias_initializer": {"class_name": "Zeros", "config": {}}, "kernel_regularizer": null, "bias_regularizer": null, "activity_regularizer": null, "kernel_constraint": null, "bias_constraint": null}, "inbound_nodes": [[["concatenate_738", 0, 0, {}]]]}, {"name": "concatenate_55", "class_name": "Concatenate", "config": {"name": "concatenate_55", "trainable": true, "dtype": "float32", "axis": -1}, "inbound_nodes": [[["dense_108", 0, 0, {}], ["dense_1", 0, 0, {}]]]}, {"name": "concatenate_87", "class_name": "Concatenate", "config": {"name": "concatenate_87", "trainable": true, "dtype": "float32", "axis": -1}, "inbound_nodes": [[["dense_140", 0, 0, {}], ["dense_18", 0, 0, {}]]]}, {"name": "concatenate_145", "class_name": "Concatenate", "config": {"name": "concatenate_145", "trainable": true, "dtype": "float32", "axis": -1}, "inbound_nodes": [[["dense_198", 0, 0, {}], ["dense_7", 0, 0, {}]]]}, {"name": "concatenate_153", "class_name": "Concatenate", "config": {"name": "concatenate_153", "trainable": true, "dtype": "float32", "axis": -1}, "inbound_nodes": [[["dense_206", 0, 0, {}], ["dense_10", 0, 0, {}]]]}, {"name": "concatenate_219", "class_name": "Concatenate", "config": {"name": "concatenate_219", "trainable": true, "dtype": "float32", "axis": -1}, "inbound_nodes": [[["dense_272", 0, 0, {}], ["dense_1", 0, 0, {}]]]}, {"name": "concatenate_267", "class_name": "Concatenate", "config": {"name": "concatenate_267", "trainable": true, "dtype": "float32", "axis": -1}, "inbound_nodes": [[["dense_320", 0, 0, {}], ["dense_10", 0, 0, {}]]]}, {"name": "concatenate_313", "class_name": "Concatenate", "config": {"name": "concatenate_313", "trainable": true, "dtype": "float32", "axis": -1}, "inbound_nodes": [[["dense_366", 0, 0, {}], ["dense_1", 0, 0, {}]]]}, {"name": "concatenate_356", "class_name": "Concatenate", "config": {"name": "concatenate_356", "trainable": true, "dtype": "float32", "axis": -1}, "inbound_nodes": [[["dense_409", 0, 0, {}], ["dense_6", 0, 0, {}]]]}, {"name": "concatenate_403", "class_name": "Concatenate", "config": {"name": "concatenate_403", "trainable": true, "dtype": "float32", "axis": -1}, "inbound_nodes": [[["dense_456", 0, 0, {}], ["dense_4", 0, 0, {}]]]}, {"name": "concatenate_461", "class_name": "Concatenate", "config": {"name": "concatenate_461", "trainable": true, "dtype": "float32", "axis": -1}, "inbound_nodes": [[["dense_514", 0, 0, {}], ["dense_6", 0, 0, {}]]]}, {"name": "concatenate_516", "class_name": "Concatenate", "config": {"name": "concatenate_516", "trainable": true, "dtype": "float32", "axis": -1}, "inbound_nodes": [[["dense_569", 0, 0, {}], ["dense_1", 0, 0, {}]]]}, {"name": "concatenate_568", "class_name": "Concatenate", "config": {"name": "concatenate_568", "trainable": true, "dtype": "float32", "axis": -1}, "inbound_nodes": [[["dense_621", 0, 0, {}], ["dense_1", 0, 0, {}]]]}, {"name": "concatenate_619", "class_name": "Concatenate", "config": {"name": "concatenate_619", "trainable": true, "dtype": "float32", "axis": -1}, "inbound_nodes": [[["dense_672", 0, 0, {}], ["dense_7", 0, 0, {}]]]}, {"name": "concatenate_658", "class_name": "Concatenate", "config": {"name": "concatenate_658", "trainable": true, "dtype": "float32", "axis": -1}, "inbound_nodes": [[["dense_711", 0, 0, {}], ["dense_12", 0, 0, {}]]]}, {"name": "concatenate_704", "class_name": "Concatenate", "config": {"name": "concatenate_704", "trainable": true, "dtype": "float32", "axis": -1}, "inbound_nodes": [[["dense_757", 0, 0, {}], ["dense_1", 0, 0, {}]]]}, {"name": "concatenate_739", "class_name": "Concatenate", "config": {"name": "concatenate_739", "trainable": true, "dtype": "float32", "axis": -1}, "inbound_nodes": [[["dense_792", 0, 0, {}], ["dense_6", 0, 0, {}]]]}, {"name": "dense_109", "class_name": "Dense", "config": {"name": "dense_109", "trainable": true, "dtype": "float32", "units": 100, "activation": "relu", "use_bias": true, "kernel_initializer": {"class_name": "VarianceScaling", "config": {"scale": 1.0, "mode": "fan_avg", "distribution": "uniform", "seed": null}}, "bias_initializer": {"class_name": "Zeros", "config": {}}, "kernel_regularizer": null, "bias_regularizer": null, "activity_regularizer": null, "kernel_constraint": null, "bias_constraint": null}, "inbound_nodes": [[["concatenate_55", 0, 0, {}]]]}, {"name": "dense_141", "class_name": "Dense", "config": {"name": "dense_141", "trainable": true, "dtype": "float32", "units": 100, "activation": "relu", "use_bias": true, "kernel_initializer": {"class_name": "VarianceScaling", "config": {"scale": 1.0, "mode": "fan_avg", "distribution": "uniform", "seed": null}}, "bias_initializer": {"class_name": "Zeros", "config": {}}, "kernel_regularizer": null, "bias_regularizer": null, "activity_regularizer": null, "kernel_constraint": null, "bias_constraint": null}, "inbound_nodes": [[["concatenate_87", 0, 0, {}]]]}, {"name": "dense_199", "class_name": "Dense", "config": {"name": "dense_199", "trainable": true, "dtype": "float32", "units": 100, "activation": "relu", "use_bias": true, "kernel_initializer": {"class_name": "VarianceScaling", "config": {"scale": 1.0, "mode": "fan_avg", "distribution": "uniform", "seed": null}}, "bias_initializer": {"class_name": "Zeros", "config": {}}, "kernel_regularizer": null, "bias_regularizer": null, "activity_regularizer": null, "kernel_constraint": null, "bias_constraint": null}, "inbound_nodes": [[["concatenate_145", 0, 0, {}]]]}, {"name": "dense_207", "class_name": "Dense", "config": {"name": "dense_207", "trainable": true, "dtype": "float32", "units": 100, "activation": "relu", "use_bias": true, "kernel_initializer": {"class_name": "VarianceScaling", "config": {"scale": 1.0, "mode": "fan_avg", "distribution": "uniform", "seed": null}}, "bias_initializer": {"class_name": "Zeros", "config": {}}, "kernel_regularizer": null, "bias_regularizer": null, "activity_regularizer": null, "kernel_constraint": null, "bias_constraint": null}, "inbound_nodes": [[["concatenate_153", 0, 0, {}]]]}, {"name": "dense_273", "class_name": "Dense", "config": {"name": "dense_273", "trainable": true, "dtype": "float32", "units": 100, "activation": "relu", "use_bias": true, "kernel_initializer": {"class_name": "VarianceScaling", "config": {"scale": 1.0, "mode": "fan_avg", "distribution": "uniform", "seed": null}}, "bias_initializer": {"class_name": "Zeros", "config": {}}, "kernel_regularizer": null, "bias_regularizer": null, "activity_regularizer": null, "kernel_constraint": null, "bias_constraint": null}, "inbound_nodes": [[["concatenate_219", 0, 0, {}]]]}, {"name": "dense_321", "class_name": "Dense", "config": {"name": "dense_321", "trainable": true, "dtype": "float32", "units": 100, "activation": "relu", "use_bias": true, "kernel_initializer": {"class_name": "VarianceScaling", "config": {"scale": 1.0, "mode": "fan_avg", "distribution": "uniform", "seed": null}}, "bias_initializer": {"class_name": "Zeros", "config": {}}, "kernel_regularizer": null, "bias_regularizer": null, "activity_regularizer": null, "kernel_constraint": null, "bias_constraint": null}, "inbound_nodes": [[["concatenate_267", 0, 0, {}]]]}, {"name": "dense_367", "class_name": "Dense", "config": {"name": "dense_367", "trainable": true, "dtype": "float32", "units": 100, "activation": "relu", "use_bias": true, "kernel_initializer": {"class_name": "VarianceScaling", "config": {"scale": 1.0, "mode": "fan_avg", "distribution": "uniform", "seed": null}}, "bias_initializer": {"class_name": "Zeros", "config": {}}, "kernel_regularizer": null, "bias_regularizer": null, "activity_regularizer": null, "kernel_constraint": null, "bias_constraint": null}, "inbound_nodes": [[["concatenate_313", 0, 0, {}]]]}, {"name": "dense_410", "class_name": "Dense", "config": {"name": "dense_410", "trainable": true, "dtype": "float32", "units": 100, "activation": "relu", "use_bias": true, "kernel_initializer": {"class_name": "VarianceScaling", "config": {"scale": 1.0, "mode": "fan_avg", "distribution": "uniform", "seed": null}}, "bias_initializer": {"class_name": "Zeros", "config": {}}, "kernel_regularizer": null, "bias_regularizer": null, "activity_regularizer": null, "kernel_constraint": null, "bias_constraint": null}, "inbound_nodes": [[["concatenate_356", 0, 0, {}]]]}, {"name": "dense_457", "class_name": "Dense", "config": {"name": "dense_457", "trainable": true, "dtype": "float32", "units": 100, "activation": "relu", "use_bias": true, "kernel_initializer": {"class_name": "VarianceScaling", "config": {"scale": 1.0, "mode": "fan_avg", "distribution": "uniform", "seed": null}}, "bias_initializer": {"class_name": "Zeros", "config": {}}, "kernel_regularizer": null, "bias_regularizer": null, "activity_regularizer": null, "kernel_constraint": null, "bias_constraint": null}, "inbound_nodes": [[["concatenate_403", 0, 0, {}]]]}, {"name": "dense_515", "class_name": "Dense", "config": {"name": "dense_515", "trainable": true, "dtype": "float32", "units": 100, "activation": "relu", "use_bias": true, "kernel_initializer": {"class_name": "VarianceScaling", "config": {"scale": 1.0, "mode": "fan_avg", "distribution": "uniform", "seed": null}}, "bias_initializer": {"class_name": "Zeros", "config": {}}, "kernel_regularizer": null, "bias_regularizer": null, "activity_regularizer": null, "kernel_constraint": null, "bias_constraint": null}, "inbound_nodes": [[["concatenate_461", 0, 0, {}]]]}, {"name": "dense_570", "class_name": "Dense", "config": {"name": "dense_570", "trainable": true, "dtype": "float32", "units": 100, "activation": "relu", "use_bias": true, "kernel_initializer": {"class_name": "VarianceScaling", "config": {"scale": 1.0, "mode": "fan_avg", "distribution": "uniform", "seed": null}}, "bias_initializer": {"class_name": "Zeros", "config": {}}, "kernel_regularizer": null, "bias_regularizer": null, "activity_regularizer": null, "kernel_constraint": null, "bias_constraint": null}, "inbound_nodes": [[["concatenate_516", 0, 0, {}]]]}, {"name": "dense_622", "class_name": "Dense", "config": {"name": "dense_622", "trainable": true, "dtype": "float32", "units": 100, "activation": "relu", "use_bias": true, "kernel_initializer": {"class_name": "VarianceScaling", "config": {"scale": 1.0, "mode": "fan_avg", "distribution": "uniform", "seed": null}}, "bias_initializer": {"class_name": "Zeros", "config": {}}, "kernel_regularizer": null, "bias_regularizer": null, "activity_regularizer": null, "kernel_constraint": null, "bias_constraint": null}, "inbound_nodes": [[["concatenate_568", 0, 0, {}]]]}, {"name": "dense_673", "class_name": "Dense", "config": {"name": "dense_673", "trainable": true, "dtype": "float32", "units": 100, "activation": "relu", "use_bias": true, "kernel_initializer": {"class_name": "VarianceScaling", "config": {"scale": 1.0, "mode": "fan_avg", "distribution": "uniform", "seed": null}}, "bias_initializer": {"class_name": "Zeros", "config": {}}, "kernel_regularizer": null, "bias_regularizer": null, "activity_regularizer": null, "kernel_constraint": null, "bias_constraint": null}, "inbound_nodes": [[["concatenate_619", 0, 0, {}]]]}, {"name": "dense_712", "class_name": "Dense", "config": {"name": "dense_712", "trainable": true, "dtype": "float32", "units": 100, "activation": "relu", "use_bias": true, "kernel_initializer": {"class_name": "VarianceScaling", "config": {"scale": 1.0, "mode": "fan_avg", "distribution": "uniform", "seed": null}}, "bias_initializer": {"class_name": "Zeros", "config": {}}, "kernel_regularizer": null, "bias_regularizer": null, "activity_regularizer": null, "kernel_constraint": null, "bias_constraint": null}, "inbound_nodes": [[["concatenate_658", 0, 0, {}]]]}, {"name": "dense_758", "class_name": "Dense", "config": {"name": "dense_758", "trainable": true, "dtype": "float32", "units": 100, "activation": "relu", "use_bias": true, "kernel_initializer": {"class_name": "VarianceScaling", "config": {"scale": 1.0, "mode": "fan_avg", "distribution": "uniform", "seed": null}}, "bias_initializer": {"class_name": "Zeros", "config": {}}, "kernel_regularizer": null, "bias_regularizer": null, "activity_regularizer": null, "kernel_constraint": null, "bias_constraint": null}, "inbound_nodes": [[["concatenate_704", 0, 0, {}]]]}, {"name": "dense_793", "class_name": "Dense", "config": {"name": "dense_793", "trainable": true, "dtype": "float32", "units": 100, "activation": "relu", "use_bias": true, "kernel_initializer": {"class_name": "VarianceScaling", "config": {"scale": 1.0, "mode": "fan_avg", "distribution": "uniform", "seed": null}}, "bias_initializer": {"class_name": "Zeros", "config": {}}, "kernel_regularizer": null, "bias_regularizer": null, "activity_regularizer": null, "kernel_constraint": null, "bias_constraint": null}, "inbound_nodes": [[["concatenate_739", 0, 0, {}]]]}, {"name": "concatenate_88", "class_name": "Concatenate", "config": {"name": "concatenate_88", "trainable": true, "dtype": "float32", "axis": -1}, "inbound_nodes": [[["dense_109", 0, 0, {}], ["dense_141", 0, 0, {}]]]}, {"name": "concatenate_154", "class_name": "Concatenate", "config": {"name": "concatenate_154", "trainable": true, "dtype": "float32", "axis": -1}, "inbound_nodes": [[["dense_199", 0, 0, {}], ["dense_207", 0, 0, {}]]]}, {"name": "concatenate_268", "class_name": "Concatenate", "config": {"name": "concatenate_268", "trainable": true, "dtype": "float32", "axis": -1}, "inbound_nodes": [[["dense_273", 0, 0, {}], ["dense_321", 0, 0, {}]]]}, {"name": "concatenate_357", "class_name": "Concatenate", "config": {"name": "concatenate_357", "trainable": true, "dtype": "float32", "axis": -1}, "inbound_nodes": [[["dense_367", 0, 0, {}], ["dense_410", 0, 0, {}]]]}, {"name": "concatenate_462", "class_name": "Concatenate", "config": {"name": "concatenate_462", "trainable": true, "dtype": "float32", "axis": -1}, "inbound_nodes": [[["dense_457", 0, 0, {}], ["dense_515", 0, 0, {}]]]}, {"name": "concatenate_569", "class_name": "Concatenate", "config": {"name": "concatenate_569", "trainable": true, "dtype": "float32", "axis": -1}, "inbound_nodes": [[["dense_570", 0, 0, {}], ["dense_622", 0, 0, {}]]]}, {"name": "concatenate_659", "class_name": "Concatenate", "config": {"name": "concatenate_659", "trainable": true, "dtype": "float32", "axis": -1}, "inbound_nodes": [[["dense_673", 0, 0, {}], ["dense_712", 0, 0, {}]]]}, {"name": "concatenate_740", "class_name": "Concatenate", "config": {"name": "concatenate_740", "trainable": true, "dtype": "float32", "axis": -1}, "inbound_nodes": [[["dense_758", 0, 0, {}], ["dense_793", 0, 0, {}]]]}, {"name": "dense_142", "class_name": "Dense", "config": {"name": "dense_142", "trainable": true, "dtype": "float32", "units": 100, "activation": "relu", "use_bias": true, "kernel_initializer": {"class_name": "VarianceScaling", "config": {"scale": 1.0, "mode": "fan_avg", "distribution": "uniform", "seed": null}}, "bias_initializer": {"class_name": "Zeros", "config": {}}, "kernel_regularizer": null, "bias_regularizer": null, "activity_regularizer": null, "kernel_constraint": null, "bias_constraint": null}, "inbound_nodes": [[["concatenate_88", 0, 0, {}]]]}, {"name": "dense_208", "class_name": "Dense", "config": {"name": "dense_208", "trainable": true, "dtype": "float32", "units": 100, "activation": "relu", "use_bias": true, "kernel_initializer": {"class_name": "VarianceScaling", "config": {"scale": 1.0, "mode": "fan_avg", "distribution": "uniform", "seed": null}}, "bias_initializer": {"class_name": "Zeros", "config": {}}, "kernel_regularizer": null, "bias_regularizer": null, "activity_regularizer": null, "kernel_constraint": null, "bias_constraint": null}, "inbound_nodes": [[["concatenate_154", 0, 0, {}]]]}, {"name": "dense_322", "class_name": "Dense", "config": {"name": "dense_322", "trainable": true, "dtype": "float32", "units": 100, "activation": "relu", "use_bias": true, "kernel_initializer": {"class_name": "VarianceScaling", "config": {"scale": 1.0, "mode": "fan_avg", "distribution": "uniform", "seed": null}}, "bias_initializer": {"class_name": "Zeros", "config": {}}, "kernel_regularizer": null, "bias_regularizer": null, "activity_regularizer": null, "kernel_constraint": null, "bias_constraint": null}, "inbound_nodes": [[["concatenate_268", 0, 0, {}]]]}, {"name": "dense_411", "class_name": "Dense", "config": {"name": "dense_411", "trainable": true, "dtype": "float32", "units": 100, "activation": "relu", "use_bias": true, "kernel_initializer": {"class_name": "VarianceScaling", "config": {"scale": 1.0, "mode": "fan_avg", "distribution": "uniform", "seed": null}}, "bias_initializer": {"class_name": "Zeros", "config": {}}, "kernel_regularizer": null, "bias_regularizer": null, "activity_regularizer": null, "kernel_constraint": null, "bias_constraint": null}, "inbound_nodes": [[["concatenate_357", 0, 0, {}]]]}, {"name": "dense_516", "class_name": "Dense", "config": {"name": "dense_516", "trainable": true, "dtype": "float32", "units": 100, "activation": "relu", "use_bias": true, "kernel_initializer": {"class_name": "VarianceScaling", "config": {"scale": 1.0, "mode": "fan_avg", "distribution": "uniform", "seed": null}}, "bias_initializer": {"class_name": "Zeros", "config": {}}, "kernel_regularizer": null, "bias_regularizer": null, "activity_regularizer": null, "kernel_constraint": null, "bias_constraint": null}, "inbound_nodes": [[["concatenate_462", 0, 0, {}]]]}, {"name": "dense_623", "class_name": "Dense", "config": {"name": "dense_623", "trainable": true, "dtype": "float32", "units": 100, "activation": "relu", "use_bias": true, "kernel_initializer": {"class_name": "VarianceScaling", "config": {"scale": 1.0, "mode": "fan_avg", "distribution": "uniform", "seed": null}}, "bias_initializer": {"class_name": "Zeros", "config": {}}, "kernel_regularizer": null, "bias_regularizer": null, "activity_regularizer": null, "kernel_constraint": null, "bias_constraint": null}, "inbound_nodes": [[["concatenate_569", 0, 0, {}]]]}, {"name": "dense_713", "class_name": "Dense", "config": {"name": "dense_713", "trainable": true, "dtype": "float32", "units": 100, "activation": "relu", "use_bias": true, "kernel_initializer": {"class_name": "VarianceScaling", "config": {"scale": 1.0, "mode": "fan_avg", "distribution": "uniform", "seed": null}}, "bias_initializer": {"class_name": "Zeros", "config": {}}, "kernel_regularizer": null, "bias_regularizer": null, "activity_regularizer": null, "kernel_constraint": null, "bias_constraint": null}, "inbound_nodes": [[["concatenate_659", 0, 0, {}]]]}, {"name": "dense_794", "class_name": "Dense", "config": {"name": "dense_794", "trainable": true, "dtype": "float32", "units": 100, "activation": "relu", "use_bias": true, "kernel_initializer": {"class_name": "VarianceScaling", "config": {"scale": 1.0, "mode": "fan_avg", "distribution": "uniform", "seed": null}}, "bias_initializer": {"class_name": "Zeros", "config": {}}, "kernel_regularizer": null, "bias_regularizer": null, "activity_regularizer": null, "kernel_constraint": null, "bias_constraint": null}, "inbound_nodes": [[["concatenate_740", 0, 0, {}]]]}, {"name": "concatenate_89", "class_name": "Concatenate", "config": {"name": "concatenate_89", "trainable": true, "dtype": "float32", "axis": -1}, "inbound_nodes": [[["dense_142", 0, 0, {}], ["dense_13", 0, 0, {}]]]}, {"name": "concatenate_155", "class_name": "Concatenate", "config": {"name": "concatenate_155", "trainable": true, "dtype": "float32", "axis": -1}, "inbound_nodes": [[["dense_208", 0, 0, {}], ["dense_11", 0, 0, {}]]]}, {"name": "concatenate_269", "class_name": "Concatenate", "config": {"name": "concatenate_269", "trainable": true, "dtype": "float32", "axis": -1}, "inbound_nodes": [[["dense_322", 0, 0, {}], ["dense_16", 0, 0, {}]]]}, {"name": "concatenate_358", "class_name": "Concatenate", "config": {"name": "concatenate_358", "trainable": true, "dtype": "float32", "axis": -1}, "inbound_nodes": [[["dense_411", 0, 0, {}], ["dense_1", 0, 0, {}]]]}, {"name": "concatenate_463", "class_name": "Concatenate", "config": {"name": "concatenate_463", "trainable": true, "dtype": "float32", "axis": -1}, "inbound_nodes": [[["dense_516", 0, 0, {}], ["dense_1", 0, 0, {}]]]}, {"name": "concatenate_570", "class_name": "Concatenate", "config": {"name": "concatenate_570", "trainable": true, "dtype": "float32", "axis": -1}, "inbound_nodes": [[["dense_623", 0, 0, {}], ["dense_4", 0, 0, {}]]]}, {"name": "concatenate_660", "class_name": "Concatenate", "config": {"name": "concatenate_660", "trainable": true, "dtype": "float32", "axis": -1}, "inbound_nodes": [[["dense_713", 0, 0, {}], ["dense_4", 0, 0, {}]]]}, {"name": "concatenate_741", "class_name": "Concatenate", "config": {"name": "concatenate_741", "trainable": true, "dtype": "float32", "axis": -1}, "inbound_nodes": [[["dense_794", 0, 0, {}], ["dense_46", 0, 0, {}]]]}, {"name": "dense_143", "class_name": "Dense", "config": {"name": "dense_143", "trainable": true, "dtype": "float32", "units": 100, "activation": "relu", "use_bias": true, "kernel_initializer": {"class_name": "VarianceScaling", "config": {"scale": 1.0, "mode": "fan_avg", "distribution": "uniform", "seed": null}}, "bias_initializer": {"class_name": "Zeros", "config": {}}, "kernel_regularizer": null, "bias_regularizer": null, "activity_regularizer": null, "kernel_constraint": null, "bias_constraint": null}, "inbound_nodes": [[["concatenate_89", 0, 0, {}]]]}, {"name": "dense_209", "class_name": "Dense", "config": {"name": "dense_209", "trainable": true, "dtype": "float32", "units": 100, "activation": "relu", "use_bias": true, "kernel_initializer": {"class_name": "VarianceScaling", "config": {"scale": 1.0, "mode": "fan_avg", "distribution": "uniform", "seed": null}}, "bias_initializer": {"class_name": "Zeros", "config": {}}, "kernel_regularizer": null, "bias_regularizer": null, "activity_regularizer": null, "kernel_constraint": null, "bias_constraint": null}, "inbound_nodes": [[["concatenate_155", 0, 0, {}]]]}, {"name": "dense_323", "class_name": "Dense", "config": {"name": "dense_323", "trainable": true, "dtype": "float32", "units": 100, "activation": "relu", "use_bias": true, "kernel_initializer": {"class_name": "VarianceScaling", "config": {"scale": 1.0, "mode": "fan_avg", "distribution": "uniform", "seed": null}}, "bias_initializer": {"class_name": "Zeros", "config": {}}, "kernel_regularizer": null, "bias_regularizer": null, "activity_regularizer": null, "kernel_constraint": null, "bias_constraint": null}, "inbound_nodes": [[["concatenate_269", 0, 0, {}]]]}, {"name": "dense_412", "class_name": "Dense", "config": {"name": "dense_412", "trainable": true, "dtype": "float32", "units": 100, "activation": "relu", "use_bias": true, "kernel_initializer": {"class_name": "VarianceScaling", "config": {"scale": 1.0, "mode": "fan_avg", "distribution": "uniform", "seed": null}}, "bias_initializer": {"class_name": "Zeros", "config": {}}, "kernel_regularizer": null, "bias_regularizer": null, "activity_regularizer": null, "kernel_constraint": null, "bias_constraint": null}, "inbound_nodes": [[["concatenate_358", 0, 0, {}]]]}, {"name": "dense_517", "class_name": "Dense", "config": {"name": "dense_517", "trainable": true, "dtype": "float32", "units": 100, "activation": "relu", "use_bias": true, "kernel_initializer": {"class_name": "VarianceScaling", "config": {"scale": 1.0, "mode": "fan_avg", "distribution": "uniform", "seed": null}}, "bias_initializer": {"class_name": "Zeros", "config": {}}, "kernel_regularizer": null, "bias_regularizer": null, "activity_regularizer": null, "kernel_constraint": null, "bias_constraint": null}, "inbound_nodes": [[["concatenate_463", 0, 0, {}]]]}, {"name": "dense_624", "class_name": "Dense", "config": {"name": "dense_624", "trainable": true, "dtype": "float32", "units": 100, "activation": "relu", "use_bias": true, "kernel_initializer": {"class_name": "VarianceScaling", "config": {"scale": 1.0, "mode": "fan_avg", "distribution": "uniform", "seed": null}}, "bias_initializer": {"class_name": "Zeros", "config": {}}, "kernel_regularizer": null, "bias_regularizer": null, "activity_regularizer": null, "kernel_constraint": null, "bias_constraint": null}, "inbound_nodes": [[["concatenate_570", 0, 0, {}]]]}, {"name": "dense_714", "class_name": "Dense", "config": {"name": "dense_714", "trainable": true, "dtype": "float32", "units": 100, "activation": "relu", "use_bias": true, "kernel_initializer": {"class_name": "VarianceScaling", "config": {"scale": 1.0, "mode": "fan_avg", "distribution": "uniform", "seed": null}}, "bias_initializer": {"class_name": "Zeros", "config": {}}, "kernel_regularizer": null, "bias_regularizer": null, "activity_regularizer": null, "kernel_constraint": null, "bias_constraint": null}, "inbound_nodes": [[["concatenate_660", 0, 0, {}]]]}, {"name": "dense_795", "class_name": "Dense", "config": {"name": "dense_795", "trainable": true, "dtype": "float32", "units": 100, "activation": "relu", "use_bias": true, "kernel_initializer": {"class_name": "VarianceScaling", "config": {"scale": 1.0, "mode": "fan_avg", "distribution": "uniform", "seed": null}}, "bias_initializer": {"class_name": "Zeros", "config": {}}, "kernel_regularizer": null, "bias_regularizer": null, "activity_regularizer": null, "kernel_constraint": null, "bias_constraint": null}, "inbound_nodes": [[["concatenate_741", 0, 0, {}]]]}, {"name": "concatenate_156", "class_name": "Concatenate", "config": {"name": "concatenate_156", "trainable": true, "dtype": "float32", "axis": -1}, "inbound_nodes": [[["dense_143", 0, 0, {}], ["dense_209", 0, 0, {}]]]}, {"name": "concatenate_359", "class_name": "Concatenate", "config": {"name": "concatenate_359", "trainable": true, "dtype": "float32", "axis": -1}, "inbound_nodes": [[["dense_323", 0, 0, {}], ["dense_412", 0, 0, {}]]]}, {"name": "concatenate_571", "class_name": "Concatenate", "config": {"name": "concatenate_571", "trainable": true, "dtype": "float32", "axis": -1}, "inbound_nodes": [[["dense_517", 0, 0, {}], ["dense_624", 0, 0, {}]]]}, {"name": "concatenate_742", "class_name": "Concatenate", "config": {"name": "concatenate_742", "trainable": true, "dtype": "float32", "axis": -1}, "inbound_nodes": [[["dense_714", 0, 0, {}], ["dense_795", 0, 0, {}]]]}, {"name": "dense_210", "class_name": "Dense", "config": {"name": "dense_210", "trainable": true, "dtype": "float32", "units": 100, "activation": "relu", "use_bias": true, "kernel_initializer": {"class_name": "VarianceScaling", "config": {"scale": 1.0, "mode": "fan_avg", "distribution": "uniform", "seed": null}}, "bias_initializer": {"class_name": "Zeros", "config": {}}, "kernel_regularizer": null, "bias_regularizer": null, "activity_regularizer": null, "kernel_constraint": null, "bias_constraint": null}, "inbound_nodes": [[["concatenate_156", 0, 0, {}]]]}, {"name": "dense_413", "class_name": "Dense", "config": {"name": "dense_413", "trainable": true, "dtype": "float32", "units": 100, "activation": "relu", "use_bias": true, "kernel_initializer": {"class_name": "VarianceScaling", "config": {"scale": 1.0, "mode": "fan_avg", "distribution": "uniform", "seed": null}}, "bias_initializer": {"class_name": "Zeros", "config": {}}, "kernel_regularizer": null, "bias_regularizer": null, "activity_regularizer": null, "kernel_constraint": null, "bias_constraint": null}, "inbound_nodes": [[["concatenate_359", 0, 0, {}]]]}, {"name": "dense_625", "class_name": "Dense", "config": {"name": "dense_625", "trainable": true, "dtype": "float32", "units": 100, "activation": "relu", "use_bias": true, "kernel_initializer": {"class_name": "VarianceScaling", "config": {"scale": 1.0, "mode": "fan_avg", "distribution": "uniform", "seed": null}}, "bias_initializer": {"class_name": "Zeros", "config": {}}, "kernel_regularizer": null, "bias_regularizer": null, "activity_regularizer": null, "kernel_constraint": null, "bias_constraint": null}, "inbound_nodes": [[["concatenate_571", 0, 0, {}]]]}, {"name": "dense_796", "class_name": "Dense", "config": {"name": "dense_796", "trainable": true, "dtype": "float32", "units": 100, "activation": "relu", "use_bias": true, "kernel_initializer": {"class_name": "VarianceScaling", "config": {"scale": 1.0, "mode": "fan_avg", "distribution": "uniform", "seed": null}}, "bias_initializer": {"class_name": "Zeros", "config": {}}, "kernel_regularizer": null, "bias_regularizer": null, "activity_regularizer": null, "kernel_constraint": null, "bias_constraint": null}, "inbound_nodes": [[["concatenate_742", 0, 0, {}]]]}, {"name": "concatenate_157", "class_name": "Concatenate", "config": {"name": "concatenate_157", "trainable": true, "dtype": "float32", "axis": -1}, "inbound_nodes": [[["dense_210", 0, 0, {}], ["dense_4", 0, 0, {}]]]}, {"name": "concatenate_360", "class_name": "Concatenate", "config": {"name": "concatenate_360", "trainable": true, "dtype": "float32", "axis": -1}, "inbound_nodes": [[["dense_413", 0, 0, {}], ["dense_18", 0, 0, {}]]]}, {"name": "concatenate_572", "class_name": "Concatenate", "config": {"name": "concatenate_572", "trainable": true, "dtype": "float32", "axis": -1}, "inbound_nodes": [[["dense_625", 0, 0, {}], ["dense_8", 0, 0, {}]]]}, {"name": "concatenate_743", "class_name": "Concatenate", "config": {"name": "concatenate_743", "trainable": true, "dtype": "float32", "axis": -1}, "inbound_nodes": [[["dense_796", 0, 0, {}], ["dense_13", 0, 0, {}]]]}, {"name": "dense_211", "class_name": "Dense", "config": {"name": "dense_211", "trainable": true, "dtype": "float32", "units": 100, "activation": "relu", "use_bias": true, "kernel_initializer": {"class_name": "VarianceScaling", "config": {"scale": 1.0, "mode": "fan_avg", "distribution": "uniform", "seed": null}}, "bias_initializer": {"class_name": "Zeros", "config": {}}, "kernel_regularizer": null, "bias_regularizer": null, "activity_regularizer": null, "kernel_constraint": null, "bias_constraint": null}, "inbound_nodes": [[["concatenate_157", 0, 0, {}]]]}, {"name": "dense_414", "class_name": "Dense", "config": {"name": "dense_414", "trainable": true, "dtype": "float32", "units": 100, "activation": "relu", "use_bias": true, "kernel_initializer": {"class_name": "VarianceScaling", "config": {"scale": 1.0, "mode": "fan_avg", "distribution": "uniform", "seed": null}}, "bias_initializer": {"class_name": "Zeros", "config": {}}, "kernel_regularizer": null, "bias_regularizer": null, "activity_regularizer": null, "kernel_constraint": null, "bias_constraint": null}, "inbound_nodes": [[["concatenate_360", 0, 0, {}]]]}, {"name": "dense_626", "class_name": "Dense", "config": {"name": "dense_626", "trainable": true, "dtype": "float32", "units": 100, "activation": "relu", "use_bias": true, "kernel_initializer": {"class_name": "VarianceScaling", "config": {"scale": 1.0, "mode": "fan_avg", "distribution": "uniform", "seed": null}}, "bias_initializer": {"class_name": "Zeros", "config": {}}, "kernel_regularizer": null, "bias_regularizer": null, "activity_regularizer": null, "kernel_constraint": null, "bias_constraint": null}, "inbound_nodes": [[["concatenate_572", 0, 0, {}]]]}, {"name": "dense_797", "class_name": "Dense", "config": {"name": "dense_797", "trainable": true, "dtype": "float32", "units": 100, "activation": "relu", "use_bias": true, "kernel_initializer": {"class_name": "VarianceScaling", "config": {"scale": 1.0, "mode": "fan_avg", "distribution": "uniform", "seed": null}}, "bias_initializer": {"class_name": "Zeros", "config": {}}, "kernel_regularizer": null, "bias_regularizer": null, "activity_regularizer": null, "kernel_constraint": null, "bias_constraint": null}, "inbound_nodes": [[["concatenate_743", 0, 0, {}]]]}, {"name": "concatenate_361", "class_name": "Concatenate", "config": {"name": "concatenate_361", "trainable": true, "dtype": "float32", "axis": -1}, "inbound_nodes": [[["dense_211", 0, 0, {}], ["dense_414", 0, 0, {}]]]}, {"name": "concatenate_744", "class_name": "Concatenate", "config": {"name": "concatenate_744", "trainable": true, "dtype": "float32", "axis": -1}, "inbound_nodes": [[["dense_626", 0, 0, {}], ["dense_797", 0, 0, {}]]]}, {"name": "dense_415", "class_name": "Dense", "config": {"name": "dense_415", "trainable": true, "dtype": "float32", "units": 100, "activation": "relu", "use_bias": true, "kernel_initializer": {"class_name": "VarianceScaling", "config": {"scale": 1.0, "mode": "fan_avg", "distribution": "uniform", "seed": null}}, "bias_initializer": {"class_name": "Zeros", "config": {}}, "kernel_regularizer": null, "bias_regularizer": null, "activity_regularizer": null, "kernel_constraint": null, "bias_constraint": null}, "inbound_nodes": [[["concatenate_361", 0, 0, {}]]]}, {"name": "dense_798", "class_name": "Dense", "config": {"name": "dense_798", "trainable": true, "dtype": "float32", "units": 100, "activation": "relu", "use_bias": true, "kernel_initializer": {"class_name": "VarianceScaling", "config": {"scale": 1.0, "mode": "fan_avg", "distribution": "uniform", "seed": null}}, "bias_initializer": {"class_name": "Zeros", "config": {}}, "kernel_regularizer": null, "bias_regularizer": null, "activity_regularizer": null, "kernel_constraint": null, "bias_constraint": null}, "inbound_nodes": [[["concatenate_744", 0, 0, {}]]]}, {"name": "concatenate_362", "class_name": "Concatenate", "config": {"name": "concatenate_362", "trainable": true, "dtype": "float32", "axis": -1}, "inbound_nodes": [[["dense_415", 0, 0, {}], ["dense_1", 0, 0, {}]]]}, {"name": "concatenate_745", "class_name": "Concatenate", "config": {"name": "concatenate_745", "trainable": true, "dtype": "float32", "axis": -1}, "inbound_nodes": [[["dense_798", 0, 0, {}], ["dense_1", 0, 0, {}]]]}, {"name": "dense_416", "class_name": "Dense", "config": {"name": "dense_416", "trainable": true, "dtype": "float32", "units": 100, "activation": "relu", "use_bias": true, "kernel_initializer": {"class_name": "VarianceScaling", "config": {"scale": 1.0, "mode": "fan_avg", "distribution": "uniform", "seed": null}}, "bias_initializer": {"class_name": "Zeros", "config": {}}, "kernel_regularizer": null, "bias_regularizer": null, "activity_regularizer": null, "kernel_constraint": null, "bias_constraint": null}, "inbound_nodes": [[["concatenate_362", 0, 0, {}]]]}, {"name": "dense_799", "class_name": "Dense", "config": {"name": "dense_799", "trainable": true, "dtype": "float32", "units": 100, "activation": "relu", "use_bias": true, "kernel_initializer": {"class_name": "VarianceScaling", "config": {"scale": 1.0, "mode": "fan_avg", "distribution": "uniform", "seed": null}}, "bias_initializer": {"class_name": "Zeros", "config": {}}, "kernel_regularizer": null, "bias_regularizer": null, "activity_regularizer": null, "kernel_constraint": null, "bias_constraint": null}, "inbound_nodes": [[["concatenate_745", 0, 0, {}]]]}, {"name": "concatenate_746", "class_name": "Concatenate", "config": {"name": "concatenate_746", "trainable": true, "dtype": "float32", "axis": -1}, "inbound_nodes": [[["dense_416", 0, 0, {}], ["dense_799", 0, 0, {}]]]}, {"name": "dense_800", "class_name": "Dense", "config": {"name": "dense_800", "trainable": true, "dtype": "float32", "units": 100, "activation": "relu", "use_bias": true, "kernel_initializer": {"class_name": "VarianceScaling", "config": {"scale": 1.0, "mode": "fan_avg", "distribution": "uniform", "seed": null}}, "bias_initializer": {"class_name": "Zeros", "config": {}}, "kernel_regularizer": null, "bias_regularizer": null, "activity_regularizer": null, "kernel_constraint": null, "bias_constraint": null}, "inbound_nodes": [[["concatenate_746", 0, 0, {}]]]}, {"name": "concatenate_747", "class_name": "Concatenate", "config": {"name": "concatenate_747", "trainable": true, "dtype": "float32", "axis": -1}, "inbound_nodes": [[["dense_800", 0, 0, {}], ["dense_1", 0, 0, {}]]]}, {"name": "dense_801", "class_name": "Dense", "config": {"name": "dense_801", "trainable": true, "dtype": "float32", "units": 100, "activation": "relu", "use_bias": true, "kernel_initializer": {"class_name": "VarianceScaling", "config": {"scale": 1.0, "mode": "fan_avg", "distribution": "uniform", "seed": null}}, "bias_initializer": {"class_name": "Zeros", "config": {}}, "kernel_regularizer": null, "bias_regularizer": null, "activity_regularizer": null, "kernel_constraint": null, "bias_constraint": null}, "inbound_nodes": [[["concatenate_747", 0, 0, {}]]]}, {"name": "dense_802", "class_name": "Dense", "config": {"name": "dense_802", "trainable": true, "dtype": "float32", "units": 7, "activation": "softmax", "use_bias": true, "kernel_initializer": {"class_name": "VarianceScaling", "config": {"scale": 1.0, "mode": "fan_avg", "distribution": "uniform", "seed": null}}, "bias_initializer": {"class_name": "Zeros", "config": {}}, "kernel_regularizer": null, "bias_regularizer": null, "activity_regularizer": null, "kernel_constraint": null, "bias_constraint": null}, "inbound_nodes": [[["dense_801", 0, 0, {}]]]}], "input_layers": [["input_1", 0, 0], ["input_2", 0, 0], ["input_3", 0, 0], ["input_4", 0, 0], ["input_5", 0, 0], ["input_6", 0, 0], ["input_7", 0, 0], ["input_8", 0, 0], ["input_9", 0, 0], ["input_10", 0, 0], ["input_11", 0, 0], ["input_12", 0, 0], ["input_13", 0, 0], ["input_14", 0, 0], ["input_15", 0, 0], ["input_16", 0, 0], ["input_17", 0, 0], ["input_18", 0, 0], ["input_19", 0, 0], ["input_20", 0, 0], ["input_23", 0, 0], ["input_24", 0, 0], ["input_25", 0, 0], ["input_27", 0, 0], ["input_30", 0, 0], ["input_34", 0, 0], ["input_36", 0, 0], ["input_37", 0, 0], ["input_38", 0, 0], ["input_41", 0, 0], ["input_43", 0, 0], ["input_44", 0, 0], ["input_45", 0, 0], ["input_46", 0, 0], ["input_47", 0, 0], ["input_49", 0, 0], ["input_52", 0, 0], ["input_53", 0, 0], ["input_54", 0, 0]], "output_layers": [["dense_802", 0, 0]]}, "keras_version": "2.3.1", "backend": "tensorflow"}