{"class_name": "Model", "config": {"name": "model_1", "layers": [{"name": "input_4", "class_name": "InputLayer", "config": {"batch_input_shape": [null, 1], "dtype": "float32", "sparse": false, "name": "input_4"}, "inbound_nodes": []}, {"name": "input_23", "class_name": "InputLayer", "config": {"batch_input_shape": [null, 1], "dtype": "float32", "sparse": false, "name": "input_23"}, "inbound_nodes": []}, {"name": "input_16", "class_name": "InputLayer", "config": {"batch_input_shape": [null, 1], "dtype": "float32", "sparse": false, "name": "input_16"}, "inbound_nodes": []}, {"name": "input_22", "class_name": "InputLayer", "config": {"batch_input_shape": [null, 1], "dtype": "float32", "sparse": false, "name": "input_22"}, "inbound_nodes": []}, {"name": "dense_4", "class_name": "Dense", "config": {"name": "dense_4", "trainable": true, "dtype": "float32", "units": 50, "activation": "relu", "use_bias": true, "kernel_initializer": {"class_name": "VarianceScaling", "config": {"scale": 1.0, "mode": "fan_avg", "distribution": "uniform", "seed": null}}, "bias_initializer": {"class_name": "Zeros", "config": {}}, "kernel_regularizer": null, "bias_regularizer": null, "activity_regularizer": null, "kernel_constraint": null, "bias_constraint": null}, "inbound_nodes": [[["input_4", 0, 0, {}]]]}, {"name": "dense_23", "class_name": "Dense", "config": {"name": "dense_23", "trainable": true, "dtype": "float32", "units": 50, "activation": "relu", "use_bias": true, "kernel_initializer": {"class_name": "VarianceScaling", "config": {"scale": 1.0, "mode": "fan_avg", "distribution": "uniform", "seed": null}}, "bias_initializer": {"class_name": "Zeros", "config": {}}, "kernel_regularizer": null, "bias_regularizer": null, "activity_regularizer": null, "kernel_constraint": null, "bias_constraint": null}, "inbound_nodes": [[["input_23", 0, 0, {}]]]}, {"name": "dense_16", "class_name": "Dense", "config": {"name": "dense_16", "trainable": true, "dtype": "float32", "units": 50, "activation": "relu", "use_bias": true, "kernel_initializer": {"class_name": "VarianceScaling", "config": {"scale": 1.0, "mode": "fan_avg", "distribution": "uniform", "seed": null}}, "bias_initializer": {"class_name": "Zeros", "config": {}}, "kernel_regularizer": null, "bias_regularizer": null, "activity_regularizer": null, "kernel_constraint": null, "bias_constraint": null}, "inbound_nodes": [[["input_16", 0, 0, {}]]]}, {"name": "dense_22", "class_name": "Dense", "config": {"name": "dense_22", "trainable": true, "dtype": "float32", "units": 50, "activation": "relu", "use_bias": true, "kernel_initializer": {"class_name": "VarianceScaling", "config": {"scale": 1.0, "mode": "fan_avg", "distribution": "uniform", "seed": null}}, "bias_initializer": {"class_name": "Zeros", "config": {}}, "kernel_regularizer": null, "bias_regularizer": null, "activity_regularizer": null, "kernel_constraint": null, "bias_constraint": null}, "inbound_nodes": [[["input_22", 0, 0, {}]]]}, {"name": "input_10", "class_name": "InputLayer", "config": {"batch_input_shape": [null, 1], "dtype": "float32", "sparse": false, "name": "input_10"}, "inbound_nodes": []}, {"name": "input_14", "class_name": "InputLayer", "config": {"batch_input_shape": [null, 1], "dtype": "float32", "sparse": false, "name": "input_14"}, "inbound_nodes": []}, {"name": "input_2", "class_name": "InputLayer", "config": {"batch_input_shape": [null, 1], "dtype": "float32", "sparse": false, "name": "input_2"}, "inbound_nodes": []}, {"name": "input_5", "class_name": "InputLayer", "config": {"batch_input_shape": [null, 1], "dtype": "float32", "sparse": false, "name": "input_5"}, "inbound_nodes": []}, {"name": "input_6", "class_name": "InputLayer", "config": {"batch_input_shape": [null, 1], "dtype": "float32", "sparse": false, "name": "input_6"}, "inbound_nodes": []}, {"name": "input_8", "class_name": "InputLayer", "config": {"batch_input_shape": [null, 1], "dtype": "float32", "sparse": false, "name": "input_8"}, "inbound_nodes": []}, {"name": "input_21", "class_name": "InputLayer", "config": {"batch_input_shape": [null, 1], "dtype": "float32", "sparse": false, "name": "input_21"}, "inbound_nodes": []}, {"name": "concatenate_48", "class_name": "Concatenate", "config": {"name": "concatenate_48", "trainable": true, "dtype": "float32", "axis": -1}, "inbound_nodes": [[["dense_4", 0, 0, {}], ["dense_16", 0, 0, {}]]]}, {"name": "concatenate_50", "class_name": "Concatenate", "config": {"name": "concatenate_50", "trainable": true, "dtype": "float32", "axis": -1}, "inbound_nodes": [[["dense_23", 0, 0, {}], ["dense_22", 0, 0, {}]]]}, {"name": "input_20", "class_name": "InputLayer", "config": {"batch_input_shape": [null, 1], "dtype": "float32", "sparse": false, "name": "input_20"}, "inbound_nodes": []}, {"name": "input_24", "class_name": "InputLayer", "config": {"batch_input_shape": [null, 1], "dtype": "float32", "sparse": false, "name": "input_24"}, "inbound_nodes": []}, {"name": "dense_10", "class_name": "Dense", "config": {"name": "dense_10", "trainable": true, "dtype": "float32", "units": 50, "activation": "relu", "use_bias": true, "kernel_initializer": {"class_name": "VarianceScaling", "config": {"scale": 1.0, "mode": "fan_avg", "distribution": "uniform", "seed": null}}, "bias_initializer": {"class_name": "Zeros", "config": {}}, "kernel_regularizer": null, "bias_regularizer": null, "activity_regularizer": null, "kernel_constraint": null, "bias_constraint": null}, "inbound_nodes": [[["input_10", 0, 0, {}]]]}, {"name": "dense_14", "class_name": "Dense", "config": {"name": "dense_14", "trainable": true, "dtype": "float32", "units": 50, "activation": "relu", "use_bias": true, "kernel_initializer": {"class_name": "VarianceScaling", "config": {"scale": 1.0, "mode": "fan_avg", "distribution": "uniform", "seed": null}}, "bias_initializer": {"class_name": "Zeros", "config": {}}, "kernel_regularizer": null, "bias_regularizer": null, "activity_regularizer": null, "kernel_constraint": null, "bias_constraint": null}, "inbound_nodes": [[["input_14", 0, 0, {}]]]}, {"name": "dense_2", "class_name": "Dense", "config": {"name": "dense_2", "trainable": true, "dtype": "float32", "units": 50, "activation": "relu", "use_bias": true, "kernel_initializer": {"class_name": "VarianceScaling", "config": {"scale": 1.0, "mode": "fan_avg", "distribution": "uniform", "seed": null}}, "bias_initializer": {"class_name": "Zeros", "config": {}}, "kernel_regularizer": null, "bias_regularizer": null, "activity_regularizer": null, "kernel_constraint": null, "bias_constraint": null}, "inbound_nodes": [[["input_2", 0, 0, {}]]]}, {"name": "dense_5", "class_name": "Dense", "config": {"name": "dense_5", "trainable": true, "dtype": "float32", "units": 50, "activation": "relu", "use_bias": true, "kernel_initializer": {"class_name": "VarianceScaling", "config": {"scale": 1.0, "mode": "fan_avg", "distribution": "uniform", "seed": null}}, "bias_initializer": {"class_name": "Zeros", "config": {}}, "kernel_regularizer": null, "bias_regularizer": null, "activity_regularizer": null, "kernel_constraint": null, "bias_constraint": null}, "inbound_nodes": [[["input_5", 0, 0, {}]]]}, {"name": "dense_6", "class_name": "Dense", "config": {"name": "dense_6", "trainable": true, "dtype": "float32", "units": 50, "activation": "relu", "use_bias": true, "kernel_initializer": {"class_name": "VarianceScaling", "config": {"scale": 1.0, "mode": "fan_avg", "distribution": "uniform", "seed": null}}, "bias_initializer": {"class_name": "Zeros", "config": {}}, "kernel_regularizer": null, "bias_regularizer": null, "activity_regularizer": null, "kernel_constraint": null, "bias_constraint": null}, "inbound_nodes": [[["input_6", 0, 0, {}]]]}, {"name": "dense_8", "class_name": "Dense", "config": {"name": "dense_8", "trainable": true, "dtype": "float32", "units": 50, "activation": "relu", "use_bias": true, "kernel_initializer": {"class_name": "VarianceScaling", "config": {"scale": 1.0, "mode": "fan_avg", "distribution": "uniform", "seed": null}}, "bias_initializer": {"class_name": "Zeros", "config": {}}, "kernel_regularizer": null, "bias_regularizer": null, "activity_regularizer": null, "kernel_constraint": null, "bias_constraint": null}, "inbound_nodes": [[["input_8", 0, 0, {}]]]}, {"name": "dense_21", "class_name": "Dense", "config": {"name": "dense_21", "trainable": true, "dtype": "float32", "units": 50, "activation": "relu", "use_bias": true, "kernel_initializer": {"class_name": "VarianceScaling", "config": {"scale": 1.0, "mode": "fan_avg", "distribution": "uniform", "seed": null}}, "bias_initializer": {"class_name": "Zeros", "config": {}}, "kernel_regularizer": null, "bias_regularizer": null, "activity_regularizer": null, "kernel_constraint": null, "bias_constraint": null}, "inbound_nodes": [[["input_21", 0, 0, {}]]]}, {"name": "dense_72", "class_name": "Dense", "config": {"name": "dense_72", "trainable": true, "dtype": "float32", "units": 100, "activation": "relu", "use_bias": true, "kernel_initializer": {"class_name": "VarianceScaling", "config": {"scale": 1.0, "mode": "fan_avg", "distribution": "uniform", "seed": null}}, "bias_initializer": {"class_name": "Zeros", "config": {}}, "kernel_regularizer": null, "bias_regularizer": null, "activity_regularizer": null, "kernel_constraint": null, "bias_constraint": null}, "inbound_nodes": [[["concatenate_48", 0, 0, {}]]]}, {"name": "dense_74", "class_name": "Dense", "config": {"name": "dense_74", "trainable": true, "dtype": "float32", "units": 100, "activation": "relu", "use_bias": true, "kernel_initializer": {"class_name": "VarianceScaling", "config": {"scale": 1.0, "mode": "fan_avg", "distribution": "uniform", "seed": null}}, "bias_initializer": {"class_name": "Zeros", "config": {}}, "kernel_regularizer": null, "bias_regularizer": null, "activity_regularizer": null, "kernel_constraint": null, "bias_constraint": null}, "inbound_nodes": [[["concatenate_50", 0, 0, {}]]]}, {"name": "dense_20", "class_name": "Dense", "config": {"name": "dense_20", "trainable": true, "dtype": "float32", "units": 50, "activation": "relu", "use_bias": true, "kernel_initializer": {"class_name": "VarianceScaling", "config": {"scale": 1.0, "mode": "fan_avg", "distribution": "uniform", "seed": null}}, "bias_initializer": {"class_name": "Zeros", "config": {}}, "kernel_regularizer": null, "bias_regularizer": null, "activity_regularizer": null, "kernel_constraint": null, "bias_constraint": null}, "inbound_nodes": [[["input_20", 0, 0, {}]]]}, {"name": "dense_24", "class_name": "Dense", "config": {"name": "dense_24", "trainable": true, "dtype": "float32", "units": 50, "activation": "relu", "use_bias": true, "kernel_initializer": {"class_name": "VarianceScaling", "config": {"scale": 1.0, "mode": "fan_avg", "distribution": "uniform", "seed": null}}, "bias_initializer": {"class_name": "Zeros", "config": {}}, "kernel_regularizer": null, "bias_regularizer": null, "activity_regularizer": null, "kernel_constraint": null, "bias_constraint": null}, "inbound_nodes": [[["input_24", 0, 0, {}]]]}, {"name": "concatenate_6", "class_name": "Concatenate", "config": {"name": "concatenate_6", "trainable": true, "dtype": "float32", "axis": -1}, "inbound_nodes": [[["dense_5", 0, 0, {}], ["dense_4", 0, 0, {}]]]}, {"name": "input_7", "class_name": "InputLayer", "config": {"batch_input_shape": [null, 1], "dtype": "float32", "sparse": false, "name": "input_7"}, "inbound_nodes": []}, {"name": "concatenate_17", "class_name": "Concatenate", "config": {"name": "concatenate_17", "trainable": true, "dtype": "float32", "axis": -1}, "inbound_nodes": [[["dense_5", 0, 0, {}], ["dense_6", 0, 0, {}]]]}, {"name": "input_3", "class_name": "InputLayer", "config": {"batch_input_shape": [null, 1], "dtype": "float32", "sparse": false, "name": "input_3"}, "inbound_nodes": []}, {"name": "input_12", "class_name": "InputLayer", "config": {"batch_input_shape": [null, 1], "dtype": "float32", "sparse": false, "name": "input_12"}, "inbound_nodes": []}, {"name": "concatenate_25", "class_name": "Concatenate", "config": {"name": "concatenate_25", "trainable": true, "dtype": "float32", "axis": -1}, "inbound_nodes": [[["dense_2", 0, 0, {}], ["dense_4", 0, 0, {}]]]}, {"name": "input_1", "class_name": "InputLayer", "config": {"batch_input_shape": [null, 1], "dtype": "float32", "sparse": false, "name": "input_1"}, "inbound_nodes": []}, {"name": "concatenate_27", "class_name": "Concatenate", "config": {"name": "concatenate_27", "trainable": true, "dtype": "float32", "axis": -1}, "inbound_nodes": [[["dense_4", 0, 0, {}], ["dense_8", 0, 0, {}]]]}, {"name": "concatenate_43", "class_name": "Concatenate", "config": {"name": "concatenate_43", "trainable": true, "dtype": "float32", "axis": -1}, "inbound_nodes": [[["dense_10", 0, 0, {}], ["dense_21", 0, 0, {}]]]}, {"name": "concatenate_49", "class_name": "Concatenate", "config": {"name": "concatenate_49", "trainable": true, "dtype": "float32", "axis": -1}, "inbound_nodes": [[["dense_72", 0, 0, {}], ["dense_2", 0, 0, {}]]]}, {"name": "concatenate_51", "class_name": "Concatenate", "config": {"name": "concatenate_51", "trainable": true, "dtype": "float32", "axis": -1}, "inbound_nodes": [[["dense_74", 0, 0, {}], ["dense_20", 0, 0, {}]]]}, {"name": "concatenate_54", "class_name": "Concatenate", "config": {"name": "concatenate_54", "trainable": true, "dtype": "float32", "axis": -1}, "inbound_nodes": [[["dense_8", 0, 0, {}], ["dense_14", 0, 0, {}]]]}, {"name": "concatenate_125", "class_name": "Concatenate", "config": {"name": "concatenate_125", "trainable": true, "dtype": "float32", "axis": -1}, "inbound_nodes": [[["dense_10", 0, 0, {}], ["dense_24", 0, 0, {}]]]}, {"name": "dense_30", "class_name": "Dense", "config": {"name": "dense_30", "trainable": true, "dtype": "float32", "units": 100, "activation": "relu", "use_bias": true, "kernel_initializer": {"class_name": "VarianceScaling", "config": {"scale": 1.0, "mode": "fan_avg", "distribution": "uniform", "seed": null}}, "bias_initializer": {"class_name": "Zeros", "config": {}}, "kernel_regularizer": null, "bias_regularizer": null, "activity_regularizer": null, "kernel_constraint": null, "bias_constraint": null}, "inbound_nodes": [[["concatenate_6", 0, 0, {}]]]}, {"name": "dense_7", "class_name": "Dense", "config": {"name": "dense_7", "trainable": true, "dtype": "float32", "units": 50, "activation": "relu", "use_bias": true, "kernel_initializer": {"class_name": "VarianceScaling", "config": {"scale": 1.0, "mode": "fan_avg", "distribution": "uniform", "seed": null}}, "bias_initializer": {"class_name": "Zeros", "config": {}}, "kernel_regularizer": null, "bias_regularizer": null, "activity_regularizer": null, "kernel_constraint": null, "bias_constraint": null}, "inbound_nodes": [[["input_7", 0, 0, {}]]]}, {"name": "dense_41", "class_name": "Dense", "config": {"name": "dense_41", "trainable": true, "dtype": "float32", "units": 100, "activation": "relu", "use_bias": true, "kernel_initializer": {"class_name": "VarianceScaling", "config": {"scale": 1.0, "mode": "fan_avg", "distribution": "uniform", "seed": null}}, "bias_initializer": {"class_name": "Zeros", "config": {}}, "kernel_regularizer": null, "bias_regularizer": null, "activity_regularizer": null, "kernel_constraint": null, "bias_constraint": null}, "inbound_nodes": [[["concatenate_17", 0, 0, {}]]]}, {"name": "dense_3", "class_name": "Dense", "config": {"name": "dense_3", "trainable": true, "dtype": "float32", "units": 50, "activation": "relu", "use_bias": true, "kernel_initializer": {"class_name": "VarianceScaling", "config": {"scale": 1.0, "mode": "fan_avg", "distribution": "uniform", "seed": null}}, "bias_initializer": {"class_name": "Zeros", "config": {}}, "kernel_regularizer": null, "bias_regularizer": null, "activity_regularizer": null, "kernel_constraint": null, "bias_constraint": null}, "inbound_nodes": [[["input_3", 0, 0, {}]]]}, {"name": "dense_12", "class_name": "Dense", "config": {"name": "dense_12", "trainable": true, "dtype": "float32", "units": 50, "activation": "relu", "use_bias": true, "kernel_initializer": {"class_name": "VarianceScaling", "config": {"scale": 1.0, "mode": "fan_avg", "distribution": "uniform", "seed": null}}, "bias_initializer": {"class_name": "Zeros", "config": {}}, "kernel_regularizer": null, "bias_regularizer": null, "activity_regularizer": null, "kernel_constraint": null, "bias_constraint": null}, "inbound_nodes": [[["input_12", 0, 0, {}]]]}, {"name": "dense_49", "class_name": "Dense", "config": {"name": "dense_49", "trainable": true, "dtype": "float32", "units": 100, "activation": "relu", "use_bias": true, "kernel_initializer": {"class_name": "VarianceScaling", "config": {"scale": 1.0, "mode": "fan_avg", "distribution": "uniform", "seed": null}}, "bias_initializer": {"class_name": "Zeros", "config": {}}, "kernel_regularizer": null, "bias_regularizer": null, "activity_regularizer": null, "kernel_constraint": null, "bias_constraint": null}, "inbound_nodes": [[["concatenate_25", 0, 0, {}]]]}, {"name": "dense_1", "class_name": "Dense", "config": {"name": "dense_1", "trainable": true, "dtype": "float32", "units": 50, "activation": "relu", "use_bias": true, "kernel_initializer": {"class_name": "VarianceScaling", "config": {"scale": 1.0, "mode": "fan_avg", "distribution": "uniform", "seed": null}}, "bias_initializer": {"class_name": "Zeros", "config": {}}, "kernel_regularizer": null, "bias_regularizer": null, "activity_regularizer": null, "kernel_constraint": null, "bias_constraint": null}, "inbound_nodes": [[["input_1", 0, 0, {}]]]}, {"name": "dense_51", "class_name": "Dense", "config": {"name": "dense_51", "trainable": true, "dtype": "float32", "units": 100, "activation": "relu", "use_bias": true, "kernel_initializer": {"class_name": "VarianceScaling", "config": {"scale": 1.0, "mode": "fan_avg", "distribution": "uniform", "seed": null}}, "bias_initializer": {"class_name": "Zeros", "config": {}}, "kernel_regularizer": null, "bias_regularizer": null, "activity_regularizer": null, "kernel_constraint": null, "bias_constraint": null}, "inbound_nodes": [[["concatenate_27", 0, 0, {}]]]}, {"name": "dense_67", "class_name": "Dense", "config": {"name": "dense_67", "trainable": true, "dtype": "float32", "units": 100, "activation": "relu", "use_bias": true, "kernel_initializer": {"class_name": "VarianceScaling", "config": {"scale": 1.0, "mode": "fan_avg", "distribution": "uniform", "seed": null}}, "bias_initializer": {"class_name": "Zeros", "config": {}}, "kernel_regularizer": null, "bias_regularizer": null, "activity_regularizer": null, "kernel_constraint": null, "bias_constraint": null}, "inbound_nodes": [[["concatenate_43", 0, 0, {}]]]}, {"name": "dense_73", "class_name": "Dense", "config": {"name": "dense_73", "trainable": true, "dtype": "float32", "units": 100, "activation": "relu", "use_bias": true, "kernel_initializer": {"class_name": "VarianceScaling", "config": {"scale": 1.0, "mode": "fan_avg", "distribution": "uniform", "seed": null}}, "bias_initializer": {"class_name": "Zeros", "config": {}}, "kernel_regularizer": null, "bias_regularizer": null, "activity_regularizer": null, "kernel_constraint": null, "bias_constraint": null}, "inbound_nodes": [[["concatenate_49", 0, 0, {}]]]}, {"name": "dense_75", "class_name": "Dense", "config": {"name": "dense_75", "trainable": true, "dtype": "float32", "units": 100, "activation": "relu", "use_bias": true, "kernel_initializer": {"class_name": "VarianceScaling", "config": {"scale": 1.0, "mode": "fan_avg", "distribution": "uniform", "seed": null}}, "bias_initializer": {"class_name": "Zeros", "config": {}}, "kernel_regularizer": null, "bias_regularizer": null, "activity_regularizer": null, "kernel_constraint": null, "bias_constraint": null}, "inbound_nodes": [[["concatenate_51", 0, 0, {}]]]}, {"name": "dense_78", "class_name": "Dense", "config": {"name": "dense_78", "trainable": true, "dtype": "float32", "units": 100, "activation": "relu", "use_bias": true, "kernel_initializer": {"class_name": "VarianceScaling", "config": {"scale": 1.0, "mode": "fan_avg", "distribution": "uniform", "seed": null}}, "bias_initializer": {"class_name": "Zeros", "config": {}}, "kernel_regularizer": null, "bias_regularizer": null, "activity_regularizer": null, "kernel_constraint": null, "bias_constraint": null}, "inbound_nodes": [[["concatenate_54", 0, 0, {}]]]}, {"name": "dense_149", "class_name": "Dense", "config": {"name": "dense_149", "trainable": true, "dtype": "float32", "units": 100, "activation": "relu", "use_bias": true, "kernel_initializer": {"class_name": "VarianceScaling", "config": {"scale": 1.0, "mode": "fan_avg", "distribution": "uniform", "seed": null}}, "bias_initializer": {"class_name": "Zeros", "config": {}}, "kernel_regularizer": null, "bias_regularizer": null, "activity_regularizer": null, "kernel_constraint": null, "bias_constraint": null}, "inbound_nodes": [[["concatenate_125", 0, 0, {}]]]}, {"name": "concatenate_7", "class_name": "Concatenate", "config": {"name": "concatenate_7", "trainable": true, "dtype": "float32", "axis": -1}, "inbound_nodes": [[["dense_30", 0, 0, {}], ["dense_23", 0, 0, {}]]]}, {"name": "input_9", "class_name": "InputLayer", "config": {"batch_input_shape": [null, 1], "dtype": "float32", "sparse": false, "name": "input_9"}, "inbound_nodes": []}, {"name": "concatenate_18", "class_name": "Concatenate", "config": {"name": "concatenate_18", "trainable": true, "dtype": "float32", "axis": -1}, "inbound_nodes": [[["dense_41", 0, 0, {}], ["dense_3", 0, 0, {}]]]}, {"name": "concatenate_26", "class_name": "Concatenate", "config": {"name": "concatenate_26", "trainable": true, "dtype": "float32", "axis": -1}, "inbound_nodes": [[["dense_49", 0, 0, {}], ["dense_1", 0, 0, {}]]]}, {"name": "concatenate_28", "class_name": "Concatenate", "config": {"name": "concatenate_28", "trainable": true, "dtype": "float32", "axis": -1}, "inbound_nodes": [[["dense_51", 0, 0, {}], ["dense_7", 0, 0, {}]]]}, {"name": "concatenate_44", "class_name": "Concatenate", "config": {"name": "concatenate_44", "trainable": true, "dtype": "float32", "axis": -1}, "inbound_nodes": [[["dense_7", 0, 0, {}], ["dense_67", 0, 0, {}]]]}, {"name": "concatenate_52", "class_name": "Concatenate", "config": {"name": "concatenate_52", "trainable": true, "dtype": "float32", "axis": -1}, "inbound_nodes": [[["dense_73", 0, 0, {}], ["dense_75", 0, 0, {}]]]}, {"name": "input_11", "class_name": "InputLayer", "config": {"batch_input_shape": [null, 1], "dtype": "float32", "sparse": false, "name": "input_11"}, "inbound_nodes": []}, {"name": "concatenate_55", "class_name": "Concatenate", "config": {"name": "concatenate_55", "trainable": true, "dtype": "float32", "axis": -1}, "inbound_nodes": [[["dense_78", 0, 0, {}], ["dense_4", 0, 0, {}]]]}, {"name": "concatenate_113", "class_name": "Concatenate", "config": {"name": "concatenate_113", "trainable": true, "dtype": "float32", "axis": -1}, "inbound_nodes": [[["dense_12", 0, 0, {}], ["dense_7", 0, 0, {}]]]}, {"name": "concatenate_124", "class_name": "Concatenate", "config": {"name": "concatenate_124", "trainable": true, "dtype": "float32", "axis": -1}, "inbound_nodes": [[["dense_4", 0, 0, {}], ["dense_4", 0, 0, {}]]]}, {"name": "concatenate_126", "class_name": "Concatenate", "config": {"name": "concatenate_126", "trainable": true, "dtype": "float32", "axis": -1}, "inbound_nodes": [[["dense_149", 0, 0, {}], ["dense_10", 0, 0, {}]]]}, {"name": "dense_31", "class_name": "Dense", "config": {"name": "dense_31", "trainable": true, "dtype": "float32", "units": 100, "activation": "relu", "use_bias": true, "kernel_initializer": {"class_name": "VarianceScaling", "config": {"scale": 1.0, "mode": "fan_avg", "distribution": "uniform", "seed": null}}, "bias_initializer": {"class_name": "Zeros", "config": {}}, "kernel_regularizer": null, "bias_regularizer": null, "activity_regularizer": null, "kernel_constraint": null, "bias_constraint": null}, "inbound_nodes": [[["concatenate_7", 0, 0, {}]]]}, {"name": "dense_9", "class_name": "Dense", "config": {"name": "dense_9", "trainable": true, "dtype": "float32", "units": 50, "activation": "relu", "use_bias": true, "kernel_initializer": {"class_name": "VarianceScaling", "config": {"scale": 1.0, "mode": "fan_avg", "distribution": "uniform", "seed": null}}, "bias_initializer": {"class_name": "Zeros", "config": {}}, "kernel_regularizer": null, "bias_regularizer": null, "activity_regularizer": null, "kernel_constraint": null, "bias_constraint": null}, "inbound_nodes": [[["input_9", 0, 0, {}]]]}, {"name": "dense_42", "class_name": "Dense", "config": {"name": "dense_42", "trainable": true, "dtype": "float32", "units": 100, "activation": "relu", "use_bias": true, "kernel_initializer": {"class_name": "VarianceScaling", "config": {"scale": 1.0, "mode": "fan_avg", "distribution": "uniform", "seed": null}}, "bias_initializer": {"class_name": "Zeros", "config": {}}, "kernel_regularizer": null, "bias_regularizer": null, "activity_regularizer": null, "kernel_constraint": null, "bias_constraint": null}, "inbound_nodes": [[["concatenate_18", 0, 0, {}]]]}, {"name": "dense_50", "class_name": "Dense", "config": {"name": "dense_50", "trainable": true, "dtype": "float32", "units": 100, "activation": "relu", "use_bias": true, "kernel_initializer": {"class_name": "VarianceScaling", "config": {"scale": 1.0, "mode": "fan_avg", "distribution": "uniform", "seed": null}}, "bias_initializer": {"class_name": "Zeros", "config": {}}, "kernel_regularizer": null, "bias_regularizer": null, "activity_regularizer": null, "kernel_constraint": null, "bias_constraint": null}, "inbound_nodes": [[["concatenate_26", 0, 0, {}]]]}, {"name": "dense_52", "class_name": "Dense", "config": {"name": "dense_52", "trainable": true, "dtype": "float32", "units": 100, "activation": "relu", "use_bias": true, "kernel_initializer": {"class_name": "VarianceScaling", "config": {"scale": 1.0, "mode": "fan_avg", "distribution": "uniform", "seed": null}}, "bias_initializer": {"class_name": "Zeros", "config": {}}, "kernel_regularizer": null, "bias_regularizer": null, "activity_regularizer": null, "kernel_constraint": null, "bias_constraint": null}, "inbound_nodes": [[["concatenate_28", 0, 0, {}]]]}, {"name": "dense_68", "class_name": "Dense", "config": {"name": "dense_68", "trainable": true, "dtype": "float32", "units": 100, "activation": "relu", "use_bias": true, "kernel_initializer": {"class_name": "VarianceScaling", "config": {"scale": 1.0, "mode": "fan_avg", "distribution": "uniform", "seed": null}}, "bias_initializer": {"class_name": "Zeros", "config": {}}, "kernel_regularizer": null, "bias_regularizer": null, "activity_regularizer": null, "kernel_constraint": null, "bias_constraint": null}, "inbound_nodes": [[["concatenate_44", 0, 0, {}]]]}, {"name": "dense_76", "class_name": "Dense", "config": {"name": "dense_76", "trainable": true, "dtype": "float32", "units": 100, "activation": "relu", "use_bias": true, "kernel_initializer": {"class_name": "VarianceScaling", "config": {"scale": 1.0, "mode": "fan_avg", "distribution": "uniform", "seed": null}}, "bias_initializer": {"class_name": "Zeros", "config": {}}, "kernel_regularizer": null, "bias_regularizer": null, "activity_regularizer": null, "kernel_constraint": null, "bias_constraint": null}, "inbound_nodes": [[["concatenate_52", 0, 0, {}]]]}, {"name": "dense_11", "class_name": "Dense", "config": {"name": "dense_11", "trainable": true, "dtype": "float32", "units": 50, "activation": "relu", "use_bias": true, "kernel_initializer": {"class_name": "VarianceScaling", "config": {"scale": 1.0, "mode": "fan_avg", "distribution": "uniform", "seed": null}}, "bias_initializer": {"class_name": "Zeros", "config": {}}, "kernel_regularizer": null, "bias_regularizer": null, "activity_regularizer": null, "kernel_constraint": null, "bias_constraint": null}, "inbound_nodes": [[["input_11", 0, 0, {}]]]}, {"name": "dense_79", "class_name": "Dense", "config": {"name": "dense_79", "trainable": true, "dtype": "float32", "units": 100, "activation": "relu", "use_bias": true, "kernel_initializer": {"class_name": "VarianceScaling", "config": {"scale": 1.0, "mode": "fan_avg", "distribution": "uniform", "seed": null}}, "bias_initializer": {"class_name": "Zeros", "config": {}}, "kernel_regularizer": null, "bias_regularizer": null, "activity_regularizer": null, "kernel_constraint": null, "bias_constraint": null}, "inbound_nodes": [[["concatenate_55", 0, 0, {}]]]}, {"name": "dense_137", "class_name": "Dense", "config": {"name": "dense_137", "trainable": true, "dtype": "float32", "units": 100, "activation": "relu", "use_bias": true, "kernel_initializer": {"class_name": "VarianceScaling", "config": {"scale": 1.0, "mode": "fan_avg", "distribution": "uniform", "seed": null}}, "bias_initializer": {"class_name": "Zeros", "config": {}}, "kernel_regularizer": null, "bias_regularizer": null, "activity_regularizer": null, "kernel_constraint": null, "bias_constraint": null}, "inbound_nodes": [[["concatenate_113", 0, 0, {}]]]}, {"name": "dense_148", "class_name": "Dense", "config": {"name": "dense_148", "trainable": true, "dtype": "float32", "units": 100, "activation": "relu", "use_bias": true, "kernel_initializer": {"class_name": "VarianceScaling", "config": {"scale": 1.0, "mode": "fan_avg", "distribution": "uniform", "seed": null}}, "bias_initializer": {"class_name": "Zeros", "config": {}}, "kernel_regularizer": null, "bias_regularizer": null, "activity_regularizer": null, "kernel_constraint": null, "bias_constraint": null}, "inbound_nodes": [[["concatenate_124", 0, 0, {}]]]}, {"name": "dense_150", "class_name": "Dense", "config": {"name": "dense_150", "trainable": true, "dtype": "float32", "units": 100, "activation": "relu", "use_bias": true, "kernel_initializer": {"class_name": "VarianceScaling", "config": {"scale": 1.0, "mode": "fan_avg", "distribution": "uniform", "seed": null}}, "bias_initializer": {"class_name": "Zeros", "config": {}}, "kernel_regularizer": null, "bias_regularizer": null, "activity_regularizer": null, "kernel_constraint": null, "bias_constraint": null}, "inbound_nodes": [[["concatenate_126", 0, 0, {}]]]}, {"name": "concatenate_8", "class_name": "Concatenate", "config": {"name": "concatenate_8", "trainable": true, "dtype": "float32", "axis": -1}, "inbound_nodes": [[["dense_4", 0, 0, {}], ["dense_31", 0, 0, {}]]]}, {"name": "concatenate_19", "class_name": "Concatenate", "config": {"name": "concatenate_19", "trainable": true, "dtype": "float32", "axis": -1}, "inbound_nodes": [[["dense_16", 0, 0, {}], ["dense_42", 0, 0, {}]]]}, {"name": "input_18", "class_name": "InputLayer", "config": {"batch_input_shape": [null, 1], "dtype": "float32", "sparse": false, "name": "input_18"}, "inbound_nodes": []}, {"name": "concatenate_21", "class_name": "Concatenate", "config": {"name": "concatenate_21", "trainable": true, "dtype": "float32", "axis": -1}, "inbound_nodes": [[["dense_7", 0, 0, {}], ["dense_12", 0, 0, {}]]]}, {"name": "concatenate_29", "class_name": "Concatenate", "config": {"name": "concatenate_29", "trainable": true, "dtype": "float32", "axis": -1}, "inbound_nodes": [[["dense_50", 0, 0, {}], ["dense_52", 0, 0, {}]]]}, {"name": "concatenate_31", "class_name": "Concatenate", "config": {"name": "concatenate_31", "trainable": true, "dtype": "float32", "axis": -1}, "inbound_nodes": [[["dense_6", 0, 0, {}], ["dense_23", 0, 0, {}]]]}, {"name": "concatenate_42", "class_name": "Concatenate", "config": {"name": "concatenate_42", "trainable": true, "dtype": "float32", "axis": -1}, "inbound_nodes": [[["dense_4", 0, 0, {}], ["dense_23", 0, 0, {}]]]}, {"name": "concatenate_45", "class_name": "Concatenate", "config": {"name": "concatenate_45", "trainable": true, "dtype": "float32", "axis": -1}, "inbound_nodes": [[["dense_68", 0, 0, {}], ["dense_9", 0, 0, {}]]]}, {"name": "concatenate_53", "class_name": "Concatenate", "config": {"name": "concatenate_53", "trainable": true, "dtype": "float32", "axis": -1}, "inbound_nodes": [[["dense_76", 0, 0, {}], ["dense_11", 0, 0, {}]]]}, {"name": "concatenate_56", "class_name": "Concatenate", "config": {"name": "concatenate_56", "trainable": true, "dtype": "float32", "axis": -1}, "inbound_nodes": [[["dense_79", 0, 0, {}], ["dense_23", 0, 0, {}]]]}, {"name": "concatenate_107", "class_name": "Concatenate", "config": {"name": "concatenate_107", "trainable": true, "dtype": "float32", "axis": -1}, "inbound_nodes": [[["dense_5", 0, 0, {}], ["dense_4", 0, 0, {}]]]}, {"name": "concatenate_111", "class_name": "Concatenate", "config": {"name": "concatenate_111", "trainable": true, "dtype": "float32", "axis": -1}, "inbound_nodes": [[["dense_16", 0, 0, {}], ["dense_4", 0, 0, {}]]]}, {"name": "concatenate_114", "class_name": "Concatenate", "config": {"name": "concatenate_114", "trainable": true, "dtype": "float32", "axis": -1}, "inbound_nodes": [[["dense_137", 0, 0, {}], ["dense_10", 0, 0, {}]]]}, {"name": "concatenate_121", "class_name": "Concatenate", "config": {"name": "concatenate_121", "trainable": true, "dtype": "float32", "axis": -1}, "inbound_nodes": [[["dense_5", 0, 0, {}], ["dense_9", 0, 0, {}]]]}, {"name": "concatenate_127", "class_name": "Concatenate", "config": {"name": "concatenate_127", "trainable": true, "dtype": "float32", "axis": -1}, "inbound_nodes": [[["dense_148", 0, 0, {}], ["dense_150", 0, 0, {}]]]}, {"name": "dense_32", "class_name": "Dense", "config": {"name": "dense_32", "trainable": true, "dtype": "float32", "units": 100, "activation": "relu", "use_bias": true, "kernel_initializer": {"class_name": "VarianceScaling", "config": {"scale": 1.0, "mode": "fan_avg", "distribution": "uniform", "seed": null}}, "bias_initializer": {"class_name": "Zeros", "config": {}}, "kernel_regularizer": null, "bias_regularizer": null, "activity_regularizer": null, "kernel_constraint": null, "bias_constraint": null}, "inbound_nodes": [[["concatenate_8", 0, 0, {}]]]}, {"name": "dense_43", "class_name": "Dense", "config": {"name": "dense_43", "trainable": true, "dtype": "float32", "units": 100, "activation": "relu", "use_bias": true, "kernel_initializer": {"class_name": "VarianceScaling", "config": {"scale": 1.0, "mode": "fan_avg", "distribution": "uniform", "seed": null}}, "bias_initializer": {"class_name": "Zeros", "config": {}}, "kernel_regularizer": null, "bias_regularizer": null, "activity_regularizer": null, "kernel_constraint": null, "bias_constraint": null}, "inbound_nodes": [[["concatenate_19", 0, 0, {}]]]}, {"name": "dense_18", "class_name": "Dense", "config": {"name": "dense_18", "trainable": true, "dtype": "float32", "units": 50, "activation": "relu", "use_bias": true, "kernel_initializer": {"class_name": "VarianceScaling", "config": {"scale": 1.0, "mode": "fan_avg", "distribution": "uniform", "seed": null}}, "bias_initializer": {"class_name": "Zeros", "config": {}}, "kernel_regularizer": null, "bias_regularizer": null, "activity_regularizer": null, "kernel_constraint": null, "bias_constraint": null}, "inbound_nodes": [[["input_18", 0, 0, {}]]]}, {"name": "dense_45", "class_name": "Dense", "config": {"name": "dense_45", "trainable": true, "dtype": "float32", "units": 100, "activation": "relu", "use_bias": true, "kernel_initializer": {"class_name": "VarianceScaling", "config": {"scale": 1.0, "mode": "fan_avg", "distribution": "uniform", "seed": null}}, "bias_initializer": {"class_name": "Zeros", "config": {}}, "kernel_regularizer": null, "bias_regularizer": null, "activity_regularizer": null, "kernel_constraint": null, "bias_constraint": null}, "inbound_nodes": [[["concatenate_21", 0, 0, {}]]]}, {"name": "dense_53", "class_name": "Dense", "config": {"name": "dense_53", "trainable": true, "dtype": "float32", "units": 100, "activation": "relu", "use_bias": true, "kernel_initializer": {"class_name": "VarianceScaling", "config": {"scale": 1.0, "mode": "fan_avg", "distribution": "uniform", "seed": null}}, "bias_initializer": {"class_name": "Zeros", "config": {}}, "kernel_regularizer": null, "bias_regularizer": null, "activity_regularizer": null, "kernel_constraint": null, "bias_constraint": null}, "inbound_nodes": [[["concatenate_29", 0, 0, {}]]]}, {"name": "dense_55", "class_name": "Dense", "config": {"name": "dense_55", "trainable": true, "dtype": "float32", "units": 100, "activation": "relu", "use_bias": true, "kernel_initializer": {"class_name": "VarianceScaling", "config": {"scale": 1.0, "mode": "fan_avg", "distribution": "uniform", "seed": null}}, "bias_initializer": {"class_name": "Zeros", "config": {}}, "kernel_regularizer": null, "bias_regularizer": null, "activity_regularizer": null, "kernel_constraint": null, "bias_constraint": null}, "inbound_nodes": [[["concatenate_31", 0, 0, {}]]]}, {"name": "dense_66", "class_name": "Dense", "config": {"name": "dense_66", "trainable": true, "dtype": "float32", "units": 100, "activation": "relu", "use_bias": true, "kernel_initializer": {"class_name": "VarianceScaling", "config": {"scale": 1.0, "mode": "fan_avg", "distribution": "uniform", "seed": null}}, "bias_initializer": {"class_name": "Zeros", "config": {}}, "kernel_regularizer": null, "bias_regularizer": null, "activity_regularizer": null, "kernel_constraint": null, "bias_constraint": null}, "inbound_nodes": [[["concatenate_42", 0, 0, {}]]]}, {"name": "dense_69", "class_name": "Dense", "config": {"name": "dense_69", "trainable": true, "dtype": "float32", "units": 100, "activation": "relu", "use_bias": true, "kernel_initializer": {"class_name": "VarianceScaling", "config": {"scale": 1.0, "mode": "fan_avg", "distribution": "uniform", "seed": null}}, "bias_initializer": {"class_name": "Zeros", "config": {}}, "kernel_regularizer": null, "bias_regularizer": null, "activity_regularizer": null, "kernel_constraint": null, "bias_constraint": null}, "inbound_nodes": [[["concatenate_45", 0, 0, {}]]]}, {"name": "dense_77", "class_name": "Dense", "config": {"name": "dense_77", "trainable": true, "dtype": "float32", "units": 100, "activation": "relu", "use_bias": true, "kernel_initializer": {"class_name": "VarianceScaling", "config": {"scale": 1.0, "mode": "fan_avg", "distribution": "uniform", "seed": null}}, "bias_initializer": {"class_name": "Zeros", "config": {}}, "kernel_regularizer": null, "bias_regularizer": null, "activity_regularizer": null, "kernel_constraint": null, "bias_constraint": null}, "inbound_nodes": [[["concatenate_53", 0, 0, {}]]]}, {"name": "dense_80", "class_name": "Dense", "config": {"name": "dense_80", "trainable": true, "dtype": "float32", "units": 100, "activation": "relu", "use_bias": true, "kernel_initializer": {"class_name": "VarianceScaling", "config": {"scale": 1.0, "mode": "fan_avg", "distribution": "uniform", "seed": null}}, "bias_initializer": {"class_name": "Zeros", "config": {}}, "kernel_regularizer": null, "bias_regularizer": null, "activity_regularizer": null, "kernel_constraint": null, "bias_constraint": null}, "inbound_nodes": [[["concatenate_56", 0, 0, {}]]]}, {"name": "dense_131", "class_name": "Dense", "config": {"name": "dense_131", "trainable": true, "dtype": "float32", "units": 100, "activation": "relu", "use_bias": true, "kernel_initializer": {"class_name": "VarianceScaling", "config": {"scale": 1.0, "mode": "fan_avg", "distribution": "uniform", "seed": null}}, "bias_initializer": {"class_name": "Zeros", "config": {}}, "kernel_regularizer": null, "bias_regularizer": null, "activity_regularizer": null, "kernel_constraint": null, "bias_constraint": null}, "inbound_nodes": [[["concatenate_107", 0, 0, {}]]]}, {"name": "dense_135", "class_name": "Dense", "config": {"name": "dense_135", "trainable": true, "dtype": "float32", "units": 100, "activation": "relu", "use_bias": true, "kernel_initializer": {"class_name": "VarianceScaling", "config": {"scale": 1.0, "mode": "fan_avg", "distribution": "uniform", "seed": null}}, "bias_initializer": {"class_name": "Zeros", "config": {}}, "kernel_regularizer": null, "bias_regularizer": null, "activity_regularizer": null, "kernel_constraint": null, "bias_constraint": null}, "inbound_nodes": [[["concatenate_111", 0, 0, {}]]]}, {"name": "dense_138", "class_name": "Dense", "config": {"name": "dense_138", "trainable": true, "dtype": "float32", "units": 100, "activation": "relu", "use_bias": true, "kernel_initializer": {"class_name": "VarianceScaling", "config": {"scale": 1.0, "mode": "fan_avg", "distribution": "uniform", "seed": null}}, "bias_initializer": {"class_name": "Zeros", "config": {}}, "kernel_regularizer": null, "bias_regularizer": null, "activity_regularizer": null, "kernel_constraint": null, "bias_constraint": null}, "inbound_nodes": [[["concatenate_114", 0, 0, {}]]]}, {"name": "dense_145", "class_name": "Dense", "config": {"name": "dense_145", "trainable": true, "dtype": "float32", "units": 100, "activation": "relu", "use_bias": true, "kernel_initializer": {"class_name": "VarianceScaling", "config": {"scale": 1.0, "mode": "fan_avg", "distribution": "uniform", "seed": null}}, "bias_initializer": {"class_name": "Zeros", "config": {}}, "kernel_regularizer": null, "bias_regularizer": null, "activity_regularizer": null, "kernel_constraint": null, "bias_constraint": null}, "inbound_nodes": [[["concatenate_121", 0, 0, {}]]]}, {"name": "dense_151", "class_name": "Dense", "config": {"name": "dense_151", "trainable": true, "dtype": "float32", "units": 100, "activation": "relu", "use_bias": true, "kernel_initializer": {"class_name": "VarianceScaling", "config": {"scale": 1.0, "mode": "fan_avg", "distribution": "uniform", "seed": null}}, "bias_initializer": {"class_name": "Zeros", "config": {}}, "kernel_regularizer": null, "bias_regularizer": null, "activity_regularizer": null, "kernel_constraint": null, "bias_constraint": null}, "inbound_nodes": [[["concatenate_127", 0, 0, {}]]]}, {"name": "concatenate_5", "class_name": "Concatenate", "config": {"name": "concatenate_5", "trainable": true, "dtype": "float32", "axis": -1}, "inbound_nodes": [[["dense_2", 0, 0, {}], ["dense_23", 0, 0, {}]]]}, {"name": "concatenate_9", "class_name": "Concatenate", "config": {"name": "concatenate_9", "trainable": true, "dtype": "float32", "axis": -1}, "inbound_nodes": [[["dense_32", 0, 0, {}], ["dense_2", 0, 0, {}]]]}, {"name": "concatenate_12", "class_name": "Concatenate", "config": {"name": "concatenate_12", "trainable": true, "dtype": "float32", "axis": -1}, "inbound_nodes": [[["dense_4", 0, 0, {}], ["dense_23", 0, 0, {}]]]}, {"name": "concatenate_20", "class_name": "Concatenate", "config": {"name": "concatenate_20", "trainable": true, "dtype": "float32", "axis": -1}, "inbound_nodes": [[["dense_43", 0, 0, {}], ["dense_18", 0, 0, {}]]]}, {"name": "concatenate_22", "class_name": "Concatenate", "config": {"name": "concatenate_22", "trainable": true, "dtype": "float32", "axis": -1}, "inbound_nodes": [[["dense_45", 0, 0, {}], ["dense_23", 0, 0, {}]]]}, {"name": "concatenate_30", "class_name": "Concatenate", "config": {"name": "concatenate_30", "trainable": true, "dtype": "float32", "axis": -1}, "inbound_nodes": [[["dense_53", 0, 0, {}], ["dense_5", 0, 0, {}]]]}, {"name": "concatenate_32", "class_name": "Concatenate", "config": {"name": "concatenate_32", "trainable": true, "dtype": "float32", "axis": -1}, "inbound_nodes": [[["dense_9", 0, 0, {}], ["dense_55", 0, 0, {}]]]}, {"name": "concatenate_46", "class_name": "Concatenate", "config": {"name": "concatenate_46", "trainable": true, "dtype": "float32", "axis": -1}, "inbound_nodes": [[["dense_66", 0, 0, {}], ["dense_69", 0, 0, {}]]]}, {"name": "concatenate_57", "class_name": "Concatenate", "config": {"name": "concatenate_57", "trainable": true, "dtype": "float32", "axis": -1}, "inbound_nodes": [[["dense_77", 0, 0, {}], ["dense_80", 0, 0, {}]]]}, {"name": "concatenate_86", "class_name": "Concatenate", "config": {"name": "concatenate_86", "trainable": true, "dtype": "float32", "axis": -1}, "inbound_nodes": [[["dense_4", 0, 0, {}], ["dense_10", 0, 0, {}]]]}, {"name": "concatenate_106", "class_name": "Concatenate", "config": {"name": "concatenate_106", "trainable": true, "dtype": "float32", "axis": -1}, "inbound_nodes": [[["dense_18", 0, 0, {}], ["dense_23", 0, 0, {}]]]}, {"name": "concatenate_108", "class_name": "Concatenate", "config": {"name": "concatenate_108", "trainable": true, "dtype": "float32", "axis": -1}, "inbound_nodes": [[["dense_131", 0, 0, {}], ["dense_2", 0, 0, {}]]]}, {"name": "concatenate_112", "class_name": "Concatenate", "config": {"name": "concatenate_112", "trainable": true, "dtype": "float32", "axis": -1}, "inbound_nodes": [[["dense_135", 0, 0, {}], ["dense_23", 0, 0, {}]]]}, {"name": "concatenate_115", "class_name": "Concatenate", "config": {"name": "concatenate_115", "trainable": true, "dtype": "float32", "axis": -1}, "inbound_nodes": [[["dense_138", 0, 0, {}], ["dense_23", 0, 0, {}]]]}, {"name": "concatenate_122", "class_name": "Concatenate", "config": {"name": "concatenate_122", "trainable": true, "dtype": "float32", "axis": -1}, "inbound_nodes": [[["dense_145", 0, 0, {}], ["dense_24", 0, 0, {}]]]}, {"name": "input_13", "class_name": "InputLayer", "config": {"batch_input_shape": [null, 1], "dtype": "float32", "sparse": false, "name": "input_13"}, "inbound_nodes": []}, {"name": "concatenate_128", "class_name": "Concatenate", "config": {"name": "concatenate_128", "trainable": true, "dtype": "float32", "axis": -1}, "inbound_nodes": [[["dense_151", 0, 0, {}], ["dense_12", 0, 0, {}]]]}, {"name": "dense_29", "class_name": "Dense", "config": {"name": "dense_29", "trainable": true, "dtype": "float32", "units": 100, "activation": "relu", "use_bias": true, "kernel_initializer": {"class_name": "VarianceScaling", "config": {"scale": 1.0, "mode": "fan_avg", "distribution": "uniform", "seed": null}}, "bias_initializer": {"class_name": "Zeros", "config": {}}, "kernel_regularizer": null, "bias_regularizer": null, "activity_regularizer": null, "kernel_constraint": null, "bias_constraint": null}, "inbound_nodes": [[["concatenate_5", 0, 0, {}]]]}, {"name": "dense_33", "class_name": "Dense", "config": {"name": "dense_33", "trainable": true, "dtype": "float32", "units": 100, "activation": "relu", "use_bias": true, "kernel_initializer": {"class_name": "VarianceScaling", "config": {"scale": 1.0, "mode": "fan_avg", "distribution": "uniform", "seed": null}}, "bias_initializer": {"class_name": "Zeros", "config": {}}, "kernel_regularizer": null, "bias_regularizer": null, "activity_regularizer": null, "kernel_constraint": null, "bias_constraint": null}, "inbound_nodes": [[["concatenate_9", 0, 0, {}]]]}, {"name": "dense_36", "class_name": "Dense", "config": {"name": "dense_36", "trainable": true, "dtype": "float32", "units": 100, "activation": "relu", "use_bias": true, "kernel_initializer": {"class_name": "VarianceScaling", "config": {"scale": 1.0, "mode": "fan_avg", "distribution": "uniform", "seed": null}}, "bias_initializer": {"class_name": "Zeros", "config": {}}, "kernel_regularizer": null, "bias_regularizer": null, "activity_regularizer": null, "kernel_constraint": null, "bias_constraint": null}, "inbound_nodes": [[["concatenate_12", 0, 0, {}]]]}, {"name": "dense_44", "class_name": "Dense", "config": {"name": "dense_44", "trainable": true, "dtype": "float32", "units": 100, "activation": "relu", "use_bias": true, "kernel_initializer": {"class_name": "VarianceScaling", "config": {"scale": 1.0, "mode": "fan_avg", "distribution": "uniform", "seed": null}}, "bias_initializer": {"class_name": "Zeros", "config": {}}, "kernel_regularizer": null, "bias_regularizer": null, "activity_regularizer": null, "kernel_constraint": null, "bias_constraint": null}, "inbound_nodes": [[["concatenate_20", 0, 0, {}]]]}, {"name": "dense_46", "class_name": "Dense", "config": {"name": "dense_46", "trainable": true, "dtype": "float32", "units": 100, "activation": "relu", "use_bias": true, "kernel_initializer": {"class_name": "VarianceScaling", "config": {"scale": 1.0, "mode": "fan_avg", "distribution": "uniform", "seed": null}}, "bias_initializer": {"class_name": "Zeros", "config": {}}, "kernel_regularizer": null, "bias_regularizer": null, "activity_regularizer": null, "kernel_constraint": null, "bias_constraint": null}, "inbound_nodes": [[["concatenate_22", 0, 0, {}]]]}, {"name": "dense_54", "class_name": "Dense", "config": {"name": "dense_54", "trainable": true, "dtype": "float32", "units": 100, "activation": "relu", "use_bias": true, "kernel_initializer": {"class_name": "VarianceScaling", "config": {"scale": 1.0, "mode": "fan_avg", "distribution": "uniform", "seed": null}}, "bias_initializer": {"class_name": "Zeros", "config": {}}, "kernel_regularizer": null, "bias_regularizer": null, "activity_regularizer": null, "kernel_constraint": null, "bias_constraint": null}, "inbound_nodes": [[["concatenate_30", 0, 0, {}]]]}, {"name": "dense_56", "class_name": "Dense", "config": {"name": "dense_56", "trainable": true, "dtype": "float32", "units": 100, "activation": "relu", "use_bias": true, "kernel_initializer": {"class_name": "VarianceScaling", "config": {"scale": 1.0, "mode": "fan_avg", "distribution": "uniform", "seed": null}}, "bias_initializer": {"class_name": "Zeros", "config": {}}, "kernel_regularizer": null, "bias_regularizer": null, "activity_regularizer": null, "kernel_constraint": null, "bias_constraint": null}, "inbound_nodes": [[["concatenate_32", 0, 0, {}]]]}, {"name": "dense_70", "class_name": "Dense", "config": {"name": "dense_70", "trainable": true, "dtype": "float32", "units": 100, "activation": "relu", "use_bias": true, "kernel_initializer": {"class_name": "VarianceScaling", "config": {"scale": 1.0, "mode": "fan_avg", "distribution": "uniform", "seed": null}}, "bias_initializer": {"class_name": "Zeros", "config": {}}, "kernel_regularizer": null, "bias_regularizer": null, "activity_regularizer": null, "kernel_constraint": null, "bias_constraint": null}, "inbound_nodes": [[["concatenate_46", 0, 0, {}]]]}, {"name": "dense_81", "class_name": "Dense", "config": {"name": "dense_81", "trainable": true, "dtype": "float32", "units": 100, "activation": "relu", "use_bias": true, "kernel_initializer": {"class_name": "VarianceScaling", "config": {"scale": 1.0, "mode": "fan_avg", "distribution": "uniform", "seed": null}}, "bias_initializer": {"class_name": "Zeros", "config": {}}, "kernel_regularizer": null, "bias_regularizer": null, "activity_regularizer": null, "kernel_constraint": null, "bias_constraint": null}, "inbound_nodes": [[["concatenate_57", 0, 0, {}]]]}, {"name": "dense_110", "class_name": "Dense", "config": {"name": "dense_110", "trainable": true, "dtype": "float32", "units": 100, "activation": "relu", "use_bias": true, "kernel_initializer": {"class_name": "VarianceScaling", "config": {"scale": 1.0, "mode": "fan_avg", "distribution": "uniform", "seed": null}}, "bias_initializer": {"class_name": "Zeros", "config": {}}, "kernel_regularizer": null, "bias_regularizer": null, "activity_regularizer": null, "kernel_constraint": null, "bias_constraint": null}, "inbound_nodes": [[["concatenate_86", 0, 0, {}]]]}, {"name": "dense_130", "class_name": "Dense", "config": {"name": "dense_130", "trainable": true, "dtype": "float32", "units": 100, "activation": "relu", "use_bias": true, "kernel_initializer": {"class_name": "VarianceScaling", "config": {"scale": 1.0, "mode": "fan_avg", "distribution": "uniform", "seed": null}}, "bias_initializer": {"class_name": "Zeros", "config": {}}, "kernel_regularizer": null, "bias_regularizer": null, "activity_regularizer": null, "kernel_constraint": null, "bias_constraint": null}, "inbound_nodes": [[["concatenate_106", 0, 0, {}]]]}, {"name": "dense_132", "class_name": "Dense", "config": {"name": "dense_132", "trainable": true, "dtype": "float32", "units": 100, "activation": "relu", "use_bias": true, "kernel_initializer": {"class_name": "VarianceScaling", "config": {"scale": 1.0, "mode": "fan_avg", "distribution": "uniform", "seed": null}}, "bias_initializer": {"class_name": "Zeros", "config": {}}, "kernel_regularizer": null, "bias_regularizer": null, "activity_regularizer": null, "kernel_constraint": null, "bias_constraint": null}, "inbound_nodes": [[["concatenate_108", 0, 0, {}]]]}, {"name": "dense_136", "class_name": "Dense", "config": {"name": "dense_136", "trainable": true, "dtype": "float32", "units": 100, "activation": "relu", "use_bias": true, "kernel_initializer": {"class_name": "VarianceScaling", "config": {"scale": 1.0, "mode": "fan_avg", "distribution": "uniform", "seed": null}}, "bias_initializer": {"class_name": "Zeros", "config": {}}, "kernel_regularizer": null, "bias_regularizer": null, "activity_regularizer": null, "kernel_constraint": null, "bias_constraint": null}, "inbound_nodes": [[["concatenate_112", 0, 0, {}]]]}, {"name": "dense_139", "class_name": "Dense", "config": {"name": "dense_139", "trainable": true, "dtype": "float32", "units": 100, "activation": "relu", "use_bias": true, "kernel_initializer": {"class_name": "VarianceScaling", "config": {"scale": 1.0, "mode": "fan_avg", "distribution": "uniform", "seed": null}}, "bias_initializer": {"class_name": "Zeros", "config": {}}, "kernel_regularizer": null, "bias_regularizer": null, "activity_regularizer": null, "kernel_constraint": null, "bias_constraint": null}, "inbound_nodes": [[["concatenate_115", 0, 0, {}]]]}, {"name": "dense_146", "class_name": "Dense", "config": {"name": "dense_146", "trainable": true, "dtype": "float32", "units": 100, "activation": "relu", "use_bias": true, "kernel_initializer": {"class_name": "VarianceScaling", "config": {"scale": 1.0, "mode": "fan_avg", "distribution": "uniform", "seed": null}}, "bias_initializer": {"class_name": "Zeros", "config": {}}, "kernel_regularizer": null, "bias_regularizer": null, "activity_regularizer": null, "kernel_constraint": null, "bias_constraint": null}, "inbound_nodes": [[["concatenate_122", 0, 0, {}]]]}, {"name": "dense_13", "class_name": "Dense", "config": {"name": "dense_13", "trainable": true, "dtype": "float32", "units": 50, "activation": "relu", "use_bias": true, "kernel_initializer": {"class_name": "VarianceScaling", "config": {"scale": 1.0, "mode": "fan_avg", "distribution": "uniform", "seed": null}}, "bias_initializer": {"class_name": "Zeros", "config": {}}, "kernel_regularizer": null, "bias_regularizer": null, "activity_regularizer": null, "kernel_constraint": null, "bias_constraint": null}, "inbound_nodes": [[["input_13", 0, 0, {}]]]}, {"name": "dense_152", "class_name": "Dense", "config": {"name": "dense_152", "trainable": true, "dtype": "float32", "units": 100, "activation": "relu", "use_bias": true, "kernel_initializer": {"class_name": "VarianceScaling", "config": {"scale": 1.0, "mode": "fan_avg", "distribution": "uniform", "seed": null}}, "bias_initializer": {"class_name": "Zeros", "config": {}}, "kernel_regularizer": null, "bias_regularizer": null, "activity_regularizer": null, "kernel_constraint": null, "bias_constraint": null}, "inbound_nodes": [[["concatenate_128", 0, 0, {}]]]}, {"name": "concatenate_10", "class_name": "Concatenate", "config": {"name": "concatenate_10", "trainable": true, "dtype": "float32", "axis": -1}, "inbound_nodes": [[["dense_29", 0, 0, {}], ["dense_33", 0, 0, {}]]]}, {"name": "concatenate_13", "class_name": "Concatenate", "config": {"name": "concatenate_13", "trainable": true, "dtype": "float32", "axis": -1}, "inbound_nodes": [[["dense_36", 0, 0, {}], ["dense_23", 0, 0, {}]]]}, {"name": "concatenate_23", "class_name": "Concatenate", "config": {"name": "concatenate_23", "trainable": true, "dtype": "float32", "axis": -1}, "inbound_nodes": [[["dense_44", 0, 0, {}], ["dense_46", 0, 0, {}]]]}, {"name": "concatenate_33", "class_name": "Concatenate", "config": {"name": "concatenate_33", "trainable": true, "dtype": "float32", "axis": -1}, "inbound_nodes": [[["dense_54", 0, 0, {}], ["dense_56", 0, 0, {}]]]}, {"name": "concatenate_47", "class_name": "Concatenate", "config": {"name": "concatenate_47", "trainable": true, "dtype": "float32", "axis": -1}, "inbound_nodes": [[["dense_70", 0, 0, {}], ["dense_6", 0, 0, {}]]]}, {"name": "concatenate_58", "class_name": "Concatenate", "config": {"name": "concatenate_58", "trainable": true, "dtype": "float32", "axis": -1}, "inbound_nodes": [[["dense_81", 0, 0, {}], ["dense_4", 0, 0, {}]]]}, {"name": "concatenate_61", "class_name": "Concatenate", "config": {"name": "concatenate_61", "trainable": true, "dtype": "float32", "axis": -1}, "inbound_nodes": [[["dense_9", 0, 0, {}], ["dense_2", 0, 0, {}]]]}, {"name": "concatenate_83", "class_name": "Concatenate", "config": {"name": "concatenate_83", "trainable": true, "dtype": "float32", "axis": -1}, "inbound_nodes": [[["dense_23", 0, 0, {}], ["dense_3", 0, 0, {}]]]}, {"name": "concatenate_87", "class_name": "Concatenate", "config": {"name": "concatenate_87", "trainable": true, "dtype": "float32", "axis": -1}, "inbound_nodes": [[["dense_110", 0, 0, {}], ["dense_23", 0, 0, {}]]]}, {"name": "concatenate_99", "class_name": "Concatenate", "config": {"name": "concatenate_99", "trainable": true, "dtype": "float32", "axis": -1}, "inbound_nodes": [[["dense_2", 0, 0, {}], ["dense_4", 0, 0, {}]]]}, {"name": "concatenate_109", "class_name": "Concatenate", "config": {"name": "concatenate_109", "trainable": true, "dtype": "float32", "axis": -1}, "inbound_nodes": [[["dense_130", 0, 0, {}], ["dense_132", 0, 0, {}]]]}, {"name": "concatenate_116", "class_name": "Concatenate", "config": {"name": "concatenate_116", "trainable": true, "dtype": "float32", "axis": -1}, "inbound_nodes": [[["dense_136", 0, 0, {}], ["dense_139", 0, 0, {}]]]}, {"name": "concatenate_123", "class_name": "Concatenate", "config": {"name": "concatenate_123", "trainable": true, "dtype": "float32", "axis": -1}, "inbound_nodes": [[["dense_146", 0, 0, {}], ["dense_13", 0, 0, {}]]]}, {"name": "concatenate_129", "class_name": "Concatenate", "config": {"name": "concatenate_129", "trainable": true, "dtype": "float32", "axis": -1}, "inbound_nodes": [[["dense_152", 0, 0, {}], ["dense_23", 0, 0, {}]]]}, {"name": "dense_34", "class_name": "Dense", "config": {"name": "dense_34", "trainable": true, "dtype": "float32", "units": 100, "activation": "relu", "use_bias": true, "kernel_initializer": {"class_name": "VarianceScaling", "config": {"scale": 1.0, "mode": "fan_avg", "distribution": "uniform", "seed": null}}, "bias_initializer": {"class_name": "Zeros", "config": {}}, "kernel_regularizer": null, "bias_regularizer": null, "activity_regularizer": null, "kernel_constraint": null, "bias_constraint": null}, "inbound_nodes": [[["concatenate_10", 0, 0, {}]]]}, {"name": "dense_37", "class_name": "Dense", "config": {"name": "dense_37", "trainable": true, "dtype": "float32", "units": 100, "activation": "relu", "use_bias": true, "kernel_initializer": {"class_name": "VarianceScaling", "config": {"scale": 1.0, "mode": "fan_avg", "distribution": "uniform", "seed": null}}, "bias_initializer": {"class_name": "Zeros", "config": {}}, "kernel_regularizer": null, "bias_regularizer": null, "activity_regularizer": null, "kernel_constraint": null, "bias_constraint": null}, "inbound_nodes": [[["concatenate_13", 0, 0, {}]]]}, {"name": "dense_47", "class_name": "Dense", "config": {"name": "dense_47", "trainable": true, "dtype": "float32", "units": 100, "activation": "relu", "use_bias": true, "kernel_initializer": {"class_name": "VarianceScaling", "config": {"scale": 1.0, "mode": "fan_avg", "distribution": "uniform", "seed": null}}, "bias_initializer": {"class_name": "Zeros", "config": {}}, "kernel_regularizer": null, "bias_regularizer": null, "activity_regularizer": null, "kernel_constraint": null, "bias_constraint": null}, "inbound_nodes": [[["concatenate_23", 0, 0, {}]]]}, {"name": "dense_57", "class_name": "Dense", "config": {"name": "dense_57", "trainable": true, "dtype": "float32", "units": 100, "activation": "relu", "use_bias": true, "kernel_initializer": {"class_name": "VarianceScaling", "config": {"scale": 1.0, "mode": "fan_avg", "distribution": "uniform", "seed": null}}, "bias_initializer": {"class_name": "Zeros", "config": {}}, "kernel_regularizer": null, "bias_regularizer": null, "activity_regularizer": null, "kernel_constraint": null, "bias_constraint": null}, "inbound_nodes": [[["concatenate_33", 0, 0, {}]]]}, {"name": "dense_71", "class_name": "Dense", "config": {"name": "dense_71", "trainable": true, "dtype": "float32", "units": 100, "activation": "relu", "use_bias": true, "kernel_initializer": {"class_name": "VarianceScaling", "config": {"scale": 1.0, "mode": "fan_avg", "distribution": "uniform", "seed": null}}, "bias_initializer": {"class_name": "Zeros", "config": {}}, "kernel_regularizer": null, "bias_regularizer": null, "activity_regularizer": null, "kernel_constraint": null, "bias_constraint": null}, "inbound_nodes": [[["concatenate_47", 0, 0, {}]]]}, {"name": "dense_82", "class_name": "Dense", "config": {"name": "dense_82", "trainable": true, "dtype": "float32", "units": 100, "activation": "relu", "use_bias": true, "kernel_initializer": {"class_name": "VarianceScaling", "config": {"scale": 1.0, "mode": "fan_avg", "distribution": "uniform", "seed": null}}, "bias_initializer": {"class_name": "Zeros", "config": {}}, "kernel_regularizer": null, "bias_regularizer": null, "activity_regularizer": null, "kernel_constraint": null, "bias_constraint": null}, "inbound_nodes": [[["concatenate_58", 0, 0, {}]]]}, {"name": "dense_85", "class_name": "Dense", "config": {"name": "dense_85", "trainable": true, "dtype": "float32", "units": 100, "activation": "relu", "use_bias": true, "kernel_initializer": {"class_name": "VarianceScaling", "config": {"scale": 1.0, "mode": "fan_avg", "distribution": "uniform", "seed": null}}, "bias_initializer": {"class_name": "Zeros", "config": {}}, "kernel_regularizer": null, "bias_regularizer": null, "activity_regularizer": null, "kernel_constraint": null, "bias_constraint": null}, "inbound_nodes": [[["concatenate_61", 0, 0, {}]]]}, {"name": "dense_107", "class_name": "Dense", "config": {"name": "dense_107", "trainable": true, "dtype": "float32", "units": 100, "activation": "relu", "use_bias": true, "kernel_initializer": {"class_name": "VarianceScaling", "config": {"scale": 1.0, "mode": "fan_avg", "distribution": "uniform", "seed": null}}, "bias_initializer": {"class_name": "Zeros", "config": {}}, "kernel_regularizer": null, "bias_regularizer": null, "activity_regularizer": null, "kernel_constraint": null, "bias_constraint": null}, "inbound_nodes": [[["concatenate_83", 0, 0, {}]]]}, {"name": "dense_111", "class_name": "Dense", "config": {"name": "dense_111", "trainable": true, "dtype": "float32", "units": 100, "activation": "relu", "use_bias": true, "kernel_initializer": {"class_name": "VarianceScaling", "config": {"scale": 1.0, "mode": "fan_avg", "distribution": "uniform", "seed": null}}, "bias_initializer": {"class_name": "Zeros", "config": {}}, "kernel_regularizer": null, "bias_regularizer": null, "activity_regularizer": null, "kernel_constraint": null, "bias_constraint": null}, "inbound_nodes": [[["concatenate_87", 0, 0, {}]]]}, {"name": "dense_123", "class_name": "Dense", "config": {"name": "dense_123", "trainable": true, "dtype": "float32", "units": 100, "activation": "relu", "use_bias": true, "kernel_initializer": {"class_name": "VarianceScaling", "config": {"scale": 1.0, "mode": "fan_avg", "distribution": "uniform", "seed": null}}, "bias_initializer": {"class_name": "Zeros", "config": {}}, "kernel_regularizer": null, "bias_regularizer": null, "activity_regularizer": null, "kernel_constraint": null, "bias_constraint": null}, "inbound_nodes": [[["concatenate_99", 0, 0, {}]]]}, {"name": "dense_133", "class_name": "Dense", "config": {"name": "dense_133", "trainable": true, "dtype": "float32", "units": 100, "activation": "relu", "use_bias": true, "kernel_initializer": {"class_name": "VarianceScaling", "config": {"scale": 1.0, "mode": "fan_avg", "distribution": "uniform", "seed": null}}, "bias_initializer": {"class_name": "Zeros", "config": {}}, "kernel_regularizer": null, "bias_regularizer": null, "activity_regularizer": null, "kernel_constraint": null, "bias_constraint": null}, "inbound_nodes": [[["concatenate_109", 0, 0, {}]]]}, {"name": "dense_140", "class_name": "Dense", "config": {"name": "dense_140", "trainable": true, "dtype": "float32", "units": 100, "activation": "relu", "use_bias": true, "kernel_initializer": {"class_name": "VarianceScaling", "config": {"scale": 1.0, "mode": "fan_avg", "distribution": "uniform", "seed": null}}, "bias_initializer": {"class_name": "Zeros", "config": {}}, "kernel_regularizer": null, "bias_regularizer": null, "activity_regularizer": null, "kernel_constraint": null, "bias_constraint": null}, "inbound_nodes": [[["concatenate_116", 0, 0, {}]]]}, {"name": "dense_147", "class_name": "Dense", "config": {"name": "dense_147", "trainable": true, "dtype": "float32", "units": 100, "activation": "relu", "use_bias": true, "kernel_initializer": {"class_name": "VarianceScaling", "config": {"scale": 1.0, "mode": "fan_avg", "distribution": "uniform", "seed": null}}, "bias_initializer": {"class_name": "Zeros", "config": {}}, "kernel_regularizer": null, "bias_regularizer": null, "activity_regularizer": null, "kernel_constraint": null, "bias_constraint": null}, "inbound_nodes": [[["concatenate_123", 0, 0, {}]]]}, {"name": "dense_153", "class_name": "Dense", "config": {"name": "dense_153", "trainable": true, "dtype": "float32", "units": 100, "activation": "relu", "use_bias": true, "kernel_initializer": {"class_name": "VarianceScaling", "config": {"scale": 1.0, "mode": "fan_avg", "distribution": "uniform", "seed": null}}, "bias_initializer": {"class_name": "Zeros", "config": {}}, "kernel_regularizer": null, "bias_regularizer": null, "activity_regularizer": null, "kernel_constraint": null, "bias_constraint": null}, "inbound_nodes": [[["concatenate_129", 0, 0, {}]]]}, {"name": "concatenate_11", "class_name": "Concatenate", "config": {"name": "concatenate_11", "trainable": true, "dtype": "float32", "axis": -1}, "inbound_nodes": [[["dense_34", 0, 0, {}], ["dense_9", 0, 0, {}]]]}, {"name": "concatenate_14", "class_name": "Concatenate", "config": {"name": "concatenate_14", "trainable": true, "dtype": "float32", "axis": -1}, "inbound_nodes": [[["dense_7", 0, 0, {}], ["dense_37", 0, 0, {}]]]}, {"name": "concatenate_24", "class_name": "Concatenate", "config": {"name": "concatenate_24", "trainable": true, "dtype": "float32", "axis": -1}, "inbound_nodes": [[["dense_47", 0, 0, {}], ["dense_9", 0, 0, {}]]]}, {"name": "concatenate_34", "class_name": "Concatenate", "config": {"name": "concatenate_34", "trainable": true, "dtype": "float32", "axis": -1}, "inbound_nodes": [[["dense_57", 0, 0, {}], ["dense_10", 0, 0, {}]]]}, {"name": "concatenate_59", "class_name": "Concatenate", "config": {"name": "concatenate_59", "trainable": true, "dtype": "float32", "axis": -1}, "inbound_nodes": [[["dense_71", 0, 0, {}], ["dense_82", 0, 0, {}]]]}, {"name": "concatenate_62", "class_name": "Concatenate", "config": {"name": "concatenate_62", "trainable": true, "dtype": "float32", "axis": -1}, "inbound_nodes": [[["dense_5", 0, 0, {}], ["dense_85", 0, 0, {}]]]}, {"name": "concatenate_66", "class_name": "Concatenate", "config": {"name": "concatenate_66", "trainable": true, "dtype": "float32", "axis": -1}, "inbound_nodes": [[["dense_8", 0, 0, {}], ["dense_23", 0, 0, {}]]]}, {"name": "concatenate_84", "class_name": "Concatenate", "config": {"name": "concatenate_84", "trainable": true, "dtype": "float32", "axis": -1}, "inbound_nodes": [[["dense_107", 0, 0, {}], ["dense_23", 0, 0, {}]]]}, {"name": "concatenate_88", "class_name": "Concatenate", "config": {"name": "concatenate_88", "trainable": true, "dtype": "float32", "axis": -1}, "inbound_nodes": [[["dense_111", 0, 0, {}], ["dense_1", 0, 0, {}]]]}, {"name": "concatenate_100", "class_name": "Concatenate", "config": {"name": "concatenate_100", "trainable": true, "dtype": "float32", "axis": -1}, "inbound_nodes": [[["dense_4", 0, 0, {}], ["dense_123", 0, 0, {}]]]}, {"name": "concatenate_110", "class_name": "Concatenate", "config": {"name": "concatenate_110", "trainable": true, "dtype": "float32", "axis": -1}, "inbound_nodes": [[["dense_133", 0, 0, {}], ["dense_4", 0, 0, {}]]]}, {"name": "concatenate_117", "class_name": "Concatenate", "config": {"name": "concatenate_117", "trainable": true, "dtype": "float32", "axis": -1}, "inbound_nodes": [[["dense_140", 0, 0, {}], ["dense_10", 0, 0, {}]]]}, {"name": "concatenate_130", "class_name": "Concatenate", "config": {"name": "concatenate_130", "trainable": true, "dtype": "float32", "axis": -1}, "inbound_nodes": [[["dense_147", 0, 0, {}], ["dense_153", 0, 0, {}]]]}, {"name": "dense_35", "class_name": "Dense", "config": {"name": "dense_35", "trainable": true, "dtype": "float32", "units": 100, "activation": "relu", "use_bias": true, "kernel_initializer": {"class_name": "VarianceScaling", "config": {"scale": 1.0, "mode": "fan_avg", "distribution": "uniform", "seed": null}}, "bias_initializer": {"class_name": "Zeros", "config": {}}, "kernel_regularizer": null, "bias_regularizer": null, "activity_regularizer": null, "kernel_constraint": null, "bias_constraint": null}, "inbound_nodes": [[["concatenate_11", 0, 0, {}]]]}, {"name": "dense_38", "class_name": "Dense", "config": {"name": "dense_38", "trainable": true, "dtype": "float32", "units": 100, "activation": "relu", "use_bias": true, "kernel_initializer": {"class_name": "VarianceScaling", "config": {"scale": 1.0, "mode": "fan_avg", "distribution": "uniform", "seed": null}}, "bias_initializer": {"class_name": "Zeros", "config": {}}, "kernel_regularizer": null, "bias_regularizer": null, "activity_regularizer": null, "kernel_constraint": null, "bias_constraint": null}, "inbound_nodes": [[["concatenate_14", 0, 0, {}]]]}, {"name": "dense_48", "class_name": "Dense", "config": {"name": "dense_48", "trainable": true, "dtype": "float32", "units": 100, "activation": "relu", "use_bias": true, "kernel_initializer": {"class_name": "VarianceScaling", "config": {"scale": 1.0, "mode": "fan_avg", "distribution": "uniform", "seed": null}}, "bias_initializer": {"class_name": "Zeros", "config": {}}, "kernel_regularizer": null, "bias_regularizer": null, "activity_regularizer": null, "kernel_constraint": null, "bias_constraint": null}, "inbound_nodes": [[["concatenate_24", 0, 0, {}]]]}, {"name": "dense_58", "class_name": "Dense", "config": {"name": "dense_58", "trainable": true, "dtype": "float32", "units": 100, "activation": "relu", "use_bias": true, "kernel_initializer": {"class_name": "VarianceScaling", "config": {"scale": 1.0, "mode": "fan_avg", "distribution": "uniform", "seed": null}}, "bias_initializer": {"class_name": "Zeros", "config": {}}, "kernel_regularizer": null, "bias_regularizer": null, "activity_regularizer": null, "kernel_constraint": null, "bias_constraint": null}, "inbound_nodes": [[["concatenate_34", 0, 0, {}]]]}, {"name": "dense_83", "class_name": "Dense", "config": {"name": "dense_83", "trainable": true, "dtype": "float32", "units": 100, "activation": "relu", "use_bias": true, "kernel_initializer": {"class_name": "VarianceScaling", "config": {"scale": 1.0, "mode": "fan_avg", "distribution": "uniform", "seed": null}}, "bias_initializer": {"class_name": "Zeros", "config": {}}, "kernel_regularizer": null, "bias_regularizer": null, "activity_regularizer": null, "kernel_constraint": null, "bias_constraint": null}, "inbound_nodes": [[["concatenate_59", 0, 0, {}]]]}, {"name": "dense_86", "class_name": "Dense", "config": {"name": "dense_86", "trainable": true, "dtype": "float32", "units": 100, "activation": "relu", "use_bias": true, "kernel_initializer": {"class_name": "VarianceScaling", "config": {"scale": 1.0, "mode": "fan_avg", "distribution": "uniform", "seed": null}}, "bias_initializer": {"class_name": "Zeros", "config": {}}, "kernel_regularizer": null, "bias_regularizer": null, "activity_regularizer": null, "kernel_constraint": null, "bias_constraint": null}, "inbound_nodes": [[["concatenate_62", 0, 0, {}]]]}, {"name": "dense_90", "class_name": "Dense", "config": {"name": "dense_90", "trainable": true, "dtype": "float32", "units": 100, "activation": "relu", "use_bias": true, "kernel_initializer": {"class_name": "VarianceScaling", "config": {"scale": 1.0, "mode": "fan_avg", "distribution": "uniform", "seed": null}}, "bias_initializer": {"class_name": "Zeros", "config": {}}, "kernel_regularizer": null, "bias_regularizer": null, "activity_regularizer": null, "kernel_constraint": null, "bias_constraint": null}, "inbound_nodes": [[["concatenate_66", 0, 0, {}]]]}, {"name": "dense_108", "class_name": "Dense", "config": {"name": "dense_108", "trainable": true, "dtype": "float32", "units": 100, "activation": "relu", "use_bias": true, "kernel_initializer": {"class_name": "VarianceScaling", "config": {"scale": 1.0, "mode": "fan_avg", "distribution": "uniform", "seed": null}}, "bias_initializer": {"class_name": "Zeros", "config": {}}, "kernel_regularizer": null, "bias_regularizer": null, "activity_regularizer": null, "kernel_constraint": null, "bias_constraint": null}, "inbound_nodes": [[["concatenate_84", 0, 0, {}]]]}, {"name": "dense_112", "class_name": "Dense", "config": {"name": "dense_112", "trainable": true, "dtype": "float32", "units": 100, "activation": "relu", "use_bias": true, "kernel_initializer": {"class_name": "VarianceScaling", "config": {"scale": 1.0, "mode": "fan_avg", "distribution": "uniform", "seed": null}}, "bias_initializer": {"class_name": "Zeros", "config": {}}, "kernel_regularizer": null, "bias_regularizer": null, "activity_regularizer": null, "kernel_constraint": null, "bias_constraint": null}, "inbound_nodes": [[["concatenate_88", 0, 0, {}]]]}, {"name": "dense_124", "class_name": "Dense", "config": {"name": "dense_124", "trainable": true, "dtype": "float32", "units": 100, "activation": "relu", "use_bias": true, "kernel_initializer": {"class_name": "VarianceScaling", "config": {"scale": 1.0, "mode": "fan_avg", "distribution": "uniform", "seed": null}}, "bias_initializer": {"class_name": "Zeros", "config": {}}, "kernel_regularizer": null, "bias_regularizer": null, "activity_regularizer": null, "kernel_constraint": null, "bias_constraint": null}, "inbound_nodes": [[["concatenate_100", 0, 0, {}]]]}, {"name": "dense_134", "class_name": "Dense", "config": {"name": "dense_134", "trainable": true, "dtype": "float32", "units": 100, "activation": "relu", "use_bias": true, "kernel_initializer": {"class_name": "VarianceScaling", "config": {"scale": 1.0, "mode": "fan_avg", "distribution": "uniform", "seed": null}}, "bias_initializer": {"class_name": "Zeros", "config": {}}, "kernel_regularizer": null, "bias_regularizer": null, "activity_regularizer": null, "kernel_constraint": null, "bias_constraint": null}, "inbound_nodes": [[["concatenate_110", 0, 0, {}]]]}, {"name": "dense_141", "class_name": "Dense", "config": {"name": "dense_141", "trainable": true, "dtype": "float32", "units": 100, "activation": "relu", "use_bias": true, "kernel_initializer": {"class_name": "VarianceScaling", "config": {"scale": 1.0, "mode": "fan_avg", "distribution": "uniform", "seed": null}}, "bias_initializer": {"class_name": "Zeros", "config": {}}, "kernel_regularizer": null, "bias_regularizer": null, "activity_regularizer": null, "kernel_constraint": null, "bias_constraint": null}, "inbound_nodes": [[["concatenate_117", 0, 0, {}]]]}, {"name": "dense_154", "class_name": "Dense", "config": {"name": "dense_154", "trainable": true, "dtype": "float32", "units": 100, "activation": "relu", "use_bias": true, "kernel_initializer": {"class_name": "VarianceScaling", "config": {"scale": 1.0, "mode": "fan_avg", "distribution": "uniform", "seed": null}}, "bias_initializer": {"class_name": "Zeros", "config": {}}, "kernel_regularizer": null, "bias_regularizer": null, "activity_regularizer": null, "kernel_constraint": null, "bias_constraint": null}, "inbound_nodes": [[["concatenate_130", 0, 0, {}]]]}, {"name": "concatenate_15", "class_name": "Concatenate", "config": {"name": "concatenate_15", "trainable": true, "dtype": "float32", "axis": -1}, "inbound_nodes": [[["dense_35", 0, 0, {}], ["dense_38", 0, 0, {}]]]}, {"name": "concatenate_35", "class_name": "Concatenate", "config": {"name": "concatenate_35", "trainable": true, "dtype": "float32", "axis": -1}, "inbound_nodes": [[["dense_48", 0, 0, {}], ["dense_58", 0, 0, {}]]]}, {"name": "concatenate_60", "class_name": "Concatenate", "config": {"name": "concatenate_60", "trainable": true, "dtype": "float32", "axis": -1}, "inbound_nodes": [[["dense_83", 0, 0, {}], ["dense_4", 0, 0, {}]]]}, {"name": "concatenate_63", "class_name": "Concatenate", "config": {"name": "concatenate_63", "trainable": true, "dtype": "float32", "axis": -1}, "inbound_nodes": [[["dense_86", 0, 0, {}], ["dense_4", 0, 0, {}]]]}, {"name": "input_17", "class_name": "InputLayer", "config": {"batch_input_shape": [null, 1], "dtype": "float32", "sparse": false, "name": "input_17"}, "inbound_nodes": []}, {"name": "concatenate_67", "class_name": "Concatenate", "config": {"name": "concatenate_67", "trainable": true, "dtype": "float32", "axis": -1}, "inbound_nodes": [[["dense_6", 0, 0, {}], ["dense_90", 0, 0, {}]]]}, {"name": "concatenate_72", "class_name": "Concatenate", "config": {"name": "concatenate_72", "trainable": true, "dtype": "float32", "axis": -1}, "inbound_nodes": [[["dense_6", 0, 0, {}], ["dense_4", 0, 0, {}]]]}, {"name": "concatenate_85", "class_name": "Concatenate", "config": {"name": "concatenate_85", "trainable": true, "dtype": "float32", "axis": -1}, "inbound_nodes": [[["dense_6", 0, 0, {}], ["dense_108", 0, 0, {}]]]}, {"name": "concatenate_89", "class_name": "Concatenate", "config": {"name": "concatenate_89", "trainable": true, "dtype": "float32", "axis": -1}, "inbound_nodes": [[["dense_112", 0, 0, {}], ["dense_16", 0, 0, {}]]]}, {"name": "concatenate_92", "class_name": "Concatenate", "config": {"name": "concatenate_92", "trainable": true, "dtype": "float32", "axis": -1}, "inbound_nodes": [[["dense_23", 0, 0, {}], ["dense_23", 0, 0, {}]]]}, {"name": "concatenate_101", "class_name": "Concatenate", "config": {"name": "concatenate_101", "trainable": true, "dtype": "float32", "axis": -1}, "inbound_nodes": [[["dense_124", 0, 0, {}], ["dense_23", 0, 0, {}]]]}, {"name": "concatenate_118", "class_name": "Concatenate", "config": {"name": "concatenate_118", "trainable": true, "dtype": "float32", "axis": -1}, "inbound_nodes": [[["dense_134", 0, 0, {}], ["dense_141", 0, 0, {}]]]}, {"name": "concatenate_131", "class_name": "Concatenate", "config": {"name": "concatenate_131", "trainable": true, "dtype": "float32", "axis": -1}, "inbound_nodes": [[["dense_154", 0, 0, {}], ["dense_1", 0, 0, {}]]]}, {"name": "dense_39", "class_name": "Dense", "config": {"name": "dense_39", "trainable": true, "dtype": "float32", "units": 100, "activation": "relu", "use_bias": true, "kernel_initializer": {"class_name": "VarianceScaling", "config": {"scale": 1.0, "mode": "fan_avg", "distribution": "uniform", "seed": null}}, "bias_initializer": {"class_name": "Zeros", "config": {}}, "kernel_regularizer": null, "bias_regularizer": null, "activity_regularizer": null, "kernel_constraint": null, "bias_constraint": null}, "inbound_nodes": [[["concatenate_15", 0, 0, {}]]]}, {"name": "dense_59", "class_name": "Dense", "config": {"name": "dense_59", "trainable": true, "dtype": "float32", "units": 100, "activation": "relu", "use_bias": true, "kernel_initializer": {"class_name": "VarianceScaling", "config": {"scale": 1.0, "mode": "fan_avg", "distribution": "uniform", "seed": null}}, "bias_initializer": {"class_name": "Zeros", "config": {}}, "kernel_regularizer": null, "bias_regularizer": null, "activity_regularizer": null, "kernel_constraint": null, "bias_constraint": null}, "inbound_nodes": [[["concatenate_35", 0, 0, {}]]]}, {"name": "dense_84", "class_name": "Dense", "config": {"name": "dense_84", "trainable": true, "dtype": "float32", "units": 100, "activation": "relu", "use_bias": true, "kernel_initializer": {"class_name": "VarianceScaling", "config": {"scale": 1.0, "mode": "fan_avg", "distribution": "uniform", "seed": null}}, "bias_initializer": {"class_name": "Zeros", "config": {}}, "kernel_regularizer": null, "bias_regularizer": null, "activity_regularizer": null, "kernel_constraint": null, "bias_constraint": null}, "inbound_nodes": [[["concatenate_60", 0, 0, {}]]]}, {"name": "dense_87", "class_name": "Dense", "config": {"name": "dense_87", "trainable": true, "dtype": "float32", "units": 100, "activation": "relu", "use_bias": true, "kernel_initializer": {"class_name": "VarianceScaling", "config": {"scale": 1.0, "mode": "fan_avg", "distribution": "uniform", "seed": null}}, "bias_initializer": {"class_name": "Zeros", "config": {}}, "kernel_regularizer": null, "bias_regularizer": null, "activity_regularizer": null, "kernel_constraint": null, "bias_constraint": null}, "inbound_nodes": [[["concatenate_63", 0, 0, {}]]]}, {"name": "dense_17", "class_name": "Dense", "config": {"name": "dense_17", "trainable": true, "dtype": "float32", "units": 50, "activation": "relu", "use_bias": true, "kernel_initializer": {"class_name": "VarianceScaling", "config": {"scale": 1.0, "mode": "fan_avg", "distribution": "uniform", "seed": null}}, "bias_initializer": {"class_name": "Zeros", "config": {}}, "kernel_regularizer": null, "bias_regularizer": null, "activity_regularizer": null, "kernel_constraint": null, "bias_constraint": null}, "inbound_nodes": [[["input_17", 0, 0, {}]]]}, {"name": "dense_91", "class_name": "Dense", "config": {"name": "dense_91", "trainable": true, "dtype": "float32", "units": 100, "activation": "relu", "use_bias": true, "kernel_initializer": {"class_name": "VarianceScaling", "config": {"scale": 1.0, "mode": "fan_avg", "distribution": "uniform", "seed": null}}, "bias_initializer": {"class_name": "Zeros", "config": {}}, "kernel_regularizer": null, "bias_regularizer": null, "activity_regularizer": null, "kernel_constraint": null, "bias_constraint": null}, "inbound_nodes": [[["concatenate_67", 0, 0, {}]]]}, {"name": "dense_96", "class_name": "Dense", "config": {"name": "dense_96", "trainable": true, "dtype": "float32", "units": 100, "activation": "relu", "use_bias": true, "kernel_initializer": {"class_name": "VarianceScaling", "config": {"scale": 1.0, "mode": "fan_avg", "distribution": "uniform", "seed": null}}, "bias_initializer": {"class_name": "Zeros", "config": {}}, "kernel_regularizer": null, "bias_regularizer": null, "activity_regularizer": null, "kernel_constraint": null, "bias_constraint": null}, "inbound_nodes": [[["concatenate_72", 0, 0, {}]]]}, {"name": "dense_109", "class_name": "Dense", "config": {"name": "dense_109", "trainable": true, "dtype": "float32", "units": 100, "activation": "relu", "use_bias": true, "kernel_initializer": {"class_name": "VarianceScaling", "config": {"scale": 1.0, "mode": "fan_avg", "distribution": "uniform", "seed": null}}, "bias_initializer": {"class_name": "Zeros", "config": {}}, "kernel_regularizer": null, "bias_regularizer": null, "activity_regularizer": null, "kernel_constraint": null, "bias_constraint": null}, "inbound_nodes": [[["concatenate_85", 0, 0, {}]]]}, {"name": "dense_113", "class_name": "Dense", "config": {"name": "dense_113", "trainable": true, "dtype": "float32", "units": 100, "activation": "relu", "use_bias": true, "kernel_initializer": {"class_name": "VarianceScaling", "config": {"scale": 1.0, "mode": "fan_avg", "distribution": "uniform", "seed": null}}, "bias_initializer": {"class_name": "Zeros", "config": {}}, "kernel_regularizer": null, "bias_regularizer": null, "activity_regularizer": null, "kernel_constraint": null, "bias_constraint": null}, "inbound_nodes": [[["concatenate_89", 0, 0, {}]]]}, {"name": "dense_116", "class_name": "Dense", "config": {"name": "dense_116", "trainable": true, "dtype": "float32", "units": 100, "activation": "relu", "use_bias": true, "kernel_initializer": {"class_name": "VarianceScaling", "config": {"scale": 1.0, "mode": "fan_avg", "distribution": "uniform", "seed": null}}, "bias_initializer": {"class_name": "Zeros", "config": {}}, "kernel_regularizer": null, "bias_regularizer": null, "activity_regularizer": null, "kernel_constraint": null, "bias_constraint": null}, "inbound_nodes": [[["concatenate_92", 0, 0, {}]]]}, {"name": "dense_125", "class_name": "Dense", "config": {"name": "dense_125", "trainable": true, "dtype": "float32", "units": 100, "activation": "relu", "use_bias": true, "kernel_initializer": {"class_name": "VarianceScaling", "config": {"scale": 1.0, "mode": "fan_avg", "distribution": "uniform", "seed": null}}, "bias_initializer": {"class_name": "Zeros", "config": {}}, "kernel_regularizer": null, "bias_regularizer": null, "activity_regularizer": null, "kernel_constraint": null, "bias_constraint": null}, "inbound_nodes": [[["concatenate_101", 0, 0, {}]]]}, {"name": "dense_142", "class_name": "Dense", "config": {"name": "dense_142", "trainable": true, "dtype": "float32", "units": 100, "activation": "relu", "use_bias": true, "kernel_initializer": {"class_name": "VarianceScaling", "config": {"scale": 1.0, "mode": "fan_avg", "distribution": "uniform", "seed": null}}, "bias_initializer": {"class_name": "Zeros", "config": {}}, "kernel_regularizer": null, "bias_regularizer": null, "activity_regularizer": null, "kernel_constraint": null, "bias_constraint": null}, "inbound_nodes": [[["concatenate_118", 0, 0, {}]]]}, {"name": "dense_155", "class_name": "Dense", "config": {"name": "dense_155", "trainable": true, "dtype": "float32", "units": 100, "activation": "relu", "use_bias": true, "kernel_initializer": {"class_name": "VarianceScaling", "config": {"scale": 1.0, "mode": "fan_avg", "distribution": "uniform", "seed": null}}, "bias_initializer": {"class_name": "Zeros", "config": {}}, "kernel_regularizer": null, "bias_regularizer": null, "activity_regularizer": null, "kernel_constraint": null, "bias_constraint": null}, "inbound_nodes": [[["concatenate_131", 0, 0, {}]]]}, {"name": "concatenate_16", "class_name": "Concatenate", "config": {"name": "concatenate_16", "trainable": true, "dtype": "float32", "axis": -1}, "inbound_nodes": [[["dense_39", 0, 0, {}], ["dense_10", 0, 0, {}]]]}, {"name": "concatenate_36", "class_name": "Concatenate", "config": {"name": "concatenate_36", "trainable": true, "dtype": "float32", "axis": -1}, "inbound_nodes": [[["dense_59", 0, 0, {}], ["dense_4", 0, 0, {}]]]}, {"name": "concatenate_64", "class_name": "Concatenate", "config": {"name": "concatenate_64", "trainable": true, "dtype": "float32", "axis": -1}, "inbound_nodes": [[["dense_84", 0, 0, {}], ["dense_87", 0, 0, {}]]]}, {"name": "concatenate_68", "class_name": "Concatenate", "config": {"name": "concatenate_68", "trainable": true, "dtype": "float32", "axis": -1}, "inbound_nodes": [[["dense_18", 0, 0, {}], ["dense_91", 0, 0, {}]]]}, {"name": "concatenate_73", "class_name": "Concatenate", "config": {"name": "concatenate_73", "trainable": true, "dtype": "float32", "axis": -1}, "inbound_nodes": [[["dense_96", 0, 0, {}], ["dense_17", 0, 0, {}]]]}, {"name": "concatenate_75", "class_name": "Concatenate", "config": {"name": "concatenate_75", "trainable": true, "dtype": "float32", "axis": -1}, "inbound_nodes": [[["dense_16", 0, 0, {}], ["dense_23", 0, 0, {}]]]}, {"name": "concatenate_90", "class_name": "Concatenate", "config": {"name": "concatenate_90", "trainable": true, "dtype": "float32", "axis": -1}, "inbound_nodes": [[["dense_109", 0, 0, {}], ["dense_113", 0, 0, {}]]]}, {"name": "concatenate_93", "class_name": "Concatenate", "config": {"name": "concatenate_93", "trainable": true, "dtype": "float32", "axis": -1}, "inbound_nodes": [[["dense_8", 0, 0, {}], ["dense_116", 0, 0, {}]]]}, {"name": "concatenate_102", "class_name": "Concatenate", "config": {"name": "concatenate_102", "trainable": true, "dtype": "float32", "axis": -1}, "inbound_nodes": [[["dense_7", 0, 0, {}], ["dense_125", 0, 0, {}]]]}, {"name": "concatenate_119", "class_name": "Concatenate", "config": {"name": "concatenate_119", "trainable": true, "dtype": "float32", "axis": -1}, "inbound_nodes": [[["dense_142", 0, 0, {}], ["dense_24", 0, 0, {}]]]}, {"name": "concatenate_132", "class_name": "Concatenate", "config": {"name": "concatenate_132", "trainable": true, "dtype": "float32", "axis": -1}, "inbound_nodes": [[["dense_155", 0, 0, {}], ["dense_10", 0, 0, {}]]]}, {"name": "dense_40", "class_name": "Dense", "config": {"name": "dense_40", "trainable": true, "dtype": "float32", "units": 100, "activation": "relu", "use_bias": true, "kernel_initializer": {"class_name": "VarianceScaling", "config": {"scale": 1.0, "mode": "fan_avg", "distribution": "uniform", "seed": null}}, "bias_initializer": {"class_name": "Zeros", "config": {}}, "kernel_regularizer": null, "bias_regularizer": null, "activity_regularizer": null, "kernel_constraint": null, "bias_constraint": null}, "inbound_nodes": [[["concatenate_16", 0, 0, {}]]]}, {"name": "dense_60", "class_name": "Dense", "config": {"name": "dense_60", "trainable": true, "dtype": "float32", "units": 100, "activation": "relu", "use_bias": true, "kernel_initializer": {"class_name": "VarianceScaling", "config": {"scale": 1.0, "mode": "fan_avg", "distribution": "uniform", "seed": null}}, "bias_initializer": {"class_name": "Zeros", "config": {}}, "kernel_regularizer": null, "bias_regularizer": null, "activity_regularizer": null, "kernel_constraint": null, "bias_constraint": null}, "inbound_nodes": [[["concatenate_36", 0, 0, {}]]]}, {"name": "dense_88", "class_name": "Dense", "config": {"name": "dense_88", "trainable": true, "dtype": "float32", "units": 100, "activation": "relu", "use_bias": true, "kernel_initializer": {"class_name": "VarianceScaling", "config": {"scale": 1.0, "mode": "fan_avg", "distribution": "uniform", "seed": null}}, "bias_initializer": {"class_name": "Zeros", "config": {}}, "kernel_regularizer": null, "bias_regularizer": null, "activity_regularizer": null, "kernel_constraint": null, "bias_constraint": null}, "inbound_nodes": [[["concatenate_64", 0, 0, {}]]]}, {"name": "dense_92", "class_name": "Dense", "config": {"name": "dense_92", "trainable": true, "dtype": "float32", "units": 100, "activation": "relu", "use_bias": true, "kernel_initializer": {"class_name": "VarianceScaling", "config": {"scale": 1.0, "mode": "fan_avg", "distribution": "uniform", "seed": null}}, "bias_initializer": {"class_name": "Zeros", "config": {}}, "kernel_regularizer": null, "bias_regularizer": null, "activity_regularizer": null, "kernel_constraint": null, "bias_constraint": null}, "inbound_nodes": [[["concatenate_68", 0, 0, {}]]]}, {"name": "dense_97", "class_name": "Dense", "config": {"name": "dense_97", "trainable": true, "dtype": "float32", "units": 100, "activation": "relu", "use_bias": true, "kernel_initializer": {"class_name": "VarianceScaling", "config": {"scale": 1.0, "mode": "fan_avg", "distribution": "uniform", "seed": null}}, "bias_initializer": {"class_name": "Zeros", "config": {}}, "kernel_regularizer": null, "bias_regularizer": null, "activity_regularizer": null, "kernel_constraint": null, "bias_constraint": null}, "inbound_nodes": [[["concatenate_73", 0, 0, {}]]]}, {"name": "dense_99", "class_name": "Dense", "config": {"name": "dense_99", "trainable": true, "dtype": "float32", "units": 100, "activation": "relu", "use_bias": true, "kernel_initializer": {"class_name": "VarianceScaling", "config": {"scale": 1.0, "mode": "fan_avg", "distribution": "uniform", "seed": null}}, "bias_initializer": {"class_name": "Zeros", "config": {}}, "kernel_regularizer": null, "bias_regularizer": null, "activity_regularizer": null, "kernel_constraint": null, "bias_constraint": null}, "inbound_nodes": [[["concatenate_75", 0, 0, {}]]]}, {"name": "dense_114", "class_name": "Dense", "config": {"name": "dense_114", "trainable": true, "dtype": "float32", "units": 100, "activation": "relu", "use_bias": true, "kernel_initializer": {"class_name": "VarianceScaling", "config": {"scale": 1.0, "mode": "fan_avg", "distribution": "uniform", "seed": null}}, "bias_initializer": {"class_name": "Zeros", "config": {}}, "kernel_regularizer": null, "bias_regularizer": null, "activity_regularizer": null, "kernel_constraint": null, "bias_constraint": null}, "inbound_nodes": [[["concatenate_90", 0, 0, {}]]]}, {"name": "dense_117", "class_name": "Dense", "config": {"name": "dense_117", "trainable": true, "dtype": "float32", "units": 100, "activation": "relu", "use_bias": true, "kernel_initializer": {"class_name": "VarianceScaling", "config": {"scale": 1.0, "mode": "fan_avg", "distribution": "uniform", "seed": null}}, "bias_initializer": {"class_name": "Zeros", "config": {}}, "kernel_regularizer": null, "bias_regularizer": null, "activity_regularizer": null, "kernel_constraint": null, "bias_constraint": null}, "inbound_nodes": [[["concatenate_93", 0, 0, {}]]]}, {"name": "dense_126", "class_name": "Dense", "config": {"name": "dense_126", "trainable": true, "dtype": "float32", "units": 100, "activation": "relu", "use_bias": true, "kernel_initializer": {"class_name": "VarianceScaling", "config": {"scale": 1.0, "mode": "fan_avg", "distribution": "uniform", "seed": null}}, "bias_initializer": {"class_name": "Zeros", "config": {}}, "kernel_regularizer": null, "bias_regularizer": null, "activity_regularizer": null, "kernel_constraint": null, "bias_constraint": null}, "inbound_nodes": [[["concatenate_102", 0, 0, {}]]]}, {"name": "dense_143", "class_name": "Dense", "config": {"name": "dense_143", "trainable": true, "dtype": "float32", "units": 100, "activation": "relu", "use_bias": true, "kernel_initializer": {"class_name": "VarianceScaling", "config": {"scale": 1.0, "mode": "fan_avg", "distribution": "uniform", "seed": null}}, "bias_initializer": {"class_name": "Zeros", "config": {}}, "kernel_regularizer": null, "bias_regularizer": null, "activity_regularizer": null, "kernel_constraint": null, "bias_constraint": null}, "inbound_nodes": [[["concatenate_119", 0, 0, {}]]]}, {"name": "dense_156", "class_name": "Dense", "config": {"name": "dense_156", "trainable": true, "dtype": "float32", "units": 100, "activation": "relu", "use_bias": true, "kernel_initializer": {"class_name": "VarianceScaling", "config": {"scale": 1.0, "mode": "fan_avg", "distribution": "uniform", "seed": null}}, "bias_initializer": {"class_name": "Zeros", "config": {}}, "kernel_regularizer": null, "bias_regularizer": null, "activity_regularizer": null, "kernel_constraint": null, "bias_constraint": null}, "inbound_nodes": [[["concatenate_132", 0, 0, {}]]]}, {"name": "concatenate_1", "class_name": "Concatenate", "config": {"name": "concatenate_1", "trainable": true, "dtype": "float32", "axis": -1}, "inbound_nodes": [[["dense_10", 0, 0, {}], ["dense_4", 0, 0, {}]]]}, {"name": "concatenate_2", "class_name": "Concatenate", "config": {"name": "concatenate_2", "trainable": true, "dtype": "float32", "axis": -1}, "inbound_nodes": [[["dense_23", 0, 0, {}], ["dense_23", 0, 0, {}]]]}, {"name": "concatenate_37", "class_name": "Concatenate", "config": {"name": "concatenate_37", "trainable": true, "dtype": "float32", "axis": -1}, "inbound_nodes": [[["dense_40", 0, 0, {}], ["dense_60", 0, 0, {}]]]}, {"name": "concatenate_65", "class_name": "Concatenate", "config": {"name": "concatenate_65", "trainable": true, "dtype": "float32", "axis": -1}, "inbound_nodes": [[["dense_88", 0, 0, {}], ["dense_17", 0, 0, {}]]]}, {"name": "concatenate_69", "class_name": "Concatenate", "config": {"name": "concatenate_69", "trainable": true, "dtype": "float32", "axis": -1}, "inbound_nodes": [[["dense_92", 0, 0, {}], ["dense_8", 0, 0, {}]]]}, {"name": "concatenate_74", "class_name": "Concatenate", "config": {"name": "concatenate_74", "trainable": true, "dtype": "float32", "axis": -1}, "inbound_nodes": [[["dense_97", 0, 0, {}], ["dense_23", 0, 0, {}]]]}, {"name": "concatenate_76", "class_name": "Concatenate", "config": {"name": "concatenate_76", "trainable": true, "dtype": "float32", "axis": -1}, "inbound_nodes": [[["dense_99", 0, 0, {}], ["dense_23", 0, 0, {}]]]}, {"name": "concatenate_91", "class_name": "Concatenate", "config": {"name": "concatenate_91", "trainable": true, "dtype": "float32", "axis": -1}, "inbound_nodes": [[["dense_114", 0, 0, {}], ["dense_12", 0, 0, {}]]]}, {"name": "concatenate_94", "class_name": "Concatenate", "config": {"name": "concatenate_94", "trainable": true, "dtype": "float32", "axis": -1}, "inbound_nodes": [[["dense_2", 0, 0, {}], ["dense_117", 0, 0, {}]]]}, {"name": "concatenate_103", "class_name": "Concatenate", "config": {"name": "concatenate_103", "trainable": true, "dtype": "float32", "axis": -1}, "inbound_nodes": [[["dense_126", 0, 0, {}], ["dense_3", 0, 0, {}]]]}, {"name": "concatenate_120", "class_name": "Concatenate", "config": {"name": "concatenate_120", "trainable": true, "dtype": "float32", "axis": -1}, "inbound_nodes": [[["dense_143", 0, 0, {}], ["dense_23", 0, 0, {}]]]}, {"name": "concatenate_133", "class_name": "Concatenate", "config": {"name": "concatenate_133", "trainable": true, "dtype": "float32", "axis": -1}, "inbound_nodes": [[["dense_156", 0, 0, {}], ["dense_10", 0, 0, {}]]]}, {"name": "dense_25", "class_name": "Dense", "config": {"name": "dense_25", "trainable": true, "dtype": "float32", "units": 100, "activation": "relu", "use_bias": true, "kernel_initializer": {"class_name": "VarianceScaling", "config": {"scale": 1.0, "mode": "fan_avg", "distribution": "uniform", "seed": null}}, "bias_initializer": {"class_name": "Zeros", "config": {}}, "kernel_regularizer": null, "bias_regularizer": null, "activity_regularizer": null, "kernel_constraint": null, "bias_constraint": null}, "inbound_nodes": [[["concatenate_1", 0, 0, {}]]]}, {"name": "dense_26", "class_name": "Dense", "config": {"name": "dense_26", "trainable": true, "dtype": "float32", "units": 100, "activation": "relu", "use_bias": true, "kernel_initializer": {"class_name": "VarianceScaling", "config": {"scale": 1.0, "mode": "fan_avg", "distribution": "uniform", "seed": null}}, "bias_initializer": {"class_name": "Zeros", "config": {}}, "kernel_regularizer": null, "bias_regularizer": null, "activity_regularizer": null, "kernel_constraint": null, "bias_constraint": null}, "inbound_nodes": [[["concatenate_2", 0, 0, {}]]]}, {"name": "dense_61", "class_name": "Dense", "config": {"name": "dense_61", "trainable": true, "dtype": "float32", "units": 100, "activation": "relu", "use_bias": true, "kernel_initializer": {"class_name": "VarianceScaling", "config": {"scale": 1.0, "mode": "fan_avg", "distribution": "uniform", "seed": null}}, "bias_initializer": {"class_name": "Zeros", "config": {}}, "kernel_regularizer": null, "bias_regularizer": null, "activity_regularizer": null, "kernel_constraint": null, "bias_constraint": null}, "inbound_nodes": [[["concatenate_37", 0, 0, {}]]]}, {"name": "dense_89", "class_name": "Dense", "config": {"name": "dense_89", "trainable": true, "dtype": "float32", "units": 100, "activation": "relu", "use_bias": true, "kernel_initializer": {"class_name": "VarianceScaling", "config": {"scale": 1.0, "mode": "fan_avg", "distribution": "uniform", "seed": null}}, "bias_initializer": {"class_name": "Zeros", "config": {}}, "kernel_regularizer": null, "bias_regularizer": null, "activity_regularizer": null, "kernel_constraint": null, "bias_constraint": null}, "inbound_nodes": [[["concatenate_65", 0, 0, {}]]]}, {"name": "dense_93", "class_name": "Dense", "config": {"name": "dense_93", "trainable": true, "dtype": "float32", "units": 100, "activation": "relu", "use_bias": true, "kernel_initializer": {"class_name": "VarianceScaling", "config": {"scale": 1.0, "mode": "fan_avg", "distribution": "uniform", "seed": null}}, "bias_initializer": {"class_name": "Zeros", "config": {}}, "kernel_regularizer": null, "bias_regularizer": null, "activity_regularizer": null, "kernel_constraint": null, "bias_constraint": null}, "inbound_nodes": [[["concatenate_69", 0, 0, {}]]]}, {"name": "dense_98", "class_name": "Dense", "config": {"name": "dense_98", "trainable": true, "dtype": "float32", "units": 100, "activation": "relu", "use_bias": true, "kernel_initializer": {"class_name": "VarianceScaling", "config": {"scale": 1.0, "mode": "fan_avg", "distribution": "uniform", "seed": null}}, "bias_initializer": {"class_name": "Zeros", "config": {}}, "kernel_regularizer": null, "bias_regularizer": null, "activity_regularizer": null, "kernel_constraint": null, "bias_constraint": null}, "inbound_nodes": [[["concatenate_74", 0, 0, {}]]]}, {"name": "dense_100", "class_name": "Dense", "config": {"name": "dense_100", "trainable": true, "dtype": "float32", "units": 100, "activation": "relu", "use_bias": true, "kernel_initializer": {"class_name": "VarianceScaling", "config": {"scale": 1.0, "mode": "fan_avg", "distribution": "uniform", "seed": null}}, "bias_initializer": {"class_name": "Zeros", "config": {}}, "kernel_regularizer": null, "bias_regularizer": null, "activity_regularizer": null, "kernel_constraint": null, "bias_constraint": null}, "inbound_nodes": [[["concatenate_76", 0, 0, {}]]]}, {"name": "dense_115", "class_name": "Dense", "config": {"name": "dense_115", "trainable": true, "dtype": "float32", "units": 100, "activation": "relu", "use_bias": true, "kernel_initializer": {"class_name": "VarianceScaling", "config": {"scale": 1.0, "mode": "fan_avg", "distribution": "uniform", "seed": null}}, "bias_initializer": {"class_name": "Zeros", "config": {}}, "kernel_regularizer": null, "bias_regularizer": null, "activity_regularizer": null, "kernel_constraint": null, "bias_constraint": null}, "inbound_nodes": [[["concatenate_91", 0, 0, {}]]]}, {"name": "dense_118", "class_name": "Dense", "config": {"name": "dense_118", "trainable": true, "dtype": "float32", "units": 100, "activation": "relu", "use_bias": true, "kernel_initializer": {"class_name": "VarianceScaling", "config": {"scale": 1.0, "mode": "fan_avg", "distribution": "uniform", "seed": null}}, "bias_initializer": {"class_name": "Zeros", "config": {}}, "kernel_regularizer": null, "bias_regularizer": null, "activity_regularizer": null, "kernel_constraint": null, "bias_constraint": null}, "inbound_nodes": [[["concatenate_94", 0, 0, {}]]]}, {"name": "dense_127", "class_name": "Dense", "config": {"name": "dense_127", "trainable": true, "dtype": "float32", "units": 100, "activation": "relu", "use_bias": true, "kernel_initializer": {"class_name": "VarianceScaling", "config": {"scale": 1.0, "mode": "fan_avg", "distribution": "uniform", "seed": null}}, "bias_initializer": {"class_name": "Zeros", "config": {}}, "kernel_regularizer": null, "bias_regularizer": null, "activity_regularizer": null, "kernel_constraint": null, "bias_constraint": null}, "inbound_nodes": [[["concatenate_103", 0, 0, {}]]]}, {"name": "dense_144", "class_name": "Dense", "config": {"name": "dense_144", "trainable": true, "dtype": "float32", "units": 100, "activation": "relu", "use_bias": true, "kernel_initializer": {"class_name": "VarianceScaling", "config": {"scale": 1.0, "mode": "fan_avg", "distribution": "uniform", "seed": null}}, "bias_initializer": {"class_name": "Zeros", "config": {}}, "kernel_regularizer": null, "bias_regularizer": null, "activity_regularizer": null, "kernel_constraint": null, "bias_constraint": null}, "inbound_nodes": [[["concatenate_120", 0, 0, {}]]]}, {"name": "dense_157", "class_name": "Dense", "config": {"name": "dense_157", "trainable": true, "dtype": "float32", "units": 100, "activation": "relu", "use_bias": true, "kernel_initializer": {"class_name": "VarianceScaling", "config": {"scale": 1.0, "mode": "fan_avg", "distribution": "uniform", "seed": null}}, "bias_initializer": {"class_name": "Zeros", "config": {}}, "kernel_regularizer": null, "bias_regularizer": null, "activity_regularizer": null, "kernel_constraint": null, "bias_constraint": null}, "inbound_nodes": [[["concatenate_133", 0, 0, {}]]]}, {"name": "concatenate_3", "class_name": "Concatenate", "config": {"name": "concatenate_3", "trainable": true, "dtype": "float32", "axis": -1}, "inbound_nodes": [[["dense_25", 0, 0, {}], ["dense_26", 0, 0, {}]]]}, {"name": "concatenate_38", "class_name": "Concatenate", "config": {"name": "concatenate_38", "trainable": true, "dtype": "float32", "axis": -1}, "inbound_nodes": [[["dense_61", 0, 0, {}], ["dense_2", 0, 0, {}]]]}, {"name": "concatenate_70", "class_name": "Concatenate", "config": {"name": "concatenate_70", "trainable": true, "dtype": "float32", "axis": -1}, "inbound_nodes": [[["dense_89", 0, 0, {}], ["dense_93", 0, 0, {}]]]}, {"name": "concatenate_77", "class_name": "Concatenate", "config": {"name": "concatenate_77", "trainable": true, "dtype": "float32", "axis": -1}, "inbound_nodes": [[["dense_98", 0, 0, {}], ["dense_100", 0, 0, {}]]]}, {"name": "concatenate_95", "class_name": "Concatenate", "config": {"name": "concatenate_95", "trainable": true, "dtype": "float32", "axis": -1}, "inbound_nodes": [[["dense_115", 0, 0, {}], ["dense_118", 0, 0, {}]]]}, {"name": "concatenate_104", "class_name": "Concatenate", "config": {"name": "concatenate_104", "trainable": true, "dtype": "float32", "axis": -1}, "inbound_nodes": [[["dense_127", 0, 0, {}], ["dense_23", 0, 0, {}]]]}, {"name": "concatenate_134", "class_name": "Concatenate", "config": {"name": "concatenate_134", "trainable": true, "dtype": "float32", "axis": -1}, "inbound_nodes": [[["dense_144", 0, 0, {}], ["dense_157", 0, 0, {}]]]}, {"name": "dense_27", "class_name": "Dense", "config": {"name": "dense_27", "trainable": true, "dtype": "float32", "units": 100, "activation": "relu", "use_bias": true, "kernel_initializer": {"class_name": "VarianceScaling", "config": {"scale": 1.0, "mode": "fan_avg", "distribution": "uniform", "seed": null}}, "bias_initializer": {"class_name": "Zeros", "config": {}}, "kernel_regularizer": null, "bias_regularizer": null, "activity_regularizer": null, "kernel_constraint": null, "bias_constraint": null}, "inbound_nodes": [[["concatenate_3", 0, 0, {}]]]}, {"name": "dense_62", "class_name": "Dense", "config": {"name": "dense_62", "trainable": true, "dtype": "float32", "units": 100, "activation": "relu", "use_bias": true, "kernel_initializer": {"class_name": "VarianceScaling", "config": {"scale": 1.0, "mode": "fan_avg", "distribution": "uniform", "seed": null}}, "bias_initializer": {"class_name": "Zeros", "config": {}}, "kernel_regularizer": null, "bias_regularizer": null, "activity_regularizer": null, "kernel_constraint": null, "bias_constraint": null}, "inbound_nodes": [[["concatenate_38", 0, 0, {}]]]}, {"name": "dense_94", "class_name": "Dense", "config": {"name": "dense_94", "trainable": true, "dtype": "float32", "units": 100, "activation": "relu", "use_bias": true, "kernel_initializer": {"class_name": "VarianceScaling", "config": {"scale": 1.0, "mode": "fan_avg", "distribution": "uniform", "seed": null}}, "bias_initializer": {"class_name": "Zeros", "config": {}}, "kernel_regularizer": null, "bias_regularizer": null, "activity_regularizer": null, "kernel_constraint": null, "bias_constraint": null}, "inbound_nodes": [[["concatenate_70", 0, 0, {}]]]}, {"name": "dense_101", "class_name": "Dense", "config": {"name": "dense_101", "trainable": true, "dtype": "float32", "units": 100, "activation": "relu", "use_bias": true, "kernel_initializer": {"class_name": "VarianceScaling", "config": {"scale": 1.0, "mode": "fan_avg", "distribution": "uniform", "seed": null}}, "bias_initializer": {"class_name": "Zeros", "config": {}}, "kernel_regularizer": null, "bias_regularizer": null, "activity_regularizer": null, "kernel_constraint": null, "bias_constraint": null}, "inbound_nodes": [[["concatenate_77", 0, 0, {}]]]}, {"name": "dense_119", "class_name": "Dense", "config": {"name": "dense_119", "trainable": true, "dtype": "float32", "units": 100, "activation": "relu", "use_bias": true, "kernel_initializer": {"class_name": "VarianceScaling", "config": {"scale": 1.0, "mode": "fan_avg", "distribution": "uniform", "seed": null}}, "bias_initializer": {"class_name": "Zeros", "config": {}}, "kernel_regularizer": null, "bias_regularizer": null, "activity_regularizer": null, "kernel_constraint": null, "bias_constraint": null}, "inbound_nodes": [[["concatenate_95", 0, 0, {}]]]}, {"name": "dense_128", "class_name": "Dense", "config": {"name": "dense_128", "trainable": true, "dtype": "float32", "units": 100, "activation": "relu", "use_bias": true, "kernel_initializer": {"class_name": "VarianceScaling", "config": {"scale": 1.0, "mode": "fan_avg", "distribution": "uniform", "seed": null}}, "bias_initializer": {"class_name": "Zeros", "config": {}}, "kernel_regularizer": null, "bias_regularizer": null, "activity_regularizer": null, "kernel_constraint": null, "bias_constraint": null}, "inbound_nodes": [[["concatenate_104", 0, 0, {}]]]}, {"name": "dense_158", "class_name": "Dense", "config": {"name": "dense_158", "trainable": true, "dtype": "float32", "units": 100, "activation": "relu", "use_bias": true, "kernel_initializer": {"class_name": "VarianceScaling", "config": {"scale": 1.0, "mode": "fan_avg", "distribution": "uniform", "seed": null}}, "bias_initializer": {"class_name": "Zeros", "config": {}}, "kernel_regularizer": null, "bias_regularizer": null, "activity_regularizer": null, "kernel_constraint": null, "bias_constraint": null}, "inbound_nodes": [[["concatenate_134", 0, 0, {}]]]}, {"name": "concatenate_4", "class_name": "Concatenate", "config": {"name": "concatenate_4", "trainable": true, "dtype": "float32", "axis": -1}, "inbound_nodes": [[["dense_27", 0, 0, {}], ["dense_14", 0, 0, {}]]]}, {"name": "concatenate_39", "class_name": "Concatenate", "config": {"name": "concatenate_39", "trainable": true, "dtype": "float32", "axis": -1}, "inbound_nodes": [[["dense_62", 0, 0, {}], ["dense_23", 0, 0, {}]]]}, {"name": "concatenate_71", "class_name": "Concatenate", "config": {"name": "concatenate_71", "trainable": true, "dtype": "float32", "axis": -1}, "inbound_nodes": [[["dense_94", 0, 0, {}], ["dense_2", 0, 0, {}]]]}, {"name": "concatenate_78", "class_name": "Concatenate", "config": {"name": "concatenate_78", "trainable": true, "dtype": "float32", "axis": -1}, "inbound_nodes": [[["dense_101", 0, 0, {}], ["dense_1", 0, 0, {}]]]}, {"name": "concatenate_96", "class_name": "Concatenate", "config": {"name": "concatenate_96", "trainable": true, "dtype": "float32", "axis": -1}, "inbound_nodes": [[["dense_119", 0, 0, {}], ["dense_10", 0, 0, {}]]]}, {"name": "concatenate_105", "class_name": "Concatenate", "config": {"name": "concatenate_105", "trainable": true, "dtype": "float32", "axis": -1}, "inbound_nodes": [[["dense_128", 0, 0, {}], ["dense_23", 0, 0, {}]]]}, {"name": "concatenate_135", "class_name": "Concatenate", "config": {"name": "concatenate_135", "trainable": true, "dtype": "float32", "axis": -1}, "inbound_nodes": [[["dense_158", 0, 0, {}], ["dense_10", 0, 0, {}]]]}, {"name": "dense_28", "class_name": "Dense", "config": {"name": "dense_28", "trainable": true, "dtype": "float32", "units": 100, "activation": "relu", "use_bias": true, "kernel_initializer": {"class_name": "VarianceScaling", "config": {"scale": 1.0, "mode": "fan_avg", "distribution": "uniform", "seed": null}}, "bias_initializer": {"class_name": "Zeros", "config": {}}, "kernel_regularizer": null, "bias_regularizer": null, "activity_regularizer": null, "kernel_constraint": null, "bias_constraint": null}, "inbound_nodes": [[["concatenate_4", 0, 0, {}]]]}, {"name": "dense_63", "class_name": "Dense", "config": {"name": "dense_63", "trainable": true, "dtype": "float32", "units": 100, "activation": "relu", "use_bias": true, "kernel_initializer": {"class_name": "VarianceScaling", "config": {"scale": 1.0, "mode": "fan_avg", "distribution": "uniform", "seed": null}}, "bias_initializer": {"class_name": "Zeros", "config": {}}, "kernel_regularizer": null, "bias_regularizer": null, "activity_regularizer": null, "kernel_constraint": null, "bias_constraint": null}, "inbound_nodes": [[["concatenate_39", 0, 0, {}]]]}, {"name": "dense_95", "class_name": "Dense", "config": {"name": "dense_95", "trainable": true, "dtype": "float32", "units": 100, "activation": "relu", "use_bias": true, "kernel_initializer": {"class_name": "VarianceScaling", "config": {"scale": 1.0, "mode": "fan_avg", "distribution": "uniform", "seed": null}}, "bias_initializer": {"class_name": "Zeros", "config": {}}, "kernel_regularizer": null, "bias_regularizer": null, "activity_regularizer": null, "kernel_constraint": null, "bias_constraint": null}, "inbound_nodes": [[["concatenate_71", 0, 0, {}]]]}, {"name": "dense_102", "class_name": "Dense", "config": {"name": "dense_102", "trainable": true, "dtype": "float32", "units": 100, "activation": "relu", "use_bias": true, "kernel_initializer": {"class_name": "VarianceScaling", "config": {"scale": 1.0, "mode": "fan_avg", "distribution": "uniform", "seed": null}}, "bias_initializer": {"class_name": "Zeros", "config": {}}, "kernel_regularizer": null, "bias_regularizer": null, "activity_regularizer": null, "kernel_constraint": null, "bias_constraint": null}, "inbound_nodes": [[["concatenate_78", 0, 0, {}]]]}, {"name": "dense_120", "class_name": "Dense", "config": {"name": "dense_120", "trainable": true, "dtype": "float32", "units": 100, "activation": "relu", "use_bias": true, "kernel_initializer": {"class_name": "VarianceScaling", "config": {"scale": 1.0, "mode": "fan_avg", "distribution": "uniform", "seed": null}}, "bias_initializer": {"class_name": "Zeros", "config": {}}, "kernel_regularizer": null, "bias_regularizer": null, "activity_regularizer": null, "kernel_constraint": null, "bias_constraint": null}, "inbound_nodes": [[["concatenate_96", 0, 0, {}]]]}, {"name": "dense_129", "class_name": "Dense", "config": {"name": "dense_129", "trainable": true, "dtype": "float32", "units": 100, "activation": "relu", "use_bias": true, "kernel_initializer": {"class_name": "VarianceScaling", "config": {"scale": 1.0, "mode": "fan_avg", "distribution": "uniform", "seed": null}}, "bias_initializer": {"class_name": "Zeros", "config": {}}, "kernel_regularizer": null, "bias_regularizer": null, "activity_regularizer": null, "kernel_constraint": null, "bias_constraint": null}, "inbound_nodes": [[["concatenate_105", 0, 0, {}]]]}, {"name": "dense_159", "class_name": "Dense", "config": {"name": "dense_159", "trainable": true, "dtype": "float32", "units": 100, "activation": "relu", "use_bias": true, "kernel_initializer": {"class_name": "VarianceScaling", "config": {"scale": 1.0, "mode": "fan_avg", "distribution": "uniform", "seed": null}}, "bias_initializer": {"class_name": "Zeros", "config": {}}, "kernel_regularizer": null, "bias_regularizer": null, "activity_regularizer": null, "kernel_constraint": null, "bias_constraint": null}, "inbound_nodes": [[["concatenate_135", 0, 0, {}]]]}, {"name": "concatenate_40", "class_name": "Concatenate", "config": {"name": "concatenate_40", "trainable": true, "dtype": "float32", "axis": -1}, "inbound_nodes": [[["dense_28", 0, 0, {}], ["dense_63", 0, 0, {}]]]}, {"name": "concatenate_79", "class_name": "Concatenate", "config": {"name": "concatenate_79", "trainable": true, "dtype": "float32", "axis": -1}, "inbound_nodes": [[["dense_95", 0, 0, {}], ["dense_102", 0, 0, {}]]]}, {"name": "concatenate_97", "class_name": "Concatenate", "config": {"name": "concatenate_97", "trainable": true, "dtype": "float32", "axis": -1}, "inbound_nodes": [[["dense_120", 0, 0, {}], ["dense_9", 0, 0, {}]]]}, {"name": "concatenate_136", "class_name": "Concatenate", "config": {"name": "concatenate_136", "trainable": true, "dtype": "float32", "axis": -1}, "inbound_nodes": [[["dense_129", 0, 0, {}], ["dense_159", 0, 0, {}]]]}, {"name": "dense_64", "class_name": "Dense", "config": {"name": "dense_64", "trainable": true, "dtype": "float32", "units": 100, "activation": "relu", "use_bias": true, "kernel_initializer": {"class_name": "VarianceScaling", "config": {"scale": 1.0, "mode": "fan_avg", "distribution": "uniform", "seed": null}}, "bias_initializer": {"class_name": "Zeros", "config": {}}, "kernel_regularizer": null, "bias_regularizer": null, "activity_regularizer": null, "kernel_constraint": null, "bias_constraint": null}, "inbound_nodes": [[["concatenate_40", 0, 0, {}]]]}, {"name": "dense_103", "class_name": "Dense", "config": {"name": "dense_103", "trainable": true, "dtype": "float32", "units": 100, "activation": "relu", "use_bias": true, "kernel_initializer": {"class_name": "VarianceScaling", "config": {"scale": 1.0, "mode": "fan_avg", "distribution": "uniform", "seed": null}}, "bias_initializer": {"class_name": "Zeros", "config": {}}, "kernel_regularizer": null, "bias_regularizer": null, "activity_regularizer": null, "kernel_constraint": null, "bias_constraint": null}, "inbound_nodes": [[["concatenate_79", 0, 0, {}]]]}, {"name": "dense_121", "class_name": "Dense", "config": {"name": "dense_121", "trainable": true, "dtype": "float32", "units": 100, "activation": "relu", "use_bias": true, "kernel_initializer": {"class_name": "VarianceScaling", "config": {"scale": 1.0, "mode": "fan_avg", "distribution": "uniform", "seed": null}}, "bias_initializer": {"class_name": "Zeros", "config": {}}, "kernel_regularizer": null, "bias_regularizer": null, "activity_regularizer": null, "kernel_constraint": null, "bias_constraint": null}, "inbound_nodes": [[["concatenate_97", 0, 0, {}]]]}, {"name": "dense_160", "class_name": "Dense", "config": {"name": "dense_160", "trainable": true, "dtype": "float32", "units": 100, "activation": "relu", "use_bias": true, "kernel_initializer": {"class_name": "VarianceScaling", "config": {"scale": 1.0, "mode": "fan_avg", "distribution": "uniform", "seed": null}}, "bias_initializer": {"class_name": "Zeros", "config": {}}, "kernel_regularizer": null, "bias_regularizer": null, "activity_regularizer": null, "kernel_constraint": null, "bias_constraint": null}, "inbound_nodes": [[["concatenate_136", 0, 0, {}]]]}, {"name": "concatenate_41", "class_name": "Concatenate", "config": {"name": "concatenate_41", "trainable": true, "dtype": "float32", "axis": -1}, "inbound_nodes": [[["dense_64", 0, 0, {}], ["dense_3", 0, 0, {}]]]}, {"name": "concatenate_80", "class_name": "Concatenate", "config": {"name": "concatenate_80", "trainable": true, "dtype": "float32", "axis": -1}, "inbound_nodes": [[["dense_103", 0, 0, {}], ["dense_5", 0, 0, {}]]]}, {"name": "concatenate_98", "class_name": "Concatenate", "config": {"name": "concatenate_98", "trainable": true, "dtype": "float32", "axis": -1}, "inbound_nodes": [[["dense_121", 0, 0, {}], ["dense_10", 0, 0, {}]]]}, {"name": "concatenate_137", "class_name": "Concatenate", "config": {"name": "concatenate_137", "trainable": true, "dtype": "float32", "axis": -1}, "inbound_nodes": [[["dense_160", 0, 0, {}], ["dense_6", 0, 0, {}]]]}, {"name": "dense_65", "class_name": "Dense", "config": {"name": "dense_65", "trainable": true, "dtype": "float32", "units": 100, "activation": "relu", "use_bias": true, "kernel_initializer": {"class_name": "VarianceScaling", "config": {"scale": 1.0, "mode": "fan_avg", "distribution": "uniform", "seed": null}}, "bias_initializer": {"class_name": "Zeros", "config": {}}, "kernel_regularizer": null, "bias_regularizer": null, "activity_regularizer": null, "kernel_constraint": null, "bias_constraint": null}, "inbound_nodes": [[["concatenate_41", 0, 0, {}]]]}, {"name": "dense_104", "class_name": "Dense", "config": {"name": "dense_104", "trainable": true, "dtype": "float32", "units": 100, "activation": "relu", "use_bias": true, "kernel_initializer": {"class_name": "VarianceScaling", "config": {"scale": 1.0, "mode": "fan_avg", "distribution": "uniform", "seed": null}}, "bias_initializer": {"class_name": "Zeros", "config": {}}, "kernel_regularizer": null, "bias_regularizer": null, "activity_regularizer": null, "kernel_constraint": null, "bias_constraint": null}, "inbound_nodes": [[["concatenate_80", 0, 0, {}]]]}, {"name": "dense_122", "class_name": "Dense", "config": {"name": "dense_122", "trainable": true, "dtype": "float32", "units": 100, "activation": "relu", "use_bias": true, "kernel_initializer": {"class_name": "VarianceScaling", "config": {"scale": 1.0, "mode": "fan_avg", "distribution": "uniform", "seed": null}}, "bias_initializer": {"class_name": "Zeros", "config": {}}, "kernel_regularizer": null, "bias_regularizer": null, "activity_regularizer": null, "kernel_constraint": null, "bias_constraint": null}, "inbound_nodes": [[["concatenate_98", 0, 0, {}]]]}, {"name": "dense_161", "class_name": "Dense", "config": {"name": "dense_161", "trainable": true, "dtype": "float32", "units": 100, "activation": "relu", "use_bias": true, "kernel_initializer": {"class_name": "VarianceScaling", "config": {"scale": 1.0, "mode": "fan_avg", "distribution": "uniform", "seed": null}}, "bias_initializer": {"class_name": "Zeros", "config": {}}, "kernel_regularizer": null, "bias_regularizer": null, "activity_regularizer": null, "kernel_constraint": null, "bias_constraint": null}, "inbound_nodes": [[["concatenate_137", 0, 0, {}]]]}, {"name": "concatenate_81", "class_name": "Concatenate", "config": {"name": "concatenate_81", "trainable": true, "dtype": "float32", "axis": -1}, "inbound_nodes": [[["dense_65", 0, 0, {}], ["dense_104", 0, 0, {}]]]}, {"name": "concatenate_138", "class_name": "Concatenate", "config": {"name": "concatenate_138", "trainable": true, "dtype": "float32", "axis": -1}, "inbound_nodes": [[["dense_122", 0, 0, {}], ["dense_161", 0, 0, {}]]]}, {"name": "dense_105", "class_name": "Dense", "config": {"name": "dense_105", "trainable": true, "dtype": "float32", "units": 100, "activation": "relu", "use_bias": true, "kernel_initializer": {"class_name": "VarianceScaling", "config": {"scale": 1.0, "mode": "fan_avg", "distribution": "uniform", "seed": null}}, "bias_initializer": {"class_name": "Zeros", "config": {}}, "kernel_regularizer": null, "bias_regularizer": null, "activity_regularizer": null, "kernel_constraint": null, "bias_constraint": null}, "inbound_nodes": [[["concatenate_81", 0, 0, {}]]]}, {"name": "dense_162", "class_name": "Dense", "config": {"name": "dense_162", "trainable": true, "dtype": "float32", "units": 100, "activation": "relu", "use_bias": true, "kernel_initializer": {"class_name": "VarianceScaling", "config": {"scale": 1.0, "mode": "fan_avg", "distribution": "uniform", "seed": null}}, "bias_initializer": {"class_name": "Zeros", "config": {}}, "kernel_regularizer": null, "bias_regularizer": null, "activity_regularizer": null, "kernel_constraint": null, "bias_constraint": null}, "inbound_nodes": [[["concatenate_138", 0, 0, {}]]]}, {"name": "concatenate_82", "class_name": "Concatenate", "config": {"name": "concatenate_82", "trainable": true, "dtype": "float32", "axis": -1}, "inbound_nodes": [[["dense_105", 0, 0, {}], ["dense_2", 0, 0, {}]]]}, {"name": "concatenate_139", "class_name": "Concatenate", "config": {"name": "concatenate_139", "trainable": true, "dtype": "float32", "axis": -1}, "inbound_nodes": [[["dense_162", 0, 0, {}], ["dense_11", 0, 0, {}]]]}, {"name": "dense_106", "class_name": "Dense", "config": {"name": "dense_106", "trainable": true, "dtype": "float32", "units": 100, "activation": "relu", "use_bias": true, "kernel_initializer": {"class_name": "VarianceScaling", "config": {"scale": 1.0, "mode": "fan_avg", "distribution": "uniform", "seed": null}}, "bias_initializer": {"class_name": "Zeros", "config": {}}, "kernel_regularizer": null, "bias_regularizer": null, "activity_regularizer": null, "kernel_constraint": null, "bias_constraint": null}, "inbound_nodes": [[["concatenate_82", 0, 0, {}]]]}, {"name": "dense_163", "class_name": "Dense", "config": {"name": "dense_163", "trainable": true, "dtype": "float32", "units": 100, "activation": "relu", "use_bias": true, "kernel_initializer": {"class_name": "VarianceScaling", "config": {"scale": 1.0, "mode": "fan_avg", "distribution": "uniform", "seed": null}}, "bias_initializer": {"class_name": "Zeros", "config": {}}, "kernel_regularizer": null, "bias_regularizer": null, "activity_regularizer": null, "kernel_constraint": null, "bias_constraint": null}, "inbound_nodes": [[["concatenate_139", 0, 0, {}]]]}, {"name": "concatenate_140", "class_name": "Concatenate", "config": {"name": "concatenate_140", "trainable": true, "dtype": "float32", "axis": -1}, "inbound_nodes": [[["dense_106", 0, 0, {}], ["dense_163", 0, 0, {}]]]}, {"name": "dense_164", "class_name": "Dense", "config": {"name": "dense_164", "trainable": true, "dtype": "float32", "units": 100, "activation": "relu", "use_bias": true, "kernel_initializer": {"class_name": "VarianceScaling", "config": {"scale": 1.0, "mode": "fan_avg", "distribution": "uniform", "seed": null}}, "bias_initializer": {"class_name": "Zeros", "config": {}}, "kernel_regularizer": null, "bias_regularizer": null, "activity_regularizer": null, "kernel_constraint": null, "bias_constraint": null}, "inbound_nodes": [[["concatenate_140", 0, 0, {}]]]}, {"name": "concatenate_141", "class_name": "Concatenate", "config": {"name": "concatenate_141", "trainable": true, "dtype": "float32", "axis": -1}, "inbound_nodes": [[["dense_164", 0, 0, {}], ["dense_1", 0, 0, {}]]]}, {"name": "dense_165", "class_name": "Dense", "config": {"name": "dense_165", "trainable": true, "dtype": "float32", "units": 100, "activation": "relu", "use_bias": true, "kernel_initializer": {"class_name": "VarianceScaling", "config": {"scale": 1.0, "mode": "fan_avg", "distribution": "uniform", "seed": null}}, "bias_initializer": {"class_name": "Zeros", "config": {}}, "kernel_regularizer": null, "bias_regularizer": null, "activity_regularizer": null, "kernel_constraint": null, "bias_constraint": null}, "inbound_nodes": [[["concatenate_141", 0, 0, {}]]]}, {"name": "dense_166", "class_name": "Dense", "config": {"name": "dense_166", "trainable": true, "dtype": "float32", "units": 2, "activation": "softmax", "use_bias": true, "kernel_initializer": {"class_name": "VarianceScaling", "config": {"scale": 1.0, "mode": "fan_avg", "distribution": "uniform", "seed": null}}, "bias_initializer": {"class_name": "Zeros", "config": {}}, "kernel_regularizer": null, "bias_regularizer": null, "activity_regularizer": null, "kernel_constraint": null, "bias_constraint": null}, "inbound_nodes": [[["dense_165", 0, 0, {}]]]}], "input_layers": [["input_1", 0, 0], ["input_2", 0, 0], ["input_3", 0, 0], ["input_4", 0, 0], ["input_5", 0, 0], ["input_6", 0, 0], ["input_7", 0, 0], ["input_8", 0, 0], ["input_9", 0, 0], ["input_10", 0, 0], ["input_11", 0, 0], ["input_12", 0, 0], ["input_13", 0, 0], ["input_14", 0, 0], ["input_16", 0, 0], ["input_17", 0, 0], ["input_18", 0, 0], ["input_20", 0, 0], ["input_21", 0, 0], ["input_22", 0, 0], ["input_23", 0, 0], ["input_24", 0, 0]], "output_layers": [["dense_166", 0, 0]]}, "keras_version": "2.3.1", "backend": "tensorflow"}