{"class_name": "Model", "config": {"name": "model_4", "layers": [{"name": "input_15", "class_name": "InputLayer", "config": {"batch_input_shape": [null, 1], "dtype": "float32", "sparse": false, "name": "input_15"}, "inbound_nodes": []}, {"name": "dense_308", "class_name": "Dense", "config": {"name": "dense_308", "trainable": true, "dtype": "float32", "units": 50, "activation": "relu", "use_bias": true, "kernel_initializer": {"class_name": "VarianceScaling", "config": {"scale": 1.0, "mode": "fan_avg", "distribution": "uniform", "seed": null}}, "bias_initializer": {"class_name": "Zeros", "config": {}}, "kernel_regularizer": null, "bias_regularizer": null, "activity_regularizer": null, "kernel_constraint": null, "bias_constraint": null}, "inbound_nodes": [[["input_15", 0, 0, {}]]]}, {"name": "input_19", "class_name": "InputLayer", "config": {"batch_input_shape": [null, 1], "dtype": "float32", "sparse": false, "name": "input_19"}, "inbound_nodes": []}, {"name": "input_17", "class_name": "InputLayer", "config": {"batch_input_shape": [null, 1], "dtype": "float32", "sparse": false, "name": "input_17"}, "inbound_nodes": []}, {"name": "concatenate_342", "class_name": "Concatenate", "config": {"name": "concatenate_342", "trainable": true, "dtype": "float32", "axis": -1}, "inbound_nodes": [[["dense_308", 0, 0, {}], ["dense_308", 0, 0, {}]]]}, {"name": "dense_312", "class_name": "Dense", "config": {"name": "dense_312", "trainable": true, "dtype": "float32", "units": 50, "activation": "relu", "use_bias": true, "kernel_initializer": {"class_name": "VarianceScaling", "config": {"scale": 1.0, "mode": "fan_avg", "distribution": "uniform", "seed": null}}, "bias_initializer": {"class_name": "Zeros", "config": {}}, "kernel_regularizer": null, "bias_regularizer": null, "activity_regularizer": null, "kernel_constraint": null, "bias_constraint": null}, "inbound_nodes": [[["input_19", 0, 0, {}]]]}, {"name": "dense_310", "class_name": "Dense", "config": {"name": "dense_310", "trainable": true, "dtype": "float32", "units": 50, "activation": "relu", "use_bias": true, "kernel_initializer": {"class_name": "VarianceScaling", "config": {"scale": 1.0, "mode": "fan_avg", "distribution": "uniform", "seed": null}}, "bias_initializer": {"class_name": "Zeros", "config": {}}, "kernel_regularizer": null, "bias_regularizer": null, "activity_regularizer": null, "kernel_constraint": null, "bias_constraint": null}, "inbound_nodes": [[["input_17", 0, 0, {}]]]}, {"name": "dense_368", "class_name": "Dense", "config": {"name": "dense_368", "trainable": true, "dtype": "float32", "units": 100, "activation": "relu", "use_bias": true, "kernel_initializer": {"class_name": "VarianceScaling", "config": {"scale": 1.0, "mode": "fan_avg", "distribution": "uniform", "seed": null}}, "bias_initializer": {"class_name": "Zeros", "config": {}}, "kernel_regularizer": null, "bias_regularizer": null, "activity_regularizer": null, "kernel_constraint": null, "bias_constraint": null}, "inbound_nodes": [[["concatenate_342", 0, 0, {}]]]}, {"name": "input_22", "class_name": "InputLayer", "config": {"batch_input_shape": [null, 1], "dtype": "float32", "sparse": false, "name": "input_22"}, "inbound_nodes": []}, {"name": "concatenate_301", "class_name": "Concatenate", "config": {"name": "concatenate_301", "trainable": true, "dtype": "float32", "axis": -1}, "inbound_nodes": [[["dense_312", 0, 0, {}], ["dense_310", 0, 0, {}]]]}, {"name": "concatenate_343", "class_name": "Concatenate", "config": {"name": "concatenate_343", "trainable": true, "dtype": "float32", "axis": -1}, "inbound_nodes": [[["dense_310", 0, 0, {}], ["dense_368", 0, 0, {}]]]}, {"name": "dense_315", "class_name": "Dense", "config": {"name": "dense_315", "trainable": true, "dtype": "float32", "units": 50, "activation": "relu", "use_bias": true, "kernel_initializer": {"class_name": "VarianceScaling", "config": {"scale": 1.0, "mode": "fan_avg", "distribution": "uniform", "seed": null}}, "bias_initializer": {"class_name": "Zeros", "config": {}}, "kernel_regularizer": null, "bias_regularizer": null, "activity_regularizer": null, "kernel_constraint": null, "bias_constraint": null}, "inbound_nodes": [[["input_22", 0, 0, {}]]]}, {"name": "dense_327", "class_name": "Dense", "config": {"name": "dense_327", "trainable": true, "dtype": "float32", "units": 100, "activation": "relu", "use_bias": true, "kernel_initializer": {"class_name": "VarianceScaling", "config": {"scale": 1.0, "mode": "fan_avg", "distribution": "uniform", "seed": null}}, "bias_initializer": {"class_name": "Zeros", "config": {}}, "kernel_regularizer": null, "bias_regularizer": null, "activity_regularizer": null, "kernel_constraint": null, "bias_constraint": null}, "inbound_nodes": [[["concatenate_301", 0, 0, {}]]]}, {"name": "dense_369", "class_name": "Dense", "config": {"name": "dense_369", "trainable": true, "dtype": "float32", "units": 100, "activation": "relu", "use_bias": true, "kernel_initializer": {"class_name": "VarianceScaling", "config": {"scale": 1.0, "mode": "fan_avg", "distribution": "uniform", "seed": null}}, "bias_initializer": {"class_name": "Zeros", "config": {}}, "kernel_regularizer": null, "bias_regularizer": null, "activity_regularizer": null, "kernel_constraint": null, "bias_constraint": null}, "inbound_nodes": [[["concatenate_343", 0, 0, {}]]]}, {"name": "concatenate_302", "class_name": "Concatenate", "config": {"name": "concatenate_302", "trainable": true, "dtype": "float32", "axis": -1}, "inbound_nodes": [[["dense_327", 0, 0, {}], ["dense_315", 0, 0, {}]]]}, {"name": "concatenate_329", "class_name": "Concatenate", "config": {"name": "concatenate_329", "trainable": true, "dtype": "float32", "axis": -1}, "inbound_nodes": [[["dense_312", 0, 0, {}], ["dense_308", 0, 0, {}]]]}, {"name": "concatenate_334", "class_name": "Concatenate", "config": {"name": "concatenate_334", "trainable": true, "dtype": "float32", "axis": -1}, "inbound_nodes": [[["dense_308", 0, 0, {}], ["dense_308", 0, 0, {}]]]}, {"name": "concatenate_335", "class_name": "Concatenate", "config": {"name": "concatenate_335", "trainable": true, "dtype": "float32", "axis": -1}, "inbound_nodes": [[["dense_308", 0, 0, {}], ["dense_312", 0, 0, {}]]]}, {"name": "concatenate_344", "class_name": "Concatenate", "config": {"name": "concatenate_344", "trainable": true, "dtype": "float32", "axis": -1}, "inbound_nodes": [[["dense_369", 0, 0, {}], ["dense_315", 0, 0, {}]]]}, {"name": "dense_328", "class_name": "Dense", "config": {"name": "dense_328", "trainable": true, "dtype": "float32", "units": 100, "activation": "relu", "use_bias": true, "kernel_initializer": {"class_name": "VarianceScaling", "config": {"scale": 1.0, "mode": "fan_avg", "distribution": "uniform", "seed": null}}, "bias_initializer": {"class_name": "Zeros", "config": {}}, "kernel_regularizer": null, "bias_regularizer": null, "activity_regularizer": null, "kernel_constraint": null, "bias_constraint": null}, "inbound_nodes": [[["concatenate_302", 0, 0, {}]]]}, {"name": "dense_355", "class_name": "Dense", "config": {"name": "dense_355", "trainable": true, "dtype": "float32", "units": 100, "activation": "relu", "use_bias": true, "kernel_initializer": {"class_name": "VarianceScaling", "config": {"scale": 1.0, "mode": "fan_avg", "distribution": "uniform", "seed": null}}, "bias_initializer": {"class_name": "Zeros", "config": {}}, "kernel_regularizer": null, "bias_regularizer": null, "activity_regularizer": null, "kernel_constraint": null, "bias_constraint": null}, "inbound_nodes": [[["concatenate_329", 0, 0, {}]]]}, {"name": "dense_360", "class_name": "Dense", "config": {"name": "dense_360", "trainable": true, "dtype": "float32", "units": 100, "activation": "relu", "use_bias": true, "kernel_initializer": {"class_name": "VarianceScaling", "config": {"scale": 1.0, "mode": "fan_avg", "distribution": "uniform", "seed": null}}, "bias_initializer": {"class_name": "Zeros", "config": {}}, "kernel_regularizer": null, "bias_regularizer": null, "activity_regularizer": null, "kernel_constraint": null, "bias_constraint": null}, "inbound_nodes": [[["concatenate_334", 0, 0, {}]]]}, {"name": "dense_361", "class_name": "Dense", "config": {"name": "dense_361", "trainable": true, "dtype": "float32", "units": 100, "activation": "relu", "use_bias": true, "kernel_initializer": {"class_name": "VarianceScaling", "config": {"scale": 1.0, "mode": "fan_avg", "distribution": "uniform", "seed": null}}, "bias_initializer": {"class_name": "Zeros", "config": {}}, "kernel_regularizer": null, "bias_regularizer": null, "activity_regularizer": null, "kernel_constraint": null, "bias_constraint": null}, "inbound_nodes": [[["concatenate_335", 0, 0, {}]]]}, {"name": "dense_370", "class_name": "Dense", "config": {"name": "dense_370", "trainable": true, "dtype": "float32", "units": 100, "activation": "relu", "use_bias": true, "kernel_initializer": {"class_name": "VarianceScaling", "config": {"scale": 1.0, "mode": "fan_avg", "distribution": "uniform", "seed": null}}, "bias_initializer": {"class_name": "Zeros", "config": {}}, "kernel_regularizer": null, "bias_regularizer": null, "activity_regularizer": null, "kernel_constraint": null, "bias_constraint": null}, "inbound_nodes": [[["concatenate_344", 0, 0, {}]]]}, {"name": "input_18", "class_name": "InputLayer", "config": {"batch_input_shape": [null, 1], "dtype": "float32", "sparse": false, "name": "input_18"}, "inbound_nodes": []}, {"name": "concatenate_303", "class_name": "Concatenate", "config": {"name": "concatenate_303", "trainable": true, "dtype": "float32", "axis": -1}, "inbound_nodes": [[["dense_328", 0, 0, {}], ["dense_315", 0, 0, {}]]]}, {"name": "input_13", "class_name": "InputLayer", "config": {"batch_input_shape": [null, 1], "dtype": "float32", "sparse": false, "name": "input_13"}, "inbound_nodes": []}, {"name": "concatenate_318", "class_name": "Concatenate", "config": {"name": "concatenate_318", "trainable": true, "dtype": "float32", "axis": -1}, "inbound_nodes": [[["dense_312", 0, 0, {}], ["dense_310", 0, 0, {}]]]}, {"name": "concatenate_321", "class_name": "Concatenate", "config": {"name": "concatenate_321", "trainable": true, "dtype": "float32", "axis": -1}, "inbound_nodes": [[["dense_312", 0, 0, {}], ["dense_315", 0, 0, {}]]]}, {"name": "concatenate_330", "class_name": "Concatenate", "config": {"name": "concatenate_330", "trainable": true, "dtype": "float32", "axis": -1}, "inbound_nodes": [[["dense_355", 0, 0, {}], ["dense_315", 0, 0, {}]]]}, {"name": "concatenate_336", "class_name": "Concatenate", "config": {"name": "concatenate_336", "trainable": true, "dtype": "float32", "axis": -1}, "inbound_nodes": [[["dense_360", 0, 0, {}], ["dense_361", 0, 0, {}]]]}, {"name": "concatenate_345", "class_name": "Concatenate", "config": {"name": "concatenate_345", "trainable": true, "dtype": "float32", "axis": -1}, "inbound_nodes": [[["dense_370", 0, 0, {}], ["dense_310", 0, 0, {}]]]}, {"name": "dense_311", "class_name": "Dense", "config": {"name": "dense_311", "trainable": true, "dtype": "float32", "units": 50, "activation": "relu", "use_bias": true, "kernel_initializer": {"class_name": "VarianceScaling", "config": {"scale": 1.0, "mode": "fan_avg", "distribution": "uniform", "seed": null}}, "bias_initializer": {"class_name": "Zeros", "config": {}}, "kernel_regularizer": null, "bias_regularizer": null, "activity_regularizer": null, "kernel_constraint": null, "bias_constraint": null}, "inbound_nodes": [[["input_18", 0, 0, {}]]]}, {"name": "dense_329", "class_name": "Dense", "config": {"name": "dense_329", "trainable": true, "dtype": "float32", "units": 100, "activation": "relu", "use_bias": true, "kernel_initializer": {"class_name": "VarianceScaling", "config": {"scale": 1.0, "mode": "fan_avg", "distribution": "uniform", "seed": null}}, "bias_initializer": {"class_name": "Zeros", "config": {}}, "kernel_regularizer": null, "bias_regularizer": null, "activity_regularizer": null, "kernel_constraint": null, "bias_constraint": null}, "inbound_nodes": [[["concatenate_303", 0, 0, {}]]]}, {"name": "dense_306", "class_name": "Dense", "config": {"name": "dense_306", "trainable": true, "dtype": "float32", "units": 50, "activation": "relu", "use_bias": true, "kernel_initializer": {"class_name": "VarianceScaling", "config": {"scale": 1.0, "mode": "fan_avg", "distribution": "uniform", "seed": null}}, "bias_initializer": {"class_name": "Zeros", "config": {}}, "kernel_regularizer": null, "bias_regularizer": null, "activity_regularizer": null, "kernel_constraint": null, "bias_constraint": null}, "inbound_nodes": [[["input_13", 0, 0, {}]]]}, {"name": "dense_344", "class_name": "Dense", "config": {"name": "dense_344", "trainable": true, "dtype": "float32", "units": 100, "activation": "relu", "use_bias": true, "kernel_initializer": {"class_name": "VarianceScaling", "config": {"scale": 1.0, "mode": "fan_avg", "distribution": "uniform", "seed": null}}, "bias_initializer": {"class_name": "Zeros", "config": {}}, "kernel_regularizer": null, "bias_regularizer": null, "activity_regularizer": null, "kernel_constraint": null, "bias_constraint": null}, "inbound_nodes": [[["concatenate_318", 0, 0, {}]]]}, {"name": "dense_347", "class_name": "Dense", "config": {"name": "dense_347", "trainable": true, "dtype": "float32", "units": 100, "activation": "relu", "use_bias": true, "kernel_initializer": {"class_name": "VarianceScaling", "config": {"scale": 1.0, "mode": "fan_avg", "distribution": "uniform", "seed": null}}, "bias_initializer": {"class_name": "Zeros", "config": {}}, "kernel_regularizer": null, "bias_regularizer": null, "activity_regularizer": null, "kernel_constraint": null, "bias_constraint": null}, "inbound_nodes": [[["concatenate_321", 0, 0, {}]]]}, {"name": "dense_356", "class_name": "Dense", "config": {"name": "dense_356", "trainable": true, "dtype": "float32", "units": 100, "activation": "relu", "use_bias": true, "kernel_initializer": {"class_name": "VarianceScaling", "config": {"scale": 1.0, "mode": "fan_avg", "distribution": "uniform", "seed": null}}, "bias_initializer": {"class_name": "Zeros", "config": {}}, "kernel_regularizer": null, "bias_regularizer": null, "activity_regularizer": null, "kernel_constraint": null, "bias_constraint": null}, "inbound_nodes": [[["concatenate_330", 0, 0, {}]]]}, {"name": "dense_362", "class_name": "Dense", "config": {"name": "dense_362", "trainable": true, "dtype": "float32", "units": 100, "activation": "relu", "use_bias": true, "kernel_initializer": {"class_name": "VarianceScaling", "config": {"scale": 1.0, "mode": "fan_avg", "distribution": "uniform", "seed": null}}, "bias_initializer": {"class_name": "Zeros", "config": {}}, "kernel_regularizer": null, "bias_regularizer": null, "activity_regularizer": null, "kernel_constraint": null, "bias_constraint": null}, "inbound_nodes": [[["concatenate_336", 0, 0, {}]]]}, {"name": "dense_371", "class_name": "Dense", "config": {"name": "dense_371", "trainable": true, "dtype": "float32", "units": 100, "activation": "relu", "use_bias": true, "kernel_initializer": {"class_name": "VarianceScaling", "config": {"scale": 1.0, "mode": "fan_avg", "distribution": "uniform", "seed": null}}, "bias_initializer": {"class_name": "Zeros", "config": {}}, "kernel_regularizer": null, "bias_regularizer": null, "activity_regularizer": null, "kernel_constraint": null, "bias_constraint": null}, "inbound_nodes": [[["concatenate_345", 0, 0, {}]]]}, {"name": "concatenate_304", "class_name": "Concatenate", "config": {"name": "concatenate_304", "trainable": true, "dtype": "float32", "axis": -1}, "inbound_nodes": [[["dense_329", 0, 0, {}], ["dense_306", 0, 0, {}]]]}, {"name": "concatenate_319", "class_name": "Concatenate", "config": {"name": "concatenate_319", "trainable": true, "dtype": "float32", "axis": -1}, "inbound_nodes": [[["dense_344", 0, 0, {}], ["dense_315", 0, 0, {}]]]}, {"name": "concatenate_322", "class_name": "Concatenate", "config": {"name": "concatenate_322", "trainable": true, "dtype": "float32", "axis": -1}, "inbound_nodes": [[["dense_308", 0, 0, {}], ["dense_347", 0, 0, {}]]]}, {"name": "concatenate_331", "class_name": "Concatenate", "config": {"name": "concatenate_331", "trainable": true, "dtype": "float32", "axis": -1}, "inbound_nodes": [[["dense_356", 0, 0, {}], ["dense_315", 0, 0, {}]]]}, {"name": "concatenate_337", "class_name": "Concatenate", "config": {"name": "concatenate_337", "trainable": true, "dtype": "float32", "axis": -1}, "inbound_nodes": [[["dense_362", 0, 0, {}], ["dense_310", 0, 0, {}]]]}, {"name": "concatenate_346", "class_name": "Concatenate", "config": {"name": "concatenate_346", "trainable": true, "dtype": "float32", "axis": -1}, "inbound_nodes": [[["dense_371", 0, 0, {}], ["dense_311", 0, 0, {}]]]}, {"name": "concatenate_372", "class_name": "Concatenate", "config": {"name": "concatenate_372", "trainable": true, "dtype": "float32", "axis": -1}, "inbound_nodes": [[["dense_308", 0, 0, {}], ["dense_312", 0, 0, {}]]]}, {"name": "concatenate_379", "class_name": "Concatenate", "config": {"name": "concatenate_379", "trainable": true, "dtype": "float32", "axis": -1}, "inbound_nodes": [[["dense_308", 0, 0, {}], ["dense_310", 0, 0, {}]]]}, {"name": "dense_330", "class_name": "Dense", "config": {"name": "dense_330", "trainable": true, "dtype": "float32", "units": 100, "activation": "relu", "use_bias": true, "kernel_initializer": {"class_name": "VarianceScaling", "config": {"scale": 1.0, "mode": "fan_avg", "distribution": "uniform", "seed": null}}, "bias_initializer": {"class_name": "Zeros", "config": {}}, "kernel_regularizer": null, "bias_regularizer": null, "activity_regularizer": null, "kernel_constraint": null, "bias_constraint": null}, "inbound_nodes": [[["concatenate_304", 0, 0, {}]]]}, {"name": "dense_345", "class_name": "Dense", "config": {"name": "dense_345", "trainable": true, "dtype": "float32", "units": 100, "activation": "relu", "use_bias": true, "kernel_initializer": {"class_name": "VarianceScaling", "config": {"scale": 1.0, "mode": "fan_avg", "distribution": "uniform", "seed": null}}, "bias_initializer": {"class_name": "Zeros", "config": {}}, "kernel_regularizer": null, "bias_regularizer": null, "activity_regularizer": null, "kernel_constraint": null, "bias_constraint": null}, "inbound_nodes": [[["concatenate_319", 0, 0, {}]]]}, {"name": "dense_348", "class_name": "Dense", "config": {"name": "dense_348", "trainable": true, "dtype": "float32", "units": 100, "activation": "relu", "use_bias": true, "kernel_initializer": {"class_name": "VarianceScaling", "config": {"scale": 1.0, "mode": "fan_avg", "distribution": "uniform", "seed": null}}, "bias_initializer": {"class_name": "Zeros", "config": {}}, "kernel_regularizer": null, "bias_regularizer": null, "activity_regularizer": null, "kernel_constraint": null, "bias_constraint": null}, "inbound_nodes": [[["concatenate_322", 0, 0, {}]]]}, {"name": "dense_357", "class_name": "Dense", "config": {"name": "dense_357", "trainable": true, "dtype": "float32", "units": 100, "activation": "relu", "use_bias": true, "kernel_initializer": {"class_name": "VarianceScaling", "config": {"scale": 1.0, "mode": "fan_avg", "distribution": "uniform", "seed": null}}, "bias_initializer": {"class_name": "Zeros", "config": {}}, "kernel_regularizer": null, "bias_regularizer": null, "activity_regularizer": null, "kernel_constraint": null, "bias_constraint": null}, "inbound_nodes": [[["concatenate_331", 0, 0, {}]]]}, {"name": "dense_363", "class_name": "Dense", "config": {"name": "dense_363", "trainable": true, "dtype": "float32", "units": 100, "activation": "relu", "use_bias": true, "kernel_initializer": {"class_name": "VarianceScaling", "config": {"scale": 1.0, "mode": "fan_avg", "distribution": "uniform", "seed": null}}, "bias_initializer": {"class_name": "Zeros", "config": {}}, "kernel_regularizer": null, "bias_regularizer": null, "activity_regularizer": null, "kernel_constraint": null, "bias_constraint": null}, "inbound_nodes": [[["concatenate_337", 0, 0, {}]]]}, {"name": "dense_372", "class_name": "Dense", "config": {"name": "dense_372", "trainable": true, "dtype": "float32", "units": 100, "activation": "relu", "use_bias": true, "kernel_initializer": {"class_name": "VarianceScaling", "config": {"scale": 1.0, "mode": "fan_avg", "distribution": "uniform", "seed": null}}, "bias_initializer": {"class_name": "Zeros", "config": {}}, "kernel_regularizer": null, "bias_regularizer": null, "activity_regularizer": null, "kernel_constraint": null, "bias_constraint": null}, "inbound_nodes": [[["concatenate_346", 0, 0, {}]]]}, {"name": "dense_398", "class_name": "Dense", "config": {"name": "dense_398", "trainable": true, "dtype": "float32", "units": 100, "activation": "relu", "use_bias": true, "kernel_initializer": {"class_name": "VarianceScaling", "config": {"scale": 1.0, "mode": "fan_avg", "distribution": "uniform", "seed": null}}, "bias_initializer": {"class_name": "Zeros", "config": {}}, "kernel_regularizer": null, "bias_regularizer": null, "activity_regularizer": null, "kernel_constraint": null, "bias_constraint": null}, "inbound_nodes": [[["concatenate_372", 0, 0, {}]]]}, {"name": "dense_405", "class_name": "Dense", "config": {"name": "dense_405", "trainable": true, "dtype": "float32", "units": 100, "activation": "relu", "use_bias": true, "kernel_initializer": {"class_name": "VarianceScaling", "config": {"scale": 1.0, "mode": "fan_avg", "distribution": "uniform", "seed": null}}, "bias_initializer": {"class_name": "Zeros", "config": {}}, "kernel_regularizer": null, "bias_regularizer": null, "activity_regularizer": null, "kernel_constraint": null, "bias_constraint": null}, "inbound_nodes": [[["concatenate_379", 0, 0, {}]]]}, {"name": "concatenate_291", "class_name": "Concatenate", "config": {"name": "concatenate_291", "trainable": true, "dtype": "float32", "axis": -1}, "inbound_nodes": [[["dense_312", 0, 0, {}], ["dense_315", 0, 0, {}]]]}, {"name": "concatenate_305", "class_name": "Concatenate", "config": {"name": "concatenate_305", "trainable": true, "dtype": "float32", "axis": -1}, "inbound_nodes": [[["dense_330", 0, 0, {}], ["dense_308", 0, 0, {}]]]}, {"name": "concatenate_306", "class_name": "Concatenate", "config": {"name": "concatenate_306", "trainable": true, "dtype": "float32", "axis": -1}, "inbound_nodes": [[["dense_308", 0, 0, {}], ["dense_315", 0, 0, {}]]]}, {"name": "concatenate_320", "class_name": "Concatenate", "config": {"name": "concatenate_320", "trainable": true, "dtype": "float32", "axis": -1}, "inbound_nodes": [[["dense_308", 0, 0, {}], ["dense_345", 0, 0, {}]]]}, {"name": "concatenate_323", "class_name": "Concatenate", "config": {"name": "concatenate_323", "trainable": true, "dtype": "float32", "axis": -1}, "inbound_nodes": [[["dense_348", 0, 0, {}], ["dense_315", 0, 0, {}]]]}, {"name": "concatenate_332", "class_name": "Concatenate", "config": {"name": "concatenate_332", "trainable": true, "dtype": "float32", "axis": -1}, "inbound_nodes": [[["dense_357", 0, 0, {}], ["dense_308", 0, 0, {}]]]}, {"name": "concatenate_338", "class_name": "Concatenate", "config": {"name": "concatenate_338", "trainable": true, "dtype": "float32", "axis": -1}, "inbound_nodes": [[["dense_363", 0, 0, {}], ["dense_315", 0, 0, {}]]]}, {"name": "concatenate_347", "class_name": "Concatenate", "config": {"name": "concatenate_347", "trainable": true, "dtype": "float32", "axis": -1}, "inbound_nodes": [[["dense_372", 0, 0, {}], ["dense_310", 0, 0, {}]]]}, {"name": "concatenate_373", "class_name": "Concatenate", "config": {"name": "concatenate_373", "trainable": true, "dtype": "float32", "axis": -1}, "inbound_nodes": [[["dense_312", 0, 0, {}], ["dense_398", 0, 0, {}]]]}, {"name": "concatenate_374", "class_name": "Concatenate", "config": {"name": "concatenate_374", "trainable": true, "dtype": "float32", "axis": -1}, "inbound_nodes": [[["dense_310", 0, 0, {}], ["dense_315", 0, 0, {}]]]}, {"name": "concatenate_380", "class_name": "Concatenate", "config": {"name": "concatenate_380", "trainable": true, "dtype": "float32", "axis": -1}, "inbound_nodes": [[["dense_310", 0, 0, {}], ["dense_405", 0, 0, {}]]]}, {"name": "concatenate_422", "class_name": "Concatenate", "config": {"name": "concatenate_422", "trainable": true, "dtype": "float32", "axis": -1}, "inbound_nodes": [[["dense_312", 0, 0, {}], ["dense_315", 0, 0, {}]]]}, {"name": "concatenate_436", "class_name": "Concatenate", "config": {"name": "concatenate_436", "trainable": true, "dtype": "float32", "axis": -1}, "inbound_nodes": [[["dense_312", 0, 0, {}], ["dense_315", 0, 0, {}]]]}, {"name": "dense_317", "class_name": "Dense", "config": {"name": "dense_317", "trainable": true, "dtype": "float32", "units": 100, "activation": "relu", "use_bias": true, "kernel_initializer": {"class_name": "VarianceScaling", "config": {"scale": 1.0, "mode": "fan_avg", "distribution": "uniform", "seed": null}}, "bias_initializer": {"class_name": "Zeros", "config": {}}, "kernel_regularizer": null, "bias_regularizer": null, "activity_regularizer": null, "kernel_constraint": null, "bias_constraint": null}, "inbound_nodes": [[["concatenate_291", 0, 0, {}]]]}, {"name": "dense_331", "class_name": "Dense", "config": {"name": "dense_331", "trainable": true, "dtype": "float32", "units": 100, "activation": "relu", "use_bias": true, "kernel_initializer": {"class_name": "VarianceScaling", "config": {"scale": 1.0, "mode": "fan_avg", "distribution": "uniform", "seed": null}}, "bias_initializer": {"class_name": "Zeros", "config": {}}, "kernel_regularizer": null, "bias_regularizer": null, "activity_regularizer": null, "kernel_constraint": null, "bias_constraint": null}, "inbound_nodes": [[["concatenate_305", 0, 0, {}]]]}, {"name": "dense_332", "class_name": "Dense", "config": {"name": "dense_332", "trainable": true, "dtype": "float32", "units": 100, "activation": "relu", "use_bias": true, "kernel_initializer": {"class_name": "VarianceScaling", "config": {"scale": 1.0, "mode": "fan_avg", "distribution": "uniform", "seed": null}}, "bias_initializer": {"class_name": "Zeros", "config": {}}, "kernel_regularizer": null, "bias_regularizer": null, "activity_regularizer": null, "kernel_constraint": null, "bias_constraint": null}, "inbound_nodes": [[["concatenate_306", 0, 0, {}]]]}, {"name": "dense_346", "class_name": "Dense", "config": {"name": "dense_346", "trainable": true, "dtype": "float32", "units": 100, "activation": "relu", "use_bias": true, "kernel_initializer": {"class_name": "VarianceScaling", "config": {"scale": 1.0, "mode": "fan_avg", "distribution": "uniform", "seed": null}}, "bias_initializer": {"class_name": "Zeros", "config": {}}, "kernel_regularizer": null, "bias_regularizer": null, "activity_regularizer": null, "kernel_constraint": null, "bias_constraint": null}, "inbound_nodes": [[["concatenate_320", 0, 0, {}]]]}, {"name": "dense_349", "class_name": "Dense", "config": {"name": "dense_349", "trainable": true, "dtype": "float32", "units": 100, "activation": "relu", "use_bias": true, "kernel_initializer": {"class_name": "VarianceScaling", "config": {"scale": 1.0, "mode": "fan_avg", "distribution": "uniform", "seed": null}}, "bias_initializer": {"class_name": "Zeros", "config": {}}, "kernel_regularizer": null, "bias_regularizer": null, "activity_regularizer": null, "kernel_constraint": null, "bias_constraint": null}, "inbound_nodes": [[["concatenate_323", 0, 0, {}]]]}, {"name": "dense_358", "class_name": "Dense", "config": {"name": "dense_358", "trainable": true, "dtype": "float32", "units": 100, "activation": "relu", "use_bias": true, "kernel_initializer": {"class_name": "VarianceScaling", "config": {"scale": 1.0, "mode": "fan_avg", "distribution": "uniform", "seed": null}}, "bias_initializer": {"class_name": "Zeros", "config": {}}, "kernel_regularizer": null, "bias_regularizer": null, "activity_regularizer": null, "kernel_constraint": null, "bias_constraint": null}, "inbound_nodes": [[["concatenate_332", 0, 0, {}]]]}, {"name": "dense_364", "class_name": "Dense", "config": {"name": "dense_364", "trainable": true, "dtype": "float32", "units": 100, "activation": "relu", "use_bias": true, "kernel_initializer": {"class_name": "VarianceScaling", "config": {"scale": 1.0, "mode": "fan_avg", "distribution": "uniform", "seed": null}}, "bias_initializer": {"class_name": "Zeros", "config": {}}, "kernel_regularizer": null, "bias_regularizer": null, "activity_regularizer": null, "kernel_constraint": null, "bias_constraint": null}, "inbound_nodes": [[["concatenate_338", 0, 0, {}]]]}, {"name": "dense_373", "class_name": "Dense", "config": {"name": "dense_373", "trainable": true, "dtype": "float32", "units": 100, "activation": "relu", "use_bias": true, "kernel_initializer": {"class_name": "VarianceScaling", "config": {"scale": 1.0, "mode": "fan_avg", "distribution": "uniform", "seed": null}}, "bias_initializer": {"class_name": "Zeros", "config": {}}, "kernel_regularizer": null, "bias_regularizer": null, "activity_regularizer": null, "kernel_constraint": null, "bias_constraint": null}, "inbound_nodes": [[["concatenate_347", 0, 0, {}]]]}, {"name": "dense_399", "class_name": "Dense", "config": {"name": "dense_399", "trainable": true, "dtype": "float32", "units": 100, "activation": "relu", "use_bias": true, "kernel_initializer": {"class_name": "VarianceScaling", "config": {"scale": 1.0, "mode": "fan_avg", "distribution": "uniform", "seed": null}}, "bias_initializer": {"class_name": "Zeros", "config": {}}, "kernel_regularizer": null, "bias_regularizer": null, "activity_regularizer": null, "kernel_constraint": null, "bias_constraint": null}, "inbound_nodes": [[["concatenate_373", 0, 0, {}]]]}, {"name": "dense_400", "class_name": "Dense", "config": {"name": "dense_400", "trainable": true, "dtype": "float32", "units": 100, "activation": "relu", "use_bias": true, "kernel_initializer": {"class_name": "VarianceScaling", "config": {"scale": 1.0, "mode": "fan_avg", "distribution": "uniform", "seed": null}}, "bias_initializer": {"class_name": "Zeros", "config": {}}, "kernel_regularizer": null, "bias_regularizer": null, "activity_regularizer": null, "kernel_constraint": null, "bias_constraint": null}, "inbound_nodes": [[["concatenate_374", 0, 0, {}]]]}, {"name": "dense_406", "class_name": "Dense", "config": {"name": "dense_406", "trainable": true, "dtype": "float32", "units": 100, "activation": "relu", "use_bias": true, "kernel_initializer": {"class_name": "VarianceScaling", "config": {"scale": 1.0, "mode": "fan_avg", "distribution": "uniform", "seed": null}}, "bias_initializer": {"class_name": "Zeros", "config": {}}, "kernel_regularizer": null, "bias_regularizer": null, "activity_regularizer": null, "kernel_constraint": null, "bias_constraint": null}, "inbound_nodes": [[["concatenate_380", 0, 0, {}]]]}, {"name": "dense_448", "class_name": "Dense", "config": {"name": "dense_448", "trainable": true, "dtype": "float32", "units": 100, "activation": "relu", "use_bias": true, "kernel_initializer": {"class_name": "VarianceScaling", "config": {"scale": 1.0, "mode": "fan_avg", "distribution": "uniform", "seed": null}}, "bias_initializer": {"class_name": "Zeros", "config": {}}, "kernel_regularizer": null, "bias_regularizer": null, "activity_regularizer": null, "kernel_constraint": null, "bias_constraint": null}, "inbound_nodes": [[["concatenate_422", 0, 0, {}]]]}, {"name": "dense_462", "class_name": "Dense", "config": {"name": "dense_462", "trainable": true, "dtype": "float32", "units": 100, "activation": "relu", "use_bias": true, "kernel_initializer": {"class_name": "VarianceScaling", "config": {"scale": 1.0, "mode": "fan_avg", "distribution": "uniform", "seed": null}}, "bias_initializer": {"class_name": "Zeros", "config": {}}, "kernel_regularizer": null, "bias_regularizer": null, "activity_regularizer": null, "kernel_constraint": null, "bias_constraint": null}, "inbound_nodes": [[["concatenate_436", 0, 0, {}]]]}, {"name": "concatenate_292", "class_name": "Concatenate", "config": {"name": "concatenate_292", "trainable": true, "dtype": "float32", "axis": -1}, "inbound_nodes": [[["dense_308", 0, 0, {}], ["dense_317", 0, 0, {}]]]}, {"name": "concatenate_307", "class_name": "Concatenate", "config": {"name": "concatenate_307", "trainable": true, "dtype": "float32", "axis": -1}, "inbound_nodes": [[["dense_331", 0, 0, {}], ["dense_332", 0, 0, {}]]]}, {"name": "concatenate_309", "class_name": "Concatenate", "config": {"name": "concatenate_309", "trainable": true, "dtype": "float32", "axis": -1}, "inbound_nodes": [[["dense_308", 0, 0, {}], ["dense_310", 0, 0, {}]]]}, {"name": "concatenate_324", "class_name": "Concatenate", "config": {"name": "concatenate_324", "trainable": true, "dtype": "float32", "axis": -1}, "inbound_nodes": [[["dense_346", 0, 0, {}], ["dense_349", 0, 0, {}]]]}, {"name": "concatenate_333", "class_name": "Concatenate", "config": {"name": "concatenate_333", "trainable": true, "dtype": "float32", "axis": -1}, "inbound_nodes": [[["dense_358", 0, 0, {}], ["dense_312", 0, 0, {}]]]}, {"name": "concatenate_339", "class_name": "Concatenate", "config": {"name": "concatenate_339", "trainable": true, "dtype": "float32", "axis": -1}, "inbound_nodes": [[["dense_364", 0, 0, {}], ["dense_315", 0, 0, {}]]]}, {"name": "concatenate_348", "class_name": "Concatenate", "config": {"name": "concatenate_348", "trainable": true, "dtype": "float32", "axis": -1}, "inbound_nodes": [[["dense_373", 0, 0, {}], ["dense_308", 0, 0, {}]]]}, {"name": "concatenate_375", "class_name": "Concatenate", "config": {"name": "concatenate_375", "trainable": true, "dtype": "float32", "axis": -1}, "inbound_nodes": [[["dense_399", 0, 0, {}], ["dense_400", 0, 0, {}]]]}, {"name": "concatenate_381", "class_name": "Concatenate", "config": {"name": "concatenate_381", "trainable": true, "dtype": "float32", "axis": -1}, "inbound_nodes": [[["dense_308", 0, 0, {}], ["dense_406", 0, 0, {}]]]}, {"name": "input_16", "class_name": "InputLayer", "config": {"batch_input_shape": [null, 1], "dtype": "float32", "sparse": false, "name": "input_16"}, "inbound_nodes": []}, {"name": "concatenate_407", "class_name": "Concatenate", "config": {"name": "concatenate_407", "trainable": true, "dtype": "float32", "axis": -1}, "inbound_nodes": [[["dense_310", 0, 0, {}], ["dense_308", 0, 0, {}]]]}, {"name": "concatenate_416", "class_name": "Concatenate", "config": {"name": "concatenate_416", "trainable": true, "dtype": "float32", "axis": -1}, "inbound_nodes": [[["dense_310", 0, 0, {}], ["dense_315", 0, 0, {}]]]}, {"name": "concatenate_423", "class_name": "Concatenate", "config": {"name": "concatenate_423", "trainable": true, "dtype": "float32", "axis": -1}, "inbound_nodes": [[["dense_308", 0, 0, {}], ["dense_448", 0, 0, {}]]]}, {"name": "concatenate_437", "class_name": "Concatenate", "config": {"name": "concatenate_437", "trainable": true, "dtype": "float32", "axis": -1}, "inbound_nodes": [[["dense_308", 0, 0, {}], ["dense_462", 0, 0, {}]]]}, {"name": "dense_318", "class_name": "Dense", "config": {"name": "dense_318", "trainable": true, "dtype": "float32", "units": 100, "activation": "relu", "use_bias": true, "kernel_initializer": {"class_name": "VarianceScaling", "config": {"scale": 1.0, "mode": "fan_avg", "distribution": "uniform", "seed": null}}, "bias_initializer": {"class_name": "Zeros", "config": {}}, "kernel_regularizer": null, "bias_regularizer": null, "activity_regularizer": null, "kernel_constraint": null, "bias_constraint": null}, "inbound_nodes": [[["concatenate_292", 0, 0, {}]]]}, {"name": "dense_333", "class_name": "Dense", "config": {"name": "dense_333", "trainable": true, "dtype": "float32", "units": 100, "activation": "relu", "use_bias": true, "kernel_initializer": {"class_name": "VarianceScaling", "config": {"scale": 1.0, "mode": "fan_avg", "distribution": "uniform", "seed": null}}, "bias_initializer": {"class_name": "Zeros", "config": {}}, "kernel_regularizer": null, "bias_regularizer": null, "activity_regularizer": null, "kernel_constraint": null, "bias_constraint": null}, "inbound_nodes": [[["concatenate_307", 0, 0, {}]]]}, {"name": "dense_335", "class_name": "Dense", "config": {"name": "dense_335", "trainable": true, "dtype": "float32", "units": 100, "activation": "relu", "use_bias": true, "kernel_initializer": {"class_name": "VarianceScaling", "config": {"scale": 1.0, "mode": "fan_avg", "distribution": "uniform", "seed": null}}, "bias_initializer": {"class_name": "Zeros", "config": {}}, "kernel_regularizer": null, "bias_regularizer": null, "activity_regularizer": null, "kernel_constraint": null, "bias_constraint": null}, "inbound_nodes": [[["concatenate_309", 0, 0, {}]]]}, {"name": "dense_350", "class_name": "Dense", "config": {"name": "dense_350", "trainable": true, "dtype": "float32", "units": 100, "activation": "relu", "use_bias": true, "kernel_initializer": {"class_name": "VarianceScaling", "config": {"scale": 1.0, "mode": "fan_avg", "distribution": "uniform", "seed": null}}, "bias_initializer": {"class_name": "Zeros", "config": {}}, "kernel_regularizer": null, "bias_regularizer": null, "activity_regularizer": null, "kernel_constraint": null, "bias_constraint": null}, "inbound_nodes": [[["concatenate_324", 0, 0, {}]]]}, {"name": "dense_359", "class_name": "Dense", "config": {"name": "dense_359", "trainable": true, "dtype": "float32", "units": 100, "activation": "relu", "use_bias": true, "kernel_initializer": {"class_name": "VarianceScaling", "config": {"scale": 1.0, "mode": "fan_avg", "distribution": "uniform", "seed": null}}, "bias_initializer": {"class_name": "Zeros", "config": {}}, "kernel_regularizer": null, "bias_regularizer": null, "activity_regularizer": null, "kernel_constraint": null, "bias_constraint": null}, "inbound_nodes": [[["concatenate_333", 0, 0, {}]]]}, {"name": "dense_365", "class_name": "Dense", "config": {"name": "dense_365", "trainable": true, "dtype": "float32", "units": 100, "activation": "relu", "use_bias": true, "kernel_initializer": {"class_name": "VarianceScaling", "config": {"scale": 1.0, "mode": "fan_avg", "distribution": "uniform", "seed": null}}, "bias_initializer": {"class_name": "Zeros", "config": {}}, "kernel_regularizer": null, "bias_regularizer": null, "activity_regularizer": null, "kernel_constraint": null, "bias_constraint": null}, "inbound_nodes": [[["concatenate_339", 0, 0, {}]]]}, {"name": "dense_374", "class_name": "Dense", "config": {"name": "dense_374", "trainable": true, "dtype": "float32", "units": 100, "activation": "relu", "use_bias": true, "kernel_initializer": {"class_name": "VarianceScaling", "config": {"scale": 1.0, "mode": "fan_avg", "distribution": "uniform", "seed": null}}, "bias_initializer": {"class_name": "Zeros", "config": {}}, "kernel_regularizer": null, "bias_regularizer": null, "activity_regularizer": null, "kernel_constraint": null, "bias_constraint": null}, "inbound_nodes": [[["concatenate_348", 0, 0, {}]]]}, {"name": "dense_401", "class_name": "Dense", "config": {"name": "dense_401", "trainable": true, "dtype": "float32", "units": 100, "activation": "relu", "use_bias": true, "kernel_initializer": {"class_name": "VarianceScaling", "config": {"scale": 1.0, "mode": "fan_avg", "distribution": "uniform", "seed": null}}, "bias_initializer": {"class_name": "Zeros", "config": {}}, "kernel_regularizer": null, "bias_regularizer": null, "activity_regularizer": null, "kernel_constraint": null, "bias_constraint": null}, "inbound_nodes": [[["concatenate_375", 0, 0, {}]]]}, {"name": "dense_407", "class_name": "Dense", "config": {"name": "dense_407", "trainable": true, "dtype": "float32", "units": 100, "activation": "relu", "use_bias": true, "kernel_initializer": {"class_name": "VarianceScaling", "config": {"scale": 1.0, "mode": "fan_avg", "distribution": "uniform", "seed": null}}, "bias_initializer": {"class_name": "Zeros", "config": {}}, "kernel_regularizer": null, "bias_regularizer": null, "activity_regularizer": null, "kernel_constraint": null, "bias_constraint": null}, "inbound_nodes": [[["concatenate_381", 0, 0, {}]]]}, {"name": "dense_309", "class_name": "Dense", "config": {"name": "dense_309", "trainable": true, "dtype": "float32", "units": 50, "activation": "relu", "use_bias": true, "kernel_initializer": {"class_name": "VarianceScaling", "config": {"scale": 1.0, "mode": "fan_avg", "distribution": "uniform", "seed": null}}, "bias_initializer": {"class_name": "Zeros", "config": {}}, "kernel_regularizer": null, "bias_regularizer": null, "activity_regularizer": null, "kernel_constraint": null, "bias_constraint": null}, "inbound_nodes": [[["input_16", 0, 0, {}]]]}, {"name": "dense_433", "class_name": "Dense", "config": {"name": "dense_433", "trainable": true, "dtype": "float32", "units": 100, "activation": "relu", "use_bias": true, "kernel_initializer": {"class_name": "VarianceScaling", "config": {"scale": 1.0, "mode": "fan_avg", "distribution": "uniform", "seed": null}}, "bias_initializer": {"class_name": "Zeros", "config": {}}, "kernel_regularizer": null, "bias_regularizer": null, "activity_regularizer": null, "kernel_constraint": null, "bias_constraint": null}, "inbound_nodes": [[["concatenate_407", 0, 0, {}]]]}, {"name": "dense_442", "class_name": "Dense", "config": {"name": "dense_442", "trainable": true, "dtype": "float32", "units": 100, "activation": "relu", "use_bias": true, "kernel_initializer": {"class_name": "VarianceScaling", "config": {"scale": 1.0, "mode": "fan_avg", "distribution": "uniform", "seed": null}}, "bias_initializer": {"class_name": "Zeros", "config": {}}, "kernel_regularizer": null, "bias_regularizer": null, "activity_regularizer": null, "kernel_constraint": null, "bias_constraint": null}, "inbound_nodes": [[["concatenate_416", 0, 0, {}]]]}, {"name": "dense_449", "class_name": "Dense", "config": {"name": "dense_449", "trainable": true, "dtype": "float32", "units": 100, "activation": "relu", "use_bias": true, "kernel_initializer": {"class_name": "VarianceScaling", "config": {"scale": 1.0, "mode": "fan_avg", "distribution": "uniform", "seed": null}}, "bias_initializer": {"class_name": "Zeros", "config": {}}, "kernel_regularizer": null, "bias_regularizer": null, "activity_regularizer": null, "kernel_constraint": null, "bias_constraint": null}, "inbound_nodes": [[["concatenate_423", 0, 0, {}]]]}, {"name": "dense_463", "class_name": "Dense", "config": {"name": "dense_463", "trainable": true, "dtype": "float32", "units": 100, "activation": "relu", "use_bias": true, "kernel_initializer": {"class_name": "VarianceScaling", "config": {"scale": 1.0, "mode": "fan_avg", "distribution": "uniform", "seed": null}}, "bias_initializer": {"class_name": "Zeros", "config": {}}, "kernel_regularizer": null, "bias_regularizer": null, "activity_regularizer": null, "kernel_constraint": null, "bias_constraint": null}, "inbound_nodes": [[["concatenate_437", 0, 0, {}]]]}, {"name": "concatenate_293", "class_name": "Concatenate", "config": {"name": "concatenate_293", "trainable": true, "dtype": "float32", "axis": -1}, "inbound_nodes": [[["dense_318", 0, 0, {}], ["dense_310", 0, 0, {}]]]}, {"name": "concatenate_308", "class_name": "Concatenate", "config": {"name": "concatenate_308", "trainable": true, "dtype": "float32", "axis": -1}, "inbound_nodes": [[["dense_333", 0, 0, {}], ["dense_310", 0, 0, {}]]]}, {"name": "concatenate_310", "class_name": "Concatenate", "config": {"name": "concatenate_310", "trainable": true, "dtype": "float32", "axis": -1}, "inbound_nodes": [[["dense_308", 0, 0, {}], ["dense_335", 0, 0, {}]]]}, {"name": "concatenate_325", "class_name": "Concatenate", "config": {"name": "concatenate_325", "trainable": true, "dtype": "float32", "axis": -1}, "inbound_nodes": [[["dense_350", 0, 0, {}], ["dense_310", 0, 0, {}]]]}, {"name": "concatenate_340", "class_name": "Concatenate", "config": {"name": "concatenate_340", "trainable": true, "dtype": "float32", "axis": -1}, "inbound_nodes": [[["dense_359", 0, 0, {}], ["dense_365", 0, 0, {}]]]}, {"name": "concatenate_349", "class_name": "Concatenate", "config": {"name": "concatenate_349", "trainable": true, "dtype": "float32", "axis": -1}, "inbound_nodes": [[["dense_306", 0, 0, {}], ["dense_374", 0, 0, {}]]]}, {"name": "concatenate_376", "class_name": "Concatenate", "config": {"name": "concatenate_376", "trainable": true, "dtype": "float32", "axis": -1}, "inbound_nodes": [[["dense_401", 0, 0, {}], ["dense_311", 0, 0, {}]]]}, {"name": "concatenate_382", "class_name": "Concatenate", "config": {"name": "concatenate_382", "trainable": true, "dtype": "float32", "axis": -1}, "inbound_nodes": [[["dense_407", 0, 0, {}], ["dense_315", 0, 0, {}]]]}, {"name": "concatenate_408", "class_name": "Concatenate", "config": {"name": "concatenate_408", "trainable": true, "dtype": "float32", "axis": -1}, "inbound_nodes": [[["dense_310", 0, 0, {}], ["dense_433", 0, 0, {}]]]}, {"name": "concatenate_410", "class_name": "Concatenate", "config": {"name": "concatenate_410", "trainable": true, "dtype": "float32", "axis": -1}, "inbound_nodes": [[["dense_311", 0, 0, {}], ["dense_315", 0, 0, {}]]]}, {"name": "concatenate_417", "class_name": "Concatenate", "config": {"name": "concatenate_417", "trainable": true, "dtype": "float32", "axis": -1}, "inbound_nodes": [[["dense_310", 0, 0, {}], ["dense_442", 0, 0, {}]]]}, {"name": "concatenate_421", "class_name": "Concatenate", "config": {"name": "concatenate_421", "trainable": true, "dtype": "float32", "axis": -1}, "inbound_nodes": [[["dense_312", 0, 0, {}], ["dense_311", 0, 0, {}]]]}, {"name": "concatenate_424", "class_name": "Concatenate", "config": {"name": "concatenate_424", "trainable": true, "dtype": "float32", "axis": -1}, "inbound_nodes": [[["dense_449", 0, 0, {}], ["dense_315", 0, 0, {}]]]}, {"name": "concatenate_438", "class_name": "Concatenate", "config": {"name": "concatenate_438", "trainable": true, "dtype": "float32", "axis": -1}, "inbound_nodes": [[["dense_309", 0, 0, {}], ["dense_463", 0, 0, {}]]]}, {"name": "dense_319", "class_name": "Dense", "config": {"name": "dense_319", "trainable": true, "dtype": "float32", "units": 100, "activation": "relu", "use_bias": true, "kernel_initializer": {"class_name": "VarianceScaling", "config": {"scale": 1.0, "mode": "fan_avg", "distribution": "uniform", "seed": null}}, "bias_initializer": {"class_name": "Zeros", "config": {}}, "kernel_regularizer": null, "bias_regularizer": null, "activity_regularizer": null, "kernel_constraint": null, "bias_constraint": null}, "inbound_nodes": [[["concatenate_293", 0, 0, {}]]]}, {"name": "dense_334", "class_name": "Dense", "config": {"name": "dense_334", "trainable": true, "dtype": "float32", "units": 100, "activation": "relu", "use_bias": true, "kernel_initializer": {"class_name": "VarianceScaling", "config": {"scale": 1.0, "mode": "fan_avg", "distribution": "uniform", "seed": null}}, "bias_initializer": {"class_name": "Zeros", "config": {}}, "kernel_regularizer": null, "bias_regularizer": null, "activity_regularizer": null, "kernel_constraint": null, "bias_constraint": null}, "inbound_nodes": [[["concatenate_308", 0, 0, {}]]]}, {"name": "dense_336", "class_name": "Dense", "config": {"name": "dense_336", "trainable": true, "dtype": "float32", "units": 100, "activation": "relu", "use_bias": true, "kernel_initializer": {"class_name": "VarianceScaling", "config": {"scale": 1.0, "mode": "fan_avg", "distribution": "uniform", "seed": null}}, "bias_initializer": {"class_name": "Zeros", "config": {}}, "kernel_regularizer": null, "bias_regularizer": null, "activity_regularizer": null, "kernel_constraint": null, "bias_constraint": null}, "inbound_nodes": [[["concatenate_310", 0, 0, {}]]]}, {"name": "dense_351", "class_name": "Dense", "config": {"name": "dense_351", "trainable": true, "dtype": "float32", "units": 100, "activation": "relu", "use_bias": true, "kernel_initializer": {"class_name": "VarianceScaling", "config": {"scale": 1.0, "mode": "fan_avg", "distribution": "uniform", "seed": null}}, "bias_initializer": {"class_name": "Zeros", "config": {}}, "kernel_regularizer": null, "bias_regularizer": null, "activity_regularizer": null, "kernel_constraint": null, "bias_constraint": null}, "inbound_nodes": [[["concatenate_325", 0, 0, {}]]]}, {"name": "dense_366", "class_name": "Dense", "config": {"name": "dense_366", "trainable": true, "dtype": "float32", "units": 100, "activation": "relu", "use_bias": true, "kernel_initializer": {"class_name": "VarianceScaling", "config": {"scale": 1.0, "mode": "fan_avg", "distribution": "uniform", "seed": null}}, "bias_initializer": {"class_name": "Zeros", "config": {}}, "kernel_regularizer": null, "bias_regularizer": null, "activity_regularizer": null, "kernel_constraint": null, "bias_constraint": null}, "inbound_nodes": [[["concatenate_340", 0, 0, {}]]]}, {"name": "dense_375", "class_name": "Dense", "config": {"name": "dense_375", "trainable": true, "dtype": "float32", "units": 100, "activation": "relu", "use_bias": true, "kernel_initializer": {"class_name": "VarianceScaling", "config": {"scale": 1.0, "mode": "fan_avg", "distribution": "uniform", "seed": null}}, "bias_initializer": {"class_name": "Zeros", "config": {}}, "kernel_regularizer": null, "bias_regularizer": null, "activity_regularizer": null, "kernel_constraint": null, "bias_constraint": null}, "inbound_nodes": [[["concatenate_349", 0, 0, {}]]]}, {"name": "dense_402", "class_name": "Dense", "config": {"name": "dense_402", "trainable": true, "dtype": "float32", "units": 100, "activation": "relu", "use_bias": true, "kernel_initializer": {"class_name": "VarianceScaling", "config": {"scale": 1.0, "mode": "fan_avg", "distribution": "uniform", "seed": null}}, "bias_initializer": {"class_name": "Zeros", "config": {}}, "kernel_regularizer": null, "bias_regularizer": null, "activity_regularizer": null, "kernel_constraint": null, "bias_constraint": null}, "inbound_nodes": [[["concatenate_376", 0, 0, {}]]]}, {"name": "dense_408", "class_name": "Dense", "config": {"name": "dense_408", "trainable": true, "dtype": "float32", "units": 100, "activation": "relu", "use_bias": true, "kernel_initializer": {"class_name": "VarianceScaling", "config": {"scale": 1.0, "mode": "fan_avg", "distribution": "uniform", "seed": null}}, "bias_initializer": {"class_name": "Zeros", "config": {}}, "kernel_regularizer": null, "bias_regularizer": null, "activity_regularizer": null, "kernel_constraint": null, "bias_constraint": null}, "inbound_nodes": [[["concatenate_382", 0, 0, {}]]]}, {"name": "dense_434", "class_name": "Dense", "config": {"name": "dense_434", "trainable": true, "dtype": "float32", "units": 100, "activation": "relu", "use_bias": true, "kernel_initializer": {"class_name": "VarianceScaling", "config": {"scale": 1.0, "mode": "fan_avg", "distribution": "uniform", "seed": null}}, "bias_initializer": {"class_name": "Zeros", "config": {}}, "kernel_regularizer": null, "bias_regularizer": null, "activity_regularizer": null, "kernel_constraint": null, "bias_constraint": null}, "inbound_nodes": [[["concatenate_408", 0, 0, {}]]]}, {"name": "dense_436", "class_name": "Dense", "config": {"name": "dense_436", "trainable": true, "dtype": "float32", "units": 100, "activation": "relu", "use_bias": true, "kernel_initializer": {"class_name": "VarianceScaling", "config": {"scale": 1.0, "mode": "fan_avg", "distribution": "uniform", "seed": null}}, "bias_initializer": {"class_name": "Zeros", "config": {}}, "kernel_regularizer": null, "bias_regularizer": null, "activity_regularizer": null, "kernel_constraint": null, "bias_constraint": null}, "inbound_nodes": [[["concatenate_410", 0, 0, {}]]]}, {"name": "dense_443", "class_name": "Dense", "config": {"name": "dense_443", "trainable": true, "dtype": "float32", "units": 100, "activation": "relu", "use_bias": true, "kernel_initializer": {"class_name": "VarianceScaling", "config": {"scale": 1.0, "mode": "fan_avg", "distribution": "uniform", "seed": null}}, "bias_initializer": {"class_name": "Zeros", "config": {}}, "kernel_regularizer": null, "bias_regularizer": null, "activity_regularizer": null, "kernel_constraint": null, "bias_constraint": null}, "inbound_nodes": [[["concatenate_417", 0, 0, {}]]]}, {"name": "dense_447", "class_name": "Dense", "config": {"name": "dense_447", "trainable": true, "dtype": "float32", "units": 100, "activation": "relu", "use_bias": true, "kernel_initializer": {"class_name": "VarianceScaling", "config": {"scale": 1.0, "mode": "fan_avg", "distribution": "uniform", "seed": null}}, "bias_initializer": {"class_name": "Zeros", "config": {}}, "kernel_regularizer": null, "bias_regularizer": null, "activity_regularizer": null, "kernel_constraint": null, "bias_constraint": null}, "inbound_nodes": [[["concatenate_421", 0, 0, {}]]]}, {"name": "dense_450", "class_name": "Dense", "config": {"name": "dense_450", "trainable": true, "dtype": "float32", "units": 100, "activation": "relu", "use_bias": true, "kernel_initializer": {"class_name": "VarianceScaling", "config": {"scale": 1.0, "mode": "fan_avg", "distribution": "uniform", "seed": null}}, "bias_initializer": {"class_name": "Zeros", "config": {}}, "kernel_regularizer": null, "bias_regularizer": null, "activity_regularizer": null, "kernel_constraint": null, "bias_constraint": null}, "inbound_nodes": [[["concatenate_424", 0, 0, {}]]]}, {"name": "dense_464", "class_name": "Dense", "config": {"name": "dense_464", "trainable": true, "dtype": "float32", "units": 100, "activation": "relu", "use_bias": true, "kernel_initializer": {"class_name": "VarianceScaling", "config": {"scale": 1.0, "mode": "fan_avg", "distribution": "uniform", "seed": null}}, "bias_initializer": {"class_name": "Zeros", "config": {}}, "kernel_regularizer": null, "bias_regularizer": null, "activity_regularizer": null, "kernel_constraint": null, "bias_constraint": null}, "inbound_nodes": [[["concatenate_438", 0, 0, {}]]]}, {"name": "concatenate_294", "class_name": "Concatenate", "config": {"name": "concatenate_294", "trainable": true, "dtype": "float32", "axis": -1}, "inbound_nodes": [[["dense_319", 0, 0, {}], ["dense_310", 0, 0, {}]]]}, {"name": "concatenate_311", "class_name": "Concatenate", "config": {"name": "concatenate_311", "trainable": true, "dtype": "float32", "axis": -1}, "inbound_nodes": [[["dense_334", 0, 0, {}], ["dense_336", 0, 0, {}]]]}, {"name": "input_21", "class_name": "InputLayer", "config": {"batch_input_shape": [null, 1], "dtype": "float32", "sparse": false, "name": "input_21"}, "inbound_nodes": []}, {"name": "concatenate_326", "class_name": "Concatenate", "config": {"name": "concatenate_326", "trainable": true, "dtype": "float32", "axis": -1}, "inbound_nodes": [[["dense_310", 0, 0, {}], ["dense_351", 0, 0, {}]]]}, {"name": "concatenate_341", "class_name": "Concatenate", "config": {"name": "concatenate_341", "trainable": true, "dtype": "float32", "axis": -1}, "inbound_nodes": [[["dense_366", 0, 0, {}], ["dense_310", 0, 0, {}]]]}, {"name": "concatenate_350", "class_name": "Concatenate", "config": {"name": "concatenate_350", "trainable": true, "dtype": "float32", "axis": -1}, "inbound_nodes": [[["dense_375", 0, 0, {}], ["dense_312", 0, 0, {}]]]}, {"name": "concatenate_377", "class_name": "Concatenate", "config": {"name": "concatenate_377", "trainable": true, "dtype": "float32", "axis": -1}, "inbound_nodes": [[["dense_402", 0, 0, {}], ["dense_315", 0, 0, {}]]]}, {"name": "concatenate_383", "class_name": "Concatenate", "config": {"name": "concatenate_383", "trainable": true, "dtype": "float32", "axis": -1}, "inbound_nodes": [[["dense_310", 0, 0, {}], ["dense_408", 0, 0, {}]]]}, {"name": "concatenate_409", "class_name": "Concatenate", "config": {"name": "concatenate_409", "trainable": true, "dtype": "float32", "axis": -1}, "inbound_nodes": [[["dense_434", 0, 0, {}], ["dense_315", 0, 0, {}]]]}, {"name": "concatenate_411", "class_name": "Concatenate", "config": {"name": "concatenate_411", "trainable": true, "dtype": "float32", "axis": -1}, "inbound_nodes": [[["dense_310", 0, 0, {}], ["dense_436", 0, 0, {}]]]}, {"name": "concatenate_418", "class_name": "Concatenate", "config": {"name": "concatenate_418", "trainable": true, "dtype": "float32", "axis": -1}, "inbound_nodes": [[["dense_443", 0, 0, {}], ["dense_310", 0, 0, {}]]]}, {"name": "concatenate_425", "class_name": "Concatenate", "config": {"name": "concatenate_425", "trainable": true, "dtype": "float32", "axis": -1}, "inbound_nodes": [[["dense_447", 0, 0, {}], ["dense_450", 0, 0, {}]]]}, {"name": "concatenate_439", "class_name": "Concatenate", "config": {"name": "concatenate_439", "trainable": true, "dtype": "float32", "axis": -1}, "inbound_nodes": [[["dense_464", 0, 0, {}], ["dense_312", 0, 0, {}]]]}, {"name": "dense_320", "class_name": "Dense", "config": {"name": "dense_320", "trainable": true, "dtype": "float32", "units": 100, "activation": "relu", "use_bias": true, "kernel_initializer": {"class_name": "VarianceScaling", "config": {"scale": 1.0, "mode": "fan_avg", "distribution": "uniform", "seed": null}}, "bias_initializer": {"class_name": "Zeros", "config": {}}, "kernel_regularizer": null, "bias_regularizer": null, "activity_regularizer": null, "kernel_constraint": null, "bias_constraint": null}, "inbound_nodes": [[["concatenate_294", 0, 0, {}]]]}, {"name": "dense_337", "class_name": "Dense", "config": {"name": "dense_337", "trainable": true, "dtype": "float32", "units": 100, "activation": "relu", "use_bias": true, "kernel_initializer": {"class_name": "VarianceScaling", "config": {"scale": 1.0, "mode": "fan_avg", "distribution": "uniform", "seed": null}}, "bias_initializer": {"class_name": "Zeros", "config": {}}, "kernel_regularizer": null, "bias_regularizer": null, "activity_regularizer": null, "kernel_constraint": null, "bias_constraint": null}, "inbound_nodes": [[["concatenate_311", 0, 0, {}]]]}, {"name": "dense_314", "class_name": "Dense", "config": {"name": "dense_314", "trainable": true, "dtype": "float32", "units": 50, "activation": "relu", "use_bias": true, "kernel_initializer": {"class_name": "VarianceScaling", "config": {"scale": 1.0, "mode": "fan_avg", "distribution": "uniform", "seed": null}}, "bias_initializer": {"class_name": "Zeros", "config": {}}, "kernel_regularizer": null, "bias_regularizer": null, "activity_regularizer": null, "kernel_constraint": null, "bias_constraint": null}, "inbound_nodes": [[["input_21", 0, 0, {}]]]}, {"name": "dense_352", "class_name": "Dense", "config": {"name": "dense_352", "trainable": true, "dtype": "float32", "units": 100, "activation": "relu", "use_bias": true, "kernel_initializer": {"class_name": "VarianceScaling", "config": {"scale": 1.0, "mode": "fan_avg", "distribution": "uniform", "seed": null}}, "bias_initializer": {"class_name": "Zeros", "config": {}}, "kernel_regularizer": null, "bias_regularizer": null, "activity_regularizer": null, "kernel_constraint": null, "bias_constraint": null}, "inbound_nodes": [[["concatenate_326", 0, 0, {}]]]}, {"name": "dense_367", "class_name": "Dense", "config": {"name": "dense_367", "trainable": true, "dtype": "float32", "units": 100, "activation": "relu", "use_bias": true, "kernel_initializer": {"class_name": "VarianceScaling", "config": {"scale": 1.0, "mode": "fan_avg", "distribution": "uniform", "seed": null}}, "bias_initializer": {"class_name": "Zeros", "config": {}}, "kernel_regularizer": null, "bias_regularizer": null, "activity_regularizer": null, "kernel_constraint": null, "bias_constraint": null}, "inbound_nodes": [[["concatenate_341", 0, 0, {}]]]}, {"name": "dense_376", "class_name": "Dense", "config": {"name": "dense_376", "trainable": true, "dtype": "float32", "units": 100, "activation": "relu", "use_bias": true, "kernel_initializer": {"class_name": "VarianceScaling", "config": {"scale": 1.0, "mode": "fan_avg", "distribution": "uniform", "seed": null}}, "bias_initializer": {"class_name": "Zeros", "config": {}}, "kernel_regularizer": null, "bias_regularizer": null, "activity_regularizer": null, "kernel_constraint": null, "bias_constraint": null}, "inbound_nodes": [[["concatenate_350", 0, 0, {}]]]}, {"name": "dense_403", "class_name": "Dense", "config": {"name": "dense_403", "trainable": true, "dtype": "float32", "units": 100, "activation": "relu", "use_bias": true, "kernel_initializer": {"class_name": "VarianceScaling", "config": {"scale": 1.0, "mode": "fan_avg", "distribution": "uniform", "seed": null}}, "bias_initializer": {"class_name": "Zeros", "config": {}}, "kernel_regularizer": null, "bias_regularizer": null, "activity_regularizer": null, "kernel_constraint": null, "bias_constraint": null}, "inbound_nodes": [[["concatenate_377", 0, 0, {}]]]}, {"name": "dense_409", "class_name": "Dense", "config": {"name": "dense_409", "trainable": true, "dtype": "float32", "units": 100, "activation": "relu", "use_bias": true, "kernel_initializer": {"class_name": "VarianceScaling", "config": {"scale": 1.0, "mode": "fan_avg", "distribution": "uniform", "seed": null}}, "bias_initializer": {"class_name": "Zeros", "config": {}}, "kernel_regularizer": null, "bias_regularizer": null, "activity_regularizer": null, "kernel_constraint": null, "bias_constraint": null}, "inbound_nodes": [[["concatenate_383", 0, 0, {}]]]}, {"name": "dense_435", "class_name": "Dense", "config": {"name": "dense_435", "trainable": true, "dtype": "float32", "units": 100, "activation": "relu", "use_bias": true, "kernel_initializer": {"class_name": "VarianceScaling", "config": {"scale": 1.0, "mode": "fan_avg", "distribution": "uniform", "seed": null}}, "bias_initializer": {"class_name": "Zeros", "config": {}}, "kernel_regularizer": null, "bias_regularizer": null, "activity_regularizer": null, "kernel_constraint": null, "bias_constraint": null}, "inbound_nodes": [[["concatenate_409", 0, 0, {}]]]}, {"name": "dense_437", "class_name": "Dense", "config": {"name": "dense_437", "trainable": true, "dtype": "float32", "units": 100, "activation": "relu", "use_bias": true, "kernel_initializer": {"class_name": "VarianceScaling", "config": {"scale": 1.0, "mode": "fan_avg", "distribution": "uniform", "seed": null}}, "bias_initializer": {"class_name": "Zeros", "config": {}}, "kernel_regularizer": null, "bias_regularizer": null, "activity_regularizer": null, "kernel_constraint": null, "bias_constraint": null}, "inbound_nodes": [[["concatenate_411", 0, 0, {}]]]}, {"name": "dense_444", "class_name": "Dense", "config": {"name": "dense_444", "trainable": true, "dtype": "float32", "units": 100, "activation": "relu", "use_bias": true, "kernel_initializer": {"class_name": "VarianceScaling", "config": {"scale": 1.0, "mode": "fan_avg", "distribution": "uniform", "seed": null}}, "bias_initializer": {"class_name": "Zeros", "config": {}}, "kernel_regularizer": null, "bias_regularizer": null, "activity_regularizer": null, "kernel_constraint": null, "bias_constraint": null}, "inbound_nodes": [[["concatenate_418", 0, 0, {}]]]}, {"name": "dense_451", "class_name": "Dense", "config": {"name": "dense_451", "trainable": true, "dtype": "float32", "units": 100, "activation": "relu", "use_bias": true, "kernel_initializer": {"class_name": "VarianceScaling", "config": {"scale": 1.0, "mode": "fan_avg", "distribution": "uniform", "seed": null}}, "bias_initializer": {"class_name": "Zeros", "config": {}}, "kernel_regularizer": null, "bias_regularizer": null, "activity_regularizer": null, "kernel_constraint": null, "bias_constraint": null}, "inbound_nodes": [[["concatenate_425", 0, 0, {}]]]}, {"name": "dense_465", "class_name": "Dense", "config": {"name": "dense_465", "trainable": true, "dtype": "float32", "units": 100, "activation": "relu", "use_bias": true, "kernel_initializer": {"class_name": "VarianceScaling", "config": {"scale": 1.0, "mode": "fan_avg", "distribution": "uniform", "seed": null}}, "bias_initializer": {"class_name": "Zeros", "config": {}}, "kernel_regularizer": null, "bias_regularizer": null, "activity_regularizer": null, "kernel_constraint": null, "bias_constraint": null}, "inbound_nodes": [[["concatenate_439", 0, 0, {}]]]}, {"name": "concatenate_295", "class_name": "Concatenate", "config": {"name": "concatenate_295", "trainable": true, "dtype": "float32", "axis": -1}, "inbound_nodes": [[["dense_320", 0, 0, {}], ["dense_315", 0, 0, {}]]]}, {"name": "concatenate_299", "class_name": "Concatenate", "config": {"name": "concatenate_299", "trainable": true, "dtype": "float32", "axis": -1}, "inbound_nodes": [[["dense_308", 0, 0, {}], ["dense_315", 0, 0, {}]]]}, {"name": "concatenate_312", "class_name": "Concatenate", "config": {"name": "concatenate_312", "trainable": true, "dtype": "float32", "axis": -1}, "inbound_nodes": [[["dense_337", 0, 0, {}], ["dense_314", 0, 0, {}]]]}, {"name": "concatenate_327", "class_name": "Concatenate", "config": {"name": "concatenate_327", "trainable": true, "dtype": "float32", "axis": -1}, "inbound_nodes": [[["dense_352", 0, 0, {}], ["dense_310", 0, 0, {}]]]}, {"name": "concatenate_351", "class_name": "Concatenate", "config": {"name": "concatenate_351", "trainable": true, "dtype": "float32", "axis": -1}, "inbound_nodes": [[["dense_367", 0, 0, {}], ["dense_376", 0, 0, {}]]]}, {"name": "concatenate_378", "class_name": "Concatenate", "config": {"name": "concatenate_378", "trainable": true, "dtype": "float32", "axis": -1}, "inbound_nodes": [[["dense_403", 0, 0, {}], ["dense_315", 0, 0, {}]]]}, {"name": "concatenate_384", "class_name": "Concatenate", "config": {"name": "concatenate_384", "trainable": true, "dtype": "float32", "axis": -1}, "inbound_nodes": [[["dense_409", 0, 0, {}], ["dense_315", 0, 0, {}]]]}, {"name": "concatenate_405", "class_name": "Concatenate", "config": {"name": "concatenate_405", "trainable": true, "dtype": "float32", "axis": -1}, "inbound_nodes": [[["dense_308", 0, 0, {}], ["dense_315", 0, 0, {}]]]}, {"name": "concatenate_412", "class_name": "Concatenate", "config": {"name": "concatenate_412", "trainable": true, "dtype": "float32", "axis": -1}, "inbound_nodes": [[["dense_435", 0, 0, {}], ["dense_437", 0, 0, {}]]]}, {"name": "concatenate_419", "class_name": "Concatenate", "config": {"name": "concatenate_419", "trainable": true, "dtype": "float32", "axis": -1}, "inbound_nodes": [[["dense_444", 0, 0, {}], ["dense_315", 0, 0, {}]]]}, {"name": "concatenate_426", "class_name": "Concatenate", "config": {"name": "concatenate_426", "trainable": true, "dtype": "float32", "axis": -1}, "inbound_nodes": [[["dense_451", 0, 0, {}], ["dense_310", 0, 0, {}]]]}, {"name": "concatenate_440", "class_name": "Concatenate", "config": {"name": "concatenate_440", "trainable": true, "dtype": "float32", "axis": -1}, "inbound_nodes": [[["dense_312", 0, 0, {}], ["dense_465", 0, 0, {}]]]}, {"name": "input_23", "class_name": "InputLayer", "config": {"batch_input_shape": [null, 1], "dtype": "float32", "sparse": false, "name": "input_23"}, "inbound_nodes": []}, {"name": "dense_321", "class_name": "Dense", "config": {"name": "dense_321", "trainable": true, "dtype": "float32", "units": 100, "activation": "relu", "use_bias": true, "kernel_initializer": {"class_name": "VarianceScaling", "config": {"scale": 1.0, "mode": "fan_avg", "distribution": "uniform", "seed": null}}, "bias_initializer": {"class_name": "Zeros", "config": {}}, "kernel_regularizer": null, "bias_regularizer": null, "activity_regularizer": null, "kernel_constraint": null, "bias_constraint": null}, "inbound_nodes": [[["concatenate_295", 0, 0, {}]]]}, {"name": "dense_325", "class_name": "Dense", "config": {"name": "dense_325", "trainable": true, "dtype": "float32", "units": 100, "activation": "relu", "use_bias": true, "kernel_initializer": {"class_name": "VarianceScaling", "config": {"scale": 1.0, "mode": "fan_avg", "distribution": "uniform", "seed": null}}, "bias_initializer": {"class_name": "Zeros", "config": {}}, "kernel_regularizer": null, "bias_regularizer": null, "activity_regularizer": null, "kernel_constraint": null, "bias_constraint": null}, "inbound_nodes": [[["concatenate_299", 0, 0, {}]]]}, {"name": "dense_338", "class_name": "Dense", "config": {"name": "dense_338", "trainable": true, "dtype": "float32", "units": 100, "activation": "relu", "use_bias": true, "kernel_initializer": {"class_name": "VarianceScaling", "config": {"scale": 1.0, "mode": "fan_avg", "distribution": "uniform", "seed": null}}, "bias_initializer": {"class_name": "Zeros", "config": {}}, "kernel_regularizer": null, "bias_regularizer": null, "activity_regularizer": null, "kernel_constraint": null, "bias_constraint": null}, "inbound_nodes": [[["concatenate_312", 0, 0, {}]]]}, {"name": "dense_353", "class_name": "Dense", "config": {"name": "dense_353", "trainable": true, "dtype": "float32", "units": 100, "activation": "relu", "use_bias": true, "kernel_initializer": {"class_name": "VarianceScaling", "config": {"scale": 1.0, "mode": "fan_avg", "distribution": "uniform", "seed": null}}, "bias_initializer": {"class_name": "Zeros", "config": {}}, "kernel_regularizer": null, "bias_regularizer": null, "activity_regularizer": null, "kernel_constraint": null, "bias_constraint": null}, "inbound_nodes": [[["concatenate_327", 0, 0, {}]]]}, {"name": "dense_377", "class_name": "Dense", "config": {"name": "dense_377", "trainable": true, "dtype": "float32", "units": 100, "activation": "relu", "use_bias": true, "kernel_initializer": {"class_name": "VarianceScaling", "config": {"scale": 1.0, "mode": "fan_avg", "distribution": "uniform", "seed": null}}, "bias_initializer": {"class_name": "Zeros", "config": {}}, "kernel_regularizer": null, "bias_regularizer": null, "activity_regularizer": null, "kernel_constraint": null, "bias_constraint": null}, "inbound_nodes": [[["concatenate_351", 0, 0, {}]]]}, {"name": "dense_404", "class_name": "Dense", "config": {"name": "dense_404", "trainable": true, "dtype": "float32", "units": 100, "activation": "relu", "use_bias": true, "kernel_initializer": {"class_name": "VarianceScaling", "config": {"scale": 1.0, "mode": "fan_avg", "distribution": "uniform", "seed": null}}, "bias_initializer": {"class_name": "Zeros", "config": {}}, "kernel_regularizer": null, "bias_regularizer": null, "activity_regularizer": null, "kernel_constraint": null, "bias_constraint": null}, "inbound_nodes": [[["concatenate_378", 0, 0, {}]]]}, {"name": "dense_410", "class_name": "Dense", "config": {"name": "dense_410", "trainable": true, "dtype": "float32", "units": 100, "activation": "relu", "use_bias": true, "kernel_initializer": {"class_name": "VarianceScaling", "config": {"scale": 1.0, "mode": "fan_avg", "distribution": "uniform", "seed": null}}, "bias_initializer": {"class_name": "Zeros", "config": {}}, "kernel_regularizer": null, "bias_regularizer": null, "activity_regularizer": null, "kernel_constraint": null, "bias_constraint": null}, "inbound_nodes": [[["concatenate_384", 0, 0, {}]]]}, {"name": "dense_431", "class_name": "Dense", "config": {"name": "dense_431", "trainable": true, "dtype": "float32", "units": 100, "activation": "relu", "use_bias": true, "kernel_initializer": {"class_name": "VarianceScaling", "config": {"scale": 1.0, "mode": "fan_avg", "distribution": "uniform", "seed": null}}, "bias_initializer": {"class_name": "Zeros", "config": {}}, "kernel_regularizer": null, "bias_regularizer": null, "activity_regularizer": null, "kernel_constraint": null, "bias_constraint": null}, "inbound_nodes": [[["concatenate_405", 0, 0, {}]]]}, {"name": "dense_438", "class_name": "Dense", "config": {"name": "dense_438", "trainable": true, "dtype": "float32", "units": 100, "activation": "relu", "use_bias": true, "kernel_initializer": {"class_name": "VarianceScaling", "config": {"scale": 1.0, "mode": "fan_avg", "distribution": "uniform", "seed": null}}, "bias_initializer": {"class_name": "Zeros", "config": {}}, "kernel_regularizer": null, "bias_regularizer": null, "activity_regularizer": null, "kernel_constraint": null, "bias_constraint": null}, "inbound_nodes": [[["concatenate_412", 0, 0, {}]]]}, {"name": "dense_445", "class_name": "Dense", "config": {"name": "dense_445", "trainable": true, "dtype": "float32", "units": 100, "activation": "relu", "use_bias": true, "kernel_initializer": {"class_name": "VarianceScaling", "config": {"scale": 1.0, "mode": "fan_avg", "distribution": "uniform", "seed": null}}, "bias_initializer": {"class_name": "Zeros", "config": {}}, "kernel_regularizer": null, "bias_regularizer": null, "activity_regularizer": null, "kernel_constraint": null, "bias_constraint": null}, "inbound_nodes": [[["concatenate_419", 0, 0, {}]]]}, {"name": "dense_452", "class_name": "Dense", "config": {"name": "dense_452", "trainable": true, "dtype": "float32", "units": 100, "activation": "relu", "use_bias": true, "kernel_initializer": {"class_name": "VarianceScaling", "config": {"scale": 1.0, "mode": "fan_avg", "distribution": "uniform", "seed": null}}, "bias_initializer": {"class_name": "Zeros", "config": {}}, "kernel_regularizer": null, "bias_regularizer": null, "activity_regularizer": null, "kernel_constraint": null, "bias_constraint": null}, "inbound_nodes": [[["concatenate_426", 0, 0, {}]]]}, {"name": "dense_466", "class_name": "Dense", "config": {"name": "dense_466", "trainable": true, "dtype": "float32", "units": 100, "activation": "relu", "use_bias": true, "kernel_initializer": {"class_name": "VarianceScaling", "config": {"scale": 1.0, "mode": "fan_avg", "distribution": "uniform", "seed": null}}, "bias_initializer": {"class_name": "Zeros", "config": {}}, "kernel_regularizer": null, "bias_regularizer": null, "activity_regularizer": null, "kernel_constraint": null, "bias_constraint": null}, "inbound_nodes": [[["concatenate_440", 0, 0, {}]]]}, {"name": "dense_316", "class_name": "Dense", "config": {"name": "dense_316", "trainable": true, "dtype": "float32", "units": 50, "activation": "relu", "use_bias": true, "kernel_initializer": {"class_name": "VarianceScaling", "config": {"scale": 1.0, "mode": "fan_avg", "distribution": "uniform", "seed": null}}, "bias_initializer": {"class_name": "Zeros", "config": {}}, "kernel_regularizer": null, "bias_regularizer": null, "activity_regularizer": null, "kernel_constraint": null, "bias_constraint": null}, "inbound_nodes": [[["input_23", 0, 0, {}]]]}, {"name": "concatenate_296", "class_name": "Concatenate", "config": {"name": "concatenate_296", "trainable": true, "dtype": "float32", "axis": -1}, "inbound_nodes": [[["dense_311", 0, 0, {}], ["dense_321", 0, 0, {}]]]}, {"name": "concatenate_300", "class_name": "Concatenate", "config": {"name": "concatenate_300", "trainable": true, "dtype": "float32", "axis": -1}, "inbound_nodes": [[["dense_308", 0, 0, {}], ["dense_325", 0, 0, {}]]]}, {"name": "concatenate_313", "class_name": "Concatenate", "config": {"name": "concatenate_313", "trainable": true, "dtype": "float32", "axis": -1}, "inbound_nodes": [[["dense_338", 0, 0, {}], ["dense_315", 0, 0, {}]]]}, {"name": "concatenate_328", "class_name": "Concatenate", "config": {"name": "concatenate_328", "trainable": true, "dtype": "float32", "axis": -1}, "inbound_nodes": [[["dense_353", 0, 0, {}], ["dense_311", 0, 0, {}]]]}, {"name": "concatenate_352", "class_name": "Concatenate", "config": {"name": "concatenate_352", "trainable": true, "dtype": "float32", "axis": -1}, "inbound_nodes": [[["dense_377", 0, 0, {}], ["dense_310", 0, 0, {}]]]}, {"name": "concatenate_385", "class_name": "Concatenate", "config": {"name": "concatenate_385", "trainable": true, "dtype": "float32", "axis": -1}, "inbound_nodes": [[["dense_404", 0, 0, {}], ["dense_410", 0, 0, {}]]]}, {"name": "concatenate_388", "class_name": "Concatenate", "config": {"name": "concatenate_388", "trainable": true, "dtype": "float32", "axis": -1}, "inbound_nodes": [[["dense_308", 0, 0, {}], ["dense_309", 0, 0, {}]]]}, {"name": "concatenate_406", "class_name": "Concatenate", "config": {"name": "concatenate_406", "trainable": true, "dtype": "float32", "axis": -1}, "inbound_nodes": [[["dense_312", 0, 0, {}], ["dense_431", 0, 0, {}]]]}, {"name": "concatenate_413", "class_name": "Concatenate", "config": {"name": "concatenate_413", "trainable": true, "dtype": "float32", "axis": -1}, "inbound_nodes": [[["dense_438", 0, 0, {}], ["dense_311", 0, 0, {}]]]}, {"name": "concatenate_420", "class_name": "Concatenate", "config": {"name": "concatenate_420", "trainable": true, "dtype": "float32", "axis": -1}, "inbound_nodes": [[["dense_445", 0, 0, {}], ["dense_315", 0, 0, {}]]]}, {"name": "concatenate_427", "class_name": "Concatenate", "config": {"name": "concatenate_427", "trainable": true, "dtype": "float32", "axis": -1}, "inbound_nodes": [[["dense_310", 0, 0, {}], ["dense_452", 0, 0, {}]]]}, {"name": "concatenate_441", "class_name": "Concatenate", "config": {"name": "concatenate_441", "trainable": true, "dtype": "float32", "axis": -1}, "inbound_nodes": [[["dense_466", 0, 0, {}], ["dense_316", 0, 0, {}]]]}, {"name": "dense_322", "class_name": "Dense", "config": {"name": "dense_322", "trainable": true, "dtype": "float32", "units": 100, "activation": "relu", "use_bias": true, "kernel_initializer": {"class_name": "VarianceScaling", "config": {"scale": 1.0, "mode": "fan_avg", "distribution": "uniform", "seed": null}}, "bias_initializer": {"class_name": "Zeros", "config": {}}, "kernel_regularizer": null, "bias_regularizer": null, "activity_regularizer": null, "kernel_constraint": null, "bias_constraint": null}, "inbound_nodes": [[["concatenate_296", 0, 0, {}]]]}, {"name": "dense_326", "class_name": "Dense", "config": {"name": "dense_326", "trainable": true, "dtype": "float32", "units": 100, "activation": "relu", "use_bias": true, "kernel_initializer": {"class_name": "VarianceScaling", "config": {"scale": 1.0, "mode": "fan_avg", "distribution": "uniform", "seed": null}}, "bias_initializer": {"class_name": "Zeros", "config": {}}, "kernel_regularizer": null, "bias_regularizer": null, "activity_regularizer": null, "kernel_constraint": null, "bias_constraint": null}, "inbound_nodes": [[["concatenate_300", 0, 0, {}]]]}, {"name": "dense_339", "class_name": "Dense", "config": {"name": "dense_339", "trainable": true, "dtype": "float32", "units": 100, "activation": "relu", "use_bias": true, "kernel_initializer": {"class_name": "VarianceScaling", "config": {"scale": 1.0, "mode": "fan_avg", "distribution": "uniform", "seed": null}}, "bias_initializer": {"class_name": "Zeros", "config": {}}, "kernel_regularizer": null, "bias_regularizer": null, "activity_regularizer": null, "kernel_constraint": null, "bias_constraint": null}, "inbound_nodes": [[["concatenate_313", 0, 0, {}]]]}, {"name": "dense_354", "class_name": "Dense", "config": {"name": "dense_354", "trainable": true, "dtype": "float32", "units": 100, "activation": "relu", "use_bias": true, "kernel_initializer": {"class_name": "VarianceScaling", "config": {"scale": 1.0, "mode": "fan_avg", "distribution": "uniform", "seed": null}}, "bias_initializer": {"class_name": "Zeros", "config": {}}, "kernel_regularizer": null, "bias_regularizer": null, "activity_regularizer": null, "kernel_constraint": null, "bias_constraint": null}, "inbound_nodes": [[["concatenate_328", 0, 0, {}]]]}, {"name": "dense_378", "class_name": "Dense", "config": {"name": "dense_378", "trainable": true, "dtype": "float32", "units": 100, "activation": "relu", "use_bias": true, "kernel_initializer": {"class_name": "VarianceScaling", "config": {"scale": 1.0, "mode": "fan_avg", "distribution": "uniform", "seed": null}}, "bias_initializer": {"class_name": "Zeros", "config": {}}, "kernel_regularizer": null, "bias_regularizer": null, "activity_regularizer": null, "kernel_constraint": null, "bias_constraint": null}, "inbound_nodes": [[["concatenate_352", 0, 0, {}]]]}, {"name": "dense_411", "class_name": "Dense", "config": {"name": "dense_411", "trainable": true, "dtype": "float32", "units": 100, "activation": "relu", "use_bias": true, "kernel_initializer": {"class_name": "VarianceScaling", "config": {"scale": 1.0, "mode": "fan_avg", "distribution": "uniform", "seed": null}}, "bias_initializer": {"class_name": "Zeros", "config": {}}, "kernel_regularizer": null, "bias_regularizer": null, "activity_regularizer": null, "kernel_constraint": null, "bias_constraint": null}, "inbound_nodes": [[["concatenate_385", 0, 0, {}]]]}, {"name": "dense_414", "class_name": "Dense", "config": {"name": "dense_414", "trainable": true, "dtype": "float32", "units": 100, "activation": "relu", "use_bias": true, "kernel_initializer": {"class_name": "VarianceScaling", "config": {"scale": 1.0, "mode": "fan_avg", "distribution": "uniform", "seed": null}}, "bias_initializer": {"class_name": "Zeros", "config": {}}, "kernel_regularizer": null, "bias_regularizer": null, "activity_regularizer": null, "kernel_constraint": null, "bias_constraint": null}, "inbound_nodes": [[["concatenate_388", 0, 0, {}]]]}, {"name": "dense_432", "class_name": "Dense", "config": {"name": "dense_432", "trainable": true, "dtype": "float32", "units": 100, "activation": "relu", "use_bias": true, "kernel_initializer": {"class_name": "VarianceScaling", "config": {"scale": 1.0, "mode": "fan_avg", "distribution": "uniform", "seed": null}}, "bias_initializer": {"class_name": "Zeros", "config": {}}, "kernel_regularizer": null, "bias_regularizer": null, "activity_regularizer": null, "kernel_constraint": null, "bias_constraint": null}, "inbound_nodes": [[["concatenate_406", 0, 0, {}]]]}, {"name": "dense_439", "class_name": "Dense", "config": {"name": "dense_439", "trainable": true, "dtype": "float32", "units": 100, "activation": "relu", "use_bias": true, "kernel_initializer": {"class_name": "VarianceScaling", "config": {"scale": 1.0, "mode": "fan_avg", "distribution": "uniform", "seed": null}}, "bias_initializer": {"class_name": "Zeros", "config": {}}, "kernel_regularizer": null, "bias_regularizer": null, "activity_regularizer": null, "kernel_constraint": null, "bias_constraint": null}, "inbound_nodes": [[["concatenate_413", 0, 0, {}]]]}, {"name": "dense_446", "class_name": "Dense", "config": {"name": "dense_446", "trainable": true, "dtype": "float32", "units": 100, "activation": "relu", "use_bias": true, "kernel_initializer": {"class_name": "VarianceScaling", "config": {"scale": 1.0, "mode": "fan_avg", "distribution": "uniform", "seed": null}}, "bias_initializer": {"class_name": "Zeros", "config": {}}, "kernel_regularizer": null, "bias_regularizer": null, "activity_regularizer": null, "kernel_constraint": null, "bias_constraint": null}, "inbound_nodes": [[["concatenate_420", 0, 0, {}]]]}, {"name": "dense_453", "class_name": "Dense", "config": {"name": "dense_453", "trainable": true, "dtype": "float32", "units": 100, "activation": "relu", "use_bias": true, "kernel_initializer": {"class_name": "VarianceScaling", "config": {"scale": 1.0, "mode": "fan_avg", "distribution": "uniform", "seed": null}}, "bias_initializer": {"class_name": "Zeros", "config": {}}, "kernel_regularizer": null, "bias_regularizer": null, "activity_regularizer": null, "kernel_constraint": null, "bias_constraint": null}, "inbound_nodes": [[["concatenate_427", 0, 0, {}]]]}, {"name": "dense_467", "class_name": "Dense", "config": {"name": "dense_467", "trainable": true, "dtype": "float32", "units": 100, "activation": "relu", "use_bias": true, "kernel_initializer": {"class_name": "VarianceScaling", "config": {"scale": 1.0, "mode": "fan_avg", "distribution": "uniform", "seed": null}}, "bias_initializer": {"class_name": "Zeros", "config": {}}, "kernel_regularizer": null, "bias_regularizer": null, "activity_regularizer": null, "kernel_constraint": null, "bias_constraint": null}, "inbound_nodes": [[["concatenate_441", 0, 0, {}]]]}, {"name": "concatenate_297", "class_name": "Concatenate", "config": {"name": "concatenate_297", "trainable": true, "dtype": "float32", "axis": -1}, "inbound_nodes": [[["dense_322", 0, 0, {}], ["dense_308", 0, 0, {}]]]}, {"name": "concatenate_314", "class_name": "Concatenate", "config": {"name": "concatenate_314", "trainable": true, "dtype": "float32", "axis": -1}, "inbound_nodes": [[["dense_326", 0, 0, {}], ["dense_339", 0, 0, {}]]]}, {"name": "concatenate_353", "class_name": "Concatenate", "config": {"name": "concatenate_353", "trainable": true, "dtype": "float32", "axis": -1}, "inbound_nodes": [[["dense_354", 0, 0, {}], ["dense_378", 0, 0, {}]]]}, {"name": "concatenate_386", "class_name": "Concatenate", "config": {"name": "concatenate_386", "trainable": true, "dtype": "float32", "axis": -1}, "inbound_nodes": [[["dense_411", 0, 0, {}], ["dense_312", 0, 0, {}]]]}, {"name": "concatenate_389", "class_name": "Concatenate", "config": {"name": "concatenate_389", "trainable": true, "dtype": "float32", "axis": -1}, "inbound_nodes": [[["dense_414", 0, 0, {}], ["dense_315", 0, 0, {}]]]}, {"name": "concatenate_414", "class_name": "Concatenate", "config": {"name": "concatenate_414", "trainable": true, "dtype": "float32", "axis": -1}, "inbound_nodes": [[["dense_432", 0, 0, {}], ["dense_439", 0, 0, {}]]]}, {"name": "concatenate_428", "class_name": "Concatenate", "config": {"name": "concatenate_428", "trainable": true, "dtype": "float32", "axis": -1}, "inbound_nodes": [[["dense_446", 0, 0, {}], ["dense_453", 0, 0, {}]]]}, {"name": "concatenate_442", "class_name": "Concatenate", "config": {"name": "concatenate_442", "trainable": true, "dtype": "float32", "axis": -1}, "inbound_nodes": [[["dense_467", 0, 0, {}], ["dense_312", 0, 0, {}]]]}, {"name": "concatenate_444", "class_name": "Concatenate", "config": {"name": "concatenate_444", "trainable": true, "dtype": "float32", "axis": -1}, "inbound_nodes": [[["dense_310", 0, 0, {}], ["dense_316", 0, 0, {}]]]}, {"name": "dense_323", "class_name": "Dense", "config": {"name": "dense_323", "trainable": true, "dtype": "float32", "units": 100, "activation": "relu", "use_bias": true, "kernel_initializer": {"class_name": "VarianceScaling", "config": {"scale": 1.0, "mode": "fan_avg", "distribution": "uniform", "seed": null}}, "bias_initializer": {"class_name": "Zeros", "config": {}}, "kernel_regularizer": null, "bias_regularizer": null, "activity_regularizer": null, "kernel_constraint": null, "bias_constraint": null}, "inbound_nodes": [[["concatenate_297", 0, 0, {}]]]}, {"name": "dense_340", "class_name": "Dense", "config": {"name": "dense_340", "trainable": true, "dtype": "float32", "units": 100, "activation": "relu", "use_bias": true, "kernel_initializer": {"class_name": "VarianceScaling", "config": {"scale": 1.0, "mode": "fan_avg", "distribution": "uniform", "seed": null}}, "bias_initializer": {"class_name": "Zeros", "config": {}}, "kernel_regularizer": null, "bias_regularizer": null, "activity_regularizer": null, "kernel_constraint": null, "bias_constraint": null}, "inbound_nodes": [[["concatenate_314", 0, 0, {}]]]}, {"name": "dense_379", "class_name": "Dense", "config": {"name": "dense_379", "trainable": true, "dtype": "float32", "units": 100, "activation": "relu", "use_bias": true, "kernel_initializer": {"class_name": "VarianceScaling", "config": {"scale": 1.0, "mode": "fan_avg", "distribution": "uniform", "seed": null}}, "bias_initializer": {"class_name": "Zeros", "config": {}}, "kernel_regularizer": null, "bias_regularizer": null, "activity_regularizer": null, "kernel_constraint": null, "bias_constraint": null}, "inbound_nodes": [[["concatenate_353", 0, 0, {}]]]}, {"name": "dense_412", "class_name": "Dense", "config": {"name": "dense_412", "trainable": true, "dtype": "float32", "units": 100, "activation": "relu", "use_bias": true, "kernel_initializer": {"class_name": "VarianceScaling", "config": {"scale": 1.0, "mode": "fan_avg", "distribution": "uniform", "seed": null}}, "bias_initializer": {"class_name": "Zeros", "config": {}}, "kernel_regularizer": null, "bias_regularizer": null, "activity_regularizer": null, "kernel_constraint": null, "bias_constraint": null}, "inbound_nodes": [[["concatenate_386", 0, 0, {}]]]}, {"name": "dense_415", "class_name": "Dense", "config": {"name": "dense_415", "trainable": true, "dtype": "float32", "units": 100, "activation": "relu", "use_bias": true, "kernel_initializer": {"class_name": "VarianceScaling", "config": {"scale": 1.0, "mode": "fan_avg", "distribution": "uniform", "seed": null}}, "bias_initializer": {"class_name": "Zeros", "config": {}}, "kernel_regularizer": null, "bias_regularizer": null, "activity_regularizer": null, "kernel_constraint": null, "bias_constraint": null}, "inbound_nodes": [[["concatenate_389", 0, 0, {}]]]}, {"name": "dense_440", "class_name": "Dense", "config": {"name": "dense_440", "trainable": true, "dtype": "float32", "units": 100, "activation": "relu", "use_bias": true, "kernel_initializer": {"class_name": "VarianceScaling", "config": {"scale": 1.0, "mode": "fan_avg", "distribution": "uniform", "seed": null}}, "bias_initializer": {"class_name": "Zeros", "config": {}}, "kernel_regularizer": null, "bias_regularizer": null, "activity_regularizer": null, "kernel_constraint": null, "bias_constraint": null}, "inbound_nodes": [[["concatenate_414", 0, 0, {}]]]}, {"name": "dense_454", "class_name": "Dense", "config": {"name": "dense_454", "trainable": true, "dtype": "float32", "units": 100, "activation": "relu", "use_bias": true, "kernel_initializer": {"class_name": "VarianceScaling", "config": {"scale": 1.0, "mode": "fan_avg", "distribution": "uniform", "seed": null}}, "bias_initializer": {"class_name": "Zeros", "config": {}}, "kernel_regularizer": null, "bias_regularizer": null, "activity_regularizer": null, "kernel_constraint": null, "bias_constraint": null}, "inbound_nodes": [[["concatenate_428", 0, 0, {}]]]}, {"name": "dense_468", "class_name": "Dense", "config": {"name": "dense_468", "trainable": true, "dtype": "float32", "units": 100, "activation": "relu", "use_bias": true, "kernel_initializer": {"class_name": "VarianceScaling", "config": {"scale": 1.0, "mode": "fan_avg", "distribution": "uniform", "seed": null}}, "bias_initializer": {"class_name": "Zeros", "config": {}}, "kernel_regularizer": null, "bias_regularizer": null, "activity_regularizer": null, "kernel_constraint": null, "bias_constraint": null}, "inbound_nodes": [[["concatenate_442", 0, 0, {}]]]}, {"name": "dense_470", "class_name": "Dense", "config": {"name": "dense_470", "trainable": true, "dtype": "float32", "units": 100, "activation": "relu", "use_bias": true, "kernel_initializer": {"class_name": "VarianceScaling", "config": {"scale": 1.0, "mode": "fan_avg", "distribution": "uniform", "seed": null}}, "bias_initializer": {"class_name": "Zeros", "config": {}}, "kernel_regularizer": null, "bias_regularizer": null, "activity_regularizer": null, "kernel_constraint": null, "bias_constraint": null}, "inbound_nodes": [[["concatenate_444", 0, 0, {}]]]}, {"name": "concatenate_298", "class_name": "Concatenate", "config": {"name": "concatenate_298", "trainable": true, "dtype": "float32", "axis": -1}, "inbound_nodes": [[["dense_308", 0, 0, {}], ["dense_323", 0, 0, {}]]]}, {"name": "concatenate_315", "class_name": "Concatenate", "config": {"name": "concatenate_315", "trainable": true, "dtype": "float32", "axis": -1}, "inbound_nodes": [[["dense_340", 0, 0, {}], ["dense_310", 0, 0, {}]]]}, {"name": "concatenate_354", "class_name": "Concatenate", "config": {"name": "concatenate_354", "trainable": true, "dtype": "float32", "axis": -1}, "inbound_nodes": [[["dense_379", 0, 0, {}], ["dense_308", 0, 0, {}]]]}, {"name": "concatenate_387", "class_name": "Concatenate", "config": {"name": "concatenate_387", "trainable": true, "dtype": "float32", "axis": -1}, "inbound_nodes": [[["dense_412", 0, 0, {}], ["dense_315", 0, 0, {}]]]}, {"name": "concatenate_390", "class_name": "Concatenate", "config": {"name": "concatenate_390", "trainable": true, "dtype": "float32", "axis": -1}, "inbound_nodes": [[["dense_415", 0, 0, {}], ["dense_315", 0, 0, {}]]]}, {"name": "input_20", "class_name": "InputLayer", "config": {"batch_input_shape": [null, 1], "dtype": "float32", "sparse": false, "name": "input_20"}, "inbound_nodes": []}, {"name": "concatenate_401", "class_name": "Concatenate", "config": {"name": "concatenate_401", "trainable": true, "dtype": "float32", "axis": -1}, "inbound_nodes": [[["dense_308", 0, 0, {}], ["dense_308", 0, 0, {}]]]}, {"name": "concatenate_415", "class_name": "Concatenate", "config": {"name": "concatenate_415", "trainable": true, "dtype": "float32", "axis": -1}, "inbound_nodes": [[["dense_440", 0, 0, {}], ["dense_312", 0, 0, {}]]]}, {"name": "concatenate_429", "class_name": "Concatenate", "config": {"name": "concatenate_429", "trainable": true, "dtype": "float32", "axis": -1}, "inbound_nodes": [[["dense_454", 0, 0, {}], ["dense_310", 0, 0, {}]]]}, {"name": "concatenate_443", "class_name": "Concatenate", "config": {"name": "concatenate_443", "trainable": true, "dtype": "float32", "axis": -1}, "inbound_nodes": [[["dense_468", 0, 0, {}], ["dense_315", 0, 0, {}]]]}, {"name": "concatenate_445", "class_name": "Concatenate", "config": {"name": "concatenate_445", "trainable": true, "dtype": "float32", "axis": -1}, "inbound_nodes": [[["dense_314", 0, 0, {}], ["dense_470", 0, 0, {}]]]}, {"name": "concatenate_448", "class_name": "Concatenate", "config": {"name": "concatenate_448", "trainable": true, "dtype": "float32", "axis": -1}, "inbound_nodes": [[["dense_308", 0, 0, {}], ["dense_311", 0, 0, {}]]]}, {"name": "concatenate_453", "class_name": "Concatenate", "config": {"name": "concatenate_453", "trainable": true, "dtype": "float32", "axis": -1}, "inbound_nodes": [[["dense_312", 0, 0, {}], ["dense_315", 0, 0, {}]]]}, {"name": "dense_324", "class_name": "Dense", "config": {"name": "dense_324", "trainable": true, "dtype": "float32", "units": 100, "activation": "relu", "use_bias": true, "kernel_initializer": {"class_name": "VarianceScaling", "config": {"scale": 1.0, "mode": "fan_avg", "distribution": "uniform", "seed": null}}, "bias_initializer": {"class_name": "Zeros", "config": {}}, "kernel_regularizer": null, "bias_regularizer": null, "activity_regularizer": null, "kernel_constraint": null, "bias_constraint": null}, "inbound_nodes": [[["concatenate_298", 0, 0, {}]]]}, {"name": "dense_341", "class_name": "Dense", "config": {"name": "dense_341", "trainable": true, "dtype": "float32", "units": 100, "activation": "relu", "use_bias": true, "kernel_initializer": {"class_name": "VarianceScaling", "config": {"scale": 1.0, "mode": "fan_avg", "distribution": "uniform", "seed": null}}, "bias_initializer": {"class_name": "Zeros", "config": {}}, "kernel_regularizer": null, "bias_regularizer": null, "activity_regularizer": null, "kernel_constraint": null, "bias_constraint": null}, "inbound_nodes": [[["concatenate_315", 0, 0, {}]]]}, {"name": "dense_380", "class_name": "Dense", "config": {"name": "dense_380", "trainable": true, "dtype": "float32", "units": 100, "activation": "relu", "use_bias": true, "kernel_initializer": {"class_name": "VarianceScaling", "config": {"scale": 1.0, "mode": "fan_avg", "distribution": "uniform", "seed": null}}, "bias_initializer": {"class_name": "Zeros", "config": {}}, "kernel_regularizer": null, "bias_regularizer": null, "activity_regularizer": null, "kernel_constraint": null, "bias_constraint": null}, "inbound_nodes": [[["concatenate_354", 0, 0, {}]]]}, {"name": "dense_413", "class_name": "Dense", "config": {"name": "dense_413", "trainable": true, "dtype": "float32", "units": 100, "activation": "relu", "use_bias": true, "kernel_initializer": {"class_name": "VarianceScaling", "config": {"scale": 1.0, "mode": "fan_avg", "distribution": "uniform", "seed": null}}, "bias_initializer": {"class_name": "Zeros", "config": {}}, "kernel_regularizer": null, "bias_regularizer": null, "activity_regularizer": null, "kernel_constraint": null, "bias_constraint": null}, "inbound_nodes": [[["concatenate_387", 0, 0, {}]]]}, {"name": "dense_416", "class_name": "Dense", "config": {"name": "dense_416", "trainable": true, "dtype": "float32", "units": 100, "activation": "relu", "use_bias": true, "kernel_initializer": {"class_name": "VarianceScaling", "config": {"scale": 1.0, "mode": "fan_avg", "distribution": "uniform", "seed": null}}, "bias_initializer": {"class_name": "Zeros", "config": {}}, "kernel_regularizer": null, "bias_regularizer": null, "activity_regularizer": null, "kernel_constraint": null, "bias_constraint": null}, "inbound_nodes": [[["concatenate_390", 0, 0, {}]]]}, {"name": "dense_313", "class_name": "Dense", "config": {"name": "dense_313", "trainable": true, "dtype": "float32", "units": 50, "activation": "relu", "use_bias": true, "kernel_initializer": {"class_name": "VarianceScaling", "config": {"scale": 1.0, "mode": "fan_avg", "distribution": "uniform", "seed": null}}, "bias_initializer": {"class_name": "Zeros", "config": {}}, "kernel_regularizer": null, "bias_regularizer": null, "activity_regularizer": null, "kernel_constraint": null, "bias_constraint": null}, "inbound_nodes": [[["input_20", 0, 0, {}]]]}, {"name": "dense_427", "class_name": "Dense", "config": {"name": "dense_427", "trainable": true, "dtype": "float32", "units": 100, "activation": "relu", "use_bias": true, "kernel_initializer": {"class_name": "VarianceScaling", "config": {"scale": 1.0, "mode": "fan_avg", "distribution": "uniform", "seed": null}}, "bias_initializer": {"class_name": "Zeros", "config": {}}, "kernel_regularizer": null, "bias_regularizer": null, "activity_regularizer": null, "kernel_constraint": null, "bias_constraint": null}, "inbound_nodes": [[["concatenate_401", 0, 0, {}]]]}, {"name": "dense_441", "class_name": "Dense", "config": {"name": "dense_441", "trainable": true, "dtype": "float32", "units": 100, "activation": "relu", "use_bias": true, "kernel_initializer": {"class_name": "VarianceScaling", "config": {"scale": 1.0, "mode": "fan_avg", "distribution": "uniform", "seed": null}}, "bias_initializer": {"class_name": "Zeros", "config": {}}, "kernel_regularizer": null, "bias_regularizer": null, "activity_regularizer": null, "kernel_constraint": null, "bias_constraint": null}, "inbound_nodes": [[["concatenate_415", 0, 0, {}]]]}, {"name": "dense_455", "class_name": "Dense", "config": {"name": "dense_455", "trainable": true, "dtype": "float32", "units": 100, "activation": "relu", "use_bias": true, "kernel_initializer": {"class_name": "VarianceScaling", "config": {"scale": 1.0, "mode": "fan_avg", "distribution": "uniform", "seed": null}}, "bias_initializer": {"class_name": "Zeros", "config": {}}, "kernel_regularizer": null, "bias_regularizer": null, "activity_regularizer": null, "kernel_constraint": null, "bias_constraint": null}, "inbound_nodes": [[["concatenate_429", 0, 0, {}]]]}, {"name": "dense_469", "class_name": "Dense", "config": {"name": "dense_469", "trainable": true, "dtype": "float32", "units": 100, "activation": "relu", "use_bias": true, "kernel_initializer": {"class_name": "VarianceScaling", "config": {"scale": 1.0, "mode": "fan_avg", "distribution": "uniform", "seed": null}}, "bias_initializer": {"class_name": "Zeros", "config": {}}, "kernel_regularizer": null, "bias_regularizer": null, "activity_regularizer": null, "kernel_constraint": null, "bias_constraint": null}, "inbound_nodes": [[["concatenate_443", 0, 0, {}]]]}, {"name": "dense_471", "class_name": "Dense", "config": {"name": "dense_471", "trainable": true, "dtype": "float32", "units": 100, "activation": "relu", "use_bias": true, "kernel_initializer": {"class_name": "VarianceScaling", "config": {"scale": 1.0, "mode": "fan_avg", "distribution": "uniform", "seed": null}}, "bias_initializer": {"class_name": "Zeros", "config": {}}, "kernel_regularizer": null, "bias_regularizer": null, "activity_regularizer": null, "kernel_constraint": null, "bias_constraint": null}, "inbound_nodes": [[["concatenate_445", 0, 0, {}]]]}, {"name": "dense_474", "class_name": "Dense", "config": {"name": "dense_474", "trainable": true, "dtype": "float32", "units": 100, "activation": "relu", "use_bias": true, "kernel_initializer": {"class_name": "VarianceScaling", "config": {"scale": 1.0, "mode": "fan_avg", "distribution": "uniform", "seed": null}}, "bias_initializer": {"class_name": "Zeros", "config": {}}, "kernel_regularizer": null, "bias_regularizer": null, "activity_regularizer": null, "kernel_constraint": null, "bias_constraint": null}, "inbound_nodes": [[["concatenate_448", 0, 0, {}]]]}, {"name": "dense_479", "class_name": "Dense", "config": {"name": "dense_479", "trainable": true, "dtype": "float32", "units": 100, "activation": "relu", "use_bias": true, "kernel_initializer": {"class_name": "VarianceScaling", "config": {"scale": 1.0, "mode": "fan_avg", "distribution": "uniform", "seed": null}}, "bias_initializer": {"class_name": "Zeros", "config": {}}, "kernel_regularizer": null, "bias_regularizer": null, "activity_regularizer": null, "kernel_constraint": null, "bias_constraint": null}, "inbound_nodes": [[["concatenate_453", 0, 0, {}]]]}, {"name": "concatenate_316", "class_name": "Concatenate", "config": {"name": "concatenate_316", "trainable": true, "dtype": "float32", "axis": -1}, "inbound_nodes": [[["dense_324", 0, 0, {}], ["dense_341", 0, 0, {}]]]}, {"name": "concatenate_355", "class_name": "Concatenate", "config": {"name": "concatenate_355", "trainable": true, "dtype": "float32", "axis": -1}, "inbound_nodes": [[["dense_380", 0, 0, {}], ["dense_315", 0, 0, {}]]]}, {"name": "concatenate_391", "class_name": "Concatenate", "config": {"name": "concatenate_391", "trainable": true, "dtype": "float32", "axis": -1}, "inbound_nodes": [[["dense_413", 0, 0, {}], ["dense_416", 0, 0, {}]]]}, {"name": "concatenate_402", "class_name": "Concatenate", "config": {"name": "concatenate_402", "trainable": true, "dtype": "float32", "axis": -1}, "inbound_nodes": [[["dense_427", 0, 0, {}], ["dense_312", 0, 0, {}]]]}, {"name": "concatenate_430", "class_name": "Concatenate", "config": {"name": "concatenate_430", "trainable": true, "dtype": "float32", "axis": -1}, "inbound_nodes": [[["dense_441", 0, 0, {}], ["dense_455", 0, 0, {}]]]}, {"name": "concatenate_446", "class_name": "Concatenate", "config": {"name": "concatenate_446", "trainable": true, "dtype": "float32", "axis": -1}, "inbound_nodes": [[["dense_469", 0, 0, {}], ["dense_471", 0, 0, {}]]]}, {"name": "concatenate_449", "class_name": "Concatenate", "config": {"name": "concatenate_449", "trainable": true, "dtype": "float32", "axis": -1}, "inbound_nodes": [[["dense_474", 0, 0, {}], ["dense_314", 0, 0, {}]]]}, {"name": "concatenate_454", "class_name": "Concatenate", "config": {"name": "concatenate_454", "trainable": true, "dtype": "float32", "axis": -1}, "inbound_nodes": [[["dense_313", 0, 0, {}], ["dense_479", 0, 0, {}]]]}, {"name": "dense_342", "class_name": "Dense", "config": {"name": "dense_342", "trainable": true, "dtype": "float32", "units": 100, "activation": "relu", "use_bias": true, "kernel_initializer": {"class_name": "VarianceScaling", "config": {"scale": 1.0, "mode": "fan_avg", "distribution": "uniform", "seed": null}}, "bias_initializer": {"class_name": "Zeros", "config": {}}, "kernel_regularizer": null, "bias_regularizer": null, "activity_regularizer": null, "kernel_constraint": null, "bias_constraint": null}, "inbound_nodes": [[["concatenate_316", 0, 0, {}]]]}, {"name": "dense_381", "class_name": "Dense", "config": {"name": "dense_381", "trainable": true, "dtype": "float32", "units": 100, "activation": "relu", "use_bias": true, "kernel_initializer": {"class_name": "VarianceScaling", "config": {"scale": 1.0, "mode": "fan_avg", "distribution": "uniform", "seed": null}}, "bias_initializer": {"class_name": "Zeros", "config": {}}, "kernel_regularizer": null, "bias_regularizer": null, "activity_regularizer": null, "kernel_constraint": null, "bias_constraint": null}, "inbound_nodes": [[["concatenate_355", 0, 0, {}]]]}, {"name": "dense_417", "class_name": "Dense", "config": {"name": "dense_417", "trainable": true, "dtype": "float32", "units": 100, "activation": "relu", "use_bias": true, "kernel_initializer": {"class_name": "VarianceScaling", "config": {"scale": 1.0, "mode": "fan_avg", "distribution": "uniform", "seed": null}}, "bias_initializer": {"class_name": "Zeros", "config": {}}, "kernel_regularizer": null, "bias_regularizer": null, "activity_regularizer": null, "kernel_constraint": null, "bias_constraint": null}, "inbound_nodes": [[["concatenate_391", 0, 0, {}]]]}, {"name": "dense_428", "class_name": "Dense", "config": {"name": "dense_428", "trainable": true, "dtype": "float32", "units": 100, "activation": "relu", "use_bias": true, "kernel_initializer": {"class_name": "VarianceScaling", "config": {"scale": 1.0, "mode": "fan_avg", "distribution": "uniform", "seed": null}}, "bias_initializer": {"class_name": "Zeros", "config": {}}, "kernel_regularizer": null, "bias_regularizer": null, "activity_regularizer": null, "kernel_constraint": null, "bias_constraint": null}, "inbound_nodes": [[["concatenate_402", 0, 0, {}]]]}, {"name": "dense_456", "class_name": "Dense", "config": {"name": "dense_456", "trainable": true, "dtype": "float32", "units": 100, "activation": "relu", "use_bias": true, "kernel_initializer": {"class_name": "VarianceScaling", "config": {"scale": 1.0, "mode": "fan_avg", "distribution": "uniform", "seed": null}}, "bias_initializer": {"class_name": "Zeros", "config": {}}, "kernel_regularizer": null, "bias_regularizer": null, "activity_regularizer": null, "kernel_constraint": null, "bias_constraint": null}, "inbound_nodes": [[["concatenate_430", 0, 0, {}]]]}, {"name": "dense_472", "class_name": "Dense", "config": {"name": "dense_472", "trainable": true, "dtype": "float32", "units": 100, "activation": "relu", "use_bias": true, "kernel_initializer": {"class_name": "VarianceScaling", "config": {"scale": 1.0, "mode": "fan_avg", "distribution": "uniform", "seed": null}}, "bias_initializer": {"class_name": "Zeros", "config": {}}, "kernel_regularizer": null, "bias_regularizer": null, "activity_regularizer": null, "kernel_constraint": null, "bias_constraint": null}, "inbound_nodes": [[["concatenate_446", 0, 0, {}]]]}, {"name": "dense_475", "class_name": "Dense", "config": {"name": "dense_475", "trainable": true, "dtype": "float32", "units": 100, "activation": "relu", "use_bias": true, "kernel_initializer": {"class_name": "VarianceScaling", "config": {"scale": 1.0, "mode": "fan_avg", "distribution": "uniform", "seed": null}}, "bias_initializer": {"class_name": "Zeros", "config": {}}, "kernel_regularizer": null, "bias_regularizer": null, "activity_regularizer": null, "kernel_constraint": null, "bias_constraint": null}, "inbound_nodes": [[["concatenate_449", 0, 0, {}]]]}, {"name": "dense_480", "class_name": "Dense", "config": {"name": "dense_480", "trainable": true, "dtype": "float32", "units": 100, "activation": "relu", "use_bias": true, "kernel_initializer": {"class_name": "VarianceScaling", "config": {"scale": 1.0, "mode": "fan_avg", "distribution": "uniform", "seed": null}}, "bias_initializer": {"class_name": "Zeros", "config": {}}, "kernel_regularizer": null, "bias_regularizer": null, "activity_regularizer": null, "kernel_constraint": null, "bias_constraint": null}, "inbound_nodes": [[["concatenate_454", 0, 0, {}]]]}, {"name": "concatenate_317", "class_name": "Concatenate", "config": {"name": "concatenate_317", "trainable": true, "dtype": "float32", "axis": -1}, "inbound_nodes": [[["dense_342", 0, 0, {}], ["dense_310", 0, 0, {}]]]}, {"name": "concatenate_356", "class_name": "Concatenate", "config": {"name": "concatenate_356", "trainable": true, "dtype": "float32", "axis": -1}, "inbound_nodes": [[["dense_381", 0, 0, {}], ["dense_315", 0, 0, {}]]]}, {"name": "concatenate_368", "class_name": "Concatenate", "config": {"name": "concatenate_368", "trainable": true, "dtype": "float32", "axis": -1}, "inbound_nodes": [[["dense_312", 0, 0, {}], ["dense_308", 0, 0, {}]]]}, {"name": "concatenate_371", "class_name": "Concatenate", "config": {"name": "concatenate_371", "trainable": true, "dtype": "float32", "axis": -1}, "inbound_nodes": [[["dense_310", 0, 0, {}], ["dense_315", 0, 0, {}]]]}, {"name": "concatenate_392", "class_name": "Concatenate", "config": {"name": "concatenate_392", "trainable": true, "dtype": "float32", "axis": -1}, "inbound_nodes": [[["dense_417", 0, 0, {}], ["dense_308", 0, 0, {}]]]}, {"name": "concatenate_403", "class_name": "Concatenate", "config": {"name": "concatenate_403", "trainable": true, "dtype": "float32", "axis": -1}, "inbound_nodes": [[["dense_428", 0, 0, {}], ["dense_312", 0, 0, {}]]]}, {"name": "concatenate_431", "class_name": "Concatenate", "config": {"name": "concatenate_431", "trainable": true, "dtype": "float32", "axis": -1}, "inbound_nodes": [[["dense_456", 0, 0, {}], ["dense_310", 0, 0, {}]]]}, {"name": "concatenate_447", "class_name": "Concatenate", "config": {"name": "concatenate_447", "trainable": true, "dtype": "float32", "axis": -1}, "inbound_nodes": [[["dense_472", 0, 0, {}], ["dense_310", 0, 0, {}]]]}, {"name": "concatenate_450", "class_name": "Concatenate", "config": {"name": "concatenate_450", "trainable": true, "dtype": "float32", "axis": -1}, "inbound_nodes": [[["dense_475", 0, 0, {}], ["dense_310", 0, 0, {}]]]}, {"name": "input_14", "class_name": "InputLayer", "config": {"batch_input_shape": [null, 1], "dtype": "float32", "sparse": false, "name": "input_14"}, "inbound_nodes": []}, {"name": "concatenate_455", "class_name": "Concatenate", "config": {"name": "concatenate_455", "trainable": true, "dtype": "float32", "axis": -1}, "inbound_nodes": [[["dense_480", 0, 0, {}], ["dense_315", 0, 0, {}]]]}, {"name": "concatenate_462", "class_name": "Concatenate", "config": {"name": "concatenate_462", "trainable": true, "dtype": "float32", "axis": -1}, "inbound_nodes": [[["dense_312", 0, 0, {}], ["dense_310", 0, 0, {}]]]}, {"name": "dense_343", "class_name": "Dense", "config": {"name": "dense_343", "trainable": true, "dtype": "float32", "units": 100, "activation": "relu", "use_bias": true, "kernel_initializer": {"class_name": "VarianceScaling", "config": {"scale": 1.0, "mode": "fan_avg", "distribution": "uniform", "seed": null}}, "bias_initializer": {"class_name": "Zeros", "config": {}}, "kernel_regularizer": null, "bias_regularizer": null, "activity_regularizer": null, "kernel_constraint": null, "bias_constraint": null}, "inbound_nodes": [[["concatenate_317", 0, 0, {}]]]}, {"name": "dense_382", "class_name": "Dense", "config": {"name": "dense_382", "trainable": true, "dtype": "float32", "units": 100, "activation": "relu", "use_bias": true, "kernel_initializer": {"class_name": "VarianceScaling", "config": {"scale": 1.0, "mode": "fan_avg", "distribution": "uniform", "seed": null}}, "bias_initializer": {"class_name": "Zeros", "config": {}}, "kernel_regularizer": null, "bias_regularizer": null, "activity_regularizer": null, "kernel_constraint": null, "bias_constraint": null}, "inbound_nodes": [[["concatenate_356", 0, 0, {}]]]}, {"name": "dense_394", "class_name": "Dense", "config": {"name": "dense_394", "trainable": true, "dtype": "float32", "units": 100, "activation": "relu", "use_bias": true, "kernel_initializer": {"class_name": "VarianceScaling", "config": {"scale": 1.0, "mode": "fan_avg", "distribution": "uniform", "seed": null}}, "bias_initializer": {"class_name": "Zeros", "config": {}}, "kernel_regularizer": null, "bias_regularizer": null, "activity_regularizer": null, "kernel_constraint": null, "bias_constraint": null}, "inbound_nodes": [[["concatenate_368", 0, 0, {}]]]}, {"name": "dense_397", "class_name": "Dense", "config": {"name": "dense_397", "trainable": true, "dtype": "float32", "units": 100, "activation": "relu", "use_bias": true, "kernel_initializer": {"class_name": "VarianceScaling", "config": {"scale": 1.0, "mode": "fan_avg", "distribution": "uniform", "seed": null}}, "bias_initializer": {"class_name": "Zeros", "config": {}}, "kernel_regularizer": null, "bias_regularizer": null, "activity_regularizer": null, "kernel_constraint": null, "bias_constraint": null}, "inbound_nodes": [[["concatenate_371", 0, 0, {}]]]}, {"name": "dense_418", "class_name": "Dense", "config": {"name": "dense_418", "trainable": true, "dtype": "float32", "units": 100, "activation": "relu", "use_bias": true, "kernel_initializer": {"class_name": "VarianceScaling", "config": {"scale": 1.0, "mode": "fan_avg", "distribution": "uniform", "seed": null}}, "bias_initializer": {"class_name": "Zeros", "config": {}}, "kernel_regularizer": null, "bias_regularizer": null, "activity_regularizer": null, "kernel_constraint": null, "bias_constraint": null}, "inbound_nodes": [[["concatenate_392", 0, 0, {}]]]}, {"name": "dense_429", "class_name": "Dense", "config": {"name": "dense_429", "trainable": true, "dtype": "float32", "units": 100, "activation": "relu", "use_bias": true, "kernel_initializer": {"class_name": "VarianceScaling", "config": {"scale": 1.0, "mode": "fan_avg", "distribution": "uniform", "seed": null}}, "bias_initializer": {"class_name": "Zeros", "config": {}}, "kernel_regularizer": null, "bias_regularizer": null, "activity_regularizer": null, "kernel_constraint": null, "bias_constraint": null}, "inbound_nodes": [[["concatenate_403", 0, 0, {}]]]}, {"name": "dense_457", "class_name": "Dense", "config": {"name": "dense_457", "trainable": true, "dtype": "float32", "units": 100, "activation": "relu", "use_bias": true, "kernel_initializer": {"class_name": "VarianceScaling", "config": {"scale": 1.0, "mode": "fan_avg", "distribution": "uniform", "seed": null}}, "bias_initializer": {"class_name": "Zeros", "config": {}}, "kernel_regularizer": null, "bias_regularizer": null, "activity_regularizer": null, "kernel_constraint": null, "bias_constraint": null}, "inbound_nodes": [[["concatenate_431", 0, 0, {}]]]}, {"name": "dense_473", "class_name": "Dense", "config": {"name": "dense_473", "trainable": true, "dtype": "float32", "units": 100, "activation": "relu", "use_bias": true, "kernel_initializer": {"class_name": "VarianceScaling", "config": {"scale": 1.0, "mode": "fan_avg", "distribution": "uniform", "seed": null}}, "bias_initializer": {"class_name": "Zeros", "config": {}}, "kernel_regularizer": null, "bias_regularizer": null, "activity_regularizer": null, "kernel_constraint": null, "bias_constraint": null}, "inbound_nodes": [[["concatenate_447", 0, 0, {}]]]}, {"name": "dense_476", "class_name": "Dense", "config": {"name": "dense_476", "trainable": true, "dtype": "float32", "units": 100, "activation": "relu", "use_bias": true, "kernel_initializer": {"class_name": "VarianceScaling", "config": {"scale": 1.0, "mode": "fan_avg", "distribution": "uniform", "seed": null}}, "bias_initializer": {"class_name": "Zeros", "config": {}}, "kernel_regularizer": null, "bias_regularizer": null, "activity_regularizer": null, "kernel_constraint": null, "bias_constraint": null}, "inbound_nodes": [[["concatenate_450", 0, 0, {}]]]}, {"name": "dense_307", "class_name": "Dense", "config": {"name": "dense_307", "trainable": true, "dtype": "float32", "units": 50, "activation": "relu", "use_bias": true, "kernel_initializer": {"class_name": "VarianceScaling", "config": {"scale": 1.0, "mode": "fan_avg", "distribution": "uniform", "seed": null}}, "bias_initializer": {"class_name": "Zeros", "config": {}}, "kernel_regularizer": null, "bias_regularizer": null, "activity_regularizer": null, "kernel_constraint": null, "bias_constraint": null}, "inbound_nodes": [[["input_14", 0, 0, {}]]]}, {"name": "dense_481", "class_name": "Dense", "config": {"name": "dense_481", "trainable": true, "dtype": "float32", "units": 100, "activation": "relu", "use_bias": true, "kernel_initializer": {"class_name": "VarianceScaling", "config": {"scale": 1.0, "mode": "fan_avg", "distribution": "uniform", "seed": null}}, "bias_initializer": {"class_name": "Zeros", "config": {}}, "kernel_regularizer": null, "bias_regularizer": null, "activity_regularizer": null, "kernel_constraint": null, "bias_constraint": null}, "inbound_nodes": [[["concatenate_455", 0, 0, {}]]]}, {"name": "dense_488", "class_name": "Dense", "config": {"name": "dense_488", "trainable": true, "dtype": "float32", "units": 100, "activation": "relu", "use_bias": true, "kernel_initializer": {"class_name": "VarianceScaling", "config": {"scale": 1.0, "mode": "fan_avg", "distribution": "uniform", "seed": null}}, "bias_initializer": {"class_name": "Zeros", "config": {}}, "kernel_regularizer": null, "bias_regularizer": null, "activity_regularizer": null, "kernel_constraint": null, "bias_constraint": null}, "inbound_nodes": [[["concatenate_462", 0, 0, {}]]]}, {"name": "concatenate_357", "class_name": "Concatenate", "config": {"name": "concatenate_357", "trainable": true, "dtype": "float32", "axis": -1}, "inbound_nodes": [[["dense_343", 0, 0, {}], ["dense_382", 0, 0, {}]]]}, {"name": "concatenate_369", "class_name": "Concatenate", "config": {"name": "concatenate_369", "trainable": true, "dtype": "float32", "axis": -1}, "inbound_nodes": [[["dense_394", 0, 0, {}], ["dense_315", 0, 0, {}]]]}, {"name": "concatenate_393", "class_name": "Concatenate", "config": {"name": "concatenate_393", "trainable": true, "dtype": "float32", "axis": -1}, "inbound_nodes": [[["dense_397", 0, 0, {}], ["dense_418", 0, 0, {}]]]}, {"name": "concatenate_404", "class_name": "Concatenate", "config": {"name": "concatenate_404", "trainable": true, "dtype": "float32", "axis": -1}, "inbound_nodes": [[["dense_429", 0, 0, {}], ["dense_315", 0, 0, {}]]]}, {"name": "concatenate_432", "class_name": "Concatenate", "config": {"name": "concatenate_432", "trainable": true, "dtype": "float32", "axis": -1}, "inbound_nodes": [[["dense_457", 0, 0, {}], ["dense_315", 0, 0, {}]]]}, {"name": "concatenate_451", "class_name": "Concatenate", "config": {"name": "concatenate_451", "trainable": true, "dtype": "float32", "axis": -1}, "inbound_nodes": [[["dense_473", 0, 0, {}], ["dense_476", 0, 0, {}]]]}, {"name": "concatenate_456", "class_name": "Concatenate", "config": {"name": "concatenate_456", "trainable": true, "dtype": "float32", "axis": -1}, "inbound_nodes": [[["dense_307", 0, 0, {}], ["dense_481", 0, 0, {}]]]}, {"name": "concatenate_463", "class_name": "Concatenate", "config": {"name": "concatenate_463", "trainable": true, "dtype": "float32", "axis": -1}, "inbound_nodes": [[["dense_488", 0, 0, {}], ["dense_315", 0, 0, {}]]]}, {"name": "dense_383", "class_name": "Dense", "config": {"name": "dense_383", "trainable": true, "dtype": "float32", "units": 100, "activation": "relu", "use_bias": true, "kernel_initializer": {"class_name": "VarianceScaling", "config": {"scale": 1.0, "mode": "fan_avg", "distribution": "uniform", "seed": null}}, "bias_initializer": {"class_name": "Zeros", "config": {}}, "kernel_regularizer": null, "bias_regularizer": null, "activity_regularizer": null, "kernel_constraint": null, "bias_constraint": null}, "inbound_nodes": [[["concatenate_357", 0, 0, {}]]]}, {"name": "dense_395", "class_name": "Dense", "config": {"name": "dense_395", "trainable": true, "dtype": "float32", "units": 100, "activation": "relu", "use_bias": true, "kernel_initializer": {"class_name": "VarianceScaling", "config": {"scale": 1.0, "mode": "fan_avg", "distribution": "uniform", "seed": null}}, "bias_initializer": {"class_name": "Zeros", "config": {}}, "kernel_regularizer": null, "bias_regularizer": null, "activity_regularizer": null, "kernel_constraint": null, "bias_constraint": null}, "inbound_nodes": [[["concatenate_369", 0, 0, {}]]]}, {"name": "dense_419", "class_name": "Dense", "config": {"name": "dense_419", "trainable": true, "dtype": "float32", "units": 100, "activation": "relu", "use_bias": true, "kernel_initializer": {"class_name": "VarianceScaling", "config": {"scale": 1.0, "mode": "fan_avg", "distribution": "uniform", "seed": null}}, "bias_initializer": {"class_name": "Zeros", "config": {}}, "kernel_regularizer": null, "bias_regularizer": null, "activity_regularizer": null, "kernel_constraint": null, "bias_constraint": null}, "inbound_nodes": [[["concatenate_393", 0, 0, {}]]]}, {"name": "dense_430", "class_name": "Dense", "config": {"name": "dense_430", "trainable": true, "dtype": "float32", "units": 100, "activation": "relu", "use_bias": true, "kernel_initializer": {"class_name": "VarianceScaling", "config": {"scale": 1.0, "mode": "fan_avg", "distribution": "uniform", "seed": null}}, "bias_initializer": {"class_name": "Zeros", "config": {}}, "kernel_regularizer": null, "bias_regularizer": null, "activity_regularizer": null, "kernel_constraint": null, "bias_constraint": null}, "inbound_nodes": [[["concatenate_404", 0, 0, {}]]]}, {"name": "dense_458", "class_name": "Dense", "config": {"name": "dense_458", "trainable": true, "dtype": "float32", "units": 100, "activation": "relu", "use_bias": true, "kernel_initializer": {"class_name": "VarianceScaling", "config": {"scale": 1.0, "mode": "fan_avg", "distribution": "uniform", "seed": null}}, "bias_initializer": {"class_name": "Zeros", "config": {}}, "kernel_regularizer": null, "bias_regularizer": null, "activity_regularizer": null, "kernel_constraint": null, "bias_constraint": null}, "inbound_nodes": [[["concatenate_432", 0, 0, {}]]]}, {"name": "dense_477", "class_name": "Dense", "config": {"name": "dense_477", "trainable": true, "dtype": "float32", "units": 100, "activation": "relu", "use_bias": true, "kernel_initializer": {"class_name": "VarianceScaling", "config": {"scale": 1.0, "mode": "fan_avg", "distribution": "uniform", "seed": null}}, "bias_initializer": {"class_name": "Zeros", "config": {}}, "kernel_regularizer": null, "bias_regularizer": null, "activity_regularizer": null, "kernel_constraint": null, "bias_constraint": null}, "inbound_nodes": [[["concatenate_451", 0, 0, {}]]]}, {"name": "dense_482", "class_name": "Dense", "config": {"name": "dense_482", "trainable": true, "dtype": "float32", "units": 100, "activation": "relu", "use_bias": true, "kernel_initializer": {"class_name": "VarianceScaling", "config": {"scale": 1.0, "mode": "fan_avg", "distribution": "uniform", "seed": null}}, "bias_initializer": {"class_name": "Zeros", "config": {}}, "kernel_regularizer": null, "bias_regularizer": null, "activity_regularizer": null, "kernel_constraint": null, "bias_constraint": null}, "inbound_nodes": [[["concatenate_456", 0, 0, {}]]]}, {"name": "dense_489", "class_name": "Dense", "config": {"name": "dense_489", "trainable": true, "dtype": "float32", "units": 100, "activation": "relu", "use_bias": true, "kernel_initializer": {"class_name": "VarianceScaling", "config": {"scale": 1.0, "mode": "fan_avg", "distribution": "uniform", "seed": null}}, "bias_initializer": {"class_name": "Zeros", "config": {}}, "kernel_regularizer": null, "bias_regularizer": null, "activity_regularizer": null, "kernel_constraint": null, "bias_constraint": null}, "inbound_nodes": [[["concatenate_463", 0, 0, {}]]]}, {"name": "concatenate_358", "class_name": "Concatenate", "config": {"name": "concatenate_358", "trainable": true, "dtype": "float32", "axis": -1}, "inbound_nodes": [[["dense_383", 0, 0, {}], ["dense_312", 0, 0, {}]]]}, {"name": "concatenate_359", "class_name": "Concatenate", "config": {"name": "concatenate_359", "trainable": true, "dtype": "float32", "axis": -1}, "inbound_nodes": [[["dense_310", 0, 0, {}], ["dense_315", 0, 0, {}]]]}, {"name": "concatenate_362", "class_name": "Concatenate", "config": {"name": "concatenate_362", "trainable": true, "dtype": "float32", "axis": -1}, "inbound_nodes": [[["dense_310", 0, 0, {}], ["dense_315", 0, 0, {}]]]}, {"name": "concatenate_370", "class_name": "Concatenate", "config": {"name": "concatenate_370", "trainable": true, "dtype": "float32", "axis": -1}, "inbound_nodes": [[["dense_308", 0, 0, {}], ["dense_395", 0, 0, {}]]]}, {"name": "concatenate_394", "class_name": "Concatenate", "config": {"name": "concatenate_394", "trainable": true, "dtype": "float32", "axis": -1}, "inbound_nodes": [[["dense_419", 0, 0, {}], ["dense_313", 0, 0, {}]]]}, {"name": "concatenate_433", "class_name": "Concatenate", "config": {"name": "concatenate_433", "trainable": true, "dtype": "float32", "axis": -1}, "inbound_nodes": [[["dense_430", 0, 0, {}], ["dense_458", 0, 0, {}]]]}, {"name": "concatenate_452", "class_name": "Concatenate", "config": {"name": "concatenate_452", "trainable": true, "dtype": "float32", "axis": -1}, "inbound_nodes": [[["dense_477", 0, 0, {}], ["dense_306", 0, 0, {}]]]}, {"name": "concatenate_457", "class_name": "Concatenate", "config": {"name": "concatenate_457", "trainable": true, "dtype": "float32", "axis": -1}, "inbound_nodes": [[["dense_482", 0, 0, {}], ["dense_315", 0, 0, {}]]]}, {"name": "concatenate_464", "class_name": "Concatenate", "config": {"name": "concatenate_464", "trainable": true, "dtype": "float32", "axis": -1}, "inbound_nodes": [[["dense_489", 0, 0, {}], ["dense_315", 0, 0, {}]]]}, {"name": "dense_384", "class_name": "Dense", "config": {"name": "dense_384", "trainable": true, "dtype": "float32", "units": 100, "activation": "relu", "use_bias": true, "kernel_initializer": {"class_name": "VarianceScaling", "config": {"scale": 1.0, "mode": "fan_avg", "distribution": "uniform", "seed": null}}, "bias_initializer": {"class_name": "Zeros", "config": {}}, "kernel_regularizer": null, "bias_regularizer": null, "activity_regularizer": null, "kernel_constraint": null, "bias_constraint": null}, "inbound_nodes": [[["concatenate_358", 0, 0, {}]]]}, {"name": "dense_385", "class_name": "Dense", "config": {"name": "dense_385", "trainable": true, "dtype": "float32", "units": 100, "activation": "relu", "use_bias": true, "kernel_initializer": {"class_name": "VarianceScaling", "config": {"scale": 1.0, "mode": "fan_avg", "distribution": "uniform", "seed": null}}, "bias_initializer": {"class_name": "Zeros", "config": {}}, "kernel_regularizer": null, "bias_regularizer": null, "activity_regularizer": null, "kernel_constraint": null, "bias_constraint": null}, "inbound_nodes": [[["concatenate_359", 0, 0, {}]]]}, {"name": "dense_388", "class_name": "Dense", "config": {"name": "dense_388", "trainable": true, "dtype": "float32", "units": 100, "activation": "relu", "use_bias": true, "kernel_initializer": {"class_name": "VarianceScaling", "config": {"scale": 1.0, "mode": "fan_avg", "distribution": "uniform", "seed": null}}, "bias_initializer": {"class_name": "Zeros", "config": {}}, "kernel_regularizer": null, "bias_regularizer": null, "activity_regularizer": null, "kernel_constraint": null, "bias_constraint": null}, "inbound_nodes": [[["concatenate_362", 0, 0, {}]]]}, {"name": "dense_396", "class_name": "Dense", "config": {"name": "dense_396", "trainable": true, "dtype": "float32", "units": 100, "activation": "relu", "use_bias": true, "kernel_initializer": {"class_name": "VarianceScaling", "config": {"scale": 1.0, "mode": "fan_avg", "distribution": "uniform", "seed": null}}, "bias_initializer": {"class_name": "Zeros", "config": {}}, "kernel_regularizer": null, "bias_regularizer": null, "activity_regularizer": null, "kernel_constraint": null, "bias_constraint": null}, "inbound_nodes": [[["concatenate_370", 0, 0, {}]]]}, {"name": "dense_420", "class_name": "Dense", "config": {"name": "dense_420", "trainable": true, "dtype": "float32", "units": 100, "activation": "relu", "use_bias": true, "kernel_initializer": {"class_name": "VarianceScaling", "config": {"scale": 1.0, "mode": "fan_avg", "distribution": "uniform", "seed": null}}, "bias_initializer": {"class_name": "Zeros", "config": {}}, "kernel_regularizer": null, "bias_regularizer": null, "activity_regularizer": null, "kernel_constraint": null, "bias_constraint": null}, "inbound_nodes": [[["concatenate_394", 0, 0, {}]]]}, {"name": "dense_459", "class_name": "Dense", "config": {"name": "dense_459", "trainable": true, "dtype": "float32", "units": 100, "activation": "relu", "use_bias": true, "kernel_initializer": {"class_name": "VarianceScaling", "config": {"scale": 1.0, "mode": "fan_avg", "distribution": "uniform", "seed": null}}, "bias_initializer": {"class_name": "Zeros", "config": {}}, "kernel_regularizer": null, "bias_regularizer": null, "activity_regularizer": null, "kernel_constraint": null, "bias_constraint": null}, "inbound_nodes": [[["concatenate_433", 0, 0, {}]]]}, {"name": "dense_478", "class_name": "Dense", "config": {"name": "dense_478", "trainable": true, "dtype": "float32", "units": 100, "activation": "relu", "use_bias": true, "kernel_initializer": {"class_name": "VarianceScaling", "config": {"scale": 1.0, "mode": "fan_avg", "distribution": "uniform", "seed": null}}, "bias_initializer": {"class_name": "Zeros", "config": {}}, "kernel_regularizer": null, "bias_regularizer": null, "activity_regularizer": null, "kernel_constraint": null, "bias_constraint": null}, "inbound_nodes": [[["concatenate_452", 0, 0, {}]]]}, {"name": "dense_483", "class_name": "Dense", "config": {"name": "dense_483", "trainable": true, "dtype": "float32", "units": 100, "activation": "relu", "use_bias": true, "kernel_initializer": {"class_name": "VarianceScaling", "config": {"scale": 1.0, "mode": "fan_avg", "distribution": "uniform", "seed": null}}, "bias_initializer": {"class_name": "Zeros", "config": {}}, "kernel_regularizer": null, "bias_regularizer": null, "activity_regularizer": null, "kernel_constraint": null, "bias_constraint": null}, "inbound_nodes": [[["concatenate_457", 0, 0, {}]]]}, {"name": "dense_490", "class_name": "Dense", "config": {"name": "dense_490", "trainable": true, "dtype": "float32", "units": 100, "activation": "relu", "use_bias": true, "kernel_initializer": {"class_name": "VarianceScaling", "config": {"scale": 1.0, "mode": "fan_avg", "distribution": "uniform", "seed": null}}, "bias_initializer": {"class_name": "Zeros", "config": {}}, "kernel_regularizer": null, "bias_regularizer": null, "activity_regularizer": null, "kernel_constraint": null, "bias_constraint": null}, "inbound_nodes": [[["concatenate_464", 0, 0, {}]]]}, {"name": "concatenate_360", "class_name": "Concatenate", "config": {"name": "concatenate_360", "trainable": true, "dtype": "float32", "axis": -1}, "inbound_nodes": [[["dense_384", 0, 0, {}], ["dense_385", 0, 0, {}]]]}, {"name": "concatenate_363", "class_name": "Concatenate", "config": {"name": "concatenate_363", "trainable": true, "dtype": "float32", "axis": -1}, "inbound_nodes": [[["dense_308", 0, 0, {}], ["dense_388", 0, 0, {}]]]}, {"name": "concatenate_395", "class_name": "Concatenate", "config": {"name": "concatenate_395", "trainable": true, "dtype": "float32", "axis": -1}, "inbound_nodes": [[["dense_396", 0, 0, {}], ["dense_420", 0, 0, {}]]]}, {"name": "concatenate_434", "class_name": "Concatenate", "config": {"name": "concatenate_434", "trainable": true, "dtype": "float32", "axis": -1}, "inbound_nodes": [[["dense_459", 0, 0, {}], ["dense_306", 0, 0, {}]]]}, {"name": "concatenate_458", "class_name": "Concatenate", "config": {"name": "concatenate_458", "trainable": true, "dtype": "float32", "axis": -1}, "inbound_nodes": [[["dense_478", 0, 0, {}], ["dense_483", 0, 0, {}]]]}, {"name": "concatenate_465", "class_name": "Concatenate", "config": {"name": "concatenate_465", "trainable": true, "dtype": "float32", "axis": -1}, "inbound_nodes": [[["dense_490", 0, 0, {}], ["dense_310", 0, 0, {}]]]}, {"name": "dense_386", "class_name": "Dense", "config": {"name": "dense_386", "trainable": true, "dtype": "float32", "units": 100, "activation": "relu", "use_bias": true, "kernel_initializer": {"class_name": "VarianceScaling", "config": {"scale": 1.0, "mode": "fan_avg", "distribution": "uniform", "seed": null}}, "bias_initializer": {"class_name": "Zeros", "config": {}}, "kernel_regularizer": null, "bias_regularizer": null, "activity_regularizer": null, "kernel_constraint": null, "bias_constraint": null}, "inbound_nodes": [[["concatenate_360", 0, 0, {}]]]}, {"name": "dense_389", "class_name": "Dense", "config": {"name": "dense_389", "trainable": true, "dtype": "float32", "units": 100, "activation": "relu", "use_bias": true, "kernel_initializer": {"class_name": "VarianceScaling", "config": {"scale": 1.0, "mode": "fan_avg", "distribution": "uniform", "seed": null}}, "bias_initializer": {"class_name": "Zeros", "config": {}}, "kernel_regularizer": null, "bias_regularizer": null, "activity_regularizer": null, "kernel_constraint": null, "bias_constraint": null}, "inbound_nodes": [[["concatenate_363", 0, 0, {}]]]}, {"name": "dense_421", "class_name": "Dense", "config": {"name": "dense_421", "trainable": true, "dtype": "float32", "units": 100, "activation": "relu", "use_bias": true, "kernel_initializer": {"class_name": "VarianceScaling", "config": {"scale": 1.0, "mode": "fan_avg", "distribution": "uniform", "seed": null}}, "bias_initializer": {"class_name": "Zeros", "config": {}}, "kernel_regularizer": null, "bias_regularizer": null, "activity_regularizer": null, "kernel_constraint": null, "bias_constraint": null}, "inbound_nodes": [[["concatenate_395", 0, 0, {}]]]}, {"name": "dense_460", "class_name": "Dense", "config": {"name": "dense_460", "trainable": true, "dtype": "float32", "units": 100, "activation": "relu", "use_bias": true, "kernel_initializer": {"class_name": "VarianceScaling", "config": {"scale": 1.0, "mode": "fan_avg", "distribution": "uniform", "seed": null}}, "bias_initializer": {"class_name": "Zeros", "config": {}}, "kernel_regularizer": null, "bias_regularizer": null, "activity_regularizer": null, "kernel_constraint": null, "bias_constraint": null}, "inbound_nodes": [[["concatenate_434", 0, 0, {}]]]}, {"name": "dense_484", "class_name": "Dense", "config": {"name": "dense_484", "trainable": true, "dtype": "float32", "units": 100, "activation": "relu", "use_bias": true, "kernel_initializer": {"class_name": "VarianceScaling", "config": {"scale": 1.0, "mode": "fan_avg", "distribution": "uniform", "seed": null}}, "bias_initializer": {"class_name": "Zeros", "config": {}}, "kernel_regularizer": null, "bias_regularizer": null, "activity_regularizer": null, "kernel_constraint": null, "bias_constraint": null}, "inbound_nodes": [[["concatenate_458", 0, 0, {}]]]}, {"name": "dense_491", "class_name": "Dense", "config": {"name": "dense_491", "trainable": true, "dtype": "float32", "units": 100, "activation": "relu", "use_bias": true, "kernel_initializer": {"class_name": "VarianceScaling", "config": {"scale": 1.0, "mode": "fan_avg", "distribution": "uniform", "seed": null}}, "bias_initializer": {"class_name": "Zeros", "config": {}}, "kernel_regularizer": null, "bias_regularizer": null, "activity_regularizer": null, "kernel_constraint": null, "bias_constraint": null}, "inbound_nodes": [[["concatenate_465", 0, 0, {}]]]}, {"name": "concatenate_361", "class_name": "Concatenate", "config": {"name": "concatenate_361", "trainable": true, "dtype": "float32", "axis": -1}, "inbound_nodes": [[["dense_386", 0, 0, {}], ["dense_312", 0, 0, {}]]]}, {"name": "concatenate_364", "class_name": "Concatenate", "config": {"name": "concatenate_364", "trainable": true, "dtype": "float32", "axis": -1}, "inbound_nodes": [[["dense_389", 0, 0, {}], ["dense_315", 0, 0, {}]]]}, {"name": "concatenate_367", "class_name": "Concatenate", "config": {"name": "concatenate_367", "trainable": true, "dtype": "float32", "axis": -1}, "inbound_nodes": [[["dense_312", 0, 0, {}], ["dense_315", 0, 0, {}]]]}, {"name": "concatenate_396", "class_name": "Concatenate", "config": {"name": "concatenate_396", "trainable": true, "dtype": "float32", "axis": -1}, "inbound_nodes": [[["dense_421", 0, 0, {}], ["dense_312", 0, 0, {}]]]}, {"name": "concatenate_435", "class_name": "Concatenate", "config": {"name": "concatenate_435", "trainable": true, "dtype": "float32", "axis": -1}, "inbound_nodes": [[["dense_460", 0, 0, {}], ["dense_315", 0, 0, {}]]]}, {"name": "concatenate_459", "class_name": "Concatenate", "config": {"name": "concatenate_459", "trainable": true, "dtype": "float32", "axis": -1}, "inbound_nodes": [[["dense_484", 0, 0, {}], ["dense_316", 0, 0, {}]]]}, {"name": "concatenate_466", "class_name": "Concatenate", "config": {"name": "concatenate_466", "trainable": true, "dtype": "float32", "axis": -1}, "inbound_nodes": [[["dense_491", 0, 0, {}], ["dense_312", 0, 0, {}]]]}, {"name": "dense_387", "class_name": "Dense", "config": {"name": "dense_387", "trainable": true, "dtype": "float32", "units": 100, "activation": "relu", "use_bias": true, "kernel_initializer": {"class_name": "VarianceScaling", "config": {"scale": 1.0, "mode": "fan_avg", "distribution": "uniform", "seed": null}}, "bias_initializer": {"class_name": "Zeros", "config": {}}, "kernel_regularizer": null, "bias_regularizer": null, "activity_regularizer": null, "kernel_constraint": null, "bias_constraint": null}, "inbound_nodes": [[["concatenate_361", 0, 0, {}]]]}, {"name": "dense_390", "class_name": "Dense", "config": {"name": "dense_390", "trainable": true, "dtype": "float32", "units": 100, "activation": "relu", "use_bias": true, "kernel_initializer": {"class_name": "VarianceScaling", "config": {"scale": 1.0, "mode": "fan_avg", "distribution": "uniform", "seed": null}}, "bias_initializer": {"class_name": "Zeros", "config": {}}, "kernel_regularizer": null, "bias_regularizer": null, "activity_regularizer": null, "kernel_constraint": null, "bias_constraint": null}, "inbound_nodes": [[["concatenate_364", 0, 0, {}]]]}, {"name": "dense_393", "class_name": "Dense", "config": {"name": "dense_393", "trainable": true, "dtype": "float32", "units": 100, "activation": "relu", "use_bias": true, "kernel_initializer": {"class_name": "VarianceScaling", "config": {"scale": 1.0, "mode": "fan_avg", "distribution": "uniform", "seed": null}}, "bias_initializer": {"class_name": "Zeros", "config": {}}, "kernel_regularizer": null, "bias_regularizer": null, "activity_regularizer": null, "kernel_constraint": null, "bias_constraint": null}, "inbound_nodes": [[["concatenate_367", 0, 0, {}]]]}, {"name": "dense_422", "class_name": "Dense", "config": {"name": "dense_422", "trainable": true, "dtype": "float32", "units": 100, "activation": "relu", "use_bias": true, "kernel_initializer": {"class_name": "VarianceScaling", "config": {"scale": 1.0, "mode": "fan_avg", "distribution": "uniform", "seed": null}}, "bias_initializer": {"class_name": "Zeros", "config": {}}, "kernel_regularizer": null, "bias_regularizer": null, "activity_regularizer": null, "kernel_constraint": null, "bias_constraint": null}, "inbound_nodes": [[["concatenate_396", 0, 0, {}]]]}, {"name": "dense_461", "class_name": "Dense", "config": {"name": "dense_461", "trainable": true, "dtype": "float32", "units": 100, "activation": "relu", "use_bias": true, "kernel_initializer": {"class_name": "VarianceScaling", "config": {"scale": 1.0, "mode": "fan_avg", "distribution": "uniform", "seed": null}}, "bias_initializer": {"class_name": "Zeros", "config": {}}, "kernel_regularizer": null, "bias_regularizer": null, "activity_regularizer": null, "kernel_constraint": null, "bias_constraint": null}, "inbound_nodes": [[["concatenate_435", 0, 0, {}]]]}, {"name": "dense_485", "class_name": "Dense", "config": {"name": "dense_485", "trainable": true, "dtype": "float32", "units": 100, "activation": "relu", "use_bias": true, "kernel_initializer": {"class_name": "VarianceScaling", "config": {"scale": 1.0, "mode": "fan_avg", "distribution": "uniform", "seed": null}}, "bias_initializer": {"class_name": "Zeros", "config": {}}, "kernel_regularizer": null, "bias_regularizer": null, "activity_regularizer": null, "kernel_constraint": null, "bias_constraint": null}, "inbound_nodes": [[["concatenate_459", 0, 0, {}]]]}, {"name": "dense_492", "class_name": "Dense", "config": {"name": "dense_492", "trainable": true, "dtype": "float32", "units": 100, "activation": "relu", "use_bias": true, "kernel_initializer": {"class_name": "VarianceScaling", "config": {"scale": 1.0, "mode": "fan_avg", "distribution": "uniform", "seed": null}}, "bias_initializer": {"class_name": "Zeros", "config": {}}, "kernel_regularizer": null, "bias_regularizer": null, "activity_regularizer": null, "kernel_constraint": null, "bias_constraint": null}, "inbound_nodes": [[["concatenate_466", 0, 0, {}]]]}, {"name": "concatenate_365", "class_name": "Concatenate", "config": {"name": "concatenate_365", "trainable": true, "dtype": "float32", "axis": -1}, "inbound_nodes": [[["dense_387", 0, 0, {}], ["dense_390", 0, 0, {}]]]}, {"name": "concatenate_397", "class_name": "Concatenate", "config": {"name": "concatenate_397", "trainable": true, "dtype": "float32", "axis": -1}, "inbound_nodes": [[["dense_393", 0, 0, {}], ["dense_422", 0, 0, {}]]]}, {"name": "concatenate_460", "class_name": "Concatenate", "config": {"name": "concatenate_460", "trainable": true, "dtype": "float32", "axis": -1}, "inbound_nodes": [[["dense_461", 0, 0, {}], ["dense_485", 0, 0, {}]]]}, {"name": "concatenate_467", "class_name": "Concatenate", "config": {"name": "concatenate_467", "trainable": true, "dtype": "float32", "axis": -1}, "inbound_nodes": [[["dense_310", 0, 0, {}], ["dense_492", 0, 0, {}]]]}, {"name": "dense_391", "class_name": "Dense", "config": {"name": "dense_391", "trainable": true, "dtype": "float32", "units": 100, "activation": "relu", "use_bias": true, "kernel_initializer": {"class_name": "VarianceScaling", "config": {"scale": 1.0, "mode": "fan_avg", "distribution": "uniform", "seed": null}}, "bias_initializer": {"class_name": "Zeros", "config": {}}, "kernel_regularizer": null, "bias_regularizer": null, "activity_regularizer": null, "kernel_constraint": null, "bias_constraint": null}, "inbound_nodes": [[["concatenate_365", 0, 0, {}]]]}, {"name": "dense_423", "class_name": "Dense", "config": {"name": "dense_423", "trainable": true, "dtype": "float32", "units": 100, "activation": "relu", "use_bias": true, "kernel_initializer": {"class_name": "VarianceScaling", "config": {"scale": 1.0, "mode": "fan_avg", "distribution": "uniform", "seed": null}}, "bias_initializer": {"class_name": "Zeros", "config": {}}, "kernel_regularizer": null, "bias_regularizer": null, "activity_regularizer": null, "kernel_constraint": null, "bias_constraint": null}, "inbound_nodes": [[["concatenate_397", 0, 0, {}]]]}, {"name": "dense_486", "class_name": "Dense", "config": {"name": "dense_486", "trainable": true, "dtype": "float32", "units": 100, "activation": "relu", "use_bias": true, "kernel_initializer": {"class_name": "VarianceScaling", "config": {"scale": 1.0, "mode": "fan_avg", "distribution": "uniform", "seed": null}}, "bias_initializer": {"class_name": "Zeros", "config": {}}, "kernel_regularizer": null, "bias_regularizer": null, "activity_regularizer": null, "kernel_constraint": null, "bias_constraint": null}, "inbound_nodes": [[["concatenate_460", 0, 0, {}]]]}, {"name": "dense_493", "class_name": "Dense", "config": {"name": "dense_493", "trainable": true, "dtype": "float32", "units": 100, "activation": "relu", "use_bias": true, "kernel_initializer": {"class_name": "VarianceScaling", "config": {"scale": 1.0, "mode": "fan_avg", "distribution": "uniform", "seed": null}}, "bias_initializer": {"class_name": "Zeros", "config": {}}, "kernel_regularizer": null, "bias_regularizer": null, "activity_regularizer": null, "kernel_constraint": null, "bias_constraint": null}, "inbound_nodes": [[["concatenate_467", 0, 0, {}]]]}, {"name": "concatenate_366", "class_name": "Concatenate", "config": {"name": "concatenate_366", "trainable": true, "dtype": "float32", "axis": -1}, "inbound_nodes": [[["dense_391", 0, 0, {}], ["dense_312", 0, 0, {}]]]}, {"name": "concatenate_398", "class_name": "Concatenate", "config": {"name": "concatenate_398", "trainable": true, "dtype": "float32", "axis": -1}, "inbound_nodes": [[["dense_423", 0, 0, {}], ["dense_310", 0, 0, {}]]]}, {"name": "concatenate_461", "class_name": "Concatenate", "config": {"name": "concatenate_461", "trainable": true, "dtype": "float32", "axis": -1}, "inbound_nodes": [[["dense_486", 0, 0, {}], ["dense_310", 0, 0, {}]]]}, {"name": "concatenate_468", "class_name": "Concatenate", "config": {"name": "concatenate_468", "trainable": true, "dtype": "float32", "axis": -1}, "inbound_nodes": [[["dense_306", 0, 0, {}], ["dense_493", 0, 0, {}]]]}, {"name": "dense_392", "class_name": "Dense", "config": {"name": "dense_392", "trainable": true, "dtype": "float32", "units": 100, "activation": "relu", "use_bias": true, "kernel_initializer": {"class_name": "VarianceScaling", "config": {"scale": 1.0, "mode": "fan_avg", "distribution": "uniform", "seed": null}}, "bias_initializer": {"class_name": "Zeros", "config": {}}, "kernel_regularizer": null, "bias_regularizer": null, "activity_regularizer": null, "kernel_constraint": null, "bias_constraint": null}, "inbound_nodes": [[["concatenate_366", 0, 0, {}]]]}, {"name": "dense_424", "class_name": "Dense", "config": {"name": "dense_424", "trainable": true, "dtype": "float32", "units": 100, "activation": "relu", "use_bias": true, "kernel_initializer": {"class_name": "VarianceScaling", "config": {"scale": 1.0, "mode": "fan_avg", "distribution": "uniform", "seed": null}}, "bias_initializer": {"class_name": "Zeros", "config": {}}, "kernel_regularizer": null, "bias_regularizer": null, "activity_regularizer": null, "kernel_constraint": null, "bias_constraint": null}, "inbound_nodes": [[["concatenate_398", 0, 0, {}]]]}, {"name": "dense_487", "class_name": "Dense", "config": {"name": "dense_487", "trainable": true, "dtype": "float32", "units": 100, "activation": "relu", "use_bias": true, "kernel_initializer": {"class_name": "VarianceScaling", "config": {"scale": 1.0, "mode": "fan_avg", "distribution": "uniform", "seed": null}}, "bias_initializer": {"class_name": "Zeros", "config": {}}, "kernel_regularizer": null, "bias_regularizer": null, "activity_regularizer": null, "kernel_constraint": null, "bias_constraint": null}, "inbound_nodes": [[["concatenate_461", 0, 0, {}]]]}, {"name": "dense_494", "class_name": "Dense", "config": {"name": "dense_494", "trainable": true, "dtype": "float32", "units": 100, "activation": "relu", "use_bias": true, "kernel_initializer": {"class_name": "VarianceScaling", "config": {"scale": 1.0, "mode": "fan_avg", "distribution": "uniform", "seed": null}}, "bias_initializer": {"class_name": "Zeros", "config": {}}, "kernel_regularizer": null, "bias_regularizer": null, "activity_regularizer": null, "kernel_constraint": null, "bias_constraint": null}, "inbound_nodes": [[["concatenate_468", 0, 0, {}]]]}, {"name": "concatenate_399", "class_name": "Concatenate", "config": {"name": "concatenate_399", "trainable": true, "dtype": "float32", "axis": -1}, "inbound_nodes": [[["dense_392", 0, 0, {}], ["dense_424", 0, 0, {}]]]}, {"name": "concatenate_469", "class_name": "Concatenate", "config": {"name": "concatenate_469", "trainable": true, "dtype": "float32", "axis": -1}, "inbound_nodes": [[["dense_487", 0, 0, {}], ["dense_494", 0, 0, {}]]]}, {"name": "dense_425", "class_name": "Dense", "config": {"name": "dense_425", "trainable": true, "dtype": "float32", "units": 100, "activation": "relu", "use_bias": true, "kernel_initializer": {"class_name": "VarianceScaling", "config": {"scale": 1.0, "mode": "fan_avg", "distribution": "uniform", "seed": null}}, "bias_initializer": {"class_name": "Zeros", "config": {}}, "kernel_regularizer": null, "bias_regularizer": null, "activity_regularizer": null, "kernel_constraint": null, "bias_constraint": null}, "inbound_nodes": [[["concatenate_399", 0, 0, {}]]]}, {"name": "dense_495", "class_name": "Dense", "config": {"name": "dense_495", "trainable": true, "dtype": "float32", "units": 100, "activation": "relu", "use_bias": true, "kernel_initializer": {"class_name": "VarianceScaling", "config": {"scale": 1.0, "mode": "fan_avg", "distribution": "uniform", "seed": null}}, "bias_initializer": {"class_name": "Zeros", "config": {}}, "kernel_regularizer": null, "bias_regularizer": null, "activity_regularizer": null, "kernel_constraint": null, "bias_constraint": null}, "inbound_nodes": [[["concatenate_469", 0, 0, {}]]]}, {"name": "concatenate_400", "class_name": "Concatenate", "config": {"name": "concatenate_400", "trainable": true, "dtype": "float32", "axis": -1}, "inbound_nodes": [[["dense_425", 0, 0, {}], ["dense_310", 0, 0, {}]]]}, {"name": "concatenate_470", "class_name": "Concatenate", "config": {"name": "concatenate_470", "trainable": true, "dtype": "float32", "axis": -1}, "inbound_nodes": [[["dense_495", 0, 0, {}], ["dense_314", 0, 0, {}]]]}, {"name": "dense_426", "class_name": "Dense", "config": {"name": "dense_426", "trainable": true, "dtype": "float32", "units": 100, "activation": "relu", "use_bias": true, "kernel_initializer": {"class_name": "VarianceScaling", "config": {"scale": 1.0, "mode": "fan_avg", "distribution": "uniform", "seed": null}}, "bias_initializer": {"class_name": "Zeros", "config": {}}, "kernel_regularizer": null, "bias_regularizer": null, "activity_regularizer": null, "kernel_constraint": null, "bias_constraint": null}, "inbound_nodes": [[["concatenate_400", 0, 0, {}]]]}, {"name": "dense_496", "class_name": "Dense", "config": {"name": "dense_496", "trainable": true, "dtype": "float32", "units": 100, "activation": "relu", "use_bias": true, "kernel_initializer": {"class_name": "VarianceScaling", "config": {"scale": 1.0, "mode": "fan_avg", "distribution": "uniform", "seed": null}}, "bias_initializer": {"class_name": "Zeros", "config": {}}, "kernel_regularizer": null, "bias_regularizer": null, "activity_regularizer": null, "kernel_constraint": null, "bias_constraint": null}, "inbound_nodes": [[["concatenate_470", 0, 0, {}]]]}, {"name": "concatenate_471", "class_name": "Concatenate", "config": {"name": "concatenate_471", "trainable": true, "dtype": "float32", "axis": -1}, "inbound_nodes": [[["dense_426", 0, 0, {}], ["dense_496", 0, 0, {}]]]}, {"name": "dense_497", "class_name": "Dense", "config": {"name": "dense_497", "trainable": true, "dtype": "float32", "units": 100, "activation": "relu", "use_bias": true, "kernel_initializer": {"class_name": "VarianceScaling", "config": {"scale": 1.0, "mode": "fan_avg", "distribution": "uniform", "seed": null}}, "bias_initializer": {"class_name": "Zeros", "config": {}}, "kernel_regularizer": null, "bias_regularizer": null, "activity_regularizer": null, "kernel_constraint": null, "bias_constraint": null}, "inbound_nodes": [[["concatenate_471", 0, 0, {}]]]}, {"name": "concatenate_472", "class_name": "Concatenate", "config": {"name": "concatenate_472", "trainable": true, "dtype": "float32", "axis": -1}, "inbound_nodes": [[["dense_497", 0, 0, {}], ["dense_316", 0, 0, {}]]]}, {"name": "dense_498", "class_name": "Dense", "config": {"name": "dense_498", "trainable": true, "dtype": "float32", "units": 100, "activation": "relu", "use_bias": true, "kernel_initializer": {"class_name": "VarianceScaling", "config": {"scale": 1.0, "mode": "fan_avg", "distribution": "uniform", "seed": null}}, "bias_initializer": {"class_name": "Zeros", "config": {}}, "kernel_regularizer": null, "bias_regularizer": null, "activity_regularizer": null, "kernel_constraint": null, "bias_constraint": null}, "inbound_nodes": [[["concatenate_472", 0, 0, {}]]]}, {"name": "dense_499", "class_name": "Dense", "config": {"name": "dense_499", "trainable": true, "dtype": "float32", "units": 2, "activation": "softmax", "use_bias": true, "kernel_initializer": {"class_name": "VarianceScaling", "config": {"scale": 1.0, "mode": "fan_avg", "distribution": "uniform", "seed": null}}, "bias_initializer": {"class_name": "Zeros", "config": {}}, "kernel_regularizer": null, "bias_regularizer": null, "activity_regularizer": null, "kernel_constraint": null, "bias_constraint": null}, "inbound_nodes": [[["dense_498", 0, 0, {}]]]}], "input_layers": [["input_13", 0, 0], ["input_14", 0, 0], ["input_15", 0, 0], ["input_16", 0, 0], ["input_17", 0, 0], ["input_18", 0, 0], ["input_19", 0, 0], ["input_20", 0, 0], ["input_21", 0, 0], ["input_22", 0, 0], ["input_23", 0, 0]], "output_layers": [["dense_499", 0, 0]]}, "keras_version": "2.3.1", "backend": "tensorflow"}