{"class_name": "Model", "config": {"name": "model_3", "layers": [{"name": "input_9", "class_name": "InputLayer", "config": {"batch_input_shape": [null, 1], "dtype": "float32", "sparse": false, "name": "input_9"}, "inbound_nodes": []}, {"name": "dense_120", "class_name": "Dense", "config": {"name": "dense_120", "trainable": true, "dtype": "float32", "units": 50, "activation": "relu", "use_bias": true, "kernel_initializer": {"class_name": "VarianceScaling", "config": {"scale": 1.0, "mode": "fan_avg", "distribution": "uniform", "seed": null}}, "bias_initializer": {"class_name": "Zeros", "config": {}}, "kernel_regularizer": null, "bias_regularizer": null, "activity_regularizer": null, "kernel_constraint": null, "bias_constraint": null}, "inbound_nodes": [[["input_9", 0, 0, {}]]]}, {"name": "input_10", "class_name": "InputLayer", "config": {"batch_input_shape": [null, 1], "dtype": "float32", "sparse": false, "name": "input_10"}, "inbound_nodes": []}, {"name": "input_12", "class_name": "InputLayer", "config": {"batch_input_shape": [null, 1], "dtype": "float32", "sparse": false, "name": "input_12"}, "inbound_nodes": []}, {"name": "input_8", "class_name": "InputLayer", "config": {"batch_input_shape": [null, 1], "dtype": "float32", "sparse": false, "name": "input_8"}, "inbound_nodes": []}, {"name": "input_11", "class_name": "InputLayer", "config": {"batch_input_shape": [null, 1], "dtype": "float32", "sparse": false, "name": "input_11"}, "inbound_nodes": []}, {"name": "concatenate_158", "class_name": "Concatenate", "config": {"name": "concatenate_158", "trainable": true, "dtype": "float32", "axis": -1}, "inbound_nodes": [[["dense_120", 0, 0, {}], ["dense_120", 0, 0, {}]]]}, {"name": "concatenate_159", "class_name": "Concatenate", "config": {"name": "concatenate_159", "trainable": true, "dtype": "float32", "axis": -1}, "inbound_nodes": [[["dense_120", 0, 0, {}], ["dense_120", 0, 0, {}]]]}, {"name": "concatenate_188", "class_name": "Concatenate", "config": {"name": "concatenate_188", "trainable": true, "dtype": "float32", "axis": -1}, "inbound_nodes": [[["dense_120", 0, 0, {}], ["dense_120", 0, 0, {}]]]}, {"name": "concatenate_189", "class_name": "Concatenate", "config": {"name": "concatenate_189", "trainable": true, "dtype": "float32", "axis": -1}, "inbound_nodes": [[["dense_120", 0, 0, {}], ["dense_120", 0, 0, {}]]]}, {"name": "dense_121", "class_name": "Dense", "config": {"name": "dense_121", "trainable": true, "dtype": "float32", "units": 50, "activation": "relu", "use_bias": true, "kernel_initializer": {"class_name": "VarianceScaling", "config": {"scale": 1.0, "mode": "fan_avg", "distribution": "uniform", "seed": null}}, "bias_initializer": {"class_name": "Zeros", "config": {}}, "kernel_regularizer": null, "bias_regularizer": null, "activity_regularizer": null, "kernel_constraint": null, "bias_constraint": null}, "inbound_nodes": [[["input_10", 0, 0, {}]]]}, {"name": "dense_123", "class_name": "Dense", "config": {"name": "dense_123", "trainable": true, "dtype": "float32", "units": 50, "activation": "relu", "use_bias": true, "kernel_initializer": {"class_name": "VarianceScaling", "config": {"scale": 1.0, "mode": "fan_avg", "distribution": "uniform", "seed": null}}, "bias_initializer": {"class_name": "Zeros", "config": {}}, "kernel_regularizer": null, "bias_regularizer": null, "activity_regularizer": null, "kernel_constraint": null, "bias_constraint": null}, "inbound_nodes": [[["input_12", 0, 0, {}]]]}, {"name": "dense_119", "class_name": "Dense", "config": {"name": "dense_119", "trainable": true, "dtype": "float32", "units": 50, "activation": "relu", "use_bias": true, "kernel_initializer": {"class_name": "VarianceScaling", "config": {"scale": 1.0, "mode": "fan_avg", "distribution": "uniform", "seed": null}}, "bias_initializer": {"class_name": "Zeros", "config": {}}, "kernel_regularizer": null, "bias_regularizer": null, "activity_regularizer": null, "kernel_constraint": null, "bias_constraint": null}, "inbound_nodes": [[["input_8", 0, 0, {}]]]}, {"name": "dense_122", "class_name": "Dense", "config": {"name": "dense_122", "trainable": true, "dtype": "float32", "units": 50, "activation": "relu", "use_bias": true, "kernel_initializer": {"class_name": "VarianceScaling", "config": {"scale": 1.0, "mode": "fan_avg", "distribution": "uniform", "seed": null}}, "bias_initializer": {"class_name": "Zeros", "config": {}}, "kernel_regularizer": null, "bias_regularizer": null, "activity_regularizer": null, "kernel_constraint": null, "bias_constraint": null}, "inbound_nodes": [[["input_11", 0, 0, {}]]]}, {"name": "dense_172", "class_name": "Dense", "config": {"name": "dense_172", "trainable": true, "dtype": "float32", "units": 100, "activation": "relu", "use_bias": true, "kernel_initializer": {"class_name": "VarianceScaling", "config": {"scale": 1.0, "mode": "fan_avg", "distribution": "uniform", "seed": null}}, "bias_initializer": {"class_name": "Zeros", "config": {}}, "kernel_regularizer": null, "bias_regularizer": null, "activity_regularizer": null, "kernel_constraint": null, "bias_constraint": null}, "inbound_nodes": [[["concatenate_158", 0, 0, {}]]]}, {"name": "dense_173", "class_name": "Dense", "config": {"name": "dense_173", "trainable": true, "dtype": "float32", "units": 100, "activation": "relu", "use_bias": true, "kernel_initializer": {"class_name": "VarianceScaling", "config": {"scale": 1.0, "mode": "fan_avg", "distribution": "uniform", "seed": null}}, "bias_initializer": {"class_name": "Zeros", "config": {}}, "kernel_regularizer": null, "bias_regularizer": null, "activity_regularizer": null, "kernel_constraint": null, "bias_constraint": null}, "inbound_nodes": [[["concatenate_159", 0, 0, {}]]]}, {"name": "dense_202", "class_name": "Dense", "config": {"name": "dense_202", "trainable": true, "dtype": "float32", "units": 100, "activation": "relu", "use_bias": true, "kernel_initializer": {"class_name": "VarianceScaling", "config": {"scale": 1.0, "mode": "fan_avg", "distribution": "uniform", "seed": null}}, "bias_initializer": {"class_name": "Zeros", "config": {}}, "kernel_regularizer": null, "bias_regularizer": null, "activity_regularizer": null, "kernel_constraint": null, "bias_constraint": null}, "inbound_nodes": [[["concatenate_188", 0, 0, {}]]]}, {"name": "dense_203", "class_name": "Dense", "config": {"name": "dense_203", "trainable": true, "dtype": "float32", "units": 100, "activation": "relu", "use_bias": true, "kernel_initializer": {"class_name": "VarianceScaling", "config": {"scale": 1.0, "mode": "fan_avg", "distribution": "uniform", "seed": null}}, "bias_initializer": {"class_name": "Zeros", "config": {}}, "kernel_regularizer": null, "bias_regularizer": null, "activity_regularizer": null, "kernel_constraint": null, "bias_constraint": null}, "inbound_nodes": [[["concatenate_189", 0, 0, {}]]]}, {"name": "concatenate_138", "class_name": "Concatenate", "config": {"name": "concatenate_138", "trainable": true, "dtype": "float32", "axis": -1}, "inbound_nodes": [[["dense_121", 0, 0, {}], ["dense_121", 0, 0, {}]]]}, {"name": "concatenate_140", "class_name": "Concatenate", "config": {"name": "concatenate_140", "trainable": true, "dtype": "float32", "axis": -1}, "inbound_nodes": [[["dense_121", 0, 0, {}], ["dense_121", 0, 0, {}]]]}, {"name": "concatenate_144", "class_name": "Concatenate", "config": {"name": "concatenate_144", "trainable": true, "dtype": "float32", "axis": -1}, "inbound_nodes": [[["dense_122", 0, 0, {}], ["dense_122", 0, 0, {}]]]}, {"name": "concatenate_146", "class_name": "Concatenate", "config": {"name": "concatenate_146", "trainable": true, "dtype": "float32", "axis": -1}, "inbound_nodes": [[["dense_120", 0, 0, {}], ["dense_120", 0, 0, {}]]]}, {"name": "concatenate_152", "class_name": "Concatenate", "config": {"name": "concatenate_152", "trainable": true, "dtype": "float32", "axis": -1}, "inbound_nodes": [[["dense_121", 0, 0, {}], ["dense_121", 0, 0, {}]]]}, {"name": "concatenate_154", "class_name": "Concatenate", "config": {"name": "concatenate_154", "trainable": true, "dtype": "float32", "axis": -1}, "inbound_nodes": [[["dense_121", 0, 0, {}], ["dense_121", 0, 0, {}]]]}, {"name": "concatenate_160", "class_name": "Concatenate", "config": {"name": "concatenate_160", "trainable": true, "dtype": "float32", "axis": -1}, "inbound_nodes": [[["dense_172", 0, 0, {}], ["dense_173", 0, 0, {}]]]}, {"name": "concatenate_168", "class_name": "Concatenate", "config": {"name": "concatenate_168", "trainable": true, "dtype": "float32", "axis": -1}, "inbound_nodes": [[["dense_121", 0, 0, {}], ["dense_121", 0, 0, {}]]]}, {"name": "concatenate_170", "class_name": "Concatenate", "config": {"name": "concatenate_170", "trainable": true, "dtype": "float32", "axis": -1}, "inbound_nodes": [[["dense_119", 0, 0, {}], ["dense_119", 0, 0, {}]]]}, {"name": "concatenate_174", "class_name": "Concatenate", "config": {"name": "concatenate_174", "trainable": true, "dtype": "float32", "axis": -1}, "inbound_nodes": [[["dense_119", 0, 0, {}], ["dense_119", 0, 0, {}]]]}, {"name": "concatenate_176", "class_name": "Concatenate", "config": {"name": "concatenate_176", "trainable": true, "dtype": "float32", "axis": -1}, "inbound_nodes": [[["dense_119", 0, 0, {}], ["dense_119", 0, 0, {}]]]}, {"name": "concatenate_182", "class_name": "Concatenate", "config": {"name": "concatenate_182", "trainable": true, "dtype": "float32", "axis": -1}, "inbound_nodes": [[["dense_120", 0, 0, {}], ["dense_120", 0, 0, {}]]]}, {"name": "concatenate_184", "class_name": "Concatenate", "config": {"name": "concatenate_184", "trainable": true, "dtype": "float32", "axis": -1}, "inbound_nodes": [[["dense_120", 0, 0, {}], ["dense_120", 0, 0, {}]]]}, {"name": "concatenate_190", "class_name": "Concatenate", "config": {"name": "concatenate_190", "trainable": true, "dtype": "float32", "axis": -1}, "inbound_nodes": [[["dense_202", 0, 0, {}], ["dense_203", 0, 0, {}]]]}, {"name": "concatenate_210", "class_name": "Concatenate", "config": {"name": "concatenate_210", "trainable": true, "dtype": "float32", "axis": -1}, "inbound_nodes": [[["dense_120", 0, 0, {}], ["dense_120", 0, 0, {}]]]}, {"name": "concatenate_214", "class_name": "Concatenate", "config": {"name": "concatenate_214", "trainable": true, "dtype": "float32", "axis": -1}, "inbound_nodes": [[["dense_121", 0, 0, {}], ["dense_121", 0, 0, {}]]]}, {"name": "concatenate_224", "class_name": "Concatenate", "config": {"name": "concatenate_224", "trainable": true, "dtype": "float32", "axis": -1}, "inbound_nodes": [[["dense_120", 0, 0, {}], ["dense_120", 0, 0, {}]]]}, {"name": "concatenate_226", "class_name": "Concatenate", "config": {"name": "concatenate_226", "trainable": true, "dtype": "float32", "axis": -1}, "inbound_nodes": [[["dense_121", 0, 0, {}], ["dense_121", 0, 0, {}]]]}, {"name": "concatenate_230", "class_name": "Concatenate", "config": {"name": "concatenate_230", "trainable": true, "dtype": "float32", "axis": -1}, "inbound_nodes": [[["dense_120", 0, 0, {}], ["dense_120", 0, 0, {}]]]}, {"name": "concatenate_232", "class_name": "Concatenate", "config": {"name": "concatenate_232", "trainable": true, "dtype": "float32", "axis": -1}, "inbound_nodes": [[["dense_120", 0, 0, {}], ["dense_120", 0, 0, {}]]]}, {"name": "concatenate_238", "class_name": "Concatenate", "config": {"name": "concatenate_238", "trainable": true, "dtype": "float32", "axis": -1}, "inbound_nodes": [[["dense_121", 0, 0, {}], ["dense_121", 0, 0, {}]]]}, {"name": "concatenate_240", "class_name": "Concatenate", "config": {"name": "concatenate_240", "trainable": true, "dtype": "float32", "axis": -1}, "inbound_nodes": [[["dense_120", 0, 0, {}], ["dense_120", 0, 0, {}]]]}, {"name": "concatenate_244", "class_name": "Concatenate", "config": {"name": "concatenate_244", "trainable": true, "dtype": "float32", "axis": -1}, "inbound_nodes": [[["dense_121", 0, 0, {}], ["dense_121", 0, 0, {}]]]}, {"name": "concatenate_246", "class_name": "Concatenate", "config": {"name": "concatenate_246", "trainable": true, "dtype": "float32", "axis": -1}, "inbound_nodes": [[["dense_121", 0, 0, {}], ["dense_121", 0, 0, {}]]]}, {"name": "concatenate_255", "class_name": "Concatenate", "config": {"name": "concatenate_255", "trainable": true, "dtype": "float32", "axis": -1}, "inbound_nodes": [[["dense_121", 0, 0, {}], ["dense_121", 0, 0, {}]]]}, {"name": "concatenate_259", "class_name": "Concatenate", "config": {"name": "concatenate_259", "trainable": true, "dtype": "float32", "axis": -1}, "inbound_nodes": [[["dense_120", 0, 0, {}], ["dense_120", 0, 0, {}]]]}, {"name": "concatenate_261", "class_name": "Concatenate", "config": {"name": "concatenate_261", "trainable": true, "dtype": "float32", "axis": -1}, "inbound_nodes": [[["dense_120", 0, 0, {}], ["dense_120", 0, 0, {}]]]}, {"name": "concatenate_267", "class_name": "Concatenate", "config": {"name": "concatenate_267", "trainable": true, "dtype": "float32", "axis": -1}, "inbound_nodes": [[["dense_122", 0, 0, {}], ["dense_122", 0, 0, {}]]]}, {"name": "concatenate_269", "class_name": "Concatenate", "config": {"name": "concatenate_269", "trainable": true, "dtype": "float32", "axis": -1}, "inbound_nodes": [[["dense_122", 0, 0, {}], ["dense_122", 0, 0, {}]]]}, {"name": "concatenate_273", "class_name": "Concatenate", "config": {"name": "concatenate_273", "trainable": true, "dtype": "float32", "axis": -1}, "inbound_nodes": [[["dense_121", 0, 0, {}], ["dense_121", 0, 0, {}]]]}, {"name": "concatenate_275", "class_name": "Concatenate", "config": {"name": "concatenate_275", "trainable": true, "dtype": "float32", "axis": -1}, "inbound_nodes": [[["dense_123", 0, 0, {}], ["dense_123", 0, 0, {}]]]}, {"name": "dense_152", "class_name": "Dense", "config": {"name": "dense_152", "trainable": true, "dtype": "float32", "units": 100, "activation": "relu", "use_bias": true, "kernel_initializer": {"class_name": "VarianceScaling", "config": {"scale": 1.0, "mode": "fan_avg", "distribution": "uniform", "seed": null}}, "bias_initializer": {"class_name": "Zeros", "config": {}}, "kernel_regularizer": null, "bias_regularizer": null, "activity_regularizer": null, "kernel_constraint": null, "bias_constraint": null}, "inbound_nodes": [[["concatenate_138", 0, 0, {}]]]}, {"name": "dense_154", "class_name": "Dense", "config": {"name": "dense_154", "trainable": true, "dtype": "float32", "units": 100, "activation": "relu", "use_bias": true, "kernel_initializer": {"class_name": "VarianceScaling", "config": {"scale": 1.0, "mode": "fan_avg", "distribution": "uniform", "seed": null}}, "bias_initializer": {"class_name": "Zeros", "config": {}}, "kernel_regularizer": null, "bias_regularizer": null, "activity_regularizer": null, "kernel_constraint": null, "bias_constraint": null}, "inbound_nodes": [[["concatenate_140", 0, 0, {}]]]}, {"name": "dense_158", "class_name": "Dense", "config": {"name": "dense_158", "trainable": true, "dtype": "float32", "units": 100, "activation": "relu", "use_bias": true, "kernel_initializer": {"class_name": "VarianceScaling", "config": {"scale": 1.0, "mode": "fan_avg", "distribution": "uniform", "seed": null}}, "bias_initializer": {"class_name": "Zeros", "config": {}}, "kernel_regularizer": null, "bias_regularizer": null, "activity_regularizer": null, "kernel_constraint": null, "bias_constraint": null}, "inbound_nodes": [[["concatenate_144", 0, 0, {}]]]}, {"name": "dense_160", "class_name": "Dense", "config": {"name": "dense_160", "trainable": true, "dtype": "float32", "units": 100, "activation": "relu", "use_bias": true, "kernel_initializer": {"class_name": "VarianceScaling", "config": {"scale": 1.0, "mode": "fan_avg", "distribution": "uniform", "seed": null}}, "bias_initializer": {"class_name": "Zeros", "config": {}}, "kernel_regularizer": null, "bias_regularizer": null, "activity_regularizer": null, "kernel_constraint": null, "bias_constraint": null}, "inbound_nodes": [[["concatenate_146", 0, 0, {}]]]}, {"name": "dense_166", "class_name": "Dense", "config": {"name": "dense_166", "trainable": true, "dtype": "float32", "units": 100, "activation": "relu", "use_bias": true, "kernel_initializer": {"class_name": "VarianceScaling", "config": {"scale": 1.0, "mode": "fan_avg", "distribution": "uniform", "seed": null}}, "bias_initializer": {"class_name": "Zeros", "config": {}}, "kernel_regularizer": null, "bias_regularizer": null, "activity_regularizer": null, "kernel_constraint": null, "bias_constraint": null}, "inbound_nodes": [[["concatenate_152", 0, 0, {}]]]}, {"name": "dense_168", "class_name": "Dense", "config": {"name": "dense_168", "trainable": true, "dtype": "float32", "units": 100, "activation": "relu", "use_bias": true, "kernel_initializer": {"class_name": "VarianceScaling", "config": {"scale": 1.0, "mode": "fan_avg", "distribution": "uniform", "seed": null}}, "bias_initializer": {"class_name": "Zeros", "config": {}}, "kernel_regularizer": null, "bias_regularizer": null, "activity_regularizer": null, "kernel_constraint": null, "bias_constraint": null}, "inbound_nodes": [[["concatenate_154", 0, 0, {}]]]}, {"name": "dense_174", "class_name": "Dense", "config": {"name": "dense_174", "trainable": true, "dtype": "float32", "units": 100, "activation": "relu", "use_bias": true, "kernel_initializer": {"class_name": "VarianceScaling", "config": {"scale": 1.0, "mode": "fan_avg", "distribution": "uniform", "seed": null}}, "bias_initializer": {"class_name": "Zeros", "config": {}}, "kernel_regularizer": null, "bias_regularizer": null, "activity_regularizer": null, "kernel_constraint": null, "bias_constraint": null}, "inbound_nodes": [[["concatenate_160", 0, 0, {}]]]}, {"name": "dense_182", "class_name": "Dense", "config": {"name": "dense_182", "trainable": true, "dtype": "float32", "units": 100, "activation": "relu", "use_bias": true, "kernel_initializer": {"class_name": "VarianceScaling", "config": {"scale": 1.0, "mode": "fan_avg", "distribution": "uniform", "seed": null}}, "bias_initializer": {"class_name": "Zeros", "config": {}}, "kernel_regularizer": null, "bias_regularizer": null, "activity_regularizer": null, "kernel_constraint": null, "bias_constraint": null}, "inbound_nodes": [[["concatenate_168", 0, 0, {}]]]}, {"name": "dense_184", "class_name": "Dense", "config": {"name": "dense_184", "trainable": true, "dtype": "float32", "units": 100, "activation": "relu", "use_bias": true, "kernel_initializer": {"class_name": "VarianceScaling", "config": {"scale": 1.0, "mode": "fan_avg", "distribution": "uniform", "seed": null}}, "bias_initializer": {"class_name": "Zeros", "config": {}}, "kernel_regularizer": null, "bias_regularizer": null, "activity_regularizer": null, "kernel_constraint": null, "bias_constraint": null}, "inbound_nodes": [[["concatenate_170", 0, 0, {}]]]}, {"name": "dense_188", "class_name": "Dense", "config": {"name": "dense_188", "trainable": true, "dtype": "float32", "units": 100, "activation": "relu", "use_bias": true, "kernel_initializer": {"class_name": "VarianceScaling", "config": {"scale": 1.0, "mode": "fan_avg", "distribution": "uniform", "seed": null}}, "bias_initializer": {"class_name": "Zeros", "config": {}}, "kernel_regularizer": null, "bias_regularizer": null, "activity_regularizer": null, "kernel_constraint": null, "bias_constraint": null}, "inbound_nodes": [[["concatenate_174", 0, 0, {}]]]}, {"name": "dense_190", "class_name": "Dense", "config": {"name": "dense_190", "trainable": true, "dtype": "float32", "units": 100, "activation": "relu", "use_bias": true, "kernel_initializer": {"class_name": "VarianceScaling", "config": {"scale": 1.0, "mode": "fan_avg", "distribution": "uniform", "seed": null}}, "bias_initializer": {"class_name": "Zeros", "config": {}}, "kernel_regularizer": null, "bias_regularizer": null, "activity_regularizer": null, "kernel_constraint": null, "bias_constraint": null}, "inbound_nodes": [[["concatenate_176", 0, 0, {}]]]}, {"name": "dense_196", "class_name": "Dense", "config": {"name": "dense_196", "trainable": true, "dtype": "float32", "units": 100, "activation": "relu", "use_bias": true, "kernel_initializer": {"class_name": "VarianceScaling", "config": {"scale": 1.0, "mode": "fan_avg", "distribution": "uniform", "seed": null}}, "bias_initializer": {"class_name": "Zeros", "config": {}}, "kernel_regularizer": null, "bias_regularizer": null, "activity_regularizer": null, "kernel_constraint": null, "bias_constraint": null}, "inbound_nodes": [[["concatenate_182", 0, 0, {}]]]}, {"name": "dense_198", "class_name": "Dense", "config": {"name": "dense_198", "trainable": true, "dtype": "float32", "units": 100, "activation": "relu", "use_bias": true, "kernel_initializer": {"class_name": "VarianceScaling", "config": {"scale": 1.0, "mode": "fan_avg", "distribution": "uniform", "seed": null}}, "bias_initializer": {"class_name": "Zeros", "config": {}}, "kernel_regularizer": null, "bias_regularizer": null, "activity_regularizer": null, "kernel_constraint": null, "bias_constraint": null}, "inbound_nodes": [[["concatenate_184", 0, 0, {}]]]}, {"name": "dense_204", "class_name": "Dense", "config": {"name": "dense_204", "trainable": true, "dtype": "float32", "units": 100, "activation": "relu", "use_bias": true, "kernel_initializer": {"class_name": "VarianceScaling", "config": {"scale": 1.0, "mode": "fan_avg", "distribution": "uniform", "seed": null}}, "bias_initializer": {"class_name": "Zeros", "config": {}}, "kernel_regularizer": null, "bias_regularizer": null, "activity_regularizer": null, "kernel_constraint": null, "bias_constraint": null}, "inbound_nodes": [[["concatenate_190", 0, 0, {}]]]}, {"name": "dense_224", "class_name": "Dense", "config": {"name": "dense_224", "trainable": true, "dtype": "float32", "units": 100, "activation": "relu", "use_bias": true, "kernel_initializer": {"class_name": "VarianceScaling", "config": {"scale": 1.0, "mode": "fan_avg", "distribution": "uniform", "seed": null}}, "bias_initializer": {"class_name": "Zeros", "config": {}}, "kernel_regularizer": null, "bias_regularizer": null, "activity_regularizer": null, "kernel_constraint": null, "bias_constraint": null}, "inbound_nodes": [[["concatenate_210", 0, 0, {}]]]}, {"name": "dense_228", "class_name": "Dense", "config": {"name": "dense_228", "trainable": true, "dtype": "float32", "units": 100, "activation": "relu", "use_bias": true, "kernel_initializer": {"class_name": "VarianceScaling", "config": {"scale": 1.0, "mode": "fan_avg", "distribution": "uniform", "seed": null}}, "bias_initializer": {"class_name": "Zeros", "config": {}}, "kernel_regularizer": null, "bias_regularizer": null, "activity_regularizer": null, "kernel_constraint": null, "bias_constraint": null}, "inbound_nodes": [[["concatenate_214", 0, 0, {}]]]}, {"name": "dense_238", "class_name": "Dense", "config": {"name": "dense_238", "trainable": true, "dtype": "float32", "units": 100, "activation": "relu", "use_bias": true, "kernel_initializer": {"class_name": "VarianceScaling", "config": {"scale": 1.0, "mode": "fan_avg", "distribution": "uniform", "seed": null}}, "bias_initializer": {"class_name": "Zeros", "config": {}}, "kernel_regularizer": null, "bias_regularizer": null, "activity_regularizer": null, "kernel_constraint": null, "bias_constraint": null}, "inbound_nodes": [[["concatenate_224", 0, 0, {}]]]}, {"name": "dense_240", "class_name": "Dense", "config": {"name": "dense_240", "trainable": true, "dtype": "float32", "units": 100, "activation": "relu", "use_bias": true, "kernel_initializer": {"class_name": "VarianceScaling", "config": {"scale": 1.0, "mode": "fan_avg", "distribution": "uniform", "seed": null}}, "bias_initializer": {"class_name": "Zeros", "config": {}}, "kernel_regularizer": null, "bias_regularizer": null, "activity_regularizer": null, "kernel_constraint": null, "bias_constraint": null}, "inbound_nodes": [[["concatenate_226", 0, 0, {}]]]}, {"name": "dense_244", "class_name": "Dense", "config": {"name": "dense_244", "trainable": true, "dtype": "float32", "units": 100, "activation": "relu", "use_bias": true, "kernel_initializer": {"class_name": "VarianceScaling", "config": {"scale": 1.0, "mode": "fan_avg", "distribution": "uniform", "seed": null}}, "bias_initializer": {"class_name": "Zeros", "config": {}}, "kernel_regularizer": null, "bias_regularizer": null, "activity_regularizer": null, "kernel_constraint": null, "bias_constraint": null}, "inbound_nodes": [[["concatenate_230", 0, 0, {}]]]}, {"name": "dense_246", "class_name": "Dense", "config": {"name": "dense_246", "trainable": true, "dtype": "float32", "units": 100, "activation": "relu", "use_bias": true, "kernel_initializer": {"class_name": "VarianceScaling", "config": {"scale": 1.0, "mode": "fan_avg", "distribution": "uniform", "seed": null}}, "bias_initializer": {"class_name": "Zeros", "config": {}}, "kernel_regularizer": null, "bias_regularizer": null, "activity_regularizer": null, "kernel_constraint": null, "bias_constraint": null}, "inbound_nodes": [[["concatenate_232", 0, 0, {}]]]}, {"name": "dense_252", "class_name": "Dense", "config": {"name": "dense_252", "trainable": true, "dtype": "float32", "units": 100, "activation": "relu", "use_bias": true, "kernel_initializer": {"class_name": "VarianceScaling", "config": {"scale": 1.0, "mode": "fan_avg", "distribution": "uniform", "seed": null}}, "bias_initializer": {"class_name": "Zeros", "config": {}}, "kernel_regularizer": null, "bias_regularizer": null, "activity_regularizer": null, "kernel_constraint": null, "bias_constraint": null}, "inbound_nodes": [[["concatenate_238", 0, 0, {}]]]}, {"name": "dense_254", "class_name": "Dense", "config": {"name": "dense_254", "trainable": true, "dtype": "float32", "units": 100, "activation": "relu", "use_bias": true, "kernel_initializer": {"class_name": "VarianceScaling", "config": {"scale": 1.0, "mode": "fan_avg", "distribution": "uniform", "seed": null}}, "bias_initializer": {"class_name": "Zeros", "config": {}}, "kernel_regularizer": null, "bias_regularizer": null, "activity_regularizer": null, "kernel_constraint": null, "bias_constraint": null}, "inbound_nodes": [[["concatenate_240", 0, 0, {}]]]}, {"name": "dense_258", "class_name": "Dense", "config": {"name": "dense_258", "trainable": true, "dtype": "float32", "units": 100, "activation": "relu", "use_bias": true, "kernel_initializer": {"class_name": "VarianceScaling", "config": {"scale": 1.0, "mode": "fan_avg", "distribution": "uniform", "seed": null}}, "bias_initializer": {"class_name": "Zeros", "config": {}}, "kernel_regularizer": null, "bias_regularizer": null, "activity_regularizer": null, "kernel_constraint": null, "bias_constraint": null}, "inbound_nodes": [[["concatenate_244", 0, 0, {}]]]}, {"name": "dense_260", "class_name": "Dense", "config": {"name": "dense_260", "trainable": true, "dtype": "float32", "units": 100, "activation": "relu", "use_bias": true, "kernel_initializer": {"class_name": "VarianceScaling", "config": {"scale": 1.0, "mode": "fan_avg", "distribution": "uniform", "seed": null}}, "bias_initializer": {"class_name": "Zeros", "config": {}}, "kernel_regularizer": null, "bias_regularizer": null, "activity_regularizer": null, "kernel_constraint": null, "bias_constraint": null}, "inbound_nodes": [[["concatenate_246", 0, 0, {}]]]}, {"name": "dense_269", "class_name": "Dense", "config": {"name": "dense_269", "trainable": true, "dtype": "float32", "units": 100, "activation": "relu", "use_bias": true, "kernel_initializer": {"class_name": "VarianceScaling", "config": {"scale": 1.0, "mode": "fan_avg", "distribution": "uniform", "seed": null}}, "bias_initializer": {"class_name": "Zeros", "config": {}}, "kernel_regularizer": null, "bias_regularizer": null, "activity_regularizer": null, "kernel_constraint": null, "bias_constraint": null}, "inbound_nodes": [[["concatenate_255", 0, 0, {}]]]}, {"name": "dense_273", "class_name": "Dense", "config": {"name": "dense_273", "trainable": true, "dtype": "float32", "units": 100, "activation": "relu", "use_bias": true, "kernel_initializer": {"class_name": "VarianceScaling", "config": {"scale": 1.0, "mode": "fan_avg", "distribution": "uniform", "seed": null}}, "bias_initializer": {"class_name": "Zeros", "config": {}}, "kernel_regularizer": null, "bias_regularizer": null, "activity_regularizer": null, "kernel_constraint": null, "bias_constraint": null}, "inbound_nodes": [[["concatenate_259", 0, 0, {}]]]}, {"name": "dense_275", "class_name": "Dense", "config": {"name": "dense_275", "trainable": true, "dtype": "float32", "units": 100, "activation": "relu", "use_bias": true, "kernel_initializer": {"class_name": "VarianceScaling", "config": {"scale": 1.0, "mode": "fan_avg", "distribution": "uniform", "seed": null}}, "bias_initializer": {"class_name": "Zeros", "config": {}}, "kernel_regularizer": null, "bias_regularizer": null, "activity_regularizer": null, "kernel_constraint": null, "bias_constraint": null}, "inbound_nodes": [[["concatenate_261", 0, 0, {}]]]}, {"name": "dense_281", "class_name": "Dense", "config": {"name": "dense_281", "trainable": true, "dtype": "float32", "units": 100, "activation": "relu", "use_bias": true, "kernel_initializer": {"class_name": "VarianceScaling", "config": {"scale": 1.0, "mode": "fan_avg", "distribution": "uniform", "seed": null}}, "bias_initializer": {"class_name": "Zeros", "config": {}}, "kernel_regularizer": null, "bias_regularizer": null, "activity_regularizer": null, "kernel_constraint": null, "bias_constraint": null}, "inbound_nodes": [[["concatenate_267", 0, 0, {}]]]}, {"name": "dense_283", "class_name": "Dense", "config": {"name": "dense_283", "trainable": true, "dtype": "float32", "units": 100, "activation": "relu", "use_bias": true, "kernel_initializer": {"class_name": "VarianceScaling", "config": {"scale": 1.0, "mode": "fan_avg", "distribution": "uniform", "seed": null}}, "bias_initializer": {"class_name": "Zeros", "config": {}}, "kernel_regularizer": null, "bias_regularizer": null, "activity_regularizer": null, "kernel_constraint": null, "bias_constraint": null}, "inbound_nodes": [[["concatenate_269", 0, 0, {}]]]}, {"name": "dense_287", "class_name": "Dense", "config": {"name": "dense_287", "trainable": true, "dtype": "float32", "units": 100, "activation": "relu", "use_bias": true, "kernel_initializer": {"class_name": "VarianceScaling", "config": {"scale": 1.0, "mode": "fan_avg", "distribution": "uniform", "seed": null}}, "bias_initializer": {"class_name": "Zeros", "config": {}}, "kernel_regularizer": null, "bias_regularizer": null, "activity_regularizer": null, "kernel_constraint": null, "bias_constraint": null}, "inbound_nodes": [[["concatenate_273", 0, 0, {}]]]}, {"name": "dense_289", "class_name": "Dense", "config": {"name": "dense_289", "trainable": true, "dtype": "float32", "units": 100, "activation": "relu", "use_bias": true, "kernel_initializer": {"class_name": "VarianceScaling", "config": {"scale": 1.0, "mode": "fan_avg", "distribution": "uniform", "seed": null}}, "bias_initializer": {"class_name": "Zeros", "config": {}}, "kernel_regularizer": null, "bias_regularizer": null, "activity_regularizer": null, "kernel_constraint": null, "bias_constraint": null}, "inbound_nodes": [[["concatenate_275", 0, 0, {}]]]}, {"name": "concatenate_111", "class_name": "Concatenate", "config": {"name": "concatenate_111", "trainable": true, "dtype": "float32", "axis": -1}, "inbound_nodes": [[["dense_120", 0, 0, {}], ["dense_120", 0, 0, {}]]]}, {"name": "concatenate_112", "class_name": "Concatenate", "config": {"name": "concatenate_112", "trainable": true, "dtype": "float32", "axis": -1}, "inbound_nodes": [[["dense_120", 0, 0, {}], ["dense_120", 0, 0, {}]]]}, {"name": "concatenate_115", "class_name": "Concatenate", "config": {"name": "concatenate_115", "trainable": true, "dtype": "float32", "axis": -1}, "inbound_nodes": [[["dense_120", 0, 0, {}], ["dense_120", 0, 0, {}]]]}, {"name": "concatenate_116", "class_name": "Concatenate", "config": {"name": "concatenate_116", "trainable": true, "dtype": "float32", "axis": -1}, "inbound_nodes": [[["dense_120", 0, 0, {}], ["dense_120", 0, 0, {}]]]}, {"name": "concatenate_124", "class_name": "Concatenate", "config": {"name": "concatenate_124", "trainable": true, "dtype": "float32", "axis": -1}, "inbound_nodes": [[["dense_120", 0, 0, {}], ["dense_120", 0, 0, {}]]]}, {"name": "concatenate_125", "class_name": "Concatenate", "config": {"name": "concatenate_125", "trainable": true, "dtype": "float32", "axis": -1}, "inbound_nodes": [[["dense_120", 0, 0, {}], ["dense_120", 0, 0, {}]]]}, {"name": "concatenate_128", "class_name": "Concatenate", "config": {"name": "concatenate_128", "trainable": true, "dtype": "float32", "axis": -1}, "inbound_nodes": [[["dense_120", 0, 0, {}], ["dense_120", 0, 0, {}]]]}, {"name": "concatenate_129", "class_name": "Concatenate", "config": {"name": "concatenate_129", "trainable": true, "dtype": "float32", "axis": -1}, "inbound_nodes": [[["dense_120", 0, 0, {}], ["dense_120", 0, 0, {}]]]}, {"name": "concatenate_139", "class_name": "Concatenate", "config": {"name": "concatenate_139", "trainable": true, "dtype": "float32", "axis": -1}, "inbound_nodes": [[["dense_152", 0, 0, {}], ["dense_120", 0, 0, {}]]]}, {"name": "concatenate_141", "class_name": "Concatenate", "config": {"name": "concatenate_141", "trainable": true, "dtype": "float32", "axis": -1}, "inbound_nodes": [[["dense_154", 0, 0, {}], ["dense_120", 0, 0, {}]]]}, {"name": "concatenate_145", "class_name": "Concatenate", "config": {"name": "concatenate_145", "trainable": true, "dtype": "float32", "axis": -1}, "inbound_nodes": [[["dense_158", 0, 0, {}], ["dense_120", 0, 0, {}]]]}, {"name": "concatenate_147", "class_name": "Concatenate", "config": {"name": "concatenate_147", "trainable": true, "dtype": "float32", "axis": -1}, "inbound_nodes": [[["dense_160", 0, 0, {}], ["dense_122", 0, 0, {}]]]}, {"name": "concatenate_153", "class_name": "Concatenate", "config": {"name": "concatenate_153", "trainable": true, "dtype": "float32", "axis": -1}, "inbound_nodes": [[["dense_166", 0, 0, {}], ["dense_120", 0, 0, {}]]]}, {"name": "concatenate_155", "class_name": "Concatenate", "config": {"name": "concatenate_155", "trainable": true, "dtype": "float32", "axis": -1}, "inbound_nodes": [[["dense_168", 0, 0, {}], ["dense_120", 0, 0, {}]]]}, {"name": "concatenate_161", "class_name": "Concatenate", "config": {"name": "concatenate_161", "trainable": true, "dtype": "float32", "axis": -1}, "inbound_nodes": [[["dense_174", 0, 0, {}], ["dense_121", 0, 0, {}]]]}, {"name": "concatenate_169", "class_name": "Concatenate", "config": {"name": "concatenate_169", "trainable": true, "dtype": "float32", "axis": -1}, "inbound_nodes": [[["dense_182", 0, 0, {}], ["dense_119", 0, 0, {}]]]}, {"name": "concatenate_171", "class_name": "Concatenate", "config": {"name": "concatenate_171", "trainable": true, "dtype": "float32", "axis": -1}, "inbound_nodes": [[["dense_184", 0, 0, {}], ["dense_121", 0, 0, {}]]]}, {"name": "concatenate_175", "class_name": "Concatenate", "config": {"name": "concatenate_175", "trainable": true, "dtype": "float32", "axis": -1}, "inbound_nodes": [[["dense_188", 0, 0, {}], ["dense_120", 0, 0, {}]]]}, {"name": "concatenate_177", "class_name": "Concatenate", "config": {"name": "concatenate_177", "trainable": true, "dtype": "float32", "axis": -1}, "inbound_nodes": [[["dense_190", 0, 0, {}], ["dense_120", 0, 0, {}]]]}, {"name": "concatenate_183", "class_name": "Concatenate", "config": {"name": "concatenate_183", "trainable": true, "dtype": "float32", "axis": -1}, "inbound_nodes": [[["dense_120", 0, 0, {}], ["dense_196", 0, 0, {}]]]}, {"name": "concatenate_185", "class_name": "Concatenate", "config": {"name": "concatenate_185", "trainable": true, "dtype": "float32", "axis": -1}, "inbound_nodes": [[["dense_120", 0, 0, {}], ["dense_198", 0, 0, {}]]]}, {"name": "concatenate_191", "class_name": "Concatenate", "config": {"name": "concatenate_191", "trainable": true, "dtype": "float32", "axis": -1}, "inbound_nodes": [[["dense_204", 0, 0, {}], ["dense_119", 0, 0, {}]]]}, {"name": "concatenate_211", "class_name": "Concatenate", "config": {"name": "concatenate_211", "trainable": true, "dtype": "float32", "axis": -1}, "inbound_nodes": [[["dense_224", 0, 0, {}], ["dense_121", 0, 0, {}]]]}, {"name": "concatenate_215", "class_name": "Concatenate", "config": {"name": "concatenate_215", "trainable": true, "dtype": "float32", "axis": -1}, "inbound_nodes": [[["dense_228", 0, 0, {}], ["dense_120", 0, 0, {}]]]}, {"name": "concatenate_225", "class_name": "Concatenate", "config": {"name": "concatenate_225", "trainable": true, "dtype": "float32", "axis": -1}, "inbound_nodes": [[["dense_238", 0, 0, {}], ["dense_121", 0, 0, {}]]]}, {"name": "concatenate_227", "class_name": "Concatenate", "config": {"name": "concatenate_227", "trainable": true, "dtype": "float32", "axis": -1}, "inbound_nodes": [[["dense_240", 0, 0, {}], ["dense_120", 0, 0, {}]]]}, {"name": "concatenate_231", "class_name": "Concatenate", "config": {"name": "concatenate_231", "trainable": true, "dtype": "float32", "axis": -1}, "inbound_nodes": [[["dense_120", 0, 0, {}], ["dense_244", 0, 0, {}]]]}, {"name": "concatenate_233", "class_name": "Concatenate", "config": {"name": "concatenate_233", "trainable": true, "dtype": "float32", "axis": -1}, "inbound_nodes": [[["dense_120", 0, 0, {}], ["dense_246", 0, 0, {}]]]}, {"name": "concatenate_239", "class_name": "Concatenate", "config": {"name": "concatenate_239", "trainable": true, "dtype": "float32", "axis": -1}, "inbound_nodes": [[["dense_252", 0, 0, {}], ["dense_120", 0, 0, {}]]]}, {"name": "concatenate_241", "class_name": "Concatenate", "config": {"name": "concatenate_241", "trainable": true, "dtype": "float32", "axis": -1}, "inbound_nodes": [[["dense_254", 0, 0, {}], ["dense_121", 0, 0, {}]]]}, {"name": "concatenate_245", "class_name": "Concatenate", "config": {"name": "concatenate_245", "trainable": true, "dtype": "float32", "axis": -1}, "inbound_nodes": [[["dense_258", 0, 0, {}], ["dense_120", 0, 0, {}]]]}, {"name": "concatenate_247", "class_name": "Concatenate", "config": {"name": "concatenate_247", "trainable": true, "dtype": "float32", "axis": -1}, "inbound_nodes": [[["dense_260", 0, 0, {}], ["dense_120", 0, 0, {}]]]}, {"name": "concatenate_254", "class_name": "Concatenate", "config": {"name": "concatenate_254", "trainable": true, "dtype": "float32", "axis": -1}, "inbound_nodes": [[["dense_120", 0, 0, {}], ["dense_121", 0, 0, {}]]]}, {"name": "concatenate_256", "class_name": "Concatenate", "config": {"name": "concatenate_256", "trainable": true, "dtype": "float32", "axis": -1}, "inbound_nodes": [[["dense_269", 0, 0, {}], ["dense_120", 0, 0, {}]]]}, {"name": "concatenate_260", "class_name": "Concatenate", "config": {"name": "concatenate_260", "trainable": true, "dtype": "float32", "axis": -1}, "inbound_nodes": [[["dense_273", 0, 0, {}], ["dense_123", 0, 0, {}]]]}, {"name": "concatenate_262", "class_name": "Concatenate", "config": {"name": "concatenate_262", "trainable": true, "dtype": "float32", "axis": -1}, "inbound_nodes": [[["dense_275", 0, 0, {}], ["dense_123", 0, 0, {}]]]}, {"name": "concatenate_268", "class_name": "Concatenate", "config": {"name": "concatenate_268", "trainable": true, "dtype": "float32", "axis": -1}, "inbound_nodes": [[["dense_281", 0, 0, {}], ["dense_121", 0, 0, {}]]]}, {"name": "concatenate_270", "class_name": "Concatenate", "config": {"name": "concatenate_270", "trainable": true, "dtype": "float32", "axis": -1}, "inbound_nodes": [[["dense_283", 0, 0, {}], ["dense_121", 0, 0, {}]]]}, {"name": "concatenate_274", "class_name": "Concatenate", "config": {"name": "concatenate_274", "trainable": true, "dtype": "float32", "axis": -1}, "inbound_nodes": [[["dense_287", 0, 0, {}], ["dense_123", 0, 0, {}]]]}, {"name": "concatenate_276", "class_name": "Concatenate", "config": {"name": "concatenate_276", "trainable": true, "dtype": "float32", "axis": -1}, "inbound_nodes": [[["dense_289", 0, 0, {}], ["dense_121", 0, 0, {}]]]}, {"name": "dense_125", "class_name": "Dense", "config": {"name": "dense_125", "trainable": true, "dtype": "float32", "units": 100, "activation": "relu", "use_bias": true, "kernel_initializer": {"class_name": "VarianceScaling", "config": {"scale": 1.0, "mode": "fan_avg", "distribution": "uniform", "seed": null}}, "bias_initializer": {"class_name": "Zeros", "config": {}}, "kernel_regularizer": null, "bias_regularizer": null, "activity_regularizer": null, "kernel_constraint": null, "bias_constraint": null}, "inbound_nodes": [[["concatenate_111", 0, 0, {}]]]}, {"name": "dense_126", "class_name": "Dense", "config": {"name": "dense_126", "trainable": true, "dtype": "float32", "units": 100, "activation": "relu", "use_bias": true, "kernel_initializer": {"class_name": "VarianceScaling", "config": {"scale": 1.0, "mode": "fan_avg", "distribution": "uniform", "seed": null}}, "bias_initializer": {"class_name": "Zeros", "config": {}}, "kernel_regularizer": null, "bias_regularizer": null, "activity_regularizer": null, "kernel_constraint": null, "bias_constraint": null}, "inbound_nodes": [[["concatenate_112", 0, 0, {}]]]}, {"name": "dense_129", "class_name": "Dense", "config": {"name": "dense_129", "trainable": true, "dtype": "float32", "units": 100, "activation": "relu", "use_bias": true, "kernel_initializer": {"class_name": "VarianceScaling", "config": {"scale": 1.0, "mode": "fan_avg", "distribution": "uniform", "seed": null}}, "bias_initializer": {"class_name": "Zeros", "config": {}}, "kernel_regularizer": null, "bias_regularizer": null, "activity_regularizer": null, "kernel_constraint": null, "bias_constraint": null}, "inbound_nodes": [[["concatenate_115", 0, 0, {}]]]}, {"name": "dense_130", "class_name": "Dense", "config": {"name": "dense_130", "trainable": true, "dtype": "float32", "units": 100, "activation": "relu", "use_bias": true, "kernel_initializer": {"class_name": "VarianceScaling", "config": {"scale": 1.0, "mode": "fan_avg", "distribution": "uniform", "seed": null}}, "bias_initializer": {"class_name": "Zeros", "config": {}}, "kernel_regularizer": null, "bias_regularizer": null, "activity_regularizer": null, "kernel_constraint": null, "bias_constraint": null}, "inbound_nodes": [[["concatenate_116", 0, 0, {}]]]}, {"name": "dense_138", "class_name": "Dense", "config": {"name": "dense_138", "trainable": true, "dtype": "float32", "units": 100, "activation": "relu", "use_bias": true, "kernel_initializer": {"class_name": "VarianceScaling", "config": {"scale": 1.0, "mode": "fan_avg", "distribution": "uniform", "seed": null}}, "bias_initializer": {"class_name": "Zeros", "config": {}}, "kernel_regularizer": null, "bias_regularizer": null, "activity_regularizer": null, "kernel_constraint": null, "bias_constraint": null}, "inbound_nodes": [[["concatenate_124", 0, 0, {}]]]}, {"name": "dense_139", "class_name": "Dense", "config": {"name": "dense_139", "trainable": true, "dtype": "float32", "units": 100, "activation": "relu", "use_bias": true, "kernel_initializer": {"class_name": "VarianceScaling", "config": {"scale": 1.0, "mode": "fan_avg", "distribution": "uniform", "seed": null}}, "bias_initializer": {"class_name": "Zeros", "config": {}}, "kernel_regularizer": null, "bias_regularizer": null, "activity_regularizer": null, "kernel_constraint": null, "bias_constraint": null}, "inbound_nodes": [[["concatenate_125", 0, 0, {}]]]}, {"name": "dense_142", "class_name": "Dense", "config": {"name": "dense_142", "trainable": true, "dtype": "float32", "units": 100, "activation": "relu", "use_bias": true, "kernel_initializer": {"class_name": "VarianceScaling", "config": {"scale": 1.0, "mode": "fan_avg", "distribution": "uniform", "seed": null}}, "bias_initializer": {"class_name": "Zeros", "config": {}}, "kernel_regularizer": null, "bias_regularizer": null, "activity_regularizer": null, "kernel_constraint": null, "bias_constraint": null}, "inbound_nodes": [[["concatenate_128", 0, 0, {}]]]}, {"name": "dense_143", "class_name": "Dense", "config": {"name": "dense_143", "trainable": true, "dtype": "float32", "units": 100, "activation": "relu", "use_bias": true, "kernel_initializer": {"class_name": "VarianceScaling", "config": {"scale": 1.0, "mode": "fan_avg", "distribution": "uniform", "seed": null}}, "bias_initializer": {"class_name": "Zeros", "config": {}}, "kernel_regularizer": null, "bias_regularizer": null, "activity_regularizer": null, "kernel_constraint": null, "bias_constraint": null}, "inbound_nodes": [[["concatenate_129", 0, 0, {}]]]}, {"name": "dense_153", "class_name": "Dense", "config": {"name": "dense_153", "trainable": true, "dtype": "float32", "units": 100, "activation": "relu", "use_bias": true, "kernel_initializer": {"class_name": "VarianceScaling", "config": {"scale": 1.0, "mode": "fan_avg", "distribution": "uniform", "seed": null}}, "bias_initializer": {"class_name": "Zeros", "config": {}}, "kernel_regularizer": null, "bias_regularizer": null, "activity_regularizer": null, "kernel_constraint": null, "bias_constraint": null}, "inbound_nodes": [[["concatenate_139", 0, 0, {}]]]}, {"name": "dense_155", "class_name": "Dense", "config": {"name": "dense_155", "trainable": true, "dtype": "float32", "units": 100, "activation": "relu", "use_bias": true, "kernel_initializer": {"class_name": "VarianceScaling", "config": {"scale": 1.0, "mode": "fan_avg", "distribution": "uniform", "seed": null}}, "bias_initializer": {"class_name": "Zeros", "config": {}}, "kernel_regularizer": null, "bias_regularizer": null, "activity_regularizer": null, "kernel_constraint": null, "bias_constraint": null}, "inbound_nodes": [[["concatenate_141", 0, 0, {}]]]}, {"name": "dense_159", "class_name": "Dense", "config": {"name": "dense_159", "trainable": true, "dtype": "float32", "units": 100, "activation": "relu", "use_bias": true, "kernel_initializer": {"class_name": "VarianceScaling", "config": {"scale": 1.0, "mode": "fan_avg", "distribution": "uniform", "seed": null}}, "bias_initializer": {"class_name": "Zeros", "config": {}}, "kernel_regularizer": null, "bias_regularizer": null, "activity_regularizer": null, "kernel_constraint": null, "bias_constraint": null}, "inbound_nodes": [[["concatenate_145", 0, 0, {}]]]}, {"name": "dense_161", "class_name": "Dense", "config": {"name": "dense_161", "trainable": true, "dtype": "float32", "units": 100, "activation": "relu", "use_bias": true, "kernel_initializer": {"class_name": "VarianceScaling", "config": {"scale": 1.0, "mode": "fan_avg", "distribution": "uniform", "seed": null}}, "bias_initializer": {"class_name": "Zeros", "config": {}}, "kernel_regularizer": null, "bias_regularizer": null, "activity_regularizer": null, "kernel_constraint": null, "bias_constraint": null}, "inbound_nodes": [[["concatenate_147", 0, 0, {}]]]}, {"name": "dense_167", "class_name": "Dense", "config": {"name": "dense_167", "trainable": true, "dtype": "float32", "units": 100, "activation": "relu", "use_bias": true, "kernel_initializer": {"class_name": "VarianceScaling", "config": {"scale": 1.0, "mode": "fan_avg", "distribution": "uniform", "seed": null}}, "bias_initializer": {"class_name": "Zeros", "config": {}}, "kernel_regularizer": null, "bias_regularizer": null, "activity_regularizer": null, "kernel_constraint": null, "bias_constraint": null}, "inbound_nodes": [[["concatenate_153", 0, 0, {}]]]}, {"name": "dense_169", "class_name": "Dense", "config": {"name": "dense_169", "trainable": true, "dtype": "float32", "units": 100, "activation": "relu", "use_bias": true, "kernel_initializer": {"class_name": "VarianceScaling", "config": {"scale": 1.0, "mode": "fan_avg", "distribution": "uniform", "seed": null}}, "bias_initializer": {"class_name": "Zeros", "config": {}}, "kernel_regularizer": null, "bias_regularizer": null, "activity_regularizer": null, "kernel_constraint": null, "bias_constraint": null}, "inbound_nodes": [[["concatenate_155", 0, 0, {}]]]}, {"name": "dense_175", "class_name": "Dense", "config": {"name": "dense_175", "trainable": true, "dtype": "float32", "units": 100, "activation": "relu", "use_bias": true, "kernel_initializer": {"class_name": "VarianceScaling", "config": {"scale": 1.0, "mode": "fan_avg", "distribution": "uniform", "seed": null}}, "bias_initializer": {"class_name": "Zeros", "config": {}}, "kernel_regularizer": null, "bias_regularizer": null, "activity_regularizer": null, "kernel_constraint": null, "bias_constraint": null}, "inbound_nodes": [[["concatenate_161", 0, 0, {}]]]}, {"name": "dense_183", "class_name": "Dense", "config": {"name": "dense_183", "trainable": true, "dtype": "float32", "units": 100, "activation": "relu", "use_bias": true, "kernel_initializer": {"class_name": "VarianceScaling", "config": {"scale": 1.0, "mode": "fan_avg", "distribution": "uniform", "seed": null}}, "bias_initializer": {"class_name": "Zeros", "config": {}}, "kernel_regularizer": null, "bias_regularizer": null, "activity_regularizer": null, "kernel_constraint": null, "bias_constraint": null}, "inbound_nodes": [[["concatenate_169", 0, 0, {}]]]}, {"name": "dense_185", "class_name": "Dense", "config": {"name": "dense_185", "trainable": true, "dtype": "float32", "units": 100, "activation": "relu", "use_bias": true, "kernel_initializer": {"class_name": "VarianceScaling", "config": {"scale": 1.0, "mode": "fan_avg", "distribution": "uniform", "seed": null}}, "bias_initializer": {"class_name": "Zeros", "config": {}}, "kernel_regularizer": null, "bias_regularizer": null, "activity_regularizer": null, "kernel_constraint": null, "bias_constraint": null}, "inbound_nodes": [[["concatenate_171", 0, 0, {}]]]}, {"name": "dense_189", "class_name": "Dense", "config": {"name": "dense_189", "trainable": true, "dtype": "float32", "units": 100, "activation": "relu", "use_bias": true, "kernel_initializer": {"class_name": "VarianceScaling", "config": {"scale": 1.0, "mode": "fan_avg", "distribution": "uniform", "seed": null}}, "bias_initializer": {"class_name": "Zeros", "config": {}}, "kernel_regularizer": null, "bias_regularizer": null, "activity_regularizer": null, "kernel_constraint": null, "bias_constraint": null}, "inbound_nodes": [[["concatenate_175", 0, 0, {}]]]}, {"name": "dense_191", "class_name": "Dense", "config": {"name": "dense_191", "trainable": true, "dtype": "float32", "units": 100, "activation": "relu", "use_bias": true, "kernel_initializer": {"class_name": "VarianceScaling", "config": {"scale": 1.0, "mode": "fan_avg", "distribution": "uniform", "seed": null}}, "bias_initializer": {"class_name": "Zeros", "config": {}}, "kernel_regularizer": null, "bias_regularizer": null, "activity_regularizer": null, "kernel_constraint": null, "bias_constraint": null}, "inbound_nodes": [[["concatenate_177", 0, 0, {}]]]}, {"name": "dense_197", "class_name": "Dense", "config": {"name": "dense_197", "trainable": true, "dtype": "float32", "units": 100, "activation": "relu", "use_bias": true, "kernel_initializer": {"class_name": "VarianceScaling", "config": {"scale": 1.0, "mode": "fan_avg", "distribution": "uniform", "seed": null}}, "bias_initializer": {"class_name": "Zeros", "config": {}}, "kernel_regularizer": null, "bias_regularizer": null, "activity_regularizer": null, "kernel_constraint": null, "bias_constraint": null}, "inbound_nodes": [[["concatenate_183", 0, 0, {}]]]}, {"name": "dense_199", "class_name": "Dense", "config": {"name": "dense_199", "trainable": true, "dtype": "float32", "units": 100, "activation": "relu", "use_bias": true, "kernel_initializer": {"class_name": "VarianceScaling", "config": {"scale": 1.0, "mode": "fan_avg", "distribution": "uniform", "seed": null}}, "bias_initializer": {"class_name": "Zeros", "config": {}}, "kernel_regularizer": null, "bias_regularizer": null, "activity_regularizer": null, "kernel_constraint": null, "bias_constraint": null}, "inbound_nodes": [[["concatenate_185", 0, 0, {}]]]}, {"name": "dense_205", "class_name": "Dense", "config": {"name": "dense_205", "trainable": true, "dtype": "float32", "units": 100, "activation": "relu", "use_bias": true, "kernel_initializer": {"class_name": "VarianceScaling", "config": {"scale": 1.0, "mode": "fan_avg", "distribution": "uniform", "seed": null}}, "bias_initializer": {"class_name": "Zeros", "config": {}}, "kernel_regularizer": null, "bias_regularizer": null, "activity_regularizer": null, "kernel_constraint": null, "bias_constraint": null}, "inbound_nodes": [[["concatenate_191", 0, 0, {}]]]}, {"name": "dense_225", "class_name": "Dense", "config": {"name": "dense_225", "trainable": true, "dtype": "float32", "units": 100, "activation": "relu", "use_bias": true, "kernel_initializer": {"class_name": "VarianceScaling", "config": {"scale": 1.0, "mode": "fan_avg", "distribution": "uniform", "seed": null}}, "bias_initializer": {"class_name": "Zeros", "config": {}}, "kernel_regularizer": null, "bias_regularizer": null, "activity_regularizer": null, "kernel_constraint": null, "bias_constraint": null}, "inbound_nodes": [[["concatenate_211", 0, 0, {}]]]}, {"name": "dense_229", "class_name": "Dense", "config": {"name": "dense_229", "trainable": true, "dtype": "float32", "units": 100, "activation": "relu", "use_bias": true, "kernel_initializer": {"class_name": "VarianceScaling", "config": {"scale": 1.0, "mode": "fan_avg", "distribution": "uniform", "seed": null}}, "bias_initializer": {"class_name": "Zeros", "config": {}}, "kernel_regularizer": null, "bias_regularizer": null, "activity_regularizer": null, "kernel_constraint": null, "bias_constraint": null}, "inbound_nodes": [[["concatenate_215", 0, 0, {}]]]}, {"name": "dense_239", "class_name": "Dense", "config": {"name": "dense_239", "trainable": true, "dtype": "float32", "units": 100, "activation": "relu", "use_bias": true, "kernel_initializer": {"class_name": "VarianceScaling", "config": {"scale": 1.0, "mode": "fan_avg", "distribution": "uniform", "seed": null}}, "bias_initializer": {"class_name": "Zeros", "config": {}}, "kernel_regularizer": null, "bias_regularizer": null, "activity_regularizer": null, "kernel_constraint": null, "bias_constraint": null}, "inbound_nodes": [[["concatenate_225", 0, 0, {}]]]}, {"name": "dense_241", "class_name": "Dense", "config": {"name": "dense_241", "trainable": true, "dtype": "float32", "units": 100, "activation": "relu", "use_bias": true, "kernel_initializer": {"class_name": "VarianceScaling", "config": {"scale": 1.0, "mode": "fan_avg", "distribution": "uniform", "seed": null}}, "bias_initializer": {"class_name": "Zeros", "config": {}}, "kernel_regularizer": null, "bias_regularizer": null, "activity_regularizer": null, "kernel_constraint": null, "bias_constraint": null}, "inbound_nodes": [[["concatenate_227", 0, 0, {}]]]}, {"name": "dense_245", "class_name": "Dense", "config": {"name": "dense_245", "trainable": true, "dtype": "float32", "units": 100, "activation": "relu", "use_bias": true, "kernel_initializer": {"class_name": "VarianceScaling", "config": {"scale": 1.0, "mode": "fan_avg", "distribution": "uniform", "seed": null}}, "bias_initializer": {"class_name": "Zeros", "config": {}}, "kernel_regularizer": null, "bias_regularizer": null, "activity_regularizer": null, "kernel_constraint": null, "bias_constraint": null}, "inbound_nodes": [[["concatenate_231", 0, 0, {}]]]}, {"name": "dense_247", "class_name": "Dense", "config": {"name": "dense_247", "trainable": true, "dtype": "float32", "units": 100, "activation": "relu", "use_bias": true, "kernel_initializer": {"class_name": "VarianceScaling", "config": {"scale": 1.0, "mode": "fan_avg", "distribution": "uniform", "seed": null}}, "bias_initializer": {"class_name": "Zeros", "config": {}}, "kernel_regularizer": null, "bias_regularizer": null, "activity_regularizer": null, "kernel_constraint": null, "bias_constraint": null}, "inbound_nodes": [[["concatenate_233", 0, 0, {}]]]}, {"name": "dense_253", "class_name": "Dense", "config": {"name": "dense_253", "trainable": true, "dtype": "float32", "units": 100, "activation": "relu", "use_bias": true, "kernel_initializer": {"class_name": "VarianceScaling", "config": {"scale": 1.0, "mode": "fan_avg", "distribution": "uniform", "seed": null}}, "bias_initializer": {"class_name": "Zeros", "config": {}}, "kernel_regularizer": null, "bias_regularizer": null, "activity_regularizer": null, "kernel_constraint": null, "bias_constraint": null}, "inbound_nodes": [[["concatenate_239", 0, 0, {}]]]}, {"name": "dense_255", "class_name": "Dense", "config": {"name": "dense_255", "trainable": true, "dtype": "float32", "units": 100, "activation": "relu", "use_bias": true, "kernel_initializer": {"class_name": "VarianceScaling", "config": {"scale": 1.0, "mode": "fan_avg", "distribution": "uniform", "seed": null}}, "bias_initializer": {"class_name": "Zeros", "config": {}}, "kernel_regularizer": null, "bias_regularizer": null, "activity_regularizer": null, "kernel_constraint": null, "bias_constraint": null}, "inbound_nodes": [[["concatenate_241", 0, 0, {}]]]}, {"name": "dense_259", "class_name": "Dense", "config": {"name": "dense_259", "trainable": true, "dtype": "float32", "units": 100, "activation": "relu", "use_bias": true, "kernel_initializer": {"class_name": "VarianceScaling", "config": {"scale": 1.0, "mode": "fan_avg", "distribution": "uniform", "seed": null}}, "bias_initializer": {"class_name": "Zeros", "config": {}}, "kernel_regularizer": null, "bias_regularizer": null, "activity_regularizer": null, "kernel_constraint": null, "bias_constraint": null}, "inbound_nodes": [[["concatenate_245", 0, 0, {}]]]}, {"name": "dense_261", "class_name": "Dense", "config": {"name": "dense_261", "trainable": true, "dtype": "float32", "units": 100, "activation": "relu", "use_bias": true, "kernel_initializer": {"class_name": "VarianceScaling", "config": {"scale": 1.0, "mode": "fan_avg", "distribution": "uniform", "seed": null}}, "bias_initializer": {"class_name": "Zeros", "config": {}}, "kernel_regularizer": null, "bias_regularizer": null, "activity_regularizer": null, "kernel_constraint": null, "bias_constraint": null}, "inbound_nodes": [[["concatenate_247", 0, 0, {}]]]}, {"name": "dense_268", "class_name": "Dense", "config": {"name": "dense_268", "trainable": true, "dtype": "float32", "units": 100, "activation": "relu", "use_bias": true, "kernel_initializer": {"class_name": "VarianceScaling", "config": {"scale": 1.0, "mode": "fan_avg", "distribution": "uniform", "seed": null}}, "bias_initializer": {"class_name": "Zeros", "config": {}}, "kernel_regularizer": null, "bias_regularizer": null, "activity_regularizer": null, "kernel_constraint": null, "bias_constraint": null}, "inbound_nodes": [[["concatenate_254", 0, 0, {}]]]}, {"name": "dense_270", "class_name": "Dense", "config": {"name": "dense_270", "trainable": true, "dtype": "float32", "units": 100, "activation": "relu", "use_bias": true, "kernel_initializer": {"class_name": "VarianceScaling", "config": {"scale": 1.0, "mode": "fan_avg", "distribution": "uniform", "seed": null}}, "bias_initializer": {"class_name": "Zeros", "config": {}}, "kernel_regularizer": null, "bias_regularizer": null, "activity_regularizer": null, "kernel_constraint": null, "bias_constraint": null}, "inbound_nodes": [[["concatenate_256", 0, 0, {}]]]}, {"name": "dense_274", "class_name": "Dense", "config": {"name": "dense_274", "trainable": true, "dtype": "float32", "units": 100, "activation": "relu", "use_bias": true, "kernel_initializer": {"class_name": "VarianceScaling", "config": {"scale": 1.0, "mode": "fan_avg", "distribution": "uniform", "seed": null}}, "bias_initializer": {"class_name": "Zeros", "config": {}}, "kernel_regularizer": null, "bias_regularizer": null, "activity_regularizer": null, "kernel_constraint": null, "bias_constraint": null}, "inbound_nodes": [[["concatenate_260", 0, 0, {}]]]}, {"name": "dense_276", "class_name": "Dense", "config": {"name": "dense_276", "trainable": true, "dtype": "float32", "units": 100, "activation": "relu", "use_bias": true, "kernel_initializer": {"class_name": "VarianceScaling", "config": {"scale": 1.0, "mode": "fan_avg", "distribution": "uniform", "seed": null}}, "bias_initializer": {"class_name": "Zeros", "config": {}}, "kernel_regularizer": null, "bias_regularizer": null, "activity_regularizer": null, "kernel_constraint": null, "bias_constraint": null}, "inbound_nodes": [[["concatenate_262", 0, 0, {}]]]}, {"name": "dense_282", "class_name": "Dense", "config": {"name": "dense_282", "trainable": true, "dtype": "float32", "units": 100, "activation": "relu", "use_bias": true, "kernel_initializer": {"class_name": "VarianceScaling", "config": {"scale": 1.0, "mode": "fan_avg", "distribution": "uniform", "seed": null}}, "bias_initializer": {"class_name": "Zeros", "config": {}}, "kernel_regularizer": null, "bias_regularizer": null, "activity_regularizer": null, "kernel_constraint": null, "bias_constraint": null}, "inbound_nodes": [[["concatenate_268", 0, 0, {}]]]}, {"name": "dense_284", "class_name": "Dense", "config": {"name": "dense_284", "trainable": true, "dtype": "float32", "units": 100, "activation": "relu", "use_bias": true, "kernel_initializer": {"class_name": "VarianceScaling", "config": {"scale": 1.0, "mode": "fan_avg", "distribution": "uniform", "seed": null}}, "bias_initializer": {"class_name": "Zeros", "config": {}}, "kernel_regularizer": null, "bias_regularizer": null, "activity_regularizer": null, "kernel_constraint": null, "bias_constraint": null}, "inbound_nodes": [[["concatenate_270", 0, 0, {}]]]}, {"name": "dense_288", "class_name": "Dense", "config": {"name": "dense_288", "trainable": true, "dtype": "float32", "units": 100, "activation": "relu", "use_bias": true, "kernel_initializer": {"class_name": "VarianceScaling", "config": {"scale": 1.0, "mode": "fan_avg", "distribution": "uniform", "seed": null}}, "bias_initializer": {"class_name": "Zeros", "config": {}}, "kernel_regularizer": null, "bias_regularizer": null, "activity_regularizer": null, "kernel_constraint": null, "bias_constraint": null}, "inbound_nodes": [[["concatenate_274", 0, 0, {}]]]}, {"name": "dense_290", "class_name": "Dense", "config": {"name": "dense_290", "trainable": true, "dtype": "float32", "units": 100, "activation": "relu", "use_bias": true, "kernel_initializer": {"class_name": "VarianceScaling", "config": {"scale": 1.0, "mode": "fan_avg", "distribution": "uniform", "seed": null}}, "bias_initializer": {"class_name": "Zeros", "config": {}}, "kernel_regularizer": null, "bias_regularizer": null, "activity_regularizer": null, "kernel_constraint": null, "bias_constraint": null}, "inbound_nodes": [[["concatenate_276", 0, 0, {}]]]}, {"name": "concatenate_113", "class_name": "Concatenate", "config": {"name": "concatenate_113", "trainable": true, "dtype": "float32", "axis": -1}, "inbound_nodes": [[["dense_125", 0, 0, {}], ["dense_126", 0, 0, {}]]]}, {"name": "concatenate_117", "class_name": "Concatenate", "config": {"name": "concatenate_117", "trainable": true, "dtype": "float32", "axis": -1}, "inbound_nodes": [[["dense_129", 0, 0, {}], ["dense_130", 0, 0, {}]]]}, {"name": "concatenate_126", "class_name": "Concatenate", "config": {"name": "concatenate_126", "trainable": true, "dtype": "float32", "axis": -1}, "inbound_nodes": [[["dense_138", 0, 0, {}], ["dense_139", 0, 0, {}]]]}, {"name": "concatenate_130", "class_name": "Concatenate", "config": {"name": "concatenate_130", "trainable": true, "dtype": "float32", "axis": -1}, "inbound_nodes": [[["dense_142", 0, 0, {}], ["dense_143", 0, 0, {}]]]}, {"name": "concatenate_142", "class_name": "Concatenate", "config": {"name": "concatenate_142", "trainable": true, "dtype": "float32", "axis": -1}, "inbound_nodes": [[["dense_153", 0, 0, {}], ["dense_155", 0, 0, {}]]]}, {"name": "concatenate_148", "class_name": "Concatenate", "config": {"name": "concatenate_148", "trainable": true, "dtype": "float32", "axis": -1}, "inbound_nodes": [[["dense_159", 0, 0, {}], ["dense_161", 0, 0, {}]]]}, {"name": "concatenate_156", "class_name": "Concatenate", "config": {"name": "concatenate_156", "trainable": true, "dtype": "float32", "axis": -1}, "inbound_nodes": [[["dense_167", 0, 0, {}], ["dense_169", 0, 0, {}]]]}, {"name": "concatenate_162", "class_name": "Concatenate", "config": {"name": "concatenate_162", "trainable": true, "dtype": "float32", "axis": -1}, "inbound_nodes": [[["dense_121", 0, 0, {}], ["dense_175", 0, 0, {}]]]}, {"name": "concatenate_172", "class_name": "Concatenate", "config": {"name": "concatenate_172", "trainable": true, "dtype": "float32", "axis": -1}, "inbound_nodes": [[["dense_183", 0, 0, {}], ["dense_185", 0, 0, {}]]]}, {"name": "concatenate_178", "class_name": "Concatenate", "config": {"name": "concatenate_178", "trainable": true, "dtype": "float32", "axis": -1}, "inbound_nodes": [[["dense_189", 0, 0, {}], ["dense_191", 0, 0, {}]]]}, {"name": "concatenate_186", "class_name": "Concatenate", "config": {"name": "concatenate_186", "trainable": true, "dtype": "float32", "axis": -1}, "inbound_nodes": [[["dense_197", 0, 0, {}], ["dense_199", 0, 0, {}]]]}, {"name": "concatenate_192", "class_name": "Concatenate", "config": {"name": "concatenate_192", "trainable": true, "dtype": "float32", "axis": -1}, "inbound_nodes": [[["dense_119", 0, 0, {}], ["dense_205", 0, 0, {}]]]}, {"name": "concatenate_202", "class_name": "Concatenate", "config": {"name": "concatenate_202", "trainable": true, "dtype": "float32", "axis": -1}, "inbound_nodes": [[["dense_120", 0, 0, {}], ["dense_120", 0, 0, {}]]]}, {"name": "concatenate_203", "class_name": "Concatenate", "config": {"name": "concatenate_203", "trainable": true, "dtype": "float32", "axis": -1}, "inbound_nodes": [[["dense_120", 0, 0, {}], ["dense_120", 0, 0, {}]]]}, {"name": "concatenate_212", "class_name": "Concatenate", "config": {"name": "concatenate_212", "trainable": true, "dtype": "float32", "axis": -1}, "inbound_nodes": [[["dense_121", 0, 0, {}], ["dense_225", 0, 0, {}]]]}, {"name": "concatenate_216", "class_name": "Concatenate", "config": {"name": "concatenate_216", "trainable": true, "dtype": "float32", "axis": -1}, "inbound_nodes": [[["dense_121", 0, 0, {}], ["dense_229", 0, 0, {}]]]}, {"name": "concatenate_228", "class_name": "Concatenate", "config": {"name": "concatenate_228", "trainable": true, "dtype": "float32", "axis": -1}, "inbound_nodes": [[["dense_239", 0, 0, {}], ["dense_241", 0, 0, {}]]]}, {"name": "concatenate_234", "class_name": "Concatenate", "config": {"name": "concatenate_234", "trainable": true, "dtype": "float32", "axis": -1}, "inbound_nodes": [[["dense_245", 0, 0, {}], ["dense_247", 0, 0, {}]]]}, {"name": "concatenate_242", "class_name": "Concatenate", "config": {"name": "concatenate_242", "trainable": true, "dtype": "float32", "axis": -1}, "inbound_nodes": [[["dense_253", 0, 0, {}], ["dense_255", 0, 0, {}]]]}, {"name": "concatenate_248", "class_name": "Concatenate", "config": {"name": "concatenate_248", "trainable": true, "dtype": "float32", "axis": -1}, "inbound_nodes": [[["dense_259", 0, 0, {}], ["dense_261", 0, 0, {}]]]}, {"name": "concatenate_257", "class_name": "Concatenate", "config": {"name": "concatenate_257", "trainable": true, "dtype": "float32", "axis": -1}, "inbound_nodes": [[["dense_268", 0, 0, {}], ["dense_270", 0, 0, {}]]]}, {"name": "concatenate_263", "class_name": "Concatenate", "config": {"name": "concatenate_263", "trainable": true, "dtype": "float32", "axis": -1}, "inbound_nodes": [[["dense_274", 0, 0, {}], ["dense_276", 0, 0, {}]]]}, {"name": "concatenate_271", "class_name": "Concatenate", "config": {"name": "concatenate_271", "trainable": true, "dtype": "float32", "axis": -1}, "inbound_nodes": [[["dense_282", 0, 0, {}], ["dense_284", 0, 0, {}]]]}, {"name": "concatenate_277", "class_name": "Concatenate", "config": {"name": "concatenate_277", "trainable": true, "dtype": "float32", "axis": -1}, "inbound_nodes": [[["dense_288", 0, 0, {}], ["dense_290", 0, 0, {}]]]}, {"name": "dense_127", "class_name": "Dense", "config": {"name": "dense_127", "trainable": true, "dtype": "float32", "units": 100, "activation": "relu", "use_bias": true, "kernel_initializer": {"class_name": "VarianceScaling", "config": {"scale": 1.0, "mode": "fan_avg", "distribution": "uniform", "seed": null}}, "bias_initializer": {"class_name": "Zeros", "config": {}}, "kernel_regularizer": null, "bias_regularizer": null, "activity_regularizer": null, "kernel_constraint": null, "bias_constraint": null}, "inbound_nodes": [[["concatenate_113", 0, 0, {}]]]}, {"name": "dense_131", "class_name": "Dense", "config": {"name": "dense_131", "trainable": true, "dtype": "float32", "units": 100, "activation": "relu", "use_bias": true, "kernel_initializer": {"class_name": "VarianceScaling", "config": {"scale": 1.0, "mode": "fan_avg", "distribution": "uniform", "seed": null}}, "bias_initializer": {"class_name": "Zeros", "config": {}}, "kernel_regularizer": null, "bias_regularizer": null, "activity_regularizer": null, "kernel_constraint": null, "bias_constraint": null}, "inbound_nodes": [[["concatenate_117", 0, 0, {}]]]}, {"name": "dense_140", "class_name": "Dense", "config": {"name": "dense_140", "trainable": true, "dtype": "float32", "units": 100, "activation": "relu", "use_bias": true, "kernel_initializer": {"class_name": "VarianceScaling", "config": {"scale": 1.0, "mode": "fan_avg", "distribution": "uniform", "seed": null}}, "bias_initializer": {"class_name": "Zeros", "config": {}}, "kernel_regularizer": null, "bias_regularizer": null, "activity_regularizer": null, "kernel_constraint": null, "bias_constraint": null}, "inbound_nodes": [[["concatenate_126", 0, 0, {}]]]}, {"name": "dense_144", "class_name": "Dense", "config": {"name": "dense_144", "trainable": true, "dtype": "float32", "units": 100, "activation": "relu", "use_bias": true, "kernel_initializer": {"class_name": "VarianceScaling", "config": {"scale": 1.0, "mode": "fan_avg", "distribution": "uniform", "seed": null}}, "bias_initializer": {"class_name": "Zeros", "config": {}}, "kernel_regularizer": null, "bias_regularizer": null, "activity_regularizer": null, "kernel_constraint": null, "bias_constraint": null}, "inbound_nodes": [[["concatenate_130", 0, 0, {}]]]}, {"name": "dense_156", "class_name": "Dense", "config": {"name": "dense_156", "trainable": true, "dtype": "float32", "units": 100, "activation": "relu", "use_bias": true, "kernel_initializer": {"class_name": "VarianceScaling", "config": {"scale": 1.0, "mode": "fan_avg", "distribution": "uniform", "seed": null}}, "bias_initializer": {"class_name": "Zeros", "config": {}}, "kernel_regularizer": null, "bias_regularizer": null, "activity_regularizer": null, "kernel_constraint": null, "bias_constraint": null}, "inbound_nodes": [[["concatenate_142", 0, 0, {}]]]}, {"name": "dense_162", "class_name": "Dense", "config": {"name": "dense_162", "trainable": true, "dtype": "float32", "units": 100, "activation": "relu", "use_bias": true, "kernel_initializer": {"class_name": "VarianceScaling", "config": {"scale": 1.0, "mode": "fan_avg", "distribution": "uniform", "seed": null}}, "bias_initializer": {"class_name": "Zeros", "config": {}}, "kernel_regularizer": null, "bias_regularizer": null, "activity_regularizer": null, "kernel_constraint": null, "bias_constraint": null}, "inbound_nodes": [[["concatenate_148", 0, 0, {}]]]}, {"name": "dense_170", "class_name": "Dense", "config": {"name": "dense_170", "trainable": true, "dtype": "float32", "units": 100, "activation": "relu", "use_bias": true, "kernel_initializer": {"class_name": "VarianceScaling", "config": {"scale": 1.0, "mode": "fan_avg", "distribution": "uniform", "seed": null}}, "bias_initializer": {"class_name": "Zeros", "config": {}}, "kernel_regularizer": null, "bias_regularizer": null, "activity_regularizer": null, "kernel_constraint": null, "bias_constraint": null}, "inbound_nodes": [[["concatenate_156", 0, 0, {}]]]}, {"name": "dense_176", "class_name": "Dense", "config": {"name": "dense_176", "trainable": true, "dtype": "float32", "units": 100, "activation": "relu", "use_bias": true, "kernel_initializer": {"class_name": "VarianceScaling", "config": {"scale": 1.0, "mode": "fan_avg", "distribution": "uniform", "seed": null}}, "bias_initializer": {"class_name": "Zeros", "config": {}}, "kernel_regularizer": null, "bias_regularizer": null, "activity_regularizer": null, "kernel_constraint": null, "bias_constraint": null}, "inbound_nodes": [[["concatenate_162", 0, 0, {}]]]}, {"name": "dense_186", "class_name": "Dense", "config": {"name": "dense_186", "trainable": true, "dtype": "float32", "units": 100, "activation": "relu", "use_bias": true, "kernel_initializer": {"class_name": "VarianceScaling", "config": {"scale": 1.0, "mode": "fan_avg", "distribution": "uniform", "seed": null}}, "bias_initializer": {"class_name": "Zeros", "config": {}}, "kernel_regularizer": null, "bias_regularizer": null, "activity_regularizer": null, "kernel_constraint": null, "bias_constraint": null}, "inbound_nodes": [[["concatenate_172", 0, 0, {}]]]}, {"name": "dense_192", "class_name": "Dense", "config": {"name": "dense_192", "trainable": true, "dtype": "float32", "units": 100, "activation": "relu", "use_bias": true, "kernel_initializer": {"class_name": "VarianceScaling", "config": {"scale": 1.0, "mode": "fan_avg", "distribution": "uniform", "seed": null}}, "bias_initializer": {"class_name": "Zeros", "config": {}}, "kernel_regularizer": null, "bias_regularizer": null, "activity_regularizer": null, "kernel_constraint": null, "bias_constraint": null}, "inbound_nodes": [[["concatenate_178", 0, 0, {}]]]}, {"name": "dense_200", "class_name": "Dense", "config": {"name": "dense_200", "trainable": true, "dtype": "float32", "units": 100, "activation": "relu", "use_bias": true, "kernel_initializer": {"class_name": "VarianceScaling", "config": {"scale": 1.0, "mode": "fan_avg", "distribution": "uniform", "seed": null}}, "bias_initializer": {"class_name": "Zeros", "config": {}}, "kernel_regularizer": null, "bias_regularizer": null, "activity_regularizer": null, "kernel_constraint": null, "bias_constraint": null}, "inbound_nodes": [[["concatenate_186", 0, 0, {}]]]}, {"name": "dense_206", "class_name": "Dense", "config": {"name": "dense_206", "trainable": true, "dtype": "float32", "units": 100, "activation": "relu", "use_bias": true, "kernel_initializer": {"class_name": "VarianceScaling", "config": {"scale": 1.0, "mode": "fan_avg", "distribution": "uniform", "seed": null}}, "bias_initializer": {"class_name": "Zeros", "config": {}}, "kernel_regularizer": null, "bias_regularizer": null, "activity_regularizer": null, "kernel_constraint": null, "bias_constraint": null}, "inbound_nodes": [[["concatenate_192", 0, 0, {}]]]}, {"name": "dense_216", "class_name": "Dense", "config": {"name": "dense_216", "trainable": true, "dtype": "float32", "units": 100, "activation": "relu", "use_bias": true, "kernel_initializer": {"class_name": "VarianceScaling", "config": {"scale": 1.0, "mode": "fan_avg", "distribution": "uniform", "seed": null}}, "bias_initializer": {"class_name": "Zeros", "config": {}}, "kernel_regularizer": null, "bias_regularizer": null, "activity_regularizer": null, "kernel_constraint": null, "bias_constraint": null}, "inbound_nodes": [[["concatenate_202", 0, 0, {}]]]}, {"name": "dense_217", "class_name": "Dense", "config": {"name": "dense_217", "trainable": true, "dtype": "float32", "units": 100, "activation": "relu", "use_bias": true, "kernel_initializer": {"class_name": "VarianceScaling", "config": {"scale": 1.0, "mode": "fan_avg", "distribution": "uniform", "seed": null}}, "bias_initializer": {"class_name": "Zeros", "config": {}}, "kernel_regularizer": null, "bias_regularizer": null, "activity_regularizer": null, "kernel_constraint": null, "bias_constraint": null}, "inbound_nodes": [[["concatenate_203", 0, 0, {}]]]}, {"name": "dense_226", "class_name": "Dense", "config": {"name": "dense_226", "trainable": true, "dtype": "float32", "units": 100, "activation": "relu", "use_bias": true, "kernel_initializer": {"class_name": "VarianceScaling", "config": {"scale": 1.0, "mode": "fan_avg", "distribution": "uniform", "seed": null}}, "bias_initializer": {"class_name": "Zeros", "config": {}}, "kernel_regularizer": null, "bias_regularizer": null, "activity_regularizer": null, "kernel_constraint": null, "bias_constraint": null}, "inbound_nodes": [[["concatenate_212", 0, 0, {}]]]}, {"name": "dense_230", "class_name": "Dense", "config": {"name": "dense_230", "trainable": true, "dtype": "float32", "units": 100, "activation": "relu", "use_bias": true, "kernel_initializer": {"class_name": "VarianceScaling", "config": {"scale": 1.0, "mode": "fan_avg", "distribution": "uniform", "seed": null}}, "bias_initializer": {"class_name": "Zeros", "config": {}}, "kernel_regularizer": null, "bias_regularizer": null, "activity_regularizer": null, "kernel_constraint": null, "bias_constraint": null}, "inbound_nodes": [[["concatenate_216", 0, 0, {}]]]}, {"name": "dense_242", "class_name": "Dense", "config": {"name": "dense_242", "trainable": true, "dtype": "float32", "units": 100, "activation": "relu", "use_bias": true, "kernel_initializer": {"class_name": "VarianceScaling", "config": {"scale": 1.0, "mode": "fan_avg", "distribution": "uniform", "seed": null}}, "bias_initializer": {"class_name": "Zeros", "config": {}}, "kernel_regularizer": null, "bias_regularizer": null, "activity_regularizer": null, "kernel_constraint": null, "bias_constraint": null}, "inbound_nodes": [[["concatenate_228", 0, 0, {}]]]}, {"name": "dense_248", "class_name": "Dense", "config": {"name": "dense_248", "trainable": true, "dtype": "float32", "units": 100, "activation": "relu", "use_bias": true, "kernel_initializer": {"class_name": "VarianceScaling", "config": {"scale": 1.0, "mode": "fan_avg", "distribution": "uniform", "seed": null}}, "bias_initializer": {"class_name": "Zeros", "config": {}}, "kernel_regularizer": null, "bias_regularizer": null, "activity_regularizer": null, "kernel_constraint": null, "bias_constraint": null}, "inbound_nodes": [[["concatenate_234", 0, 0, {}]]]}, {"name": "dense_256", "class_name": "Dense", "config": {"name": "dense_256", "trainable": true, "dtype": "float32", "units": 100, "activation": "relu", "use_bias": true, "kernel_initializer": {"class_name": "VarianceScaling", "config": {"scale": 1.0, "mode": "fan_avg", "distribution": "uniform", "seed": null}}, "bias_initializer": {"class_name": "Zeros", "config": {}}, "kernel_regularizer": null, "bias_regularizer": null, "activity_regularizer": null, "kernel_constraint": null, "bias_constraint": null}, "inbound_nodes": [[["concatenate_242", 0, 0, {}]]]}, {"name": "dense_262", "class_name": "Dense", "config": {"name": "dense_262", "trainable": true, "dtype": "float32", "units": 100, "activation": "relu", "use_bias": true, "kernel_initializer": {"class_name": "VarianceScaling", "config": {"scale": 1.0, "mode": "fan_avg", "distribution": "uniform", "seed": null}}, "bias_initializer": {"class_name": "Zeros", "config": {}}, "kernel_regularizer": null, "bias_regularizer": null, "activity_regularizer": null, "kernel_constraint": null, "bias_constraint": null}, "inbound_nodes": [[["concatenate_248", 0, 0, {}]]]}, {"name": "dense_271", "class_name": "Dense", "config": {"name": "dense_271", "trainable": true, "dtype": "float32", "units": 100, "activation": "relu", "use_bias": true, "kernel_initializer": {"class_name": "VarianceScaling", "config": {"scale": 1.0, "mode": "fan_avg", "distribution": "uniform", "seed": null}}, "bias_initializer": {"class_name": "Zeros", "config": {}}, "kernel_regularizer": null, "bias_regularizer": null, "activity_regularizer": null, "kernel_constraint": null, "bias_constraint": null}, "inbound_nodes": [[["concatenate_257", 0, 0, {}]]]}, {"name": "dense_277", "class_name": "Dense", "config": {"name": "dense_277", "trainable": true, "dtype": "float32", "units": 100, "activation": "relu", "use_bias": true, "kernel_initializer": {"class_name": "VarianceScaling", "config": {"scale": 1.0, "mode": "fan_avg", "distribution": "uniform", "seed": null}}, "bias_initializer": {"class_name": "Zeros", "config": {}}, "kernel_regularizer": null, "bias_regularizer": null, "activity_regularizer": null, "kernel_constraint": null, "bias_constraint": null}, "inbound_nodes": [[["concatenate_263", 0, 0, {}]]]}, {"name": "dense_285", "class_name": "Dense", "config": {"name": "dense_285", "trainable": true, "dtype": "float32", "units": 100, "activation": "relu", "use_bias": true, "kernel_initializer": {"class_name": "VarianceScaling", "config": {"scale": 1.0, "mode": "fan_avg", "distribution": "uniform", "seed": null}}, "bias_initializer": {"class_name": "Zeros", "config": {}}, "kernel_regularizer": null, "bias_regularizer": null, "activity_regularizer": null, "kernel_constraint": null, "bias_constraint": null}, "inbound_nodes": [[["concatenate_271", 0, 0, {}]]]}, {"name": "dense_291", "class_name": "Dense", "config": {"name": "dense_291", "trainable": true, "dtype": "float32", "units": 100, "activation": "relu", "use_bias": true, "kernel_initializer": {"class_name": "VarianceScaling", "config": {"scale": 1.0, "mode": "fan_avg", "distribution": "uniform", "seed": null}}, "bias_initializer": {"class_name": "Zeros", "config": {}}, "kernel_regularizer": null, "bias_regularizer": null, "activity_regularizer": null, "kernel_constraint": null, "bias_constraint": null}, "inbound_nodes": [[["concatenate_277", 0, 0, {}]]]}, {"name": "concatenate_114", "class_name": "Concatenate", "config": {"name": "concatenate_114", "trainable": true, "dtype": "float32", "axis": -1}, "inbound_nodes": [[["dense_127", 0, 0, {}], ["dense_119", 0, 0, {}]]]}, {"name": "concatenate_118", "class_name": "Concatenate", "config": {"name": "concatenate_118", "trainable": true, "dtype": "float32", "axis": -1}, "inbound_nodes": [[["dense_131", 0, 0, {}], ["dense_119", 0, 0, {}]]]}, {"name": "concatenate_127", "class_name": "Concatenate", "config": {"name": "concatenate_127", "trainable": true, "dtype": "float32", "axis": -1}, "inbound_nodes": [[["dense_140", 0, 0, {}], ["dense_121", 0, 0, {}]]]}, {"name": "concatenate_131", "class_name": "Concatenate", "config": {"name": "concatenate_131", "trainable": true, "dtype": "float32", "axis": -1}, "inbound_nodes": [[["dense_144", 0, 0, {}], ["dense_121", 0, 0, {}]]]}, {"name": "concatenate_143", "class_name": "Concatenate", "config": {"name": "concatenate_143", "trainable": true, "dtype": "float32", "axis": -1}, "inbound_nodes": [[["dense_156", 0, 0, {}], ["dense_122", 0, 0, {}]]]}, {"name": "concatenate_149", "class_name": "Concatenate", "config": {"name": "concatenate_149", "trainable": true, "dtype": "float32", "axis": -1}, "inbound_nodes": [[["dense_162", 0, 0, {}], ["dense_121", 0, 0, {}]]]}, {"name": "concatenate_157", "class_name": "Concatenate", "config": {"name": "concatenate_157", "trainable": true, "dtype": "float32", "axis": -1}, "inbound_nodes": [[["dense_170", 0, 0, {}], ["dense_120", 0, 0, {}]]]}, {"name": "concatenate_163", "class_name": "Concatenate", "config": {"name": "concatenate_163", "trainable": true, "dtype": "float32", "axis": -1}, "inbound_nodes": [[["dense_176", 0, 0, {}], ["dense_120", 0, 0, {}]]]}, {"name": "concatenate_173", "class_name": "Concatenate", "config": {"name": "concatenate_173", "trainable": true, "dtype": "float32", "axis": -1}, "inbound_nodes": [[["dense_186", 0, 0, {}], ["dense_120", 0, 0, {}]]]}, {"name": "concatenate_179", "class_name": "Concatenate", "config": {"name": "concatenate_179", "trainable": true, "dtype": "float32", "axis": -1}, "inbound_nodes": [[["dense_192", 0, 0, {}], ["dense_121", 0, 0, {}]]]}, {"name": "concatenate_187", "class_name": "Concatenate", "config": {"name": "concatenate_187", "trainable": true, "dtype": "float32", "axis": -1}, "inbound_nodes": [[["dense_200", 0, 0, {}], ["dense_119", 0, 0, {}]]]}, {"name": "concatenate_193", "class_name": "Concatenate", "config": {"name": "concatenate_193", "trainable": true, "dtype": "float32", "axis": -1}, "inbound_nodes": [[["dense_206", 0, 0, {}], ["dense_120", 0, 0, {}]]]}, {"name": "concatenate_204", "class_name": "Concatenate", "config": {"name": "concatenate_204", "trainable": true, "dtype": "float32", "axis": -1}, "inbound_nodes": [[["dense_216", 0, 0, {}], ["dense_217", 0, 0, {}]]]}, {"name": "concatenate_213", "class_name": "Concatenate", "config": {"name": "concatenate_213", "trainable": true, "dtype": "float32", "axis": -1}, "inbound_nodes": [[["dense_226", 0, 0, {}], ["dense_120", 0, 0, {}]]]}, {"name": "concatenate_217", "class_name": "Concatenate", "config": {"name": "concatenate_217", "trainable": true, "dtype": "float32", "axis": -1}, "inbound_nodes": [[["dense_230", 0, 0, {}], ["dense_120", 0, 0, {}]]]}, {"name": "concatenate_229", "class_name": "Concatenate", "config": {"name": "concatenate_229", "trainable": true, "dtype": "float32", "axis": -1}, "inbound_nodes": [[["dense_242", 0, 0, {}], ["dense_120", 0, 0, {}]]]}, {"name": "concatenate_235", "class_name": "Concatenate", "config": {"name": "concatenate_235", "trainable": true, "dtype": "float32", "axis": -1}, "inbound_nodes": [[["dense_248", 0, 0, {}], ["dense_121", 0, 0, {}]]]}, {"name": "concatenate_243", "class_name": "Concatenate", "config": {"name": "concatenate_243", "trainable": true, "dtype": "float32", "axis": -1}, "inbound_nodes": [[["dense_256", 0, 0, {}], ["dense_122", 0, 0, {}]]]}, {"name": "concatenate_249", "class_name": "Concatenate", "config": {"name": "concatenate_249", "trainable": true, "dtype": "float32", "axis": -1}, "inbound_nodes": [[["dense_262", 0, 0, {}], ["dense_122", 0, 0, {}]]]}, {"name": "concatenate_258", "class_name": "Concatenate", "config": {"name": "concatenate_258", "trainable": true, "dtype": "float32", "axis": -1}, "inbound_nodes": [[["dense_271", 0, 0, {}], ["dense_123", 0, 0, {}]]]}, {"name": "concatenate_264", "class_name": "Concatenate", "config": {"name": "concatenate_264", "trainable": true, "dtype": "float32", "axis": -1}, "inbound_nodes": [[["dense_277", 0, 0, {}], ["dense_121", 0, 0, {}]]]}, {"name": "concatenate_272", "class_name": "Concatenate", "config": {"name": "concatenate_272", "trainable": true, "dtype": "float32", "axis": -1}, "inbound_nodes": [[["dense_285", 0, 0, {}], ["dense_123", 0, 0, {}]]]}, {"name": "concatenate_278", "class_name": "Concatenate", "config": {"name": "concatenate_278", "trainable": true, "dtype": "float32", "axis": -1}, "inbound_nodes": [[["dense_291", 0, 0, {}], ["dense_122", 0, 0, {}]]]}, {"name": "dense_128", "class_name": "Dense", "config": {"name": "dense_128", "trainable": true, "dtype": "float32", "units": 100, "activation": "relu", "use_bias": true, "kernel_initializer": {"class_name": "VarianceScaling", "config": {"scale": 1.0, "mode": "fan_avg", "distribution": "uniform", "seed": null}}, "bias_initializer": {"class_name": "Zeros", "config": {}}, "kernel_regularizer": null, "bias_regularizer": null, "activity_regularizer": null, "kernel_constraint": null, "bias_constraint": null}, "inbound_nodes": [[["concatenate_114", 0, 0, {}]]]}, {"name": "dense_132", "class_name": "Dense", "config": {"name": "dense_132", "trainable": true, "dtype": "float32", "units": 100, "activation": "relu", "use_bias": true, "kernel_initializer": {"class_name": "VarianceScaling", "config": {"scale": 1.0, "mode": "fan_avg", "distribution": "uniform", "seed": null}}, "bias_initializer": {"class_name": "Zeros", "config": {}}, "kernel_regularizer": null, "bias_regularizer": null, "activity_regularizer": null, "kernel_constraint": null, "bias_constraint": null}, "inbound_nodes": [[["concatenate_118", 0, 0, {}]]]}, {"name": "dense_141", "class_name": "Dense", "config": {"name": "dense_141", "trainable": true, "dtype": "float32", "units": 100, "activation": "relu", "use_bias": true, "kernel_initializer": {"class_name": "VarianceScaling", "config": {"scale": 1.0, "mode": "fan_avg", "distribution": "uniform", "seed": null}}, "bias_initializer": {"class_name": "Zeros", "config": {}}, "kernel_regularizer": null, "bias_regularizer": null, "activity_regularizer": null, "kernel_constraint": null, "bias_constraint": null}, "inbound_nodes": [[["concatenate_127", 0, 0, {}]]]}, {"name": "dense_145", "class_name": "Dense", "config": {"name": "dense_145", "trainable": true, "dtype": "float32", "units": 100, "activation": "relu", "use_bias": true, "kernel_initializer": {"class_name": "VarianceScaling", "config": {"scale": 1.0, "mode": "fan_avg", "distribution": "uniform", "seed": null}}, "bias_initializer": {"class_name": "Zeros", "config": {}}, "kernel_regularizer": null, "bias_regularizer": null, "activity_regularizer": null, "kernel_constraint": null, "bias_constraint": null}, "inbound_nodes": [[["concatenate_131", 0, 0, {}]]]}, {"name": "dense_157", "class_name": "Dense", "config": {"name": "dense_157", "trainable": true, "dtype": "float32", "units": 100, "activation": "relu", "use_bias": true, "kernel_initializer": {"class_name": "VarianceScaling", "config": {"scale": 1.0, "mode": "fan_avg", "distribution": "uniform", "seed": null}}, "bias_initializer": {"class_name": "Zeros", "config": {}}, "kernel_regularizer": null, "bias_regularizer": null, "activity_regularizer": null, "kernel_constraint": null, "bias_constraint": null}, "inbound_nodes": [[["concatenate_143", 0, 0, {}]]]}, {"name": "dense_163", "class_name": "Dense", "config": {"name": "dense_163", "trainable": true, "dtype": "float32", "units": 100, "activation": "relu", "use_bias": true, "kernel_initializer": {"class_name": "VarianceScaling", "config": {"scale": 1.0, "mode": "fan_avg", "distribution": "uniform", "seed": null}}, "bias_initializer": {"class_name": "Zeros", "config": {}}, "kernel_regularizer": null, "bias_regularizer": null, "activity_regularizer": null, "kernel_constraint": null, "bias_constraint": null}, "inbound_nodes": [[["concatenate_149", 0, 0, {}]]]}, {"name": "dense_171", "class_name": "Dense", "config": {"name": "dense_171", "trainable": true, "dtype": "float32", "units": 100, "activation": "relu", "use_bias": true, "kernel_initializer": {"class_name": "VarianceScaling", "config": {"scale": 1.0, "mode": "fan_avg", "distribution": "uniform", "seed": null}}, "bias_initializer": {"class_name": "Zeros", "config": {}}, "kernel_regularizer": null, "bias_regularizer": null, "activity_regularizer": null, "kernel_constraint": null, "bias_constraint": null}, "inbound_nodes": [[["concatenate_157", 0, 0, {}]]]}, {"name": "dense_177", "class_name": "Dense", "config": {"name": "dense_177", "trainable": true, "dtype": "float32", "units": 100, "activation": "relu", "use_bias": true, "kernel_initializer": {"class_name": "VarianceScaling", "config": {"scale": 1.0, "mode": "fan_avg", "distribution": "uniform", "seed": null}}, "bias_initializer": {"class_name": "Zeros", "config": {}}, "kernel_regularizer": null, "bias_regularizer": null, "activity_regularizer": null, "kernel_constraint": null, "bias_constraint": null}, "inbound_nodes": [[["concatenate_163", 0, 0, {}]]]}, {"name": "dense_187", "class_name": "Dense", "config": {"name": "dense_187", "trainable": true, "dtype": "float32", "units": 100, "activation": "relu", "use_bias": true, "kernel_initializer": {"class_name": "VarianceScaling", "config": {"scale": 1.0, "mode": "fan_avg", "distribution": "uniform", "seed": null}}, "bias_initializer": {"class_name": "Zeros", "config": {}}, "kernel_regularizer": null, "bias_regularizer": null, "activity_regularizer": null, "kernel_constraint": null, "bias_constraint": null}, "inbound_nodes": [[["concatenate_173", 0, 0, {}]]]}, {"name": "dense_193", "class_name": "Dense", "config": {"name": "dense_193", "trainable": true, "dtype": "float32", "units": 100, "activation": "relu", "use_bias": true, "kernel_initializer": {"class_name": "VarianceScaling", "config": {"scale": 1.0, "mode": "fan_avg", "distribution": "uniform", "seed": null}}, "bias_initializer": {"class_name": "Zeros", "config": {}}, "kernel_regularizer": null, "bias_regularizer": null, "activity_regularizer": null, "kernel_constraint": null, "bias_constraint": null}, "inbound_nodes": [[["concatenate_179", 0, 0, {}]]]}, {"name": "dense_201", "class_name": "Dense", "config": {"name": "dense_201", "trainable": true, "dtype": "float32", "units": 100, "activation": "relu", "use_bias": true, "kernel_initializer": {"class_name": "VarianceScaling", "config": {"scale": 1.0, "mode": "fan_avg", "distribution": "uniform", "seed": null}}, "bias_initializer": {"class_name": "Zeros", "config": {}}, "kernel_regularizer": null, "bias_regularizer": null, "activity_regularizer": null, "kernel_constraint": null, "bias_constraint": null}, "inbound_nodes": [[["concatenate_187", 0, 0, {}]]]}, {"name": "dense_207", "class_name": "Dense", "config": {"name": "dense_207", "trainable": true, "dtype": "float32", "units": 100, "activation": "relu", "use_bias": true, "kernel_initializer": {"class_name": "VarianceScaling", "config": {"scale": 1.0, "mode": "fan_avg", "distribution": "uniform", "seed": null}}, "bias_initializer": {"class_name": "Zeros", "config": {}}, "kernel_regularizer": null, "bias_regularizer": null, "activity_regularizer": null, "kernel_constraint": null, "bias_constraint": null}, "inbound_nodes": [[["concatenate_193", 0, 0, {}]]]}, {"name": "dense_218", "class_name": "Dense", "config": {"name": "dense_218", "trainable": true, "dtype": "float32", "units": 100, "activation": "relu", "use_bias": true, "kernel_initializer": {"class_name": "VarianceScaling", "config": {"scale": 1.0, "mode": "fan_avg", "distribution": "uniform", "seed": null}}, "bias_initializer": {"class_name": "Zeros", "config": {}}, "kernel_regularizer": null, "bias_regularizer": null, "activity_regularizer": null, "kernel_constraint": null, "bias_constraint": null}, "inbound_nodes": [[["concatenate_204", 0, 0, {}]]]}, {"name": "dense_227", "class_name": "Dense", "config": {"name": "dense_227", "trainable": true, "dtype": "float32", "units": 100, "activation": "relu", "use_bias": true, "kernel_initializer": {"class_name": "VarianceScaling", "config": {"scale": 1.0, "mode": "fan_avg", "distribution": "uniform", "seed": null}}, "bias_initializer": {"class_name": "Zeros", "config": {}}, "kernel_regularizer": null, "bias_regularizer": null, "activity_regularizer": null, "kernel_constraint": null, "bias_constraint": null}, "inbound_nodes": [[["concatenate_213", 0, 0, {}]]]}, {"name": "dense_231", "class_name": "Dense", "config": {"name": "dense_231", "trainable": true, "dtype": "float32", "units": 100, "activation": "relu", "use_bias": true, "kernel_initializer": {"class_name": "VarianceScaling", "config": {"scale": 1.0, "mode": "fan_avg", "distribution": "uniform", "seed": null}}, "bias_initializer": {"class_name": "Zeros", "config": {}}, "kernel_regularizer": null, "bias_regularizer": null, "activity_regularizer": null, "kernel_constraint": null, "bias_constraint": null}, "inbound_nodes": [[["concatenate_217", 0, 0, {}]]]}, {"name": "dense_243", "class_name": "Dense", "config": {"name": "dense_243", "trainable": true, "dtype": "float32", "units": 100, "activation": "relu", "use_bias": true, "kernel_initializer": {"class_name": "VarianceScaling", "config": {"scale": 1.0, "mode": "fan_avg", "distribution": "uniform", "seed": null}}, "bias_initializer": {"class_name": "Zeros", "config": {}}, "kernel_regularizer": null, "bias_regularizer": null, "activity_regularizer": null, "kernel_constraint": null, "bias_constraint": null}, "inbound_nodes": [[["concatenate_229", 0, 0, {}]]]}, {"name": "dense_249", "class_name": "Dense", "config": {"name": "dense_249", "trainable": true, "dtype": "float32", "units": 100, "activation": "relu", "use_bias": true, "kernel_initializer": {"class_name": "VarianceScaling", "config": {"scale": 1.0, "mode": "fan_avg", "distribution": "uniform", "seed": null}}, "bias_initializer": {"class_name": "Zeros", "config": {}}, "kernel_regularizer": null, "bias_regularizer": null, "activity_regularizer": null, "kernel_constraint": null, "bias_constraint": null}, "inbound_nodes": [[["concatenate_235", 0, 0, {}]]]}, {"name": "dense_257", "class_name": "Dense", "config": {"name": "dense_257", "trainable": true, "dtype": "float32", "units": 100, "activation": "relu", "use_bias": true, "kernel_initializer": {"class_name": "VarianceScaling", "config": {"scale": 1.0, "mode": "fan_avg", "distribution": "uniform", "seed": null}}, "bias_initializer": {"class_name": "Zeros", "config": {}}, "kernel_regularizer": null, "bias_regularizer": null, "activity_regularizer": null, "kernel_constraint": null, "bias_constraint": null}, "inbound_nodes": [[["concatenate_243", 0, 0, {}]]]}, {"name": "dense_263", "class_name": "Dense", "config": {"name": "dense_263", "trainable": true, "dtype": "float32", "units": 100, "activation": "relu", "use_bias": true, "kernel_initializer": {"class_name": "VarianceScaling", "config": {"scale": 1.0, "mode": "fan_avg", "distribution": "uniform", "seed": null}}, "bias_initializer": {"class_name": "Zeros", "config": {}}, "kernel_regularizer": null, "bias_regularizer": null, "activity_regularizer": null, "kernel_constraint": null, "bias_constraint": null}, "inbound_nodes": [[["concatenate_249", 0, 0, {}]]]}, {"name": "dense_272", "class_name": "Dense", "config": {"name": "dense_272", "trainable": true, "dtype": "float32", "units": 100, "activation": "relu", "use_bias": true, "kernel_initializer": {"class_name": "VarianceScaling", "config": {"scale": 1.0, "mode": "fan_avg", "distribution": "uniform", "seed": null}}, "bias_initializer": {"class_name": "Zeros", "config": {}}, "kernel_regularizer": null, "bias_regularizer": null, "activity_regularizer": null, "kernel_constraint": null, "bias_constraint": null}, "inbound_nodes": [[["concatenate_258", 0, 0, {}]]]}, {"name": "dense_278", "class_name": "Dense", "config": {"name": "dense_278", "trainable": true, "dtype": "float32", "units": 100, "activation": "relu", "use_bias": true, "kernel_initializer": {"class_name": "VarianceScaling", "config": {"scale": 1.0, "mode": "fan_avg", "distribution": "uniform", "seed": null}}, "bias_initializer": {"class_name": "Zeros", "config": {}}, "kernel_regularizer": null, "bias_regularizer": null, "activity_regularizer": null, "kernel_constraint": null, "bias_constraint": null}, "inbound_nodes": [[["concatenate_264", 0, 0, {}]]]}, {"name": "dense_286", "class_name": "Dense", "config": {"name": "dense_286", "trainable": true, "dtype": "float32", "units": 100, "activation": "relu", "use_bias": true, "kernel_initializer": {"class_name": "VarianceScaling", "config": {"scale": 1.0, "mode": "fan_avg", "distribution": "uniform", "seed": null}}, "bias_initializer": {"class_name": "Zeros", "config": {}}, "kernel_regularizer": null, "bias_regularizer": null, "activity_regularizer": null, "kernel_constraint": null, "bias_constraint": null}, "inbound_nodes": [[["concatenate_272", 0, 0, {}]]]}, {"name": "dense_292", "class_name": "Dense", "config": {"name": "dense_292", "trainable": true, "dtype": "float32", "units": 100, "activation": "relu", "use_bias": true, "kernel_initializer": {"class_name": "VarianceScaling", "config": {"scale": 1.0, "mode": "fan_avg", "distribution": "uniform", "seed": null}}, "bias_initializer": {"class_name": "Zeros", "config": {}}, "kernel_regularizer": null, "bias_regularizer": null, "activity_regularizer": null, "kernel_constraint": null, "bias_constraint": null}, "inbound_nodes": [[["concatenate_278", 0, 0, {}]]]}, {"name": "concatenate_119", "class_name": "Concatenate", "config": {"name": "concatenate_119", "trainable": true, "dtype": "float32", "axis": -1}, "inbound_nodes": [[["dense_128", 0, 0, {}], ["dense_132", 0, 0, {}]]]}, {"name": "concatenate_132", "class_name": "Concatenate", "config": {"name": "concatenate_132", "trainable": true, "dtype": "float32", "axis": -1}, "inbound_nodes": [[["dense_141", 0, 0, {}], ["dense_145", 0, 0, {}]]]}, {"name": "concatenate_150", "class_name": "Concatenate", "config": {"name": "concatenate_150", "trainable": true, "dtype": "float32", "axis": -1}, "inbound_nodes": [[["dense_157", 0, 0, {}], ["dense_163", 0, 0, {}]]]}, {"name": "concatenate_164", "class_name": "Concatenate", "config": {"name": "concatenate_164", "trainable": true, "dtype": "float32", "axis": -1}, "inbound_nodes": [[["dense_171", 0, 0, {}], ["dense_177", 0, 0, {}]]]}, {"name": "concatenate_180", "class_name": "Concatenate", "config": {"name": "concatenate_180", "trainable": true, "dtype": "float32", "axis": -1}, "inbound_nodes": [[["dense_187", 0, 0, {}], ["dense_193", 0, 0, {}]]]}, {"name": "concatenate_194", "class_name": "Concatenate", "config": {"name": "concatenate_194", "trainable": true, "dtype": "float32", "axis": -1}, "inbound_nodes": [[["dense_201", 0, 0, {}], ["dense_207", 0, 0, {}]]]}, {"name": "concatenate_205", "class_name": "Concatenate", "config": {"name": "concatenate_205", "trainable": true, "dtype": "float32", "axis": -1}, "inbound_nodes": [[["dense_218", 0, 0, {}], ["dense_121", 0, 0, {}]]]}, {"name": "concatenate_218", "class_name": "Concatenate", "config": {"name": "concatenate_218", "trainable": true, "dtype": "float32", "axis": -1}, "inbound_nodes": [[["dense_227", 0, 0, {}], ["dense_231", 0, 0, {}]]]}, {"name": "concatenate_236", "class_name": "Concatenate", "config": {"name": "concatenate_236", "trainable": true, "dtype": "float32", "axis": -1}, "inbound_nodes": [[["dense_243", 0, 0, {}], ["dense_249", 0, 0, {}]]]}, {"name": "concatenate_250", "class_name": "Concatenate", "config": {"name": "concatenate_250", "trainable": true, "dtype": "float32", "axis": -1}, "inbound_nodes": [[["dense_257", 0, 0, {}], ["dense_263", 0, 0, {}]]]}, {"name": "concatenate_265", "class_name": "Concatenate", "config": {"name": "concatenate_265", "trainable": true, "dtype": "float32", "axis": -1}, "inbound_nodes": [[["dense_272", 0, 0, {}], ["dense_278", 0, 0, {}]]]}, {"name": "concatenate_279", "class_name": "Concatenate", "config": {"name": "concatenate_279", "trainable": true, "dtype": "float32", "axis": -1}, "inbound_nodes": [[["dense_286", 0, 0, {}], ["dense_292", 0, 0, {}]]]}, {"name": "dense_133", "class_name": "Dense", "config": {"name": "dense_133", "trainable": true, "dtype": "float32", "units": 100, "activation": "relu", "use_bias": true, "kernel_initializer": {"class_name": "VarianceScaling", "config": {"scale": 1.0, "mode": "fan_avg", "distribution": "uniform", "seed": null}}, "bias_initializer": {"class_name": "Zeros", "config": {}}, "kernel_regularizer": null, "bias_regularizer": null, "activity_regularizer": null, "kernel_constraint": null, "bias_constraint": null}, "inbound_nodes": [[["concatenate_119", 0, 0, {}]]]}, {"name": "dense_146", "class_name": "Dense", "config": {"name": "dense_146", "trainable": true, "dtype": "float32", "units": 100, "activation": "relu", "use_bias": true, "kernel_initializer": {"class_name": "VarianceScaling", "config": {"scale": 1.0, "mode": "fan_avg", "distribution": "uniform", "seed": null}}, "bias_initializer": {"class_name": "Zeros", "config": {}}, "kernel_regularizer": null, "bias_regularizer": null, "activity_regularizer": null, "kernel_constraint": null, "bias_constraint": null}, "inbound_nodes": [[["concatenate_132", 0, 0, {}]]]}, {"name": "dense_164", "class_name": "Dense", "config": {"name": "dense_164", "trainable": true, "dtype": "float32", "units": 100, "activation": "relu", "use_bias": true, "kernel_initializer": {"class_name": "VarianceScaling", "config": {"scale": 1.0, "mode": "fan_avg", "distribution": "uniform", "seed": null}}, "bias_initializer": {"class_name": "Zeros", "config": {}}, "kernel_regularizer": null, "bias_regularizer": null, "activity_regularizer": null, "kernel_constraint": null, "bias_constraint": null}, "inbound_nodes": [[["concatenate_150", 0, 0, {}]]]}, {"name": "dense_178", "class_name": "Dense", "config": {"name": "dense_178", "trainable": true, "dtype": "float32", "units": 100, "activation": "relu", "use_bias": true, "kernel_initializer": {"class_name": "VarianceScaling", "config": {"scale": 1.0, "mode": "fan_avg", "distribution": "uniform", "seed": null}}, "bias_initializer": {"class_name": "Zeros", "config": {}}, "kernel_regularizer": null, "bias_regularizer": null, "activity_regularizer": null, "kernel_constraint": null, "bias_constraint": null}, "inbound_nodes": [[["concatenate_164", 0, 0, {}]]]}, {"name": "dense_194", "class_name": "Dense", "config": {"name": "dense_194", "trainable": true, "dtype": "float32", "units": 100, "activation": "relu", "use_bias": true, "kernel_initializer": {"class_name": "VarianceScaling", "config": {"scale": 1.0, "mode": "fan_avg", "distribution": "uniform", "seed": null}}, "bias_initializer": {"class_name": "Zeros", "config": {}}, "kernel_regularizer": null, "bias_regularizer": null, "activity_regularizer": null, "kernel_constraint": null, "bias_constraint": null}, "inbound_nodes": [[["concatenate_180", 0, 0, {}]]]}, {"name": "dense_208", "class_name": "Dense", "config": {"name": "dense_208", "trainable": true, "dtype": "float32", "units": 100, "activation": "relu", "use_bias": true, "kernel_initializer": {"class_name": "VarianceScaling", "config": {"scale": 1.0, "mode": "fan_avg", "distribution": "uniform", "seed": null}}, "bias_initializer": {"class_name": "Zeros", "config": {}}, "kernel_regularizer": null, "bias_regularizer": null, "activity_regularizer": null, "kernel_constraint": null, "bias_constraint": null}, "inbound_nodes": [[["concatenate_194", 0, 0, {}]]]}, {"name": "dense_219", "class_name": "Dense", "config": {"name": "dense_219", "trainable": true, "dtype": "float32", "units": 100, "activation": "relu", "use_bias": true, "kernel_initializer": {"class_name": "VarianceScaling", "config": {"scale": 1.0, "mode": "fan_avg", "distribution": "uniform", "seed": null}}, "bias_initializer": {"class_name": "Zeros", "config": {}}, "kernel_regularizer": null, "bias_regularizer": null, "activity_regularizer": null, "kernel_constraint": null, "bias_constraint": null}, "inbound_nodes": [[["concatenate_205", 0, 0, {}]]]}, {"name": "dense_232", "class_name": "Dense", "config": {"name": "dense_232", "trainable": true, "dtype": "float32", "units": 100, "activation": "relu", "use_bias": true, "kernel_initializer": {"class_name": "VarianceScaling", "config": {"scale": 1.0, "mode": "fan_avg", "distribution": "uniform", "seed": null}}, "bias_initializer": {"class_name": "Zeros", "config": {}}, "kernel_regularizer": null, "bias_regularizer": null, "activity_regularizer": null, "kernel_constraint": null, "bias_constraint": null}, "inbound_nodes": [[["concatenate_218", 0, 0, {}]]]}, {"name": "dense_250", "class_name": "Dense", "config": {"name": "dense_250", "trainable": true, "dtype": "float32", "units": 100, "activation": "relu", "use_bias": true, "kernel_initializer": {"class_name": "VarianceScaling", "config": {"scale": 1.0, "mode": "fan_avg", "distribution": "uniform", "seed": null}}, "bias_initializer": {"class_name": "Zeros", "config": {}}, "kernel_regularizer": null, "bias_regularizer": null, "activity_regularizer": null, "kernel_constraint": null, "bias_constraint": null}, "inbound_nodes": [[["concatenate_236", 0, 0, {}]]]}, {"name": "dense_264", "class_name": "Dense", "config": {"name": "dense_264", "trainable": true, "dtype": "float32", "units": 100, "activation": "relu", "use_bias": true, "kernel_initializer": {"class_name": "VarianceScaling", "config": {"scale": 1.0, "mode": "fan_avg", "distribution": "uniform", "seed": null}}, "bias_initializer": {"class_name": "Zeros", "config": {}}, "kernel_regularizer": null, "bias_regularizer": null, "activity_regularizer": null, "kernel_constraint": null, "bias_constraint": null}, "inbound_nodes": [[["concatenate_250", 0, 0, {}]]]}, {"name": "dense_279", "class_name": "Dense", "config": {"name": "dense_279", "trainable": true, "dtype": "float32", "units": 100, "activation": "relu", "use_bias": true, "kernel_initializer": {"class_name": "VarianceScaling", "config": {"scale": 1.0, "mode": "fan_avg", "distribution": "uniform", "seed": null}}, "bias_initializer": {"class_name": "Zeros", "config": {}}, "kernel_regularizer": null, "bias_regularizer": null, "activity_regularizer": null, "kernel_constraint": null, "bias_constraint": null}, "inbound_nodes": [[["concatenate_265", 0, 0, {}]]]}, {"name": "dense_293", "class_name": "Dense", "config": {"name": "dense_293", "trainable": true, "dtype": "float32", "units": 100, "activation": "relu", "use_bias": true, "kernel_initializer": {"class_name": "VarianceScaling", "config": {"scale": 1.0, "mode": "fan_avg", "distribution": "uniform", "seed": null}}, "bias_initializer": {"class_name": "Zeros", "config": {}}, "kernel_regularizer": null, "bias_regularizer": null, "activity_regularizer": null, "kernel_constraint": null, "bias_constraint": null}, "inbound_nodes": [[["concatenate_279", 0, 0, {}]]]}, {"name": "concatenate_110", "class_name": "Concatenate", "config": {"name": "concatenate_110", "trainable": true, "dtype": "float32", "axis": -1}, "inbound_nodes": [[["dense_119", 0, 0, {}], ["dense_122", 0, 0, {}]]]}, {"name": "concatenate_120", "class_name": "Concatenate", "config": {"name": "concatenate_120", "trainable": true, "dtype": "float32", "axis": -1}, "inbound_nodes": [[["dense_133", 0, 0, {}], ["dense_121", 0, 0, {}]]]}, {"name": "concatenate_123", "class_name": "Concatenate", "config": {"name": "concatenate_123", "trainable": true, "dtype": "float32", "axis": -1}, "inbound_nodes": [[["dense_119", 0, 0, {}], ["dense_122", 0, 0, {}]]]}, {"name": "concatenate_133", "class_name": "Concatenate", "config": {"name": "concatenate_133", "trainable": true, "dtype": "float32", "axis": -1}, "inbound_nodes": [[["dense_146", 0, 0, {}], ["dense_119", 0, 0, {}]]]}, {"name": "concatenate_151", "class_name": "Concatenate", "config": {"name": "concatenate_151", "trainable": true, "dtype": "float32", "axis": -1}, "inbound_nodes": [[["dense_164", 0, 0, {}], ["dense_120", 0, 0, {}]]]}, {"name": "concatenate_165", "class_name": "Concatenate", "config": {"name": "concatenate_165", "trainable": true, "dtype": "float32", "axis": -1}, "inbound_nodes": [[["dense_178", 0, 0, {}], ["dense_122", 0, 0, {}]]]}, {"name": "concatenate_181", "class_name": "Concatenate", "config": {"name": "concatenate_181", "trainable": true, "dtype": "float32", "axis": -1}, "inbound_nodes": [[["dense_194", 0, 0, {}], ["dense_120", 0, 0, {}]]]}, {"name": "concatenate_195", "class_name": "Concatenate", "config": {"name": "concatenate_195", "trainable": true, "dtype": "float32", "axis": -1}, "inbound_nodes": [[["dense_208", 0, 0, {}], ["dense_121", 0, 0, {}]]]}, {"name": "concatenate_206", "class_name": "Concatenate", "config": {"name": "concatenate_206", "trainable": true, "dtype": "float32", "axis": -1}, "inbound_nodes": [[["dense_121", 0, 0, {}], ["dense_219", 0, 0, {}]]]}, {"name": "concatenate_209", "class_name": "Concatenate", "config": {"name": "concatenate_209", "trainable": true, "dtype": "float32", "axis": -1}, "inbound_nodes": [[["dense_119", 0, 0, {}], ["dense_122", 0, 0, {}]]]}, {"name": "concatenate_219", "class_name": "Concatenate", "config": {"name": "concatenate_219", "trainable": true, "dtype": "float32", "axis": -1}, "inbound_nodes": [[["dense_232", 0, 0, {}], ["dense_119", 0, 0, {}]]]}, {"name": "concatenate_237", "class_name": "Concatenate", "config": {"name": "concatenate_237", "trainable": true, "dtype": "float32", "axis": -1}, "inbound_nodes": [[["dense_250", 0, 0, {}], ["dense_122", 0, 0, {}]]]}, {"name": "concatenate_251", "class_name": "Concatenate", "config": {"name": "concatenate_251", "trainable": true, "dtype": "float32", "axis": -1}, "inbound_nodes": [[["dense_264", 0, 0, {}], ["dense_120", 0, 0, {}]]]}, {"name": "concatenate_266", "class_name": "Concatenate", "config": {"name": "concatenate_266", "trainable": true, "dtype": "float32", "axis": -1}, "inbound_nodes": [[["dense_279", 0, 0, {}], ["dense_122", 0, 0, {}]]]}, {"name": "concatenate_280", "class_name": "Concatenate", "config": {"name": "concatenate_280", "trainable": true, "dtype": "float32", "axis": -1}, "inbound_nodes": [[["dense_293", 0, 0, {}], ["dense_120", 0, 0, {}]]]}, {"name": "dense_124", "class_name": "Dense", "config": {"name": "dense_124", "trainable": true, "dtype": "float32", "units": 100, "activation": "relu", "use_bias": true, "kernel_initializer": {"class_name": "VarianceScaling", "config": {"scale": 1.0, "mode": "fan_avg", "distribution": "uniform", "seed": null}}, "bias_initializer": {"class_name": "Zeros", "config": {}}, "kernel_regularizer": null, "bias_regularizer": null, "activity_regularizer": null, "kernel_constraint": null, "bias_constraint": null}, "inbound_nodes": [[["concatenate_110", 0, 0, {}]]]}, {"name": "dense_134", "class_name": "Dense", "config": {"name": "dense_134", "trainable": true, "dtype": "float32", "units": 100, "activation": "relu", "use_bias": true, "kernel_initializer": {"class_name": "VarianceScaling", "config": {"scale": 1.0, "mode": "fan_avg", "distribution": "uniform", "seed": null}}, "bias_initializer": {"class_name": "Zeros", "config": {}}, "kernel_regularizer": null, "bias_regularizer": null, "activity_regularizer": null, "kernel_constraint": null, "bias_constraint": null}, "inbound_nodes": [[["concatenate_120", 0, 0, {}]]]}, {"name": "dense_137", "class_name": "Dense", "config": {"name": "dense_137", "trainable": true, "dtype": "float32", "units": 100, "activation": "relu", "use_bias": true, "kernel_initializer": {"class_name": "VarianceScaling", "config": {"scale": 1.0, "mode": "fan_avg", "distribution": "uniform", "seed": null}}, "bias_initializer": {"class_name": "Zeros", "config": {}}, "kernel_regularizer": null, "bias_regularizer": null, "activity_regularizer": null, "kernel_constraint": null, "bias_constraint": null}, "inbound_nodes": [[["concatenate_123", 0, 0, {}]]]}, {"name": "dense_147", "class_name": "Dense", "config": {"name": "dense_147", "trainable": true, "dtype": "float32", "units": 100, "activation": "relu", "use_bias": true, "kernel_initializer": {"class_name": "VarianceScaling", "config": {"scale": 1.0, "mode": "fan_avg", "distribution": "uniform", "seed": null}}, "bias_initializer": {"class_name": "Zeros", "config": {}}, "kernel_regularizer": null, "bias_regularizer": null, "activity_regularizer": null, "kernel_constraint": null, "bias_constraint": null}, "inbound_nodes": [[["concatenate_133", 0, 0, {}]]]}, {"name": "dense_165", "class_name": "Dense", "config": {"name": "dense_165", "trainable": true, "dtype": "float32", "units": 100, "activation": "relu", "use_bias": true, "kernel_initializer": {"class_name": "VarianceScaling", "config": {"scale": 1.0, "mode": "fan_avg", "distribution": "uniform", "seed": null}}, "bias_initializer": {"class_name": "Zeros", "config": {}}, "kernel_regularizer": null, "bias_regularizer": null, "activity_regularizer": null, "kernel_constraint": null, "bias_constraint": null}, "inbound_nodes": [[["concatenate_151", 0, 0, {}]]]}, {"name": "dense_179", "class_name": "Dense", "config": {"name": "dense_179", "trainable": true, "dtype": "float32", "units": 100, "activation": "relu", "use_bias": true, "kernel_initializer": {"class_name": "VarianceScaling", "config": {"scale": 1.0, "mode": "fan_avg", "distribution": "uniform", "seed": null}}, "bias_initializer": {"class_name": "Zeros", "config": {}}, "kernel_regularizer": null, "bias_regularizer": null, "activity_regularizer": null, "kernel_constraint": null, "bias_constraint": null}, "inbound_nodes": [[["concatenate_165", 0, 0, {}]]]}, {"name": "dense_195", "class_name": "Dense", "config": {"name": "dense_195", "trainable": true, "dtype": "float32", "units": 100, "activation": "relu", "use_bias": true, "kernel_initializer": {"class_name": "VarianceScaling", "config": {"scale": 1.0, "mode": "fan_avg", "distribution": "uniform", "seed": null}}, "bias_initializer": {"class_name": "Zeros", "config": {}}, "kernel_regularizer": null, "bias_regularizer": null, "activity_regularizer": null, "kernel_constraint": null, "bias_constraint": null}, "inbound_nodes": [[["concatenate_181", 0, 0, {}]]]}, {"name": "dense_209", "class_name": "Dense", "config": {"name": "dense_209", "trainable": true, "dtype": "float32", "units": 100, "activation": "relu", "use_bias": true, "kernel_initializer": {"class_name": "VarianceScaling", "config": {"scale": 1.0, "mode": "fan_avg", "distribution": "uniform", "seed": null}}, "bias_initializer": {"class_name": "Zeros", "config": {}}, "kernel_regularizer": null, "bias_regularizer": null, "activity_regularizer": null, "kernel_constraint": null, "bias_constraint": null}, "inbound_nodes": [[["concatenate_195", 0, 0, {}]]]}, {"name": "dense_220", "class_name": "Dense", "config": {"name": "dense_220", "trainable": true, "dtype": "float32", "units": 100, "activation": "relu", "use_bias": true, "kernel_initializer": {"class_name": "VarianceScaling", "config": {"scale": 1.0, "mode": "fan_avg", "distribution": "uniform", "seed": null}}, "bias_initializer": {"class_name": "Zeros", "config": {}}, "kernel_regularizer": null, "bias_regularizer": null, "activity_regularizer": null, "kernel_constraint": null, "bias_constraint": null}, "inbound_nodes": [[["concatenate_206", 0, 0, {}]]]}, {"name": "dense_223", "class_name": "Dense", "config": {"name": "dense_223", "trainable": true, "dtype": "float32", "units": 100, "activation": "relu", "use_bias": true, "kernel_initializer": {"class_name": "VarianceScaling", "config": {"scale": 1.0, "mode": "fan_avg", "distribution": "uniform", "seed": null}}, "bias_initializer": {"class_name": "Zeros", "config": {}}, "kernel_regularizer": null, "bias_regularizer": null, "activity_regularizer": null, "kernel_constraint": null, "bias_constraint": null}, "inbound_nodes": [[["concatenate_209", 0, 0, {}]]]}, {"name": "dense_233", "class_name": "Dense", "config": {"name": "dense_233", "trainable": true, "dtype": "float32", "units": 100, "activation": "relu", "use_bias": true, "kernel_initializer": {"class_name": "VarianceScaling", "config": {"scale": 1.0, "mode": "fan_avg", "distribution": "uniform", "seed": null}}, "bias_initializer": {"class_name": "Zeros", "config": {}}, "kernel_regularizer": null, "bias_regularizer": null, "activity_regularizer": null, "kernel_constraint": null, "bias_constraint": null}, "inbound_nodes": [[["concatenate_219", 0, 0, {}]]]}, {"name": "dense_251", "class_name": "Dense", "config": {"name": "dense_251", "trainable": true, "dtype": "float32", "units": 100, "activation": "relu", "use_bias": true, "kernel_initializer": {"class_name": "VarianceScaling", "config": {"scale": 1.0, "mode": "fan_avg", "distribution": "uniform", "seed": null}}, "bias_initializer": {"class_name": "Zeros", "config": {}}, "kernel_regularizer": null, "bias_regularizer": null, "activity_regularizer": null, "kernel_constraint": null, "bias_constraint": null}, "inbound_nodes": [[["concatenate_237", 0, 0, {}]]]}, {"name": "dense_265", "class_name": "Dense", "config": {"name": "dense_265", "trainable": true, "dtype": "float32", "units": 100, "activation": "relu", "use_bias": true, "kernel_initializer": {"class_name": "VarianceScaling", "config": {"scale": 1.0, "mode": "fan_avg", "distribution": "uniform", "seed": null}}, "bias_initializer": {"class_name": "Zeros", "config": {}}, "kernel_regularizer": null, "bias_regularizer": null, "activity_regularizer": null, "kernel_constraint": null, "bias_constraint": null}, "inbound_nodes": [[["concatenate_251", 0, 0, {}]]]}, {"name": "dense_280", "class_name": "Dense", "config": {"name": "dense_280", "trainable": true, "dtype": "float32", "units": 100, "activation": "relu", "use_bias": true, "kernel_initializer": {"class_name": "VarianceScaling", "config": {"scale": 1.0, "mode": "fan_avg", "distribution": "uniform", "seed": null}}, "bias_initializer": {"class_name": "Zeros", "config": {}}, "kernel_regularizer": null, "bias_regularizer": null, "activity_regularizer": null, "kernel_constraint": null, "bias_constraint": null}, "inbound_nodes": [[["concatenate_266", 0, 0, {}]]]}, {"name": "dense_294", "class_name": "Dense", "config": {"name": "dense_294", "trainable": true, "dtype": "float32", "units": 100, "activation": "relu", "use_bias": true, "kernel_initializer": {"class_name": "VarianceScaling", "config": {"scale": 1.0, "mode": "fan_avg", "distribution": "uniform", "seed": null}}, "bias_initializer": {"class_name": "Zeros", "config": {}}, "kernel_regularizer": null, "bias_regularizer": null, "activity_regularizer": null, "kernel_constraint": null, "bias_constraint": null}, "inbound_nodes": [[["concatenate_280", 0, 0, {}]]]}, {"name": "concatenate_121", "class_name": "Concatenate", "config": {"name": "concatenate_121", "trainable": true, "dtype": "float32", "axis": -1}, "inbound_nodes": [[["dense_124", 0, 0, {}], ["dense_134", 0, 0, {}]]]}, {"name": "concatenate_134", "class_name": "Concatenate", "config": {"name": "concatenate_134", "trainable": true, "dtype": "float32", "axis": -1}, "inbound_nodes": [[["dense_137", 0, 0, {}], ["dense_147", 0, 0, {}]]]}, {"name": "concatenate_166", "class_name": "Concatenate", "config": {"name": "concatenate_166", "trainable": true, "dtype": "float32", "axis": -1}, "inbound_nodes": [[["dense_165", 0, 0, {}], ["dense_179", 0, 0, {}]]]}, {"name": "concatenate_196", "class_name": "Concatenate", "config": {"name": "concatenate_196", "trainable": true, "dtype": "float32", "axis": -1}, "inbound_nodes": [[["dense_195", 0, 0, {}], ["dense_209", 0, 0, {}]]]}, {"name": "concatenate_207", "class_name": "Concatenate", "config": {"name": "concatenate_207", "trainable": true, "dtype": "float32", "axis": -1}, "inbound_nodes": [[["dense_220", 0, 0, {}], ["dense_120", 0, 0, {}]]]}, {"name": "concatenate_220", "class_name": "Concatenate", "config": {"name": "concatenate_220", "trainable": true, "dtype": "float32", "axis": -1}, "inbound_nodes": [[["dense_223", 0, 0, {}], ["dense_233", 0, 0, {}]]]}, {"name": "concatenate_252", "class_name": "Concatenate", "config": {"name": "concatenate_252", "trainable": true, "dtype": "float32", "axis": -1}, "inbound_nodes": [[["dense_251", 0, 0, {}], ["dense_265", 0, 0, {}]]]}, {"name": "concatenate_281", "class_name": "Concatenate", "config": {"name": "concatenate_281", "trainable": true, "dtype": "float32", "axis": -1}, "inbound_nodes": [[["dense_280", 0, 0, {}], ["dense_294", 0, 0, {}]]]}, {"name": "dense_135", "class_name": "Dense", "config": {"name": "dense_135", "trainable": true, "dtype": "float32", "units": 100, "activation": "relu", "use_bias": true, "kernel_initializer": {"class_name": "VarianceScaling", "config": {"scale": 1.0, "mode": "fan_avg", "distribution": "uniform", "seed": null}}, "bias_initializer": {"class_name": "Zeros", "config": {}}, "kernel_regularizer": null, "bias_regularizer": null, "activity_regularizer": null, "kernel_constraint": null, "bias_constraint": null}, "inbound_nodes": [[["concatenate_121", 0, 0, {}]]]}, {"name": "dense_148", "class_name": "Dense", "config": {"name": "dense_148", "trainable": true, "dtype": "float32", "units": 100, "activation": "relu", "use_bias": true, "kernel_initializer": {"class_name": "VarianceScaling", "config": {"scale": 1.0, "mode": "fan_avg", "distribution": "uniform", "seed": null}}, "bias_initializer": {"class_name": "Zeros", "config": {}}, "kernel_regularizer": null, "bias_regularizer": null, "activity_regularizer": null, "kernel_constraint": null, "bias_constraint": null}, "inbound_nodes": [[["concatenate_134", 0, 0, {}]]]}, {"name": "dense_180", "class_name": "Dense", "config": {"name": "dense_180", "trainable": true, "dtype": "float32", "units": 100, "activation": "relu", "use_bias": true, "kernel_initializer": {"class_name": "VarianceScaling", "config": {"scale": 1.0, "mode": "fan_avg", "distribution": "uniform", "seed": null}}, "bias_initializer": {"class_name": "Zeros", "config": {}}, "kernel_regularizer": null, "bias_regularizer": null, "activity_regularizer": null, "kernel_constraint": null, "bias_constraint": null}, "inbound_nodes": [[["concatenate_166", 0, 0, {}]]]}, {"name": "dense_210", "class_name": "Dense", "config": {"name": "dense_210", "trainable": true, "dtype": "float32", "units": 100, "activation": "relu", "use_bias": true, "kernel_initializer": {"class_name": "VarianceScaling", "config": {"scale": 1.0, "mode": "fan_avg", "distribution": "uniform", "seed": null}}, "bias_initializer": {"class_name": "Zeros", "config": {}}, "kernel_regularizer": null, "bias_regularizer": null, "activity_regularizer": null, "kernel_constraint": null, "bias_constraint": null}, "inbound_nodes": [[["concatenate_196", 0, 0, {}]]]}, {"name": "dense_221", "class_name": "Dense", "config": {"name": "dense_221", "trainable": true, "dtype": "float32", "units": 100, "activation": "relu", "use_bias": true, "kernel_initializer": {"class_name": "VarianceScaling", "config": {"scale": 1.0, "mode": "fan_avg", "distribution": "uniform", "seed": null}}, "bias_initializer": {"class_name": "Zeros", "config": {}}, "kernel_regularizer": null, "bias_regularizer": null, "activity_regularizer": null, "kernel_constraint": null, "bias_constraint": null}, "inbound_nodes": [[["concatenate_207", 0, 0, {}]]]}, {"name": "dense_234", "class_name": "Dense", "config": {"name": "dense_234", "trainable": true, "dtype": "float32", "units": 100, "activation": "relu", "use_bias": true, "kernel_initializer": {"class_name": "VarianceScaling", "config": {"scale": 1.0, "mode": "fan_avg", "distribution": "uniform", "seed": null}}, "bias_initializer": {"class_name": "Zeros", "config": {}}, "kernel_regularizer": null, "bias_regularizer": null, "activity_regularizer": null, "kernel_constraint": null, "bias_constraint": null}, "inbound_nodes": [[["concatenate_220", 0, 0, {}]]]}, {"name": "dense_266", "class_name": "Dense", "config": {"name": "dense_266", "trainable": true, "dtype": "float32", "units": 100, "activation": "relu", "use_bias": true, "kernel_initializer": {"class_name": "VarianceScaling", "config": {"scale": 1.0, "mode": "fan_avg", "distribution": "uniform", "seed": null}}, "bias_initializer": {"class_name": "Zeros", "config": {}}, "kernel_regularizer": null, "bias_regularizer": null, "activity_regularizer": null, "kernel_constraint": null, "bias_constraint": null}, "inbound_nodes": [[["concatenate_252", 0, 0, {}]]]}, {"name": "dense_295", "class_name": "Dense", "config": {"name": "dense_295", "trainable": true, "dtype": "float32", "units": 100, "activation": "relu", "use_bias": true, "kernel_initializer": {"class_name": "VarianceScaling", "config": {"scale": 1.0, "mode": "fan_avg", "distribution": "uniform", "seed": null}}, "bias_initializer": {"class_name": "Zeros", "config": {}}, "kernel_regularizer": null, "bias_regularizer": null, "activity_regularizer": null, "kernel_constraint": null, "bias_constraint": null}, "inbound_nodes": [[["concatenate_281", 0, 0, {}]]]}, {"name": "concatenate_122", "class_name": "Concatenate", "config": {"name": "concatenate_122", "trainable": true, "dtype": "float32", "axis": -1}, "inbound_nodes": [[["dense_135", 0, 0, {}], ["dense_120", 0, 0, {}]]]}, {"name": "concatenate_135", "class_name": "Concatenate", "config": {"name": "concatenate_135", "trainable": true, "dtype": "float32", "axis": -1}, "inbound_nodes": [[["dense_148", 0, 0, {}], ["dense_120", 0, 0, {}]]]}, {"name": "concatenate_167", "class_name": "Concatenate", "config": {"name": "concatenate_167", "trainable": true, "dtype": "float32", "axis": -1}, "inbound_nodes": [[["dense_180", 0, 0, {}], ["dense_119", 0, 0, {}]]]}, {"name": "concatenate_197", "class_name": "Concatenate", "config": {"name": "concatenate_197", "trainable": true, "dtype": "float32", "axis": -1}, "inbound_nodes": [[["dense_210", 0, 0, {}], ["dense_122", 0, 0, {}]]]}, {"name": "concatenate_208", "class_name": "Concatenate", "config": {"name": "concatenate_208", "trainable": true, "dtype": "float32", "axis": -1}, "inbound_nodes": [[["dense_221", 0, 0, {}], ["dense_122", 0, 0, {}]]]}, {"name": "concatenate_221", "class_name": "Concatenate", "config": {"name": "concatenate_221", "trainable": true, "dtype": "float32", "axis": -1}, "inbound_nodes": [[["dense_234", 0, 0, {}], ["dense_120", 0, 0, {}]]]}, {"name": "concatenate_253", "class_name": "Concatenate", "config": {"name": "concatenate_253", "trainable": true, "dtype": "float32", "axis": -1}, "inbound_nodes": [[["dense_266", 0, 0, {}], ["dense_123", 0, 0, {}]]]}, {"name": "concatenate_282", "class_name": "Concatenate", "config": {"name": "concatenate_282", "trainable": true, "dtype": "float32", "axis": -1}, "inbound_nodes": [[["dense_295", 0, 0, {}], ["dense_120", 0, 0, {}]]]}, {"name": "dense_136", "class_name": "Dense", "config": {"name": "dense_136", "trainable": true, "dtype": "float32", "units": 100, "activation": "relu", "use_bias": true, "kernel_initializer": {"class_name": "VarianceScaling", "config": {"scale": 1.0, "mode": "fan_avg", "distribution": "uniform", "seed": null}}, "bias_initializer": {"class_name": "Zeros", "config": {}}, "kernel_regularizer": null, "bias_regularizer": null, "activity_regularizer": null, "kernel_constraint": null, "bias_constraint": null}, "inbound_nodes": [[["concatenate_122", 0, 0, {}]]]}, {"name": "dense_149", "class_name": "Dense", "config": {"name": "dense_149", "trainable": true, "dtype": "float32", "units": 100, "activation": "relu", "use_bias": true, "kernel_initializer": {"class_name": "VarianceScaling", "config": {"scale": 1.0, "mode": "fan_avg", "distribution": "uniform", "seed": null}}, "bias_initializer": {"class_name": "Zeros", "config": {}}, "kernel_regularizer": null, "bias_regularizer": null, "activity_regularizer": null, "kernel_constraint": null, "bias_constraint": null}, "inbound_nodes": [[["concatenate_135", 0, 0, {}]]]}, {"name": "dense_181", "class_name": "Dense", "config": {"name": "dense_181", "trainable": true, "dtype": "float32", "units": 100, "activation": "relu", "use_bias": true, "kernel_initializer": {"class_name": "VarianceScaling", "config": {"scale": 1.0, "mode": "fan_avg", "distribution": "uniform", "seed": null}}, "bias_initializer": {"class_name": "Zeros", "config": {}}, "kernel_regularizer": null, "bias_regularizer": null, "activity_regularizer": null, "kernel_constraint": null, "bias_constraint": null}, "inbound_nodes": [[["concatenate_167", 0, 0, {}]]]}, {"name": "dense_211", "class_name": "Dense", "config": {"name": "dense_211", "trainable": true, "dtype": "float32", "units": 100, "activation": "relu", "use_bias": true, "kernel_initializer": {"class_name": "VarianceScaling", "config": {"scale": 1.0, "mode": "fan_avg", "distribution": "uniform", "seed": null}}, "bias_initializer": {"class_name": "Zeros", "config": {}}, "kernel_regularizer": null, "bias_regularizer": null, "activity_regularizer": null, "kernel_constraint": null, "bias_constraint": null}, "inbound_nodes": [[["concatenate_197", 0, 0, {}]]]}, {"name": "dense_222", "class_name": "Dense", "config": {"name": "dense_222", "trainable": true, "dtype": "float32", "units": 100, "activation": "relu", "use_bias": true, "kernel_initializer": {"class_name": "VarianceScaling", "config": {"scale": 1.0, "mode": "fan_avg", "distribution": "uniform", "seed": null}}, "bias_initializer": {"class_name": "Zeros", "config": {}}, "kernel_regularizer": null, "bias_regularizer": null, "activity_regularizer": null, "kernel_constraint": null, "bias_constraint": null}, "inbound_nodes": [[["concatenate_208", 0, 0, {}]]]}, {"name": "dense_235", "class_name": "Dense", "config": {"name": "dense_235", "trainable": true, "dtype": "float32", "units": 100, "activation": "relu", "use_bias": true, "kernel_initializer": {"class_name": "VarianceScaling", "config": {"scale": 1.0, "mode": "fan_avg", "distribution": "uniform", "seed": null}}, "bias_initializer": {"class_name": "Zeros", "config": {}}, "kernel_regularizer": null, "bias_regularizer": null, "activity_regularizer": null, "kernel_constraint": null, "bias_constraint": null}, "inbound_nodes": [[["concatenate_221", 0, 0, {}]]]}, {"name": "dense_267", "class_name": "Dense", "config": {"name": "dense_267", "trainable": true, "dtype": "float32", "units": 100, "activation": "relu", "use_bias": true, "kernel_initializer": {"class_name": "VarianceScaling", "config": {"scale": 1.0, "mode": "fan_avg", "distribution": "uniform", "seed": null}}, "bias_initializer": {"class_name": "Zeros", "config": {}}, "kernel_regularizer": null, "bias_regularizer": null, "activity_regularizer": null, "kernel_constraint": null, "bias_constraint": null}, "inbound_nodes": [[["concatenate_253", 0, 0, {}]]]}, {"name": "dense_296", "class_name": "Dense", "config": {"name": "dense_296", "trainable": true, "dtype": "float32", "units": 100, "activation": "relu", "use_bias": true, "kernel_initializer": {"class_name": "VarianceScaling", "config": {"scale": 1.0, "mode": "fan_avg", "distribution": "uniform", "seed": null}}, "bias_initializer": {"class_name": "Zeros", "config": {}}, "kernel_regularizer": null, "bias_regularizer": null, "activity_regularizer": null, "kernel_constraint": null, "bias_constraint": null}, "inbound_nodes": [[["concatenate_282", 0, 0, {}]]]}, {"name": "concatenate_136", "class_name": "Concatenate", "config": {"name": "concatenate_136", "trainable": true, "dtype": "float32", "axis": -1}, "inbound_nodes": [[["dense_136", 0, 0, {}], ["dense_149", 0, 0, {}]]]}, {"name": "concatenate_198", "class_name": "Concatenate", "config": {"name": "concatenate_198", "trainable": true, "dtype": "float32", "axis": -1}, "inbound_nodes": [[["dense_181", 0, 0, {}], ["dense_211", 0, 0, {}]]]}, {"name": "concatenate_222", "class_name": "Concatenate", "config": {"name": "concatenate_222", "trainable": true, "dtype": "float32", "axis": -1}, "inbound_nodes": [[["dense_222", 0, 0, {}], ["dense_235", 0, 0, {}]]]}, {"name": "concatenate_283", "class_name": "Concatenate", "config": {"name": "concatenate_283", "trainable": true, "dtype": "float32", "axis": -1}, "inbound_nodes": [[["dense_267", 0, 0, {}], ["dense_296", 0, 0, {}]]]}, {"name": "dense_150", "class_name": "Dense", "config": {"name": "dense_150", "trainable": true, "dtype": "float32", "units": 100, "activation": "relu", "use_bias": true, "kernel_initializer": {"class_name": "VarianceScaling", "config": {"scale": 1.0, "mode": "fan_avg", "distribution": "uniform", "seed": null}}, "bias_initializer": {"class_name": "Zeros", "config": {}}, "kernel_regularizer": null, "bias_regularizer": null, "activity_regularizer": null, "kernel_constraint": null, "bias_constraint": null}, "inbound_nodes": [[["concatenate_136", 0, 0, {}]]]}, {"name": "dense_212", "class_name": "Dense", "config": {"name": "dense_212", "trainable": true, "dtype": "float32", "units": 100, "activation": "relu", "use_bias": true, "kernel_initializer": {"class_name": "VarianceScaling", "config": {"scale": 1.0, "mode": "fan_avg", "distribution": "uniform", "seed": null}}, "bias_initializer": {"class_name": "Zeros", "config": {}}, "kernel_regularizer": null, "bias_regularizer": null, "activity_regularizer": null, "kernel_constraint": null, "bias_constraint": null}, "inbound_nodes": [[["concatenate_198", 0, 0, {}]]]}, {"name": "dense_236", "class_name": "Dense", "config": {"name": "dense_236", "trainable": true, "dtype": "float32", "units": 100, "activation": "relu", "use_bias": true, "kernel_initializer": {"class_name": "VarianceScaling", "config": {"scale": 1.0, "mode": "fan_avg", "distribution": "uniform", "seed": null}}, "bias_initializer": {"class_name": "Zeros", "config": {}}, "kernel_regularizer": null, "bias_regularizer": null, "activity_regularizer": null, "kernel_constraint": null, "bias_constraint": null}, "inbound_nodes": [[["concatenate_222", 0, 0, {}]]]}, {"name": "dense_297", "class_name": "Dense", "config": {"name": "dense_297", "trainable": true, "dtype": "float32", "units": 100, "activation": "relu", "use_bias": true, "kernel_initializer": {"class_name": "VarianceScaling", "config": {"scale": 1.0, "mode": "fan_avg", "distribution": "uniform", "seed": null}}, "bias_initializer": {"class_name": "Zeros", "config": {}}, "kernel_regularizer": null, "bias_regularizer": null, "activity_regularizer": null, "kernel_constraint": null, "bias_constraint": null}, "inbound_nodes": [[["concatenate_283", 0, 0, {}]]]}, {"name": "concatenate_137", "class_name": "Concatenate", "config": {"name": "concatenate_137", "trainable": true, "dtype": "float32", "axis": -1}, "inbound_nodes": [[["dense_150", 0, 0, {}], ["dense_123", 0, 0, {}]]]}, {"name": "concatenate_199", "class_name": "Concatenate", "config": {"name": "concatenate_199", "trainable": true, "dtype": "float32", "axis": -1}, "inbound_nodes": [[["dense_212", 0, 0, {}], ["dense_123", 0, 0, {}]]]}, {"name": "concatenate_223", "class_name": "Concatenate", "config": {"name": "concatenate_223", "trainable": true, "dtype": "float32", "axis": -1}, "inbound_nodes": [[["dense_236", 0, 0, {}], ["dense_123", 0, 0, {}]]]}, {"name": "concatenate_284", "class_name": "Concatenate", "config": {"name": "concatenate_284", "trainable": true, "dtype": "float32", "axis": -1}, "inbound_nodes": [[["dense_297", 0, 0, {}], ["dense_119", 0, 0, {}]]]}, {"name": "dense_151", "class_name": "Dense", "config": {"name": "dense_151", "trainable": true, "dtype": "float32", "units": 100, "activation": "relu", "use_bias": true, "kernel_initializer": {"class_name": "VarianceScaling", "config": {"scale": 1.0, "mode": "fan_avg", "distribution": "uniform", "seed": null}}, "bias_initializer": {"class_name": "Zeros", "config": {}}, "kernel_regularizer": null, "bias_regularizer": null, "activity_regularizer": null, "kernel_constraint": null, "bias_constraint": null}, "inbound_nodes": [[["concatenate_137", 0, 0, {}]]]}, {"name": "dense_213", "class_name": "Dense", "config": {"name": "dense_213", "trainable": true, "dtype": "float32", "units": 100, "activation": "relu", "use_bias": true, "kernel_initializer": {"class_name": "VarianceScaling", "config": {"scale": 1.0, "mode": "fan_avg", "distribution": "uniform", "seed": null}}, "bias_initializer": {"class_name": "Zeros", "config": {}}, "kernel_regularizer": null, "bias_regularizer": null, "activity_regularizer": null, "kernel_constraint": null, "bias_constraint": null}, "inbound_nodes": [[["concatenate_199", 0, 0, {}]]]}, {"name": "dense_237", "class_name": "Dense", "config": {"name": "dense_237", "trainable": true, "dtype": "float32", "units": 100, "activation": "relu", "use_bias": true, "kernel_initializer": {"class_name": "VarianceScaling", "config": {"scale": 1.0, "mode": "fan_avg", "distribution": "uniform", "seed": null}}, "bias_initializer": {"class_name": "Zeros", "config": {}}, "kernel_regularizer": null, "bias_regularizer": null, "activity_regularizer": null, "kernel_constraint": null, "bias_constraint": null}, "inbound_nodes": [[["concatenate_223", 0, 0, {}]]]}, {"name": "dense_298", "class_name": "Dense", "config": {"name": "dense_298", "trainable": true, "dtype": "float32", "units": 100, "activation": "relu", "use_bias": true, "kernel_initializer": {"class_name": "VarianceScaling", "config": {"scale": 1.0, "mode": "fan_avg", "distribution": "uniform", "seed": null}}, "bias_initializer": {"class_name": "Zeros", "config": {}}, "kernel_regularizer": null, "bias_regularizer": null, "activity_regularizer": null, "kernel_constraint": null, "bias_constraint": null}, "inbound_nodes": [[["concatenate_284", 0, 0, {}]]]}, {"name": "concatenate_200", "class_name": "Concatenate", "config": {"name": "concatenate_200", "trainable": true, "dtype": "float32", "axis": -1}, "inbound_nodes": [[["dense_151", 0, 0, {}], ["dense_213", 0, 0, {}]]]}, {"name": "concatenate_285", "class_name": "Concatenate", "config": {"name": "concatenate_285", "trainable": true, "dtype": "float32", "axis": -1}, "inbound_nodes": [[["dense_237", 0, 0, {}], ["dense_298", 0, 0, {}]]]}, {"name": "dense_214", "class_name": "Dense", "config": {"name": "dense_214", "trainable": true, "dtype": "float32", "units": 100, "activation": "relu", "use_bias": true, "kernel_initializer": {"class_name": "VarianceScaling", "config": {"scale": 1.0, "mode": "fan_avg", "distribution": "uniform", "seed": null}}, "bias_initializer": {"class_name": "Zeros", "config": {}}, "kernel_regularizer": null, "bias_regularizer": null, "activity_regularizer": null, "kernel_constraint": null, "bias_constraint": null}, "inbound_nodes": [[["concatenate_200", 0, 0, {}]]]}, {"name": "dense_299", "class_name": "Dense", "config": {"name": "dense_299", "trainable": true, "dtype": "float32", "units": 100, "activation": "relu", "use_bias": true, "kernel_initializer": {"class_name": "VarianceScaling", "config": {"scale": 1.0, "mode": "fan_avg", "distribution": "uniform", "seed": null}}, "bias_initializer": {"class_name": "Zeros", "config": {}}, "kernel_regularizer": null, "bias_regularizer": null, "activity_regularizer": null, "kernel_constraint": null, "bias_constraint": null}, "inbound_nodes": [[["concatenate_285", 0, 0, {}]]]}, {"name": "concatenate_201", "class_name": "Concatenate", "config": {"name": "concatenate_201", "trainable": true, "dtype": "float32", "axis": -1}, "inbound_nodes": [[["dense_214", 0, 0, {}], ["dense_122", 0, 0, {}]]]}, {"name": "concatenate_286", "class_name": "Concatenate", "config": {"name": "concatenate_286", "trainable": true, "dtype": "float32", "axis": -1}, "inbound_nodes": [[["dense_299", 0, 0, {}], ["dense_122", 0, 0, {}]]]}, {"name": "dense_215", "class_name": "Dense", "config": {"name": "dense_215", "trainable": true, "dtype": "float32", "units": 100, "activation": "relu", "use_bias": true, "kernel_initializer": {"class_name": "VarianceScaling", "config": {"scale": 1.0, "mode": "fan_avg", "distribution": "uniform", "seed": null}}, "bias_initializer": {"class_name": "Zeros", "config": {}}, "kernel_regularizer": null, "bias_regularizer": null, "activity_regularizer": null, "kernel_constraint": null, "bias_constraint": null}, "inbound_nodes": [[["concatenate_201", 0, 0, {}]]]}, {"name": "dense_300", "class_name": "Dense", "config": {"name": "dense_300", "trainable": true, "dtype": "float32", "units": 100, "activation": "relu", "use_bias": true, "kernel_initializer": {"class_name": "VarianceScaling", "config": {"scale": 1.0, "mode": "fan_avg", "distribution": "uniform", "seed": null}}, "bias_initializer": {"class_name": "Zeros", "config": {}}, "kernel_regularizer": null, "bias_regularizer": null, "activity_regularizer": null, "kernel_constraint": null, "bias_constraint": null}, "inbound_nodes": [[["concatenate_286", 0, 0, {}]]]}, {"name": "concatenate_287", "class_name": "Concatenate", "config": {"name": "concatenate_287", "trainable": true, "dtype": "float32", "axis": -1}, "inbound_nodes": [[["dense_215", 0, 0, {}], ["dense_300", 0, 0, {}]]]}, {"name": "dense_301", "class_name": "Dense", "config": {"name": "dense_301", "trainable": true, "dtype": "float32", "units": 100, "activation": "relu", "use_bias": true, "kernel_initializer": {"class_name": "VarianceScaling", "config": {"scale": 1.0, "mode": "fan_avg", "distribution": "uniform", "seed": null}}, "bias_initializer": {"class_name": "Zeros", "config": {}}, "kernel_regularizer": null, "bias_regularizer": null, "activity_regularizer": null, "kernel_constraint": null, "bias_constraint": null}, "inbound_nodes": [[["concatenate_287", 0, 0, {}]]]}, {"name": "concatenate_288", "class_name": "Concatenate", "config": {"name": "concatenate_288", "trainable": true, "dtype": "float32", "axis": -1}, "inbound_nodes": [[["dense_301", 0, 0, {}], ["dense_119", 0, 0, {}]]]}, {"name": "dense_302", "class_name": "Dense", "config": {"name": "dense_302", "trainable": true, "dtype": "float32", "units": 100, "activation": "relu", "use_bias": true, "kernel_initializer": {"class_name": "VarianceScaling", "config": {"scale": 1.0, "mode": "fan_avg", "distribution": "uniform", "seed": null}}, "bias_initializer": {"class_name": "Zeros", "config": {}}, "kernel_regularizer": null, "bias_regularizer": null, "activity_regularizer": null, "kernel_constraint": null, "bias_constraint": null}, "inbound_nodes": [[["concatenate_288", 0, 0, {}]]]}, {"name": "concatenate_289", "class_name": "Concatenate", "config": {"name": "concatenate_289", "trainable": true, "dtype": "float32", "axis": -1}, "inbound_nodes": [[["dense_123", 0, 0, {}], ["dense_302", 0, 0, {}]]]}, {"name": "dense_303", "class_name": "Dense", "config": {"name": "dense_303", "trainable": true, "dtype": "float32", "units": 100, "activation": "relu", "use_bias": true, "kernel_initializer": {"class_name": "VarianceScaling", "config": {"scale": 1.0, "mode": "fan_avg", "distribution": "uniform", "seed": null}}, "bias_initializer": {"class_name": "Zeros", "config": {}}, "kernel_regularizer": null, "bias_regularizer": null, "activity_regularizer": null, "kernel_constraint": null, "bias_constraint": null}, "inbound_nodes": [[["concatenate_289", 0, 0, {}]]]}, {"name": "concatenate_290", "class_name": "Concatenate", "config": {"name": "concatenate_290", "trainable": true, "dtype": "float32", "axis": -1}, "inbound_nodes": [[["dense_121", 0, 0, {}], ["dense_303", 0, 0, {}]]]}, {"name": "dense_304", "class_name": "Dense", "config": {"name": "dense_304", "trainable": true, "dtype": "float32", "units": 100, "activation": "relu", "use_bias": true, "kernel_initializer": {"class_name": "VarianceScaling", "config": {"scale": 1.0, "mode": "fan_avg", "distribution": "uniform", "seed": null}}, "bias_initializer": {"class_name": "Zeros", "config": {}}, "kernel_regularizer": null, "bias_regularizer": null, "activity_regularizer": null, "kernel_constraint": null, "bias_constraint": null}, "inbound_nodes": [[["concatenate_290", 0, 0, {}]]]}, {"name": "dense_305", "class_name": "Dense", "config": {"name": "dense_305", "trainable": true, "dtype": "float32", "units": 4, "activation": "softmax", "use_bias": true, "kernel_initializer": {"class_name": "VarianceScaling", "config": {"scale": 1.0, "mode": "fan_avg", "distribution": "uniform", "seed": null}}, "bias_initializer": {"class_name": "Zeros", "config": {}}, "kernel_regularizer": null, "bias_regularizer": null, "activity_regularizer": null, "kernel_constraint": null, "bias_constraint": null}, "inbound_nodes": [[["dense_304", 0, 0, {}]]]}], "input_layers": [["input_8", 0, 0], ["input_9", 0, 0], ["input_10", 0, 0], ["input_11", 0, 0], ["input_12", 0, 0]], "output_layers": [["dense_305", 0, 0]]}, "keras_version": "2.3.1", "backend": "tensorflow"}