{"class_name": "Model", "config": {"name": "model_1", "layers": [{"name": "input_15", "class_name": "InputLayer", "config": {"batch_input_shape": [null, 1], "dtype": "float32", "sparse": false, "name": "input_15"}, "inbound_nodes": []}, {"name": "input_25", "class_name": "InputLayer", "config": {"batch_input_shape": [null, 1], "dtype": "float32", "sparse": false, "name": "input_25"}, "inbound_nodes": []}, {"name": "input_31", "class_name": "InputLayer", "config": {"batch_input_shape": [null, 1], "dtype": "float32", "sparse": false, "name": "input_31"}, "inbound_nodes": []}, {"name": "input_37", "class_name": "InputLayer", "config": {"batch_input_shape": [null, 1], "dtype": "float32", "sparse": false, "name": "input_37"}, "inbound_nodes": []}, {"name": "input_10", "class_name": "InputLayer", "config": {"batch_input_shape": [null, 1], "dtype": "float32", "sparse": false, "name": "input_10"}, "inbound_nodes": []}, {"name": "input_16", "class_name": "InputLayer", "config": {"batch_input_shape": [null, 1], "dtype": "float32", "sparse": false, "name": "input_16"}, "inbound_nodes": []}, {"name": "input_13", "class_name": "InputLayer", "config": {"batch_input_shape": [null, 1], "dtype": "float32", "sparse": false, "name": "input_13"}, "inbound_nodes": []}, {"name": "input_14", "class_name": "InputLayer", "config": {"batch_input_shape": [null, 1], "dtype": "float32", "sparse": false, "name": "input_14"}, "inbound_nodes": []}, {"name": "input_8", "class_name": "InputLayer", "config": {"batch_input_shape": [null, 1], "dtype": "float32", "sparse": false, "name": "input_8"}, "inbound_nodes": []}, {"name": "input_21", "class_name": "InputLayer", "config": {"batch_input_shape": [null, 1], "dtype": "float32", "sparse": false, "name": "input_21"}, "inbound_nodes": []}, {"name": "input_32", "class_name": "InputLayer", "config": {"batch_input_shape": [null, 1], "dtype": "float32", "sparse": false, "name": "input_32"}, "inbound_nodes": []}, {"name": "input_9", "class_name": "InputLayer", "config": {"batch_input_shape": [null, 1], "dtype": "float32", "sparse": false, "name": "input_9"}, "inbound_nodes": []}, {"name": "input_22", "class_name": "InputLayer", "config": {"batch_input_shape": [null, 1], "dtype": "float32", "sparse": false, "name": "input_22"}, "inbound_nodes": []}, {"name": "input_23", "class_name": "InputLayer", "config": {"batch_input_shape": [null, 1], "dtype": "float32", "sparse": false, "name": "input_23"}, "inbound_nodes": []}, {"name": "input_38", "class_name": "InputLayer", "config": {"batch_input_shape": [null, 1], "dtype": "float32", "sparse": false, "name": "input_38"}, "inbound_nodes": []}, {"name": "input_17", "class_name": "InputLayer", "config": {"batch_input_shape": [null, 1], "dtype": "float32", "sparse": false, "name": "input_17"}, "inbound_nodes": []}, {"name": "input_7", "class_name": "InputLayer", "config": {"batch_input_shape": [null, 1], "dtype": "float32", "sparse": false, "name": "input_7"}, "inbound_nodes": []}, {"name": "input_26", "class_name": "InputLayer", "config": {"batch_input_shape": [null, 1], "dtype": "float32", "sparse": false, "name": "input_26"}, "inbound_nodes": []}, {"name": "input_33", "class_name": "InputLayer", "config": {"batch_input_shape": [null, 1], "dtype": "float32", "sparse": false, "name": "input_33"}, "inbound_nodes": []}, {"name": "input_39", "class_name": "InputLayer", "config": {"batch_input_shape": [null, 1], "dtype": "float32", "sparse": false, "name": "input_39"}, "inbound_nodes": []}, {"name": "input_2", "class_name": "InputLayer", "config": {"batch_input_shape": [null, 1], "dtype": "float32", "sparse": false, "name": "input_2"}, "inbound_nodes": []}, {"name": "input_3", "class_name": "InputLayer", "config": {"batch_input_shape": [null, 1], "dtype": "float32", "sparse": false, "name": "input_3"}, "inbound_nodes": []}, {"name": "input_40", "class_name": "InputLayer", "config": {"batch_input_shape": [null, 1], "dtype": "float32", "sparse": false, "name": "input_40"}, "inbound_nodes": []}, {"name": "input_4", "class_name": "InputLayer", "config": {"batch_input_shape": [null, 1], "dtype": "float32", "sparse": false, "name": "input_4"}, "inbound_nodes": []}, {"name": "input_27", "class_name": "InputLayer", "config": {"batch_input_shape": [null, 1], "dtype": "float32", "sparse": false, "name": "input_27"}, "inbound_nodes": []}, {"name": "input_20", "class_name": "InputLayer", "config": {"batch_input_shape": [null, 1], "dtype": "float32", "sparse": false, "name": "input_20"}, "inbound_nodes": []}, {"name": "input_18", "class_name": "InputLayer", "config": {"batch_input_shape": [null, 1], "dtype": "float32", "sparse": false, "name": "input_18"}, "inbound_nodes": []}, {"name": "input_28", "class_name": "InputLayer", "config": {"batch_input_shape": [null, 1], "dtype": "float32", "sparse": false, "name": "input_28"}, "inbound_nodes": []}, {"name": "dense_15", "class_name": "Dense", "config": {"name": "dense_15", "trainable": true, "dtype": "float32", "units": 50, "activation": "relu", "use_bias": true, "kernel_initializer": {"class_name": "VarianceScaling", "config": {"scale": 1.0, "mode": "fan_avg", "distribution": "uniform", "seed": null}}, "bias_initializer": {"class_name": "Zeros", "config": {}}, "kernel_regularizer": null, "bias_regularizer": null, "activity_regularizer": null, "kernel_constraint": null, "bias_constraint": null}, "inbound_nodes": [[["input_15", 0, 0, {}]]]}, {"name": "dense_25", "class_name": "Dense", "config": {"name": "dense_25", "trainable": true, "dtype": "float32", "units": 50, "activation": "relu", "use_bias": true, "kernel_initializer": {"class_name": "VarianceScaling", "config": {"scale": 1.0, "mode": "fan_avg", "distribution": "uniform", "seed": null}}, "bias_initializer": {"class_name": "Zeros", "config": {}}, "kernel_regularizer": null, "bias_regularizer": null, "activity_regularizer": null, "kernel_constraint": null, "bias_constraint": null}, "inbound_nodes": [[["input_25", 0, 0, {}]]]}, {"name": "dense_31", "class_name": "Dense", "config": {"name": "dense_31", "trainable": true, "dtype": "float32", "units": 50, "activation": "relu", "use_bias": true, "kernel_initializer": {"class_name": "VarianceScaling", "config": {"scale": 1.0, "mode": "fan_avg", "distribution": "uniform", "seed": null}}, "bias_initializer": {"class_name": "Zeros", "config": {}}, "kernel_regularizer": null, "bias_regularizer": null, "activity_regularizer": null, "kernel_constraint": null, "bias_constraint": null}, "inbound_nodes": [[["input_31", 0, 0, {}]]]}, {"name": "dense_37", "class_name": "Dense", "config": {"name": "dense_37", "trainable": true, "dtype": "float32", "units": 50, "activation": "relu", "use_bias": true, "kernel_initializer": {"class_name": "VarianceScaling", "config": {"scale": 1.0, "mode": "fan_avg", "distribution": "uniform", "seed": null}}, "bias_initializer": {"class_name": "Zeros", "config": {}}, "kernel_regularizer": null, "bias_regularizer": null, "activity_regularizer": null, "kernel_constraint": null, "bias_constraint": null}, "inbound_nodes": [[["input_37", 0, 0, {}]]]}, {"name": "dense_10", "class_name": "Dense", "config": {"name": "dense_10", "trainable": true, "dtype": "float32", "units": 50, "activation": "relu", "use_bias": true, "kernel_initializer": {"class_name": "VarianceScaling", "config": {"scale": 1.0, "mode": "fan_avg", "distribution": "uniform", "seed": null}}, "bias_initializer": {"class_name": "Zeros", "config": {}}, "kernel_regularizer": null, "bias_regularizer": null, "activity_regularizer": null, "kernel_constraint": null, "bias_constraint": null}, "inbound_nodes": [[["input_10", 0, 0, {}]]]}, {"name": "dense_16", "class_name": "Dense", "config": {"name": "dense_16", "trainable": true, "dtype": "float32", "units": 50, "activation": "relu", "use_bias": true, "kernel_initializer": {"class_name": "VarianceScaling", "config": {"scale": 1.0, "mode": "fan_avg", "distribution": "uniform", "seed": null}}, "bias_initializer": {"class_name": "Zeros", "config": {}}, "kernel_regularizer": null, "bias_regularizer": null, "activity_regularizer": null, "kernel_constraint": null, "bias_constraint": null}, "inbound_nodes": [[["input_16", 0, 0, {}]]]}, {"name": "dense_13", "class_name": "Dense", "config": {"name": "dense_13", "trainable": true, "dtype": "float32", "units": 50, "activation": "relu", "use_bias": true, "kernel_initializer": {"class_name": "VarianceScaling", "config": {"scale": 1.0, "mode": "fan_avg", "distribution": "uniform", "seed": null}}, "bias_initializer": {"class_name": "Zeros", "config": {}}, "kernel_regularizer": null, "bias_regularizer": null, "activity_regularizer": null, "kernel_constraint": null, "bias_constraint": null}, "inbound_nodes": [[["input_13", 0, 0, {}]]]}, {"name": "dense_14", "class_name": "Dense", "config": {"name": "dense_14", "trainable": true, "dtype": "float32", "units": 50, "activation": "relu", "use_bias": true, "kernel_initializer": {"class_name": "VarianceScaling", "config": {"scale": 1.0, "mode": "fan_avg", "distribution": "uniform", "seed": null}}, "bias_initializer": {"class_name": "Zeros", "config": {}}, "kernel_regularizer": null, "bias_regularizer": null, "activity_regularizer": null, "kernel_constraint": null, "bias_constraint": null}, "inbound_nodes": [[["input_14", 0, 0, {}]]]}, {"name": "dense_8", "class_name": "Dense", "config": {"name": "dense_8", "trainable": true, "dtype": "float32", "units": 50, "activation": "relu", "use_bias": true, "kernel_initializer": {"class_name": "VarianceScaling", "config": {"scale": 1.0, "mode": "fan_avg", "distribution": "uniform", "seed": null}}, "bias_initializer": {"class_name": "Zeros", "config": {}}, "kernel_regularizer": null, "bias_regularizer": null, "activity_regularizer": null, "kernel_constraint": null, "bias_constraint": null}, "inbound_nodes": [[["input_8", 0, 0, {}]]]}, {"name": "dense_21", "class_name": "Dense", "config": {"name": "dense_21", "trainable": true, "dtype": "float32", "units": 50, "activation": "relu", "use_bias": true, "kernel_initializer": {"class_name": "VarianceScaling", "config": {"scale": 1.0, "mode": "fan_avg", "distribution": "uniform", "seed": null}}, "bias_initializer": {"class_name": "Zeros", "config": {}}, "kernel_regularizer": null, "bias_regularizer": null, "activity_regularizer": null, "kernel_constraint": null, "bias_constraint": null}, "inbound_nodes": [[["input_21", 0, 0, {}]]]}, {"name": "dense_32", "class_name": "Dense", "config": {"name": "dense_32", "trainable": true, "dtype": "float32", "units": 50, "activation": "relu", "use_bias": true, "kernel_initializer": {"class_name": "VarianceScaling", "config": {"scale": 1.0, "mode": "fan_avg", "distribution": "uniform", "seed": null}}, "bias_initializer": {"class_name": "Zeros", "config": {}}, "kernel_regularizer": null, "bias_regularizer": null, "activity_regularizer": null, "kernel_constraint": null, "bias_constraint": null}, "inbound_nodes": [[["input_32", 0, 0, {}]]]}, {"name": "dense_9", "class_name": "Dense", "config": {"name": "dense_9", "trainable": true, "dtype": "float32", "units": 50, "activation": "relu", "use_bias": true, "kernel_initializer": {"class_name": "VarianceScaling", "config": {"scale": 1.0, "mode": "fan_avg", "distribution": "uniform", "seed": null}}, "bias_initializer": {"class_name": "Zeros", "config": {}}, "kernel_regularizer": null, "bias_regularizer": null, "activity_regularizer": null, "kernel_constraint": null, "bias_constraint": null}, "inbound_nodes": [[["input_9", 0, 0, {}]]]}, {"name": "dense_22", "class_name": "Dense", "config": {"name": "dense_22", "trainable": true, "dtype": "float32", "units": 50, "activation": "relu", "use_bias": true, "kernel_initializer": {"class_name": "VarianceScaling", "config": {"scale": 1.0, "mode": "fan_avg", "distribution": "uniform", "seed": null}}, "bias_initializer": {"class_name": "Zeros", "config": {}}, "kernel_regularizer": null, "bias_regularizer": null, "activity_regularizer": null, "kernel_constraint": null, "bias_constraint": null}, "inbound_nodes": [[["input_22", 0, 0, {}]]]}, {"name": "dense_23", "class_name": "Dense", "config": {"name": "dense_23", "trainable": true, "dtype": "float32", "units": 50, "activation": "relu", "use_bias": true, "kernel_initializer": {"class_name": "VarianceScaling", "config": {"scale": 1.0, "mode": "fan_avg", "distribution": "uniform", "seed": null}}, "bias_initializer": {"class_name": "Zeros", "config": {}}, "kernel_regularizer": null, "bias_regularizer": null, "activity_regularizer": null, "kernel_constraint": null, "bias_constraint": null}, "inbound_nodes": [[["input_23", 0, 0, {}]]]}, {"name": "dense_38", "class_name": "Dense", "config": {"name": "dense_38", "trainable": true, "dtype": "float32", "units": 50, "activation": "relu", "use_bias": true, "kernel_initializer": {"class_name": "VarianceScaling", "config": {"scale": 1.0, "mode": "fan_avg", "distribution": "uniform", "seed": null}}, "bias_initializer": {"class_name": "Zeros", "config": {}}, "kernel_regularizer": null, "bias_regularizer": null, "activity_regularizer": null, "kernel_constraint": null, "bias_constraint": null}, "inbound_nodes": [[["input_38", 0, 0, {}]]]}, {"name": "dense_17", "class_name": "Dense", "config": {"name": "dense_17", "trainable": true, "dtype": "float32", "units": 50, "activation": "relu", "use_bias": true, "kernel_initializer": {"class_name": "VarianceScaling", "config": {"scale": 1.0, "mode": "fan_avg", "distribution": "uniform", "seed": null}}, "bias_initializer": {"class_name": "Zeros", "config": {}}, "kernel_regularizer": null, "bias_regularizer": null, "activity_regularizer": null, "kernel_constraint": null, "bias_constraint": null}, "inbound_nodes": [[["input_17", 0, 0, {}]]]}, {"name": "dense_7", "class_name": "Dense", "config": {"name": "dense_7", "trainable": true, "dtype": "float32", "units": 50, "activation": "relu", "use_bias": true, "kernel_initializer": {"class_name": "VarianceScaling", "config": {"scale": 1.0, "mode": "fan_avg", "distribution": "uniform", "seed": null}}, "bias_initializer": {"class_name": "Zeros", "config": {}}, "kernel_regularizer": null, "bias_regularizer": null, "activity_regularizer": null, "kernel_constraint": null, "bias_constraint": null}, "inbound_nodes": [[["input_7", 0, 0, {}]]]}, {"name": "dense_26", "class_name": "Dense", "config": {"name": "dense_26", "trainable": true, "dtype": "float32", "units": 50, "activation": "relu", "use_bias": true, "kernel_initializer": {"class_name": "VarianceScaling", "config": {"scale": 1.0, "mode": "fan_avg", "distribution": "uniform", "seed": null}}, "bias_initializer": {"class_name": "Zeros", "config": {}}, "kernel_regularizer": null, "bias_regularizer": null, "activity_regularizer": null, "kernel_constraint": null, "bias_constraint": null}, "inbound_nodes": [[["input_26", 0, 0, {}]]]}, {"name": "dense_33", "class_name": "Dense", "config": {"name": "dense_33", "trainable": true, "dtype": "float32", "units": 50, "activation": "relu", "use_bias": true, "kernel_initializer": {"class_name": "VarianceScaling", "config": {"scale": 1.0, "mode": "fan_avg", "distribution": "uniform", "seed": null}}, "bias_initializer": {"class_name": "Zeros", "config": {}}, "kernel_regularizer": null, "bias_regularizer": null, "activity_regularizer": null, "kernel_constraint": null, "bias_constraint": null}, "inbound_nodes": [[["input_33", 0, 0, {}]]]}, {"name": "dense_39", "class_name": "Dense", "config": {"name": "dense_39", "trainable": true, "dtype": "float32", "units": 50, "activation": "relu", "use_bias": true, "kernel_initializer": {"class_name": "VarianceScaling", "config": {"scale": 1.0, "mode": "fan_avg", "distribution": "uniform", "seed": null}}, "bias_initializer": {"class_name": "Zeros", "config": {}}, "kernel_regularizer": null, "bias_regularizer": null, "activity_regularizer": null, "kernel_constraint": null, "bias_constraint": null}, "inbound_nodes": [[["input_39", 0, 0, {}]]]}, {"name": "dense_2", "class_name": "Dense", "config": {"name": "dense_2", "trainable": true, "dtype": "float32", "units": 50, "activation": "relu", "use_bias": true, "kernel_initializer": {"class_name": "VarianceScaling", "config": {"scale": 1.0, "mode": "fan_avg", "distribution": "uniform", "seed": null}}, "bias_initializer": {"class_name": "Zeros", "config": {}}, "kernel_regularizer": null, "bias_regularizer": null, "activity_regularizer": null, "kernel_constraint": null, "bias_constraint": null}, "inbound_nodes": [[["input_2", 0, 0, {}]]]}, {"name": "dense_3", "class_name": "Dense", "config": {"name": "dense_3", "trainable": true, "dtype": "float32", "units": 50, "activation": "relu", "use_bias": true, "kernel_initializer": {"class_name": "VarianceScaling", "config": {"scale": 1.0, "mode": "fan_avg", "distribution": "uniform", "seed": null}}, "bias_initializer": {"class_name": "Zeros", "config": {}}, "kernel_regularizer": null, "bias_regularizer": null, "activity_regularizer": null, "kernel_constraint": null, "bias_constraint": null}, "inbound_nodes": [[["input_3", 0, 0, {}]]]}, {"name": "dense_40", "class_name": "Dense", "config": {"name": "dense_40", "trainable": true, "dtype": "float32", "units": 50, "activation": "relu", "use_bias": true, "kernel_initializer": {"class_name": "VarianceScaling", "config": {"scale": 1.0, "mode": "fan_avg", "distribution": "uniform", "seed": null}}, "bias_initializer": {"class_name": "Zeros", "config": {}}, "kernel_regularizer": null, "bias_regularizer": null, "activity_regularizer": null, "kernel_constraint": null, "bias_constraint": null}, "inbound_nodes": [[["input_40", 0, 0, {}]]]}, {"name": "dense_4", "class_name": "Dense", "config": {"name": "dense_4", "trainable": true, "dtype": "float32", "units": 50, "activation": "relu", "use_bias": true, "kernel_initializer": {"class_name": "VarianceScaling", "config": {"scale": 1.0, "mode": "fan_avg", "distribution": "uniform", "seed": null}}, "bias_initializer": {"class_name": "Zeros", "config": {}}, "kernel_regularizer": null, "bias_regularizer": null, "activity_regularizer": null, "kernel_constraint": null, "bias_constraint": null}, "inbound_nodes": [[["input_4", 0, 0, {}]]]}, {"name": "dense_27", "class_name": "Dense", "config": {"name": "dense_27", "trainable": true, "dtype": "float32", "units": 50, "activation": "relu", "use_bias": true, "kernel_initializer": {"class_name": "VarianceScaling", "config": {"scale": 1.0, "mode": "fan_avg", "distribution": "uniform", "seed": null}}, "bias_initializer": {"class_name": "Zeros", "config": {}}, "kernel_regularizer": null, "bias_regularizer": null, "activity_regularizer": null, "kernel_constraint": null, "bias_constraint": null}, "inbound_nodes": [[["input_27", 0, 0, {}]]]}, {"name": "dense_20", "class_name": "Dense", "config": {"name": "dense_20", "trainable": true, "dtype": "float32", "units": 50, "activation": "relu", "use_bias": true, "kernel_initializer": {"class_name": "VarianceScaling", "config": {"scale": 1.0, "mode": "fan_avg", "distribution": "uniform", "seed": null}}, "bias_initializer": {"class_name": "Zeros", "config": {}}, "kernel_regularizer": null, "bias_regularizer": null, "activity_regularizer": null, "kernel_constraint": null, "bias_constraint": null}, "inbound_nodes": [[["input_20", 0, 0, {}]]]}, {"name": "dense_18", "class_name": "Dense", "config": {"name": "dense_18", "trainable": true, "dtype": "float32", "units": 50, "activation": "relu", "use_bias": true, "kernel_initializer": {"class_name": "VarianceScaling", "config": {"scale": 1.0, "mode": "fan_avg", "distribution": "uniform", "seed": null}}, "bias_initializer": {"class_name": "Zeros", "config": {}}, "kernel_regularizer": null, "bias_regularizer": null, "activity_regularizer": null, "kernel_constraint": null, "bias_constraint": null}, "inbound_nodes": [[["input_18", 0, 0, {}]]]}, {"name": "dense_28", "class_name": "Dense", "config": {"name": "dense_28", "trainable": true, "dtype": "float32", "units": 50, "activation": "relu", "use_bias": true, "kernel_initializer": {"class_name": "VarianceScaling", "config": {"scale": 1.0, "mode": "fan_avg", "distribution": "uniform", "seed": null}}, "bias_initializer": {"class_name": "Zeros", "config": {}}, "kernel_regularizer": null, "bias_regularizer": null, "activity_regularizer": null, "kernel_constraint": null, "bias_constraint": null}, "inbound_nodes": [[["input_28", 0, 0, {}]]]}, {"name": "concatenate_22", "class_name": "Concatenate", "config": {"name": "concatenate_22", "trainable": true, "dtype": "float32", "axis": -1}, "inbound_nodes": [[["dense_17", 0, 0, {}], ["dense_10", 0, 0, {}]]]}, {"name": "concatenate_48", "class_name": "Concatenate", "config": {"name": "concatenate_48", "trainable": true, "dtype": "float32", "axis": -1}, "inbound_nodes": [[["dense_23", 0, 0, {}], ["dense_33", 0, 0, {}]]]}, {"name": "input_24", "class_name": "InputLayer", "config": {"batch_input_shape": [null, 1], "dtype": "float32", "sparse": false, "name": "input_24"}, "inbound_nodes": []}, {"name": "concatenate_70", "class_name": "Concatenate", "config": {"name": "concatenate_70", "trainable": true, "dtype": "float32", "axis": -1}, "inbound_nodes": [[["dense_13", 0, 0, {}], ["dense_7", 0, 0, {}]]]}, {"name": "concatenate_86", "class_name": "Concatenate", "config": {"name": "concatenate_86", "trainable": true, "dtype": "float32", "axis": -1}, "inbound_nodes": [[["dense_39", 0, 0, {}], ["dense_25", 0, 0, {}]]]}, {"name": "concatenate_97", "class_name": "Concatenate", "config": {"name": "concatenate_97", "trainable": true, "dtype": "float32", "axis": -1}, "inbound_nodes": [[["dense_4", 0, 0, {}], ["dense_37", 0, 0, {}]]]}, {"name": "concatenate_106", "class_name": "Concatenate", "config": {"name": "concatenate_106", "trainable": true, "dtype": "float32", "axis": -1}, "inbound_nodes": [[["dense_13", 0, 0, {}], ["dense_3", 0, 0, {}]]]}, {"name": "concatenate_108", "class_name": "Concatenate", "config": {"name": "concatenate_108", "trainable": true, "dtype": "float32", "axis": -1}, "inbound_nodes": [[["dense_40", 0, 0, {}], ["dense_25", 0, 0, {}]]]}, {"name": "concatenate_152", "class_name": "Concatenate", "config": {"name": "concatenate_152", "trainable": true, "dtype": "float32", "axis": -1}, "inbound_nodes": [[["dense_2", 0, 0, {}], ["dense_9", 0, 0, {}]]]}, {"name": "concatenate_168", "class_name": "Concatenate", "config": {"name": "concatenate_168", "trainable": true, "dtype": "float32", "axis": -1}, "inbound_nodes": [[["dense_9", 0, 0, {}], ["dense_9", 0, 0, {}]]]}, {"name": "concatenate_179", "class_name": "Concatenate", "config": {"name": "concatenate_179", "trainable": true, "dtype": "float32", "axis": -1}, "inbound_nodes": [[["dense_39", 0, 0, {}], ["dense_31", 0, 0, {}]]]}, {"name": "concatenate_186", "class_name": "Concatenate", "config": {"name": "concatenate_186", "trainable": true, "dtype": "float32", "axis": -1}, "inbound_nodes": [[["dense_2", 0, 0, {}], ["dense_17", 0, 0, {}]]]}, {"name": "concatenate_190", "class_name": "Concatenate", "config": {"name": "concatenate_190", "trainable": true, "dtype": "float32", "axis": -1}, "inbound_nodes": [[["dense_7", 0, 0, {}], ["dense_4", 0, 0, {}]]]}, {"name": "concatenate_192", "class_name": "Concatenate", "config": {"name": "concatenate_192", "trainable": true, "dtype": "float32", "axis": -1}, "inbound_nodes": [[["dense_13", 0, 0, {}], ["dense_27", 0, 0, {}]]]}, {"name": "concatenate_231", "class_name": "Concatenate", "config": {"name": "concatenate_231", "trainable": true, "dtype": "float32", "axis": -1}, "inbound_nodes": [[["dense_16", 0, 0, {}], ["dense_40", 0, 0, {}]]]}, {"name": "concatenate_242", "class_name": "Concatenate", "config": {"name": "concatenate_242", "trainable": true, "dtype": "float32", "axis": -1}, "inbound_nodes": [[["dense_15", 0, 0, {}], ["dense_9", 0, 0, {}]]]}, {"name": "concatenate_249", "class_name": "Concatenate", "config": {"name": "concatenate_249", "trainable": true, "dtype": "float32", "axis": -1}, "inbound_nodes": [[["dense_4", 0, 0, {}], ["dense_25", 0, 0, {}]]]}, {"name": "concatenate_253", "class_name": "Concatenate", "config": {"name": "concatenate_253", "trainable": true, "dtype": "float32", "axis": -1}, "inbound_nodes": [[["dense_15", 0, 0, {}], ["dense_26", 0, 0, {}]]]}, {"name": "concatenate_255", "class_name": "Concatenate", "config": {"name": "concatenate_255", "trainable": true, "dtype": "float32", "axis": -1}, "inbound_nodes": [[["dense_21", 0, 0, {}], ["dense_25", 0, 0, {}]]]}, {"name": "concatenate_272", "class_name": "Concatenate", "config": {"name": "concatenate_272", "trainable": true, "dtype": "float32", "axis": -1}, "inbound_nodes": [[["dense_13", 0, 0, {}], ["dense_9", 0, 0, {}]]]}, {"name": "concatenate_283", "class_name": "Concatenate", "config": {"name": "concatenate_283", "trainable": true, "dtype": "float32", "axis": -1}, "inbound_nodes": [[["dense_14", 0, 0, {}], ["dense_14", 0, 0, {}]]]}, {"name": "concatenate_290", "class_name": "Concatenate", "config": {"name": "concatenate_290", "trainable": true, "dtype": "float32", "axis": -1}, "inbound_nodes": [[["dense_31", 0, 0, {}], ["dense_18", 0, 0, {}]]]}, {"name": "concatenate_294", "class_name": "Concatenate", "config": {"name": "concatenate_294", "trainable": true, "dtype": "float32", "axis": -1}, "inbound_nodes": [[["dense_21", 0, 0, {}], ["dense_9", 0, 0, {}]]]}, {"name": "concatenate_296", "class_name": "Concatenate", "config": {"name": "concatenate_296", "trainable": true, "dtype": "float32", "axis": -1}, "inbound_nodes": [[["dense_8", 0, 0, {}], ["dense_8", 0, 0, {}]]]}, {"name": "concatenate_313", "class_name": "Concatenate", "config": {"name": "concatenate_313", "trainable": true, "dtype": "float32", "axis": -1}, "inbound_nodes": [[["dense_16", 0, 0, {}], ["dense_22", 0, 0, {}]]]}, {"name": "concatenate_317", "class_name": "Concatenate", "config": {"name": "concatenate_317", "trainable": true, "dtype": "float32", "axis": -1}, "inbound_nodes": [[["dense_2", 0, 0, {}], ["dense_14", 0, 0, {}]]]}, {"name": "concatenate_319", "class_name": "Concatenate", "config": {"name": "concatenate_319", "trainable": true, "dtype": "float32", "axis": -1}, "inbound_nodes": [[["dense_20", 0, 0, {}], ["dense_4", 0, 0, {}]]]}, {"name": "concatenate_327", "class_name": "Concatenate", "config": {"name": "concatenate_327", "trainable": true, "dtype": "float32", "axis": -1}, "inbound_nodes": [[["dense_31", 0, 0, {}], ["dense_31", 0, 0, {}]]]}, {"name": "concatenate_331", "class_name": "Concatenate", "config": {"name": "concatenate_331", "trainable": true, "dtype": "float32", "axis": -1}, "inbound_nodes": [[["dense_13", 0, 0, {}], ["dense_20", 0, 0, {}]]]}, {"name": "concatenate_333", "class_name": "Concatenate", "config": {"name": "concatenate_333", "trainable": true, "dtype": "float32", "axis": -1}, "inbound_nodes": [[["dense_39", 0, 0, {}], ["dense_17", 0, 0, {}]]]}, {"name": "concatenate_339", "class_name": "Concatenate", "config": {"name": "concatenate_339", "trainable": true, "dtype": "float32", "axis": -1}, "inbound_nodes": [[["dense_38", 0, 0, {}], ["dense_8", 0, 0, {}]]]}, {"name": "concatenate_341", "class_name": "Concatenate", "config": {"name": "concatenate_341", "trainable": true, "dtype": "float32", "axis": -1}, "inbound_nodes": [[["dense_25", 0, 0, {}], ["dense_9", 0, 0, {}]]]}, {"name": "concatenate_345", "class_name": "Concatenate", "config": {"name": "concatenate_345", "trainable": true, "dtype": "float32", "axis": -1}, "inbound_nodes": [[["dense_32", 0, 0, {}], ["dense_28", 0, 0, {}]]]}, {"name": "input_34", "class_name": "InputLayer", "config": {"batch_input_shape": [null, 1], "dtype": "float32", "sparse": false, "name": "input_34"}, "inbound_nodes": []}, {"name": "concatenate_347", "class_name": "Concatenate", "config": {"name": "concatenate_347", "trainable": true, "dtype": "float32", "axis": -1}, "inbound_nodes": [[["dense_25", 0, 0, {}], ["dense_25", 0, 0, {}]]]}, {"name": "dense_64", "class_name": "Dense", "config": {"name": "dense_64", "trainable": true, "dtype": "float32", "units": 100, "activation": "relu", "use_bias": true, "kernel_initializer": {"class_name": "VarianceScaling", "config": {"scale": 1.0, "mode": "fan_avg", "distribution": "uniform", "seed": null}}, "bias_initializer": {"class_name": "Zeros", "config": {}}, "kernel_regularizer": null, "bias_regularizer": null, "activity_regularizer": null, "kernel_constraint": null, "bias_constraint": null}, "inbound_nodes": [[["concatenate_22", 0, 0, {}]]]}, {"name": "dense_90", "class_name": "Dense", "config": {"name": "dense_90", "trainable": true, "dtype": "float32", "units": 100, "activation": "relu", "use_bias": true, "kernel_initializer": {"class_name": "VarianceScaling", "config": {"scale": 1.0, "mode": "fan_avg", "distribution": "uniform", "seed": null}}, "bias_initializer": {"class_name": "Zeros", "config": {}}, "kernel_regularizer": null, "bias_regularizer": null, "activity_regularizer": null, "kernel_constraint": null, "bias_constraint": null}, "inbound_nodes": [[["concatenate_48", 0, 0, {}]]]}, {"name": "dense_24", "class_name": "Dense", "config": {"name": "dense_24", "trainable": true, "dtype": "float32", "units": 50, "activation": "relu", "use_bias": true, "kernel_initializer": {"class_name": "VarianceScaling", "config": {"scale": 1.0, "mode": "fan_avg", "distribution": "uniform", "seed": null}}, "bias_initializer": {"class_name": "Zeros", "config": {}}, "kernel_regularizer": null, "bias_regularizer": null, "activity_regularizer": null, "kernel_constraint": null, "bias_constraint": null}, "inbound_nodes": [[["input_24", 0, 0, {}]]]}, {"name": "dense_112", "class_name": "Dense", "config": {"name": "dense_112", "trainable": true, "dtype": "float32", "units": 100, "activation": "relu", "use_bias": true, "kernel_initializer": {"class_name": "VarianceScaling", "config": {"scale": 1.0, "mode": "fan_avg", "distribution": "uniform", "seed": null}}, "bias_initializer": {"class_name": "Zeros", "config": {}}, "kernel_regularizer": null, "bias_regularizer": null, "activity_regularizer": null, "kernel_constraint": null, "bias_constraint": null}, "inbound_nodes": [[["concatenate_70", 0, 0, {}]]]}, {"name": "dense_128", "class_name": "Dense", "config": {"name": "dense_128", "trainable": true, "dtype": "float32", "units": 100, "activation": "relu", "use_bias": true, "kernel_initializer": {"class_name": "VarianceScaling", "config": {"scale": 1.0, "mode": "fan_avg", "distribution": "uniform", "seed": null}}, "bias_initializer": {"class_name": "Zeros", "config": {}}, "kernel_regularizer": null, "bias_regularizer": null, "activity_regularizer": null, "kernel_constraint": null, "bias_constraint": null}, "inbound_nodes": [[["concatenate_86", 0, 0, {}]]]}, {"name": "dense_139", "class_name": "Dense", "config": {"name": "dense_139", "trainable": true, "dtype": "float32", "units": 100, "activation": "relu", "use_bias": true, "kernel_initializer": {"class_name": "VarianceScaling", "config": {"scale": 1.0, "mode": "fan_avg", "distribution": "uniform", "seed": null}}, "bias_initializer": {"class_name": "Zeros", "config": {}}, "kernel_regularizer": null, "bias_regularizer": null, "activity_regularizer": null, "kernel_constraint": null, "bias_constraint": null}, "inbound_nodes": [[["concatenate_97", 0, 0, {}]]]}, {"name": "dense_148", "class_name": "Dense", "config": {"name": "dense_148", "trainable": true, "dtype": "float32", "units": 100, "activation": "relu", "use_bias": true, "kernel_initializer": {"class_name": "VarianceScaling", "config": {"scale": 1.0, "mode": "fan_avg", "distribution": "uniform", "seed": null}}, "bias_initializer": {"class_name": "Zeros", "config": {}}, "kernel_regularizer": null, "bias_regularizer": null, "activity_regularizer": null, "kernel_constraint": null, "bias_constraint": null}, "inbound_nodes": [[["concatenate_106", 0, 0, {}]]]}, {"name": "dense_150", "class_name": "Dense", "config": {"name": "dense_150", "trainable": true, "dtype": "float32", "units": 100, "activation": "relu", "use_bias": true, "kernel_initializer": {"class_name": "VarianceScaling", "config": {"scale": 1.0, "mode": "fan_avg", "distribution": "uniform", "seed": null}}, "bias_initializer": {"class_name": "Zeros", "config": {}}, "kernel_regularizer": null, "bias_regularizer": null, "activity_regularizer": null, "kernel_constraint": null, "bias_constraint": null}, "inbound_nodes": [[["concatenate_108", 0, 0, {}]]]}, {"name": "dense_194", "class_name": "Dense", "config": {"name": "dense_194", "trainable": true, "dtype": "float32", "units": 100, "activation": "relu", "use_bias": true, "kernel_initializer": {"class_name": "VarianceScaling", "config": {"scale": 1.0, "mode": "fan_avg", "distribution": "uniform", "seed": null}}, "bias_initializer": {"class_name": "Zeros", "config": {}}, "kernel_regularizer": null, "bias_regularizer": null, "activity_regularizer": null, "kernel_constraint": null, "bias_constraint": null}, "inbound_nodes": [[["concatenate_152", 0, 0, {}]]]}, {"name": "dense_210", "class_name": "Dense", "config": {"name": "dense_210", "trainable": true, "dtype": "float32", "units": 100, "activation": "relu", "use_bias": true, "kernel_initializer": {"class_name": "VarianceScaling", "config": {"scale": 1.0, "mode": "fan_avg", "distribution": "uniform", "seed": null}}, "bias_initializer": {"class_name": "Zeros", "config": {}}, "kernel_regularizer": null, "bias_regularizer": null, "activity_regularizer": null, "kernel_constraint": null, "bias_constraint": null}, "inbound_nodes": [[["concatenate_168", 0, 0, {}]]]}, {"name": "dense_221", "class_name": "Dense", "config": {"name": "dense_221", "trainable": true, "dtype": "float32", "units": 100, "activation": "relu", "use_bias": true, "kernel_initializer": {"class_name": "VarianceScaling", "config": {"scale": 1.0, "mode": "fan_avg", "distribution": "uniform", "seed": null}}, "bias_initializer": {"class_name": "Zeros", "config": {}}, "kernel_regularizer": null, "bias_regularizer": null, "activity_regularizer": null, "kernel_constraint": null, "bias_constraint": null}, "inbound_nodes": [[["concatenate_179", 0, 0, {}]]]}, {"name": "dense_228", "class_name": "Dense", "config": {"name": "dense_228", "trainable": true, "dtype": "float32", "units": 100, "activation": "relu", "use_bias": true, "kernel_initializer": {"class_name": "VarianceScaling", "config": {"scale": 1.0, "mode": "fan_avg", "distribution": "uniform", "seed": null}}, "bias_initializer": {"class_name": "Zeros", "config": {}}, "kernel_regularizer": null, "bias_regularizer": null, "activity_regularizer": null, "kernel_constraint": null, "bias_constraint": null}, "inbound_nodes": [[["concatenate_186", 0, 0, {}]]]}, {"name": "dense_232", "class_name": "Dense", "config": {"name": "dense_232", "trainable": true, "dtype": "float32", "units": 100, "activation": "relu", "use_bias": true, "kernel_initializer": {"class_name": "VarianceScaling", "config": {"scale": 1.0, "mode": "fan_avg", "distribution": "uniform", "seed": null}}, "bias_initializer": {"class_name": "Zeros", "config": {}}, "kernel_regularizer": null, "bias_regularizer": null, "activity_regularizer": null, "kernel_constraint": null, "bias_constraint": null}, "inbound_nodes": [[["concatenate_190", 0, 0, {}]]]}, {"name": "dense_234", "class_name": "Dense", "config": {"name": "dense_234", "trainable": true, "dtype": "float32", "units": 100, "activation": "relu", "use_bias": true, "kernel_initializer": {"class_name": "VarianceScaling", "config": {"scale": 1.0, "mode": "fan_avg", "distribution": "uniform", "seed": null}}, "bias_initializer": {"class_name": "Zeros", "config": {}}, "kernel_regularizer": null, "bias_regularizer": null, "activity_regularizer": null, "kernel_constraint": null, "bias_constraint": null}, "inbound_nodes": [[["concatenate_192", 0, 0, {}]]]}, {"name": "dense_273", "class_name": "Dense", "config": {"name": "dense_273", "trainable": true, "dtype": "float32", "units": 100, "activation": "relu", "use_bias": true, "kernel_initializer": {"class_name": "VarianceScaling", "config": {"scale": 1.0, "mode": "fan_avg", "distribution": "uniform", "seed": null}}, "bias_initializer": {"class_name": "Zeros", "config": {}}, "kernel_regularizer": null, "bias_regularizer": null, "activity_regularizer": null, "kernel_constraint": null, "bias_constraint": null}, "inbound_nodes": [[["concatenate_231", 0, 0, {}]]]}, {"name": "dense_284", "class_name": "Dense", "config": {"name": "dense_284", "trainable": true, "dtype": "float32", "units": 100, "activation": "relu", "use_bias": true, "kernel_initializer": {"class_name": "VarianceScaling", "config": {"scale": 1.0, "mode": "fan_avg", "distribution": "uniform", "seed": null}}, "bias_initializer": {"class_name": "Zeros", "config": {}}, "kernel_regularizer": null, "bias_regularizer": null, "activity_regularizer": null, "kernel_constraint": null, "bias_constraint": null}, "inbound_nodes": [[["concatenate_242", 0, 0, {}]]]}, {"name": "dense_291", "class_name": "Dense", "config": {"name": "dense_291", "trainable": true, "dtype": "float32", "units": 100, "activation": "relu", "use_bias": true, "kernel_initializer": {"class_name": "VarianceScaling", "config": {"scale": 1.0, "mode": "fan_avg", "distribution": "uniform", "seed": null}}, "bias_initializer": {"class_name": "Zeros", "config": {}}, "kernel_regularizer": null, "bias_regularizer": null, "activity_regularizer": null, "kernel_constraint": null, "bias_constraint": null}, "inbound_nodes": [[["concatenate_249", 0, 0, {}]]]}, {"name": "dense_295", "class_name": "Dense", "config": {"name": "dense_295", "trainable": true, "dtype": "float32", "units": 100, "activation": "relu", "use_bias": true, "kernel_initializer": {"class_name": "VarianceScaling", "config": {"scale": 1.0, "mode": "fan_avg", "distribution": "uniform", "seed": null}}, "bias_initializer": {"class_name": "Zeros", "config": {}}, "kernel_regularizer": null, "bias_regularizer": null, "activity_regularizer": null, "kernel_constraint": null, "bias_constraint": null}, "inbound_nodes": [[["concatenate_253", 0, 0, {}]]]}, {"name": "dense_297", "class_name": "Dense", "config": {"name": "dense_297", "trainable": true, "dtype": "float32", "units": 100, "activation": "relu", "use_bias": true, "kernel_initializer": {"class_name": "VarianceScaling", "config": {"scale": 1.0, "mode": "fan_avg", "distribution": "uniform", "seed": null}}, "bias_initializer": {"class_name": "Zeros", "config": {}}, "kernel_regularizer": null, "bias_regularizer": null, "activity_regularizer": null, "kernel_constraint": null, "bias_constraint": null}, "inbound_nodes": [[["concatenate_255", 0, 0, {}]]]}, {"name": "dense_314", "class_name": "Dense", "config": {"name": "dense_314", "trainable": true, "dtype": "float32", "units": 100, "activation": "relu", "use_bias": true, "kernel_initializer": {"class_name": "VarianceScaling", "config": {"scale": 1.0, "mode": "fan_avg", "distribution": "uniform", "seed": null}}, "bias_initializer": {"class_name": "Zeros", "config": {}}, "kernel_regularizer": null, "bias_regularizer": null, "activity_regularizer": null, "kernel_constraint": null, "bias_constraint": null}, "inbound_nodes": [[["concatenate_272", 0, 0, {}]]]}, {"name": "dense_325", "class_name": "Dense", "config": {"name": "dense_325", "trainable": true, "dtype": "float32", "units": 100, "activation": "relu", "use_bias": true, "kernel_initializer": {"class_name": "VarianceScaling", "config": {"scale": 1.0, "mode": "fan_avg", "distribution": "uniform", "seed": null}}, "bias_initializer": {"class_name": "Zeros", "config": {}}, "kernel_regularizer": null, "bias_regularizer": null, "activity_regularizer": null, "kernel_constraint": null, "bias_constraint": null}, "inbound_nodes": [[["concatenate_283", 0, 0, {}]]]}, {"name": "dense_332", "class_name": "Dense", "config": {"name": "dense_332", "trainable": true, "dtype": "float32", "units": 100, "activation": "relu", "use_bias": true, "kernel_initializer": {"class_name": "VarianceScaling", "config": {"scale": 1.0, "mode": "fan_avg", "distribution": "uniform", "seed": null}}, "bias_initializer": {"class_name": "Zeros", "config": {}}, "kernel_regularizer": null, "bias_regularizer": null, "activity_regularizer": null, "kernel_constraint": null, "bias_constraint": null}, "inbound_nodes": [[["concatenate_290", 0, 0, {}]]]}, {"name": "dense_336", "class_name": "Dense", "config": {"name": "dense_336", "trainable": true, "dtype": "float32", "units": 100, "activation": "relu", "use_bias": true, "kernel_initializer": {"class_name": "VarianceScaling", "config": {"scale": 1.0, "mode": "fan_avg", "distribution": "uniform", "seed": null}}, "bias_initializer": {"class_name": "Zeros", "config": {}}, "kernel_regularizer": null, "bias_regularizer": null, "activity_regularizer": null, "kernel_constraint": null, "bias_constraint": null}, "inbound_nodes": [[["concatenate_294", 0, 0, {}]]]}, {"name": "dense_338", "class_name": "Dense", "config": {"name": "dense_338", "trainable": true, "dtype": "float32", "units": 100, "activation": "relu", "use_bias": true, "kernel_initializer": {"class_name": "VarianceScaling", "config": {"scale": 1.0, "mode": "fan_avg", "distribution": "uniform", "seed": null}}, "bias_initializer": {"class_name": "Zeros", "config": {}}, "kernel_regularizer": null, "bias_regularizer": null, "activity_regularizer": null, "kernel_constraint": null, "bias_constraint": null}, "inbound_nodes": [[["concatenate_296", 0, 0, {}]]]}, {"name": "dense_355", "class_name": "Dense", "config": {"name": "dense_355", "trainable": true, "dtype": "float32", "units": 100, "activation": "relu", "use_bias": true, "kernel_initializer": {"class_name": "VarianceScaling", "config": {"scale": 1.0, "mode": "fan_avg", "distribution": "uniform", "seed": null}}, "bias_initializer": {"class_name": "Zeros", "config": {}}, "kernel_regularizer": null, "bias_regularizer": null, "activity_regularizer": null, "kernel_constraint": null, "bias_constraint": null}, "inbound_nodes": [[["concatenate_313", 0, 0, {}]]]}, {"name": "dense_359", "class_name": "Dense", "config": {"name": "dense_359", "trainable": true, "dtype": "float32", "units": 100, "activation": "relu", "use_bias": true, "kernel_initializer": {"class_name": "VarianceScaling", "config": {"scale": 1.0, "mode": "fan_avg", "distribution": "uniform", "seed": null}}, "bias_initializer": {"class_name": "Zeros", "config": {}}, "kernel_regularizer": null, "bias_regularizer": null, "activity_regularizer": null, "kernel_constraint": null, "bias_constraint": null}, "inbound_nodes": [[["concatenate_317", 0, 0, {}]]]}, {"name": "dense_361", "class_name": "Dense", "config": {"name": "dense_361", "trainable": true, "dtype": "float32", "units": 100, "activation": "relu", "use_bias": true, "kernel_initializer": {"class_name": "VarianceScaling", "config": {"scale": 1.0, "mode": "fan_avg", "distribution": "uniform", "seed": null}}, "bias_initializer": {"class_name": "Zeros", "config": {}}, "kernel_regularizer": null, "bias_regularizer": null, "activity_regularizer": null, "kernel_constraint": null, "bias_constraint": null}, "inbound_nodes": [[["concatenate_319", 0, 0, {}]]]}, {"name": "dense_369", "class_name": "Dense", "config": {"name": "dense_369", "trainable": true, "dtype": "float32", "units": 100, "activation": "relu", "use_bias": true, "kernel_initializer": {"class_name": "VarianceScaling", "config": {"scale": 1.0, "mode": "fan_avg", "distribution": "uniform", "seed": null}}, "bias_initializer": {"class_name": "Zeros", "config": {}}, "kernel_regularizer": null, "bias_regularizer": null, "activity_regularizer": null, "kernel_constraint": null, "bias_constraint": null}, "inbound_nodes": [[["concatenate_327", 0, 0, {}]]]}, {"name": "dense_373", "class_name": "Dense", "config": {"name": "dense_373", "trainable": true, "dtype": "float32", "units": 100, "activation": "relu", "use_bias": true, "kernel_initializer": {"class_name": "VarianceScaling", "config": {"scale": 1.0, "mode": "fan_avg", "distribution": "uniform", "seed": null}}, "bias_initializer": {"class_name": "Zeros", "config": {}}, "kernel_regularizer": null, "bias_regularizer": null, "activity_regularizer": null, "kernel_constraint": null, "bias_constraint": null}, "inbound_nodes": [[["concatenate_331", 0, 0, {}]]]}, {"name": "dense_375", "class_name": "Dense", "config": {"name": "dense_375", "trainable": true, "dtype": "float32", "units": 100, "activation": "relu", "use_bias": true, "kernel_initializer": {"class_name": "VarianceScaling", "config": {"scale": 1.0, "mode": "fan_avg", "distribution": "uniform", "seed": null}}, "bias_initializer": {"class_name": "Zeros", "config": {}}, "kernel_regularizer": null, "bias_regularizer": null, "activity_regularizer": null, "kernel_constraint": null, "bias_constraint": null}, "inbound_nodes": [[["concatenate_333", 0, 0, {}]]]}, {"name": "dense_381", "class_name": "Dense", "config": {"name": "dense_381", "trainable": true, "dtype": "float32", "units": 100, "activation": "relu", "use_bias": true, "kernel_initializer": {"class_name": "VarianceScaling", "config": {"scale": 1.0, "mode": "fan_avg", "distribution": "uniform", "seed": null}}, "bias_initializer": {"class_name": "Zeros", "config": {}}, "kernel_regularizer": null, "bias_regularizer": null, "activity_regularizer": null, "kernel_constraint": null, "bias_constraint": null}, "inbound_nodes": [[["concatenate_339", 0, 0, {}]]]}, {"name": "dense_383", "class_name": "Dense", "config": {"name": "dense_383", "trainable": true, "dtype": "float32", "units": 100, "activation": "relu", "use_bias": true, "kernel_initializer": {"class_name": "VarianceScaling", "config": {"scale": 1.0, "mode": "fan_avg", "distribution": "uniform", "seed": null}}, "bias_initializer": {"class_name": "Zeros", "config": {}}, "kernel_regularizer": null, "bias_regularizer": null, "activity_regularizer": null, "kernel_constraint": null, "bias_constraint": null}, "inbound_nodes": [[["concatenate_341", 0, 0, {}]]]}, {"name": "dense_387", "class_name": "Dense", "config": {"name": "dense_387", "trainable": true, "dtype": "float32", "units": 100, "activation": "relu", "use_bias": true, "kernel_initializer": {"class_name": "VarianceScaling", "config": {"scale": 1.0, "mode": "fan_avg", "distribution": "uniform", "seed": null}}, "bias_initializer": {"class_name": "Zeros", "config": {}}, "kernel_regularizer": null, "bias_regularizer": null, "activity_regularizer": null, "kernel_constraint": null, "bias_constraint": null}, "inbound_nodes": [[["concatenate_345", 0, 0, {}]]]}, {"name": "dense_34", "class_name": "Dense", "config": {"name": "dense_34", "trainable": true, "dtype": "float32", "units": 50, "activation": "relu", "use_bias": true, "kernel_initializer": {"class_name": "VarianceScaling", "config": {"scale": 1.0, "mode": "fan_avg", "distribution": "uniform", "seed": null}}, "bias_initializer": {"class_name": "Zeros", "config": {}}, "kernel_regularizer": null, "bias_regularizer": null, "activity_regularizer": null, "kernel_constraint": null, "bias_constraint": null}, "inbound_nodes": [[["input_34", 0, 0, {}]]]}, {"name": "dense_389", "class_name": "Dense", "config": {"name": "dense_389", "trainable": true, "dtype": "float32", "units": 100, "activation": "relu", "use_bias": true, "kernel_initializer": {"class_name": "VarianceScaling", "config": {"scale": 1.0, "mode": "fan_avg", "distribution": "uniform", "seed": null}}, "bias_initializer": {"class_name": "Zeros", "config": {}}, "kernel_regularizer": null, "bias_regularizer": null, "activity_regularizer": null, "kernel_constraint": null, "bias_constraint": null}, "inbound_nodes": [[["concatenate_347", 0, 0, {}]]]}, {"name": "input_1", "class_name": "InputLayer", "config": {"batch_input_shape": [null, 1], "dtype": "float32", "sparse": false, "name": "input_1"}, "inbound_nodes": []}, {"name": "concatenate_21", "class_name": "Concatenate", "config": {"name": "concatenate_21", "trainable": true, "dtype": "float32", "axis": -1}, "inbound_nodes": [[["dense_38", 0, 0, {}], ["dense_16", 0, 0, {}]]]}, {"name": "concatenate_23", "class_name": "Concatenate", "config": {"name": "concatenate_23", "trainable": true, "dtype": "float32", "axis": -1}, "inbound_nodes": [[["dense_64", 0, 0, {}], ["dense_16", 0, 0, {}]]]}, {"name": "concatenate_47", "class_name": "Concatenate", "config": {"name": "concatenate_47", "trainable": true, "dtype": "float32", "axis": -1}, "inbound_nodes": [[["dense_31", 0, 0, {}], ["dense_37", 0, 0, {}]]]}, {"name": "concatenate_49", "class_name": "Concatenate", "config": {"name": "concatenate_49", "trainable": true, "dtype": "float32", "axis": -1}, "inbound_nodes": [[["dense_90", 0, 0, {}], ["dense_24", 0, 0, {}]]]}, {"name": "concatenate_69", "class_name": "Concatenate", "config": {"name": "concatenate_69", "trainable": true, "dtype": "float32", "axis": -1}, "inbound_nodes": [[["dense_7", 0, 0, {}], ["dense_13", 0, 0, {}]]]}, {"name": "concatenate_71", "class_name": "Concatenate", "config": {"name": "concatenate_71", "trainable": true, "dtype": "float32", "axis": -1}, "inbound_nodes": [[["dense_112", 0, 0, {}], ["dense_22", 0, 0, {}]]]}, {"name": "concatenate_85", "class_name": "Concatenate", "config": {"name": "concatenate_85", "trainable": true, "dtype": "float32", "axis": -1}, "inbound_nodes": [[["dense_8", 0, 0, {}], ["dense_37", 0, 0, {}]]]}, {"name": "concatenate_87", "class_name": "Concatenate", "config": {"name": "concatenate_87", "trainable": true, "dtype": "float32", "axis": -1}, "inbound_nodes": [[["dense_128", 0, 0, {}], ["dense_31", 0, 0, {}]]]}, {"name": "concatenate_96", "class_name": "Concatenate", "config": {"name": "concatenate_96", "trainable": true, "dtype": "float32", "axis": -1}, "inbound_nodes": [[["dense_40", 0, 0, {}], ["dense_39", 0, 0, {}]]]}, {"name": "concatenate_98", "class_name": "Concatenate", "config": {"name": "concatenate_98", "trainable": true, "dtype": "float32", "axis": -1}, "inbound_nodes": [[["dense_139", 0, 0, {}], ["dense_31", 0, 0, {}]]]}, {"name": "concatenate_103", "class_name": "Concatenate", "config": {"name": "concatenate_103", "trainable": true, "dtype": "float32", "axis": -1}, "inbound_nodes": [[["dense_9", 0, 0, {}], ["dense_4", 0, 0, {}]]]}, {"name": "concatenate_107", "class_name": "Concatenate", "config": {"name": "concatenate_107", "trainable": true, "dtype": "float32", "axis": -1}, "inbound_nodes": [[["dense_148", 0, 0, {}], ["dense_2", 0, 0, {}]]]}, {"name": "concatenate_109", "class_name": "Concatenate", "config": {"name": "concatenate_109", "trainable": true, "dtype": "float32", "axis": -1}, "inbound_nodes": [[["dense_150", 0, 0, {}], ["dense_37", 0, 0, {}]]]}, {"name": "concatenate_133", "class_name": "Concatenate", "config": {"name": "concatenate_133", "trainable": true, "dtype": "float32", "axis": -1}, "inbound_nodes": [[["dense_7", 0, 0, {}], ["dense_31", 0, 0, {}]]]}, {"name": "concatenate_151", "class_name": "Concatenate", "config": {"name": "concatenate_151", "trainable": true, "dtype": "float32", "axis": -1}, "inbound_nodes": [[["dense_10", 0, 0, {}], ["dense_2", 0, 0, {}]]]}, {"name": "concatenate_153", "class_name": "Concatenate", "config": {"name": "concatenate_153", "trainable": true, "dtype": "float32", "axis": -1}, "inbound_nodes": [[["dense_194", 0, 0, {}], ["dense_14", 0, 0, {}]]]}, {"name": "concatenate_167", "class_name": "Concatenate", "config": {"name": "concatenate_167", "trainable": true, "dtype": "float32", "axis": -1}, "inbound_nodes": [[["dense_13", 0, 0, {}], ["dense_4", 0, 0, {}]]]}, {"name": "concatenate_169", "class_name": "Concatenate", "config": {"name": "concatenate_169", "trainable": true, "dtype": "float32", "axis": -1}, "inbound_nodes": [[["dense_210", 0, 0, {}], ["dense_2", 0, 0, {}]]]}, {"name": "concatenate_178", "class_name": "Concatenate", "config": {"name": "concatenate_178", "trainable": true, "dtype": "float32", "axis": -1}, "inbound_nodes": [[["dense_32", 0, 0, {}], ["dense_8", 0, 0, {}]]]}, {"name": "concatenate_180", "class_name": "Concatenate", "config": {"name": "concatenate_180", "trainable": true, "dtype": "float32", "axis": -1}, "inbound_nodes": [[["dense_221", 0, 0, {}], ["dense_25", 0, 0, {}]]]}, {"name": "concatenate_185", "class_name": "Concatenate", "config": {"name": "concatenate_185", "trainable": true, "dtype": "float32", "axis": -1}, "inbound_nodes": [[["dense_25", 0, 0, {}], ["dense_7", 0, 0, {}]]]}, {"name": "concatenate_187", "class_name": "Concatenate", "config": {"name": "concatenate_187", "trainable": true, "dtype": "float32", "axis": -1}, "inbound_nodes": [[["dense_228", 0, 0, {}], ["dense_39", 0, 0, {}]]]}, {"name": "concatenate_191", "class_name": "Concatenate", "config": {"name": "concatenate_191", "trainable": true, "dtype": "float32", "axis": -1}, "inbound_nodes": [[["dense_232", 0, 0, {}], ["dense_10", 0, 0, {}]]]}, {"name": "concatenate_193", "class_name": "Concatenate", "config": {"name": "concatenate_193", "trainable": true, "dtype": "float32", "axis": -1}, "inbound_nodes": [[["dense_234", 0, 0, {}], ["dense_32", 0, 0, {}]]]}, {"name": "concatenate_215", "class_name": "Concatenate", "config": {"name": "concatenate_215", "trainable": true, "dtype": "float32", "axis": -1}, "inbound_nodes": [[["dense_8", 0, 0, {}], ["dense_31", 0, 0, {}]]]}, {"name": "concatenate_216", "class_name": "Concatenate", "config": {"name": "concatenate_216", "trainable": true, "dtype": "float32", "axis": -1}, "inbound_nodes": [[["dense_13", 0, 0, {}], ["dense_2", 0, 0, {}]]]}, {"name": "concatenate_230", "class_name": "Concatenate", "config": {"name": "concatenate_230", "trainable": true, "dtype": "float32", "axis": -1}, "inbound_nodes": [[["dense_10", 0, 0, {}], ["dense_25", 0, 0, {}]]]}, {"name": "concatenate_232", "class_name": "Concatenate", "config": {"name": "concatenate_232", "trainable": true, "dtype": "float32", "axis": -1}, "inbound_nodes": [[["dense_273", 0, 0, {}], ["dense_15", 0, 0, {}]]]}, {"name": "concatenate_241", "class_name": "Concatenate", "config": {"name": "concatenate_241", "trainable": true, "dtype": "float32", "axis": -1}, "inbound_nodes": [[["dense_22", 0, 0, {}], ["dense_20", 0, 0, {}]]]}, {"name": "concatenate_243", "class_name": "Concatenate", "config": {"name": "concatenate_243", "trainable": true, "dtype": "float32", "axis": -1}, "inbound_nodes": [[["dense_284", 0, 0, {}], ["dense_8", 0, 0, {}]]]}, {"name": "concatenate_248", "class_name": "Concatenate", "config": {"name": "concatenate_248", "trainable": true, "dtype": "float32", "axis": -1}, "inbound_nodes": [[["dense_9", 0, 0, {}], ["dense_25", 0, 0, {}]]]}, {"name": "concatenate_250", "class_name": "Concatenate", "config": {"name": "concatenate_250", "trainable": true, "dtype": "float32", "axis": -1}, "inbound_nodes": [[["dense_291", 0, 0, {}], ["dense_14", 0, 0, {}]]]}, {"name": "concatenate_254", "class_name": "Concatenate", "config": {"name": "concatenate_254", "trainable": true, "dtype": "float32", "axis": -1}, "inbound_nodes": [[["dense_295", 0, 0, {}], ["dense_39", 0, 0, {}]]]}, {"name": "concatenate_256", "class_name": "Concatenate", "config": {"name": "concatenate_256", "trainable": true, "dtype": "float32", "axis": -1}, "inbound_nodes": [[["dense_297", 0, 0, {}], ["dense_31", 0, 0, {}]]]}, {"name": "concatenate_271", "class_name": "Concatenate", "config": {"name": "concatenate_271", "trainable": true, "dtype": "float32", "axis": -1}, "inbound_nodes": [[["dense_26", 0, 0, {}], ["dense_8", 0, 0, {}]]]}, {"name": "concatenate_273", "class_name": "Concatenate", "config": {"name": "concatenate_273", "trainable": true, "dtype": "float32", "axis": -1}, "inbound_nodes": [[["dense_314", 0, 0, {}], ["dense_38", 0, 0, {}]]]}, {"name": "concatenate_282", "class_name": "Concatenate", "config": {"name": "concatenate_282", "trainable": true, "dtype": "float32", "axis": -1}, "inbound_nodes": [[["dense_16", 0, 0, {}], ["dense_21", 0, 0, {}]]]}, {"name": "concatenate_284", "class_name": "Concatenate", "config": {"name": "concatenate_284", "trainable": true, "dtype": "float32", "axis": -1}, "inbound_nodes": [[["dense_325", 0, 0, {}], ["dense_20", 0, 0, {}]]]}, {"name": "concatenate_289", "class_name": "Concatenate", "config": {"name": "concatenate_289", "trainable": true, "dtype": "float32", "axis": -1}, "inbound_nodes": [[["dense_16", 0, 0, {}], ["dense_26", 0, 0, {}]]]}, {"name": "concatenate_291", "class_name": "Concatenate", "config": {"name": "concatenate_291", "trainable": true, "dtype": "float32", "axis": -1}, "inbound_nodes": [[["dense_332", 0, 0, {}], ["dense_27", 0, 0, {}]]]}, {"name": "concatenate_295", "class_name": "Concatenate", "config": {"name": "concatenate_295", "trainable": true, "dtype": "float32", "axis": -1}, "inbound_nodes": [[["dense_336", 0, 0, {}], ["dense_16", 0, 0, {}]]]}, {"name": "concatenate_297", "class_name": "Concatenate", "config": {"name": "concatenate_297", "trainable": true, "dtype": "float32", "axis": -1}, "inbound_nodes": [[["dense_338", 0, 0, {}], ["dense_31", 0, 0, {}]]]}, {"name": "concatenate_312", "class_name": "Concatenate", "config": {"name": "concatenate_312", "trainable": true, "dtype": "float32", "axis": -1}, "inbound_nodes": [[["dense_22", 0, 0, {}], ["dense_14", 0, 0, {}]]]}, {"name": "concatenate_314", "class_name": "Concatenate", "config": {"name": "concatenate_314", "trainable": true, "dtype": "float32", "axis": -1}, "inbound_nodes": [[["dense_355", 0, 0, {}], ["dense_20", 0, 0, {}]]]}, {"name": "concatenate_318", "class_name": "Concatenate", "config": {"name": "concatenate_318", "trainable": true, "dtype": "float32", "axis": -1}, "inbound_nodes": [[["dense_359", 0, 0, {}], ["dense_20", 0, 0, {}]]]}, {"name": "concatenate_320", "class_name": "Concatenate", "config": {"name": "concatenate_320", "trainable": true, "dtype": "float32", "axis": -1}, "inbound_nodes": [[["dense_361", 0, 0, {}], ["dense_3", 0, 0, {}]]]}, {"name": "concatenate_328", "class_name": "Concatenate", "config": {"name": "concatenate_328", "trainable": true, "dtype": "float32", "axis": -1}, "inbound_nodes": [[["dense_369", 0, 0, {}], ["dense_25", 0, 0, {}]]]}, {"name": "concatenate_332", "class_name": "Concatenate", "config": {"name": "concatenate_332", "trainable": true, "dtype": "float32", "axis": -1}, "inbound_nodes": [[["dense_373", 0, 0, {}], ["dense_2", 0, 0, {}]]]}, {"name": "concatenate_334", "class_name": "Concatenate", "config": {"name": "concatenate_334", "trainable": true, "dtype": "float32", "axis": -1}, "inbound_nodes": [[["dense_375", 0, 0, {}], ["dense_38", 0, 0, {}]]]}, {"name": "concatenate_340", "class_name": "Concatenate", "config": {"name": "concatenate_340", "trainable": true, "dtype": "float32", "axis": -1}, "inbound_nodes": [[["dense_381", 0, 0, {}], ["dense_27", 0, 0, {}]]]}, {"name": "concatenate_342", "class_name": "Concatenate", "config": {"name": "concatenate_342", "trainable": true, "dtype": "float32", "axis": -1}, "inbound_nodes": [[["dense_383", 0, 0, {}], ["dense_8", 0, 0, {}]]]}, {"name": "concatenate_346", "class_name": "Concatenate", "config": {"name": "concatenate_346", "trainable": true, "dtype": "float32", "axis": -1}, "inbound_nodes": [[["dense_387", 0, 0, {}], ["dense_34", 0, 0, {}]]]}, {"name": "concatenate_348", "class_name": "Concatenate", "config": {"name": "concatenate_348", "trainable": true, "dtype": "float32", "axis": -1}, "inbound_nodes": [[["dense_389", 0, 0, {}], ["dense_31", 0, 0, {}]]]}, {"name": "dense_1", "class_name": "Dense", "config": {"name": "dense_1", "trainable": true, "dtype": "float32", "units": 50, "activation": "relu", "use_bias": true, "kernel_initializer": {"class_name": "VarianceScaling", "config": {"scale": 1.0, "mode": "fan_avg", "distribution": "uniform", "seed": null}}, "bias_initializer": {"class_name": "Zeros", "config": {}}, "kernel_regularizer": null, "bias_regularizer": null, "activity_regularizer": null, "kernel_constraint": null, "bias_constraint": null}, "inbound_nodes": [[["input_1", 0, 0, {}]]]}, {"name": "dense_63", "class_name": "Dense", "config": {"name": "dense_63", "trainable": true, "dtype": "float32", "units": 100, "activation": "relu", "use_bias": true, "kernel_initializer": {"class_name": "VarianceScaling", "config": {"scale": 1.0, "mode": "fan_avg", "distribution": "uniform", "seed": null}}, "bias_initializer": {"class_name": "Zeros", "config": {}}, "kernel_regularizer": null, "bias_regularizer": null, "activity_regularizer": null, "kernel_constraint": null, "bias_constraint": null}, "inbound_nodes": [[["concatenate_21", 0, 0, {}]]]}, {"name": "dense_65", "class_name": "Dense", "config": {"name": "dense_65", "trainable": true, "dtype": "float32", "units": 100, "activation": "relu", "use_bias": true, "kernel_initializer": {"class_name": "VarianceScaling", "config": {"scale": 1.0, "mode": "fan_avg", "distribution": "uniform", "seed": null}}, "bias_initializer": {"class_name": "Zeros", "config": {}}, "kernel_regularizer": null, "bias_regularizer": null, "activity_regularizer": null, "kernel_constraint": null, "bias_constraint": null}, "inbound_nodes": [[["concatenate_23", 0, 0, {}]]]}, {"name": "dense_89", "class_name": "Dense", "config": {"name": "dense_89", "trainable": true, "dtype": "float32", "units": 100, "activation": "relu", "use_bias": true, "kernel_initializer": {"class_name": "VarianceScaling", "config": {"scale": 1.0, "mode": "fan_avg", "distribution": "uniform", "seed": null}}, "bias_initializer": {"class_name": "Zeros", "config": {}}, "kernel_regularizer": null, "bias_regularizer": null, "activity_regularizer": null, "kernel_constraint": null, "bias_constraint": null}, "inbound_nodes": [[["concatenate_47", 0, 0, {}]]]}, {"name": "dense_91", "class_name": "Dense", "config": {"name": "dense_91", "trainable": true, "dtype": "float32", "units": 100, "activation": "relu", "use_bias": true, "kernel_initializer": {"class_name": "VarianceScaling", "config": {"scale": 1.0, "mode": "fan_avg", "distribution": "uniform", "seed": null}}, "bias_initializer": {"class_name": "Zeros", "config": {}}, "kernel_regularizer": null, "bias_regularizer": null, "activity_regularizer": null, "kernel_constraint": null, "bias_constraint": null}, "inbound_nodes": [[["concatenate_49", 0, 0, {}]]]}, {"name": "dense_111", "class_name": "Dense", "config": {"name": "dense_111", "trainable": true, "dtype": "float32", "units": 100, "activation": "relu", "use_bias": true, "kernel_initializer": {"class_name": "VarianceScaling", "config": {"scale": 1.0, "mode": "fan_avg", "distribution": "uniform", "seed": null}}, "bias_initializer": {"class_name": "Zeros", "config": {}}, "kernel_regularizer": null, "bias_regularizer": null, "activity_regularizer": null, "kernel_constraint": null, "bias_constraint": null}, "inbound_nodes": [[["concatenate_69", 0, 0, {}]]]}, {"name": "dense_113", "class_name": "Dense", "config": {"name": "dense_113", "trainable": true, "dtype": "float32", "units": 100, "activation": "relu", "use_bias": true, "kernel_initializer": {"class_name": "VarianceScaling", "config": {"scale": 1.0, "mode": "fan_avg", "distribution": "uniform", "seed": null}}, "bias_initializer": {"class_name": "Zeros", "config": {}}, "kernel_regularizer": null, "bias_regularizer": null, "activity_regularizer": null, "kernel_constraint": null, "bias_constraint": null}, "inbound_nodes": [[["concatenate_71", 0, 0, {}]]]}, {"name": "dense_127", "class_name": "Dense", "config": {"name": "dense_127", "trainable": true, "dtype": "float32", "units": 100, "activation": "relu", "use_bias": true, "kernel_initializer": {"class_name": "VarianceScaling", "config": {"scale": 1.0, "mode": "fan_avg", "distribution": "uniform", "seed": null}}, "bias_initializer": {"class_name": "Zeros", "config": {}}, "kernel_regularizer": null, "bias_regularizer": null, "activity_regularizer": null, "kernel_constraint": null, "bias_constraint": null}, "inbound_nodes": [[["concatenate_85", 0, 0, {}]]]}, {"name": "dense_129", "class_name": "Dense", "config": {"name": "dense_129", "trainable": true, "dtype": "float32", "units": 100, "activation": "relu", "use_bias": true, "kernel_initializer": {"class_name": "VarianceScaling", "config": {"scale": 1.0, "mode": "fan_avg", "distribution": "uniform", "seed": null}}, "bias_initializer": {"class_name": "Zeros", "config": {}}, "kernel_regularizer": null, "bias_regularizer": null, "activity_regularizer": null, "kernel_constraint": null, "bias_constraint": null}, "inbound_nodes": [[["concatenate_87", 0, 0, {}]]]}, {"name": "dense_138", "class_name": "Dense", "config": {"name": "dense_138", "trainable": true, "dtype": "float32", "units": 100, "activation": "relu", "use_bias": true, "kernel_initializer": {"class_name": "VarianceScaling", "config": {"scale": 1.0, "mode": "fan_avg", "distribution": "uniform", "seed": null}}, "bias_initializer": {"class_name": "Zeros", "config": {}}, "kernel_regularizer": null, "bias_regularizer": null, "activity_regularizer": null, "kernel_constraint": null, "bias_constraint": null}, "inbound_nodes": [[["concatenate_96", 0, 0, {}]]]}, {"name": "dense_140", "class_name": "Dense", "config": {"name": "dense_140", "trainable": true, "dtype": "float32", "units": 100, "activation": "relu", "use_bias": true, "kernel_initializer": {"class_name": "VarianceScaling", "config": {"scale": 1.0, "mode": "fan_avg", "distribution": "uniform", "seed": null}}, "bias_initializer": {"class_name": "Zeros", "config": {}}, "kernel_regularizer": null, "bias_regularizer": null, "activity_regularizer": null, "kernel_constraint": null, "bias_constraint": null}, "inbound_nodes": [[["concatenate_98", 0, 0, {}]]]}, {"name": "dense_145", "class_name": "Dense", "config": {"name": "dense_145", "trainable": true, "dtype": "float32", "units": 100, "activation": "relu", "use_bias": true, "kernel_initializer": {"class_name": "VarianceScaling", "config": {"scale": 1.0, "mode": "fan_avg", "distribution": "uniform", "seed": null}}, "bias_initializer": {"class_name": "Zeros", "config": {}}, "kernel_regularizer": null, "bias_regularizer": null, "activity_regularizer": null, "kernel_constraint": null, "bias_constraint": null}, "inbound_nodes": [[["concatenate_103", 0, 0, {}]]]}, {"name": "dense_149", "class_name": "Dense", "config": {"name": "dense_149", "trainable": true, "dtype": "float32", "units": 100, "activation": "relu", "use_bias": true, "kernel_initializer": {"class_name": "VarianceScaling", "config": {"scale": 1.0, "mode": "fan_avg", "distribution": "uniform", "seed": null}}, "bias_initializer": {"class_name": "Zeros", "config": {}}, "kernel_regularizer": null, "bias_regularizer": null, "activity_regularizer": null, "kernel_constraint": null, "bias_constraint": null}, "inbound_nodes": [[["concatenate_107", 0, 0, {}]]]}, {"name": "dense_151", "class_name": "Dense", "config": {"name": "dense_151", "trainable": true, "dtype": "float32", "units": 100, "activation": "relu", "use_bias": true, "kernel_initializer": {"class_name": "VarianceScaling", "config": {"scale": 1.0, "mode": "fan_avg", "distribution": "uniform", "seed": null}}, "bias_initializer": {"class_name": "Zeros", "config": {}}, "kernel_regularizer": null, "bias_regularizer": null, "activity_regularizer": null, "kernel_constraint": null, "bias_constraint": null}, "inbound_nodes": [[["concatenate_109", 0, 0, {}]]]}, {"name": "dense_175", "class_name": "Dense", "config": {"name": "dense_175", "trainable": true, "dtype": "float32", "units": 100, "activation": "relu", "use_bias": true, "kernel_initializer": {"class_name": "VarianceScaling", "config": {"scale": 1.0, "mode": "fan_avg", "distribution": "uniform", "seed": null}}, "bias_initializer": {"class_name": "Zeros", "config": {}}, "kernel_regularizer": null, "bias_regularizer": null, "activity_regularizer": null, "kernel_constraint": null, "bias_constraint": null}, "inbound_nodes": [[["concatenate_133", 0, 0, {}]]]}, {"name": "dense_193", "class_name": "Dense", "config": {"name": "dense_193", "trainable": true, "dtype": "float32", "units": 100, "activation": "relu", "use_bias": true, "kernel_initializer": {"class_name": "VarianceScaling", "config": {"scale": 1.0, "mode": "fan_avg", "distribution": "uniform", "seed": null}}, "bias_initializer": {"class_name": "Zeros", "config": {}}, "kernel_regularizer": null, "bias_regularizer": null, "activity_regularizer": null, "kernel_constraint": null, "bias_constraint": null}, "inbound_nodes": [[["concatenate_151", 0, 0, {}]]]}, {"name": "dense_195", "class_name": "Dense", "config": {"name": "dense_195", "trainable": true, "dtype": "float32", "units": 100, "activation": "relu", "use_bias": true, "kernel_initializer": {"class_name": "VarianceScaling", "config": {"scale": 1.0, "mode": "fan_avg", "distribution": "uniform", "seed": null}}, "bias_initializer": {"class_name": "Zeros", "config": {}}, "kernel_regularizer": null, "bias_regularizer": null, "activity_regularizer": null, "kernel_constraint": null, "bias_constraint": null}, "inbound_nodes": [[["concatenate_153", 0, 0, {}]]]}, {"name": "dense_209", "class_name": "Dense", "config": {"name": "dense_209", "trainable": true, "dtype": "float32", "units": 100, "activation": "relu", "use_bias": true, "kernel_initializer": {"class_name": "VarianceScaling", "config": {"scale": 1.0, "mode": "fan_avg", "distribution": "uniform", "seed": null}}, "bias_initializer": {"class_name": "Zeros", "config": {}}, "kernel_regularizer": null, "bias_regularizer": null, "activity_regularizer": null, "kernel_constraint": null, "bias_constraint": null}, "inbound_nodes": [[["concatenate_167", 0, 0, {}]]]}, {"name": "dense_211", "class_name": "Dense", "config": {"name": "dense_211", "trainable": true, "dtype": "float32", "units": 100, "activation": "relu", "use_bias": true, "kernel_initializer": {"class_name": "VarianceScaling", "config": {"scale": 1.0, "mode": "fan_avg", "distribution": "uniform", "seed": null}}, "bias_initializer": {"class_name": "Zeros", "config": {}}, "kernel_regularizer": null, "bias_regularizer": null, "activity_regularizer": null, "kernel_constraint": null, "bias_constraint": null}, "inbound_nodes": [[["concatenate_169", 0, 0, {}]]]}, {"name": "dense_220", "class_name": "Dense", "config": {"name": "dense_220", "trainable": true, "dtype": "float32", "units": 100, "activation": "relu", "use_bias": true, "kernel_initializer": {"class_name": "VarianceScaling", "config": {"scale": 1.0, "mode": "fan_avg", "distribution": "uniform", "seed": null}}, "bias_initializer": {"class_name": "Zeros", "config": {}}, "kernel_regularizer": null, "bias_regularizer": null, "activity_regularizer": null, "kernel_constraint": null, "bias_constraint": null}, "inbound_nodes": [[["concatenate_178", 0, 0, {}]]]}, {"name": "dense_222", "class_name": "Dense", "config": {"name": "dense_222", "trainable": true, "dtype": "float32", "units": 100, "activation": "relu", "use_bias": true, "kernel_initializer": {"class_name": "VarianceScaling", "config": {"scale": 1.0, "mode": "fan_avg", "distribution": "uniform", "seed": null}}, "bias_initializer": {"class_name": "Zeros", "config": {}}, "kernel_regularizer": null, "bias_regularizer": null, "activity_regularizer": null, "kernel_constraint": null, "bias_constraint": null}, "inbound_nodes": [[["concatenate_180", 0, 0, {}]]]}, {"name": "dense_227", "class_name": "Dense", "config": {"name": "dense_227", "trainable": true, "dtype": "float32", "units": 100, "activation": "relu", "use_bias": true, "kernel_initializer": {"class_name": "VarianceScaling", "config": {"scale": 1.0, "mode": "fan_avg", "distribution": "uniform", "seed": null}}, "bias_initializer": {"class_name": "Zeros", "config": {}}, "kernel_regularizer": null, "bias_regularizer": null, "activity_regularizer": null, "kernel_constraint": null, "bias_constraint": null}, "inbound_nodes": [[["concatenate_185", 0, 0, {}]]]}, {"name": "dense_229", "class_name": "Dense", "config": {"name": "dense_229", "trainable": true, "dtype": "float32", "units": 100, "activation": "relu", "use_bias": true, "kernel_initializer": {"class_name": "VarianceScaling", "config": {"scale": 1.0, "mode": "fan_avg", "distribution": "uniform", "seed": null}}, "bias_initializer": {"class_name": "Zeros", "config": {}}, "kernel_regularizer": null, "bias_regularizer": null, "activity_regularizer": null, "kernel_constraint": null, "bias_constraint": null}, "inbound_nodes": [[["concatenate_187", 0, 0, {}]]]}, {"name": "dense_233", "class_name": "Dense", "config": {"name": "dense_233", "trainable": true, "dtype": "float32", "units": 100, "activation": "relu", "use_bias": true, "kernel_initializer": {"class_name": "VarianceScaling", "config": {"scale": 1.0, "mode": "fan_avg", "distribution": "uniform", "seed": null}}, "bias_initializer": {"class_name": "Zeros", "config": {}}, "kernel_regularizer": null, "bias_regularizer": null, "activity_regularizer": null, "kernel_constraint": null, "bias_constraint": null}, "inbound_nodes": [[["concatenate_191", 0, 0, {}]]]}, {"name": "dense_235", "class_name": "Dense", "config": {"name": "dense_235", "trainable": true, "dtype": "float32", "units": 100, "activation": "relu", "use_bias": true, "kernel_initializer": {"class_name": "VarianceScaling", "config": {"scale": 1.0, "mode": "fan_avg", "distribution": "uniform", "seed": null}}, "bias_initializer": {"class_name": "Zeros", "config": {}}, "kernel_regularizer": null, "bias_regularizer": null, "activity_regularizer": null, "kernel_constraint": null, "bias_constraint": null}, "inbound_nodes": [[["concatenate_193", 0, 0, {}]]]}, {"name": "dense_257", "class_name": "Dense", "config": {"name": "dense_257", "trainable": true, "dtype": "float32", "units": 100, "activation": "relu", "use_bias": true, "kernel_initializer": {"class_name": "VarianceScaling", "config": {"scale": 1.0, "mode": "fan_avg", "distribution": "uniform", "seed": null}}, "bias_initializer": {"class_name": "Zeros", "config": {}}, "kernel_regularizer": null, "bias_regularizer": null, "activity_regularizer": null, "kernel_constraint": null, "bias_constraint": null}, "inbound_nodes": [[["concatenate_215", 0, 0, {}]]]}, {"name": "dense_258", "class_name": "Dense", "config": {"name": "dense_258", "trainable": true, "dtype": "float32", "units": 100, "activation": "relu", "use_bias": true, "kernel_initializer": {"class_name": "VarianceScaling", "config": {"scale": 1.0, "mode": "fan_avg", "distribution": "uniform", "seed": null}}, "bias_initializer": {"class_name": "Zeros", "config": {}}, "kernel_regularizer": null, "bias_regularizer": null, "activity_regularizer": null, "kernel_constraint": null, "bias_constraint": null}, "inbound_nodes": [[["concatenate_216", 0, 0, {}]]]}, {"name": "dense_272", "class_name": "Dense", "config": {"name": "dense_272", "trainable": true, "dtype": "float32", "units": 100, "activation": "relu", "use_bias": true, "kernel_initializer": {"class_name": "VarianceScaling", "config": {"scale": 1.0, "mode": "fan_avg", "distribution": "uniform", "seed": null}}, "bias_initializer": {"class_name": "Zeros", "config": {}}, "kernel_regularizer": null, "bias_regularizer": null, "activity_regularizer": null, "kernel_constraint": null, "bias_constraint": null}, "inbound_nodes": [[["concatenate_230", 0, 0, {}]]]}, {"name": "dense_274", "class_name": "Dense", "config": {"name": "dense_274", "trainable": true, "dtype": "float32", "units": 100, "activation": "relu", "use_bias": true, "kernel_initializer": {"class_name": "VarianceScaling", "config": {"scale": 1.0, "mode": "fan_avg", "distribution": "uniform", "seed": null}}, "bias_initializer": {"class_name": "Zeros", "config": {}}, "kernel_regularizer": null, "bias_regularizer": null, "activity_regularizer": null, "kernel_constraint": null, "bias_constraint": null}, "inbound_nodes": [[["concatenate_232", 0, 0, {}]]]}, {"name": "dense_283", "class_name": "Dense", "config": {"name": "dense_283", "trainable": true, "dtype": "float32", "units": 100, "activation": "relu", "use_bias": true, "kernel_initializer": {"class_name": "VarianceScaling", "config": {"scale": 1.0, "mode": "fan_avg", "distribution": "uniform", "seed": null}}, "bias_initializer": {"class_name": "Zeros", "config": {}}, "kernel_regularizer": null, "bias_regularizer": null, "activity_regularizer": null, "kernel_constraint": null, "bias_constraint": null}, "inbound_nodes": [[["concatenate_241", 0, 0, {}]]]}, {"name": "dense_285", "class_name": "Dense", "config": {"name": "dense_285", "trainable": true, "dtype": "float32", "units": 100, "activation": "relu", "use_bias": true, "kernel_initializer": {"class_name": "VarianceScaling", "config": {"scale": 1.0, "mode": "fan_avg", "distribution": "uniform", "seed": null}}, "bias_initializer": {"class_name": "Zeros", "config": {}}, "kernel_regularizer": null, "bias_regularizer": null, "activity_regularizer": null, "kernel_constraint": null, "bias_constraint": null}, "inbound_nodes": [[["concatenate_243", 0, 0, {}]]]}, {"name": "dense_290", "class_name": "Dense", "config": {"name": "dense_290", "trainable": true, "dtype": "float32", "units": 100, "activation": "relu", "use_bias": true, "kernel_initializer": {"class_name": "VarianceScaling", "config": {"scale": 1.0, "mode": "fan_avg", "distribution": "uniform", "seed": null}}, "bias_initializer": {"class_name": "Zeros", "config": {}}, "kernel_regularizer": null, "bias_regularizer": null, "activity_regularizer": null, "kernel_constraint": null, "bias_constraint": null}, "inbound_nodes": [[["concatenate_248", 0, 0, {}]]]}, {"name": "dense_292", "class_name": "Dense", "config": {"name": "dense_292", "trainable": true, "dtype": "float32", "units": 100, "activation": "relu", "use_bias": true, "kernel_initializer": {"class_name": "VarianceScaling", "config": {"scale": 1.0, "mode": "fan_avg", "distribution": "uniform", "seed": null}}, "bias_initializer": {"class_name": "Zeros", "config": {}}, "kernel_regularizer": null, "bias_regularizer": null, "activity_regularizer": null, "kernel_constraint": null, "bias_constraint": null}, "inbound_nodes": [[["concatenate_250", 0, 0, {}]]]}, {"name": "dense_296", "class_name": "Dense", "config": {"name": "dense_296", "trainable": true, "dtype": "float32", "units": 100, "activation": "relu", "use_bias": true, "kernel_initializer": {"class_name": "VarianceScaling", "config": {"scale": 1.0, "mode": "fan_avg", "distribution": "uniform", "seed": null}}, "bias_initializer": {"class_name": "Zeros", "config": {}}, "kernel_regularizer": null, "bias_regularizer": null, "activity_regularizer": null, "kernel_constraint": null, "bias_constraint": null}, "inbound_nodes": [[["concatenate_254", 0, 0, {}]]]}, {"name": "dense_298", "class_name": "Dense", "config": {"name": "dense_298", "trainable": true, "dtype": "float32", "units": 100, "activation": "relu", "use_bias": true, "kernel_initializer": {"class_name": "VarianceScaling", "config": {"scale": 1.0, "mode": "fan_avg", "distribution": "uniform", "seed": null}}, "bias_initializer": {"class_name": "Zeros", "config": {}}, "kernel_regularizer": null, "bias_regularizer": null, "activity_regularizer": null, "kernel_constraint": null, "bias_constraint": null}, "inbound_nodes": [[["concatenate_256", 0, 0, {}]]]}, {"name": "dense_313", "class_name": "Dense", "config": {"name": "dense_313", "trainable": true, "dtype": "float32", "units": 100, "activation": "relu", "use_bias": true, "kernel_initializer": {"class_name": "VarianceScaling", "config": {"scale": 1.0, "mode": "fan_avg", "distribution": "uniform", "seed": null}}, "bias_initializer": {"class_name": "Zeros", "config": {}}, "kernel_regularizer": null, "bias_regularizer": null, "activity_regularizer": null, "kernel_constraint": null, "bias_constraint": null}, "inbound_nodes": [[["concatenate_271", 0, 0, {}]]]}, {"name": "dense_315", "class_name": "Dense", "config": {"name": "dense_315", "trainable": true, "dtype": "float32", "units": 100, "activation": "relu", "use_bias": true, "kernel_initializer": {"class_name": "VarianceScaling", "config": {"scale": 1.0, "mode": "fan_avg", "distribution": "uniform", "seed": null}}, "bias_initializer": {"class_name": "Zeros", "config": {}}, "kernel_regularizer": null, "bias_regularizer": null, "activity_regularizer": null, "kernel_constraint": null, "bias_constraint": null}, "inbound_nodes": [[["concatenate_273", 0, 0, {}]]]}, {"name": "dense_324", "class_name": "Dense", "config": {"name": "dense_324", "trainable": true, "dtype": "float32", "units": 100, "activation": "relu", "use_bias": true, "kernel_initializer": {"class_name": "VarianceScaling", "config": {"scale": 1.0, "mode": "fan_avg", "distribution": "uniform", "seed": null}}, "bias_initializer": {"class_name": "Zeros", "config": {}}, "kernel_regularizer": null, "bias_regularizer": null, "activity_regularizer": null, "kernel_constraint": null, "bias_constraint": null}, "inbound_nodes": [[["concatenate_282", 0, 0, {}]]]}, {"name": "dense_326", "class_name": "Dense", "config": {"name": "dense_326", "trainable": true, "dtype": "float32", "units": 100, "activation": "relu", "use_bias": true, "kernel_initializer": {"class_name": "VarianceScaling", "config": {"scale": 1.0, "mode": "fan_avg", "distribution": "uniform", "seed": null}}, "bias_initializer": {"class_name": "Zeros", "config": {}}, "kernel_regularizer": null, "bias_regularizer": null, "activity_regularizer": null, "kernel_constraint": null, "bias_constraint": null}, "inbound_nodes": [[["concatenate_284", 0, 0, {}]]]}, {"name": "dense_331", "class_name": "Dense", "config": {"name": "dense_331", "trainable": true, "dtype": "float32", "units": 100, "activation": "relu", "use_bias": true, "kernel_initializer": {"class_name": "VarianceScaling", "config": {"scale": 1.0, "mode": "fan_avg", "distribution": "uniform", "seed": null}}, "bias_initializer": {"class_name": "Zeros", "config": {}}, "kernel_regularizer": null, "bias_regularizer": null, "activity_regularizer": null, "kernel_constraint": null, "bias_constraint": null}, "inbound_nodes": [[["concatenate_289", 0, 0, {}]]]}, {"name": "dense_333", "class_name": "Dense", "config": {"name": "dense_333", "trainable": true, "dtype": "float32", "units": 100, "activation": "relu", "use_bias": true, "kernel_initializer": {"class_name": "VarianceScaling", "config": {"scale": 1.0, "mode": "fan_avg", "distribution": "uniform", "seed": null}}, "bias_initializer": {"class_name": "Zeros", "config": {}}, "kernel_regularizer": null, "bias_regularizer": null, "activity_regularizer": null, "kernel_constraint": null, "bias_constraint": null}, "inbound_nodes": [[["concatenate_291", 0, 0, {}]]]}, {"name": "dense_337", "class_name": "Dense", "config": {"name": "dense_337", "trainable": true, "dtype": "float32", "units": 100, "activation": "relu", "use_bias": true, "kernel_initializer": {"class_name": "VarianceScaling", "config": {"scale": 1.0, "mode": "fan_avg", "distribution": "uniform", "seed": null}}, "bias_initializer": {"class_name": "Zeros", "config": {}}, "kernel_regularizer": null, "bias_regularizer": null, "activity_regularizer": null, "kernel_constraint": null, "bias_constraint": null}, "inbound_nodes": [[["concatenate_295", 0, 0, {}]]]}, {"name": "dense_339", "class_name": "Dense", "config": {"name": "dense_339", "trainable": true, "dtype": "float32", "units": 100, "activation": "relu", "use_bias": true, "kernel_initializer": {"class_name": "VarianceScaling", "config": {"scale": 1.0, "mode": "fan_avg", "distribution": "uniform", "seed": null}}, "bias_initializer": {"class_name": "Zeros", "config": {}}, "kernel_regularizer": null, "bias_regularizer": null, "activity_regularizer": null, "kernel_constraint": null, "bias_constraint": null}, "inbound_nodes": [[["concatenate_297", 0, 0, {}]]]}, {"name": "dense_354", "class_name": "Dense", "config": {"name": "dense_354", "trainable": true, "dtype": "float32", "units": 100, "activation": "relu", "use_bias": true, "kernel_initializer": {"class_name": "VarianceScaling", "config": {"scale": 1.0, "mode": "fan_avg", "distribution": "uniform", "seed": null}}, "bias_initializer": {"class_name": "Zeros", "config": {}}, "kernel_regularizer": null, "bias_regularizer": null, "activity_regularizer": null, "kernel_constraint": null, "bias_constraint": null}, "inbound_nodes": [[["concatenate_312", 0, 0, {}]]]}, {"name": "dense_356", "class_name": "Dense", "config": {"name": "dense_356", "trainable": true, "dtype": "float32", "units": 100, "activation": "relu", "use_bias": true, "kernel_initializer": {"class_name": "VarianceScaling", "config": {"scale": 1.0, "mode": "fan_avg", "distribution": "uniform", "seed": null}}, "bias_initializer": {"class_name": "Zeros", "config": {}}, "kernel_regularizer": null, "bias_regularizer": null, "activity_regularizer": null, "kernel_constraint": null, "bias_constraint": null}, "inbound_nodes": [[["concatenate_314", 0, 0, {}]]]}, {"name": "dense_360", "class_name": "Dense", "config": {"name": "dense_360", "trainable": true, "dtype": "float32", "units": 100, "activation": "relu", "use_bias": true, "kernel_initializer": {"class_name": "VarianceScaling", "config": {"scale": 1.0, "mode": "fan_avg", "distribution": "uniform", "seed": null}}, "bias_initializer": {"class_name": "Zeros", "config": {}}, "kernel_regularizer": null, "bias_regularizer": null, "activity_regularizer": null, "kernel_constraint": null, "bias_constraint": null}, "inbound_nodes": [[["concatenate_318", 0, 0, {}]]]}, {"name": "dense_362", "class_name": "Dense", "config": {"name": "dense_362", "trainable": true, "dtype": "float32", "units": 100, "activation": "relu", "use_bias": true, "kernel_initializer": {"class_name": "VarianceScaling", "config": {"scale": 1.0, "mode": "fan_avg", "distribution": "uniform", "seed": null}}, "bias_initializer": {"class_name": "Zeros", "config": {}}, "kernel_regularizer": null, "bias_regularizer": null, "activity_regularizer": null, "kernel_constraint": null, "bias_constraint": null}, "inbound_nodes": [[["concatenate_320", 0, 0, {}]]]}, {"name": "dense_370", "class_name": "Dense", "config": {"name": "dense_370", "trainable": true, "dtype": "float32", "units": 100, "activation": "relu", "use_bias": true, "kernel_initializer": {"class_name": "VarianceScaling", "config": {"scale": 1.0, "mode": "fan_avg", "distribution": "uniform", "seed": null}}, "bias_initializer": {"class_name": "Zeros", "config": {}}, "kernel_regularizer": null, "bias_regularizer": null, "activity_regularizer": null, "kernel_constraint": null, "bias_constraint": null}, "inbound_nodes": [[["concatenate_328", 0, 0, {}]]]}, {"name": "dense_374", "class_name": "Dense", "config": {"name": "dense_374", "trainable": true, "dtype": "float32", "units": 100, "activation": "relu", "use_bias": true, "kernel_initializer": {"class_name": "VarianceScaling", "config": {"scale": 1.0, "mode": "fan_avg", "distribution": "uniform", "seed": null}}, "bias_initializer": {"class_name": "Zeros", "config": {}}, "kernel_regularizer": null, "bias_regularizer": null, "activity_regularizer": null, "kernel_constraint": null, "bias_constraint": null}, "inbound_nodes": [[["concatenate_332", 0, 0, {}]]]}, {"name": "dense_376", "class_name": "Dense", "config": {"name": "dense_376", "trainable": true, "dtype": "float32", "units": 100, "activation": "relu", "use_bias": true, "kernel_initializer": {"class_name": "VarianceScaling", "config": {"scale": 1.0, "mode": "fan_avg", "distribution": "uniform", "seed": null}}, "bias_initializer": {"class_name": "Zeros", "config": {}}, "kernel_regularizer": null, "bias_regularizer": null, "activity_regularizer": null, "kernel_constraint": null, "bias_constraint": null}, "inbound_nodes": [[["concatenate_334", 0, 0, {}]]]}, {"name": "dense_382", "class_name": "Dense", "config": {"name": "dense_382", "trainable": true, "dtype": "float32", "units": 100, "activation": "relu", "use_bias": true, "kernel_initializer": {"class_name": "VarianceScaling", "config": {"scale": 1.0, "mode": "fan_avg", "distribution": "uniform", "seed": null}}, "bias_initializer": {"class_name": "Zeros", "config": {}}, "kernel_regularizer": null, "bias_regularizer": null, "activity_regularizer": null, "kernel_constraint": null, "bias_constraint": null}, "inbound_nodes": [[["concatenate_340", 0, 0, {}]]]}, {"name": "dense_384", "class_name": "Dense", "config": {"name": "dense_384", "trainable": true, "dtype": "float32", "units": 100, "activation": "relu", "use_bias": true, "kernel_initializer": {"class_name": "VarianceScaling", "config": {"scale": 1.0, "mode": "fan_avg", "distribution": "uniform", "seed": null}}, "bias_initializer": {"class_name": "Zeros", "config": {}}, "kernel_regularizer": null, "bias_regularizer": null, "activity_regularizer": null, "kernel_constraint": null, "bias_constraint": null}, "inbound_nodes": [[["concatenate_342", 0, 0, {}]]]}, {"name": "dense_388", "class_name": "Dense", "config": {"name": "dense_388", "trainable": true, "dtype": "float32", "units": 100, "activation": "relu", "use_bias": true, "kernel_initializer": {"class_name": "VarianceScaling", "config": {"scale": 1.0, "mode": "fan_avg", "distribution": "uniform", "seed": null}}, "bias_initializer": {"class_name": "Zeros", "config": {}}, "kernel_regularizer": null, "bias_regularizer": null, "activity_regularizer": null, "kernel_constraint": null, "bias_constraint": null}, "inbound_nodes": [[["concatenate_346", 0, 0, {}]]]}, {"name": "dense_390", "class_name": "Dense", "config": {"name": "dense_390", "trainable": true, "dtype": "float32", "units": 100, "activation": "relu", "use_bias": true, "kernel_initializer": {"class_name": "VarianceScaling", "config": {"scale": 1.0, "mode": "fan_avg", "distribution": "uniform", "seed": null}}, "bias_initializer": {"class_name": "Zeros", "config": {}}, "kernel_regularizer": null, "bias_regularizer": null, "activity_regularizer": null, "kernel_constraint": null, "bias_constraint": null}, "inbound_nodes": [[["concatenate_348", 0, 0, {}]]]}, {"name": "concatenate_19", "class_name": "Concatenate", "config": {"name": "concatenate_19", "trainable": true, "dtype": "float32", "axis": -1}, "inbound_nodes": [[["dense_37", 0, 0, {}], ["dense_23", 0, 0, {}]]]}, {"name": "concatenate_24", "class_name": "Concatenate", "config": {"name": "concatenate_24", "trainable": true, "dtype": "float32", "axis": -1}, "inbound_nodes": [[["dense_63", 0, 0, {}], ["dense_65", 0, 0, {}]]]}, {"name": "concatenate_45", "class_name": "Concatenate", "config": {"name": "concatenate_45", "trainable": true, "dtype": "float32", "axis": -1}, "inbound_nodes": [[["dense_8", 0, 0, {}], ["dense_32", 0, 0, {}]]]}, {"name": "concatenate_50", "class_name": "Concatenate", "config": {"name": "concatenate_50", "trainable": true, "dtype": "float32", "axis": -1}, "inbound_nodes": [[["dense_89", 0, 0, {}], ["dense_91", 0, 0, {}]]]}, {"name": "concatenate_67", "class_name": "Concatenate", "config": {"name": "concatenate_67", "trainable": true, "dtype": "float32", "axis": -1}, "inbound_nodes": [[["dense_7", 0, 0, {}], ["dense_17", 0, 0, {}]]]}, {"name": "concatenate_72", "class_name": "Concatenate", "config": {"name": "concatenate_72", "trainable": true, "dtype": "float32", "axis": -1}, "inbound_nodes": [[["dense_111", 0, 0, {}], ["dense_113", 0, 0, {}]]]}, {"name": "input_5", "class_name": "InputLayer", "config": {"batch_input_shape": [null, 1], "dtype": "float32", "sparse": false, "name": "input_5"}, "inbound_nodes": []}, {"name": "concatenate_83", "class_name": "Concatenate", "config": {"name": "concatenate_83", "trainable": true, "dtype": "float32", "axis": -1}, "inbound_nodes": [[["dense_37", 0, 0, {}], ["dense_38", 0, 0, {}]]]}, {"name": "concatenate_88", "class_name": "Concatenate", "config": {"name": "concatenate_88", "trainable": true, "dtype": "float32", "axis": -1}, "inbound_nodes": [[["dense_127", 0, 0, {}], ["dense_129", 0, 0, {}]]]}, {"name": "concatenate_94", "class_name": "Concatenate", "config": {"name": "concatenate_94", "trainable": true, "dtype": "float32", "axis": -1}, "inbound_nodes": [[["dense_27", 0, 0, {}], ["dense_4", 0, 0, {}]]]}, {"name": "concatenate_99", "class_name": "Concatenate", "config": {"name": "concatenate_99", "trainable": true, "dtype": "float32", "axis": -1}, "inbound_nodes": [[["dense_138", 0, 0, {}], ["dense_140", 0, 0, {}]]]}, {"name": "concatenate_104", "class_name": "Concatenate", "config": {"name": "concatenate_104", "trainable": true, "dtype": "float32", "axis": -1}, "inbound_nodes": [[["dense_145", 0, 0, {}], ["dense_10", 0, 0, {}]]]}, {"name": "concatenate_110", "class_name": "Concatenate", "config": {"name": "concatenate_110", "trainable": true, "dtype": "float32", "axis": -1}, "inbound_nodes": [[["dense_149", 0, 0, {}], ["dense_151", 0, 0, {}]]]}, {"name": "concatenate_134", "class_name": "Concatenate", "config": {"name": "concatenate_134", "trainable": true, "dtype": "float32", "axis": -1}, "inbound_nodes": [[["dense_175", 0, 0, {}], ["dense_8", 0, 0, {}]]]}, {"name": "concatenate_149", "class_name": "Concatenate", "config": {"name": "concatenate_149", "trainable": true, "dtype": "float32", "axis": -1}, "inbound_nodes": [[["dense_25", 0, 0, {}], ["dense_1", 0, 0, {}]]]}, {"name": "concatenate_154", "class_name": "Concatenate", "config": {"name": "concatenate_154", "trainable": true, "dtype": "float32", "axis": -1}, "inbound_nodes": [[["dense_193", 0, 0, {}], ["dense_195", 0, 0, {}]]]}, {"name": "concatenate_165", "class_name": "Concatenate", "config": {"name": "concatenate_165", "trainable": true, "dtype": "float32", "axis": -1}, "inbound_nodes": [[["dense_20", 0, 0, {}], ["dense_26", 0, 0, {}]]]}, {"name": "concatenate_170", "class_name": "Concatenate", "config": {"name": "concatenate_170", "trainable": true, "dtype": "float32", "axis": -1}, "inbound_nodes": [[["dense_209", 0, 0, {}], ["dense_211", 0, 0, {}]]]}, {"name": "concatenate_176", "class_name": "Concatenate", "config": {"name": "concatenate_176", "trainable": true, "dtype": "float32", "axis": -1}, "inbound_nodes": [[["dense_16", 0, 0, {}], ["dense_39", 0, 0, {}]]]}, {"name": "concatenate_181", "class_name": "Concatenate", "config": {"name": "concatenate_181", "trainable": true, "dtype": "float32", "axis": -1}, "inbound_nodes": [[["dense_220", 0, 0, {}], ["dense_222", 0, 0, {}]]]}, {"name": "concatenate_188", "class_name": "Concatenate", "config": {"name": "concatenate_188", "trainable": true, "dtype": "float32", "axis": -1}, "inbound_nodes": [[["dense_227", 0, 0, {}], ["dense_229", 0, 0, {}]]]}, {"name": "concatenate_194", "class_name": "Concatenate", "config": {"name": "concatenate_194", "trainable": true, "dtype": "float32", "axis": -1}, "inbound_nodes": [[["dense_233", 0, 0, {}], ["dense_235", 0, 0, {}]]]}, {"name": "concatenate_213", "class_name": "Concatenate", "config": {"name": "concatenate_213", "trainable": true, "dtype": "float32", "axis": -1}, "inbound_nodes": [[["dense_22", 0, 0, {}], ["dense_31", 0, 0, {}]]]}, {"name": "concatenate_217", "class_name": "Concatenate", "config": {"name": "concatenate_217", "trainable": true, "dtype": "float32", "axis": -1}, "inbound_nodes": [[["dense_257", 0, 0, {}], ["dense_258", 0, 0, {}]]]}, {"name": "concatenate_228", "class_name": "Concatenate", "config": {"name": "concatenate_228", "trainable": true, "dtype": "float32", "axis": -1}, "inbound_nodes": [[["dense_15", 0, 0, {}], ["dense_9", 0, 0, {}]]]}, {"name": "concatenate_233", "class_name": "Concatenate", "config": {"name": "concatenate_233", "trainable": true, "dtype": "float32", "axis": -1}, "inbound_nodes": [[["dense_272", 0, 0, {}], ["dense_274", 0, 0, {}]]]}, {"name": "concatenate_239", "class_name": "Concatenate", "config": {"name": "concatenate_239", "trainable": true, "dtype": "float32", "axis": -1}, "inbound_nodes": [[["dense_8", 0, 0, {}], ["dense_14", 0, 0, {}]]]}, {"name": "concatenate_244", "class_name": "Concatenate", "config": {"name": "concatenate_244", "trainable": true, "dtype": "float32", "axis": -1}, "inbound_nodes": [[["dense_283", 0, 0, {}], ["dense_285", 0, 0, {}]]]}, {"name": "concatenate_251", "class_name": "Concatenate", "config": {"name": "concatenate_251", "trainable": true, "dtype": "float32", "axis": -1}, "inbound_nodes": [[["dense_290", 0, 0, {}], ["dense_292", 0, 0, {}]]]}, {"name": "concatenate_257", "class_name": "Concatenate", "config": {"name": "concatenate_257", "trainable": true, "dtype": "float32", "axis": -1}, "inbound_nodes": [[["dense_296", 0, 0, {}], ["dense_298", 0, 0, {}]]]}, {"name": "concatenate_274", "class_name": "Concatenate", "config": {"name": "concatenate_274", "trainable": true, "dtype": "float32", "axis": -1}, "inbound_nodes": [[["dense_313", 0, 0, {}], ["dense_315", 0, 0, {}]]]}, {"name": "concatenate_280", "class_name": "Concatenate", "config": {"name": "concatenate_280", "trainable": true, "dtype": "float32", "axis": -1}, "inbound_nodes": [[["dense_27", 0, 0, {}], ["dense_14", 0, 0, {}]]]}, {"name": "concatenate_285", "class_name": "Concatenate", "config": {"name": "concatenate_285", "trainable": true, "dtype": "float32", "axis": -1}, "inbound_nodes": [[["dense_324", 0, 0, {}], ["dense_326", 0, 0, {}]]]}, {"name": "concatenate_292", "class_name": "Concatenate", "config": {"name": "concatenate_292", "trainable": true, "dtype": "float32", "axis": -1}, "inbound_nodes": [[["dense_331", 0, 0, {}], ["dense_333", 0, 0, {}]]]}, {"name": "concatenate_298", "class_name": "Concatenate", "config": {"name": "concatenate_298", "trainable": true, "dtype": "float32", "axis": -1}, "inbound_nodes": [[["dense_337", 0, 0, {}], ["dense_339", 0, 0, {}]]]}, {"name": "concatenate_306", "class_name": "Concatenate", "config": {"name": "concatenate_306", "trainable": true, "dtype": "float32", "axis": -1}, "inbound_nodes": [[["dense_24", 0, 0, {}], ["dense_27", 0, 0, {}]]]}, {"name": "concatenate_308", "class_name": "Concatenate", "config": {"name": "concatenate_308", "trainable": true, "dtype": "float32", "axis": -1}, "inbound_nodes": [[["dense_26", 0, 0, {}], ["dense_7", 0, 0, {}]]]}, {"name": "concatenate_315", "class_name": "Concatenate", "config": {"name": "concatenate_315", "trainable": true, "dtype": "float32", "axis": -1}, "inbound_nodes": [[["dense_354", 0, 0, {}], ["dense_356", 0, 0, {}]]]}, {"name": "concatenate_321", "class_name": "Concatenate", "config": {"name": "concatenate_321", "trainable": true, "dtype": "float32", "axis": -1}, "inbound_nodes": [[["dense_360", 0, 0, {}], ["dense_362", 0, 0, {}]]]}, {"name": "concatenate_329", "class_name": "Concatenate", "config": {"name": "concatenate_329", "trainable": true, "dtype": "float32", "axis": -1}, "inbound_nodes": [[["dense_31", 0, 0, {}], ["dense_370", 0, 0, {}]]]}, {"name": "concatenate_335", "class_name": "Concatenate", "config": {"name": "concatenate_335", "trainable": true, "dtype": "float32", "axis": -1}, "inbound_nodes": [[["dense_374", 0, 0, {}], ["dense_376", 0, 0, {}]]]}, {"name": "concatenate_343", "class_name": "Concatenate", "config": {"name": "concatenate_343", "trainable": true, "dtype": "float32", "axis": -1}, "inbound_nodes": [[["dense_382", 0, 0, {}], ["dense_384", 0, 0, {}]]]}, {"name": "concatenate_349", "class_name": "Concatenate", "config": {"name": "concatenate_349", "trainable": true, "dtype": "float32", "axis": -1}, "inbound_nodes": [[["dense_388", 0, 0, {}], ["dense_390", 0, 0, {}]]]}, {"name": "dense_61", "class_name": "Dense", "config": {"name": "dense_61", "trainable": true, "dtype": "float32", "units": 100, "activation": "relu", "use_bias": true, "kernel_initializer": {"class_name": "VarianceScaling", "config": {"scale": 1.0, "mode": "fan_avg", "distribution": "uniform", "seed": null}}, "bias_initializer": {"class_name": "Zeros", "config": {}}, "kernel_regularizer": null, "bias_regularizer": null, "activity_regularizer": null, "kernel_constraint": null, "bias_constraint": null}, "inbound_nodes": [[["concatenate_19", 0, 0, {}]]]}, {"name": "dense_66", "class_name": "Dense", "config": {"name": "dense_66", "trainable": true, "dtype": "float32", "units": 100, "activation": "relu", "use_bias": true, "kernel_initializer": {"class_name": "VarianceScaling", "config": {"scale": 1.0, "mode": "fan_avg", "distribution": "uniform", "seed": null}}, "bias_initializer": {"class_name": "Zeros", "config": {}}, "kernel_regularizer": null, "bias_regularizer": null, "activity_regularizer": null, "kernel_constraint": null, "bias_constraint": null}, "inbound_nodes": [[["concatenate_24", 0, 0, {}]]]}, {"name": "dense_87", "class_name": "Dense", "config": {"name": "dense_87", "trainable": true, "dtype": "float32", "units": 100, "activation": "relu", "use_bias": true, "kernel_initializer": {"class_name": "VarianceScaling", "config": {"scale": 1.0, "mode": "fan_avg", "distribution": "uniform", "seed": null}}, "bias_initializer": {"class_name": "Zeros", "config": {}}, "kernel_regularizer": null, "bias_regularizer": null, "activity_regularizer": null, "kernel_constraint": null, "bias_constraint": null}, "inbound_nodes": [[["concatenate_45", 0, 0, {}]]]}, {"name": "dense_92", "class_name": "Dense", "config": {"name": "dense_92", "trainable": true, "dtype": "float32", "units": 100, "activation": "relu", "use_bias": true, "kernel_initializer": {"class_name": "VarianceScaling", "config": {"scale": 1.0, "mode": "fan_avg", "distribution": "uniform", "seed": null}}, "bias_initializer": {"class_name": "Zeros", "config": {}}, "kernel_regularizer": null, "bias_regularizer": null, "activity_regularizer": null, "kernel_constraint": null, "bias_constraint": null}, "inbound_nodes": [[["concatenate_50", 0, 0, {}]]]}, {"name": "dense_109", "class_name": "Dense", "config": {"name": "dense_109", "trainable": true, "dtype": "float32", "units": 100, "activation": "relu", "use_bias": true, "kernel_initializer": {"class_name": "VarianceScaling", "config": {"scale": 1.0, "mode": "fan_avg", "distribution": "uniform", "seed": null}}, "bias_initializer": {"class_name": "Zeros", "config": {}}, "kernel_regularizer": null, "bias_regularizer": null, "activity_regularizer": null, "kernel_constraint": null, "bias_constraint": null}, "inbound_nodes": [[["concatenate_67", 0, 0, {}]]]}, {"name": "dense_114", "class_name": "Dense", "config": {"name": "dense_114", "trainable": true, "dtype": "float32", "units": 100, "activation": "relu", "use_bias": true, "kernel_initializer": {"class_name": "VarianceScaling", "config": {"scale": 1.0, "mode": "fan_avg", "distribution": "uniform", "seed": null}}, "bias_initializer": {"class_name": "Zeros", "config": {}}, "kernel_regularizer": null, "bias_regularizer": null, "activity_regularizer": null, "kernel_constraint": null, "bias_constraint": null}, "inbound_nodes": [[["concatenate_72", 0, 0, {}]]]}, {"name": "dense_5", "class_name": "Dense", "config": {"name": "dense_5", "trainable": true, "dtype": "float32", "units": 50, "activation": "relu", "use_bias": true, "kernel_initializer": {"class_name": "VarianceScaling", "config": {"scale": 1.0, "mode": "fan_avg", "distribution": "uniform", "seed": null}}, "bias_initializer": {"class_name": "Zeros", "config": {}}, "kernel_regularizer": null, "bias_regularizer": null, "activity_regularizer": null, "kernel_constraint": null, "bias_constraint": null}, "inbound_nodes": [[["input_5", 0, 0, {}]]]}, {"name": "dense_125", "class_name": "Dense", "config": {"name": "dense_125", "trainable": true, "dtype": "float32", "units": 100, "activation": "relu", "use_bias": true, "kernel_initializer": {"class_name": "VarianceScaling", "config": {"scale": 1.0, "mode": "fan_avg", "distribution": "uniform", "seed": null}}, "bias_initializer": {"class_name": "Zeros", "config": {}}, "kernel_regularizer": null, "bias_regularizer": null, "activity_regularizer": null, "kernel_constraint": null, "bias_constraint": null}, "inbound_nodes": [[["concatenate_83", 0, 0, {}]]]}, {"name": "dense_130", "class_name": "Dense", "config": {"name": "dense_130", "trainable": true, "dtype": "float32", "units": 100, "activation": "relu", "use_bias": true, "kernel_initializer": {"class_name": "VarianceScaling", "config": {"scale": 1.0, "mode": "fan_avg", "distribution": "uniform", "seed": null}}, "bias_initializer": {"class_name": "Zeros", "config": {}}, "kernel_regularizer": null, "bias_regularizer": null, "activity_regularizer": null, "kernel_constraint": null, "bias_constraint": null}, "inbound_nodes": [[["concatenate_88", 0, 0, {}]]]}, {"name": "dense_136", "class_name": "Dense", "config": {"name": "dense_136", "trainable": true, "dtype": "float32", "units": 100, "activation": "relu", "use_bias": true, "kernel_initializer": {"class_name": "VarianceScaling", "config": {"scale": 1.0, "mode": "fan_avg", "distribution": "uniform", "seed": null}}, "bias_initializer": {"class_name": "Zeros", "config": {}}, "kernel_regularizer": null, "bias_regularizer": null, "activity_regularizer": null, "kernel_constraint": null, "bias_constraint": null}, "inbound_nodes": [[["concatenate_94", 0, 0, {}]]]}, {"name": "dense_141", "class_name": "Dense", "config": {"name": "dense_141", "trainable": true, "dtype": "float32", "units": 100, "activation": "relu", "use_bias": true, "kernel_initializer": {"class_name": "VarianceScaling", "config": {"scale": 1.0, "mode": "fan_avg", "distribution": "uniform", "seed": null}}, "bias_initializer": {"class_name": "Zeros", "config": {}}, "kernel_regularizer": null, "bias_regularizer": null, "activity_regularizer": null, "kernel_constraint": null, "bias_constraint": null}, "inbound_nodes": [[["concatenate_99", 0, 0, {}]]]}, {"name": "dense_146", "class_name": "Dense", "config": {"name": "dense_146", "trainable": true, "dtype": "float32", "units": 100, "activation": "relu", "use_bias": true, "kernel_initializer": {"class_name": "VarianceScaling", "config": {"scale": 1.0, "mode": "fan_avg", "distribution": "uniform", "seed": null}}, "bias_initializer": {"class_name": "Zeros", "config": {}}, "kernel_regularizer": null, "bias_regularizer": null, "activity_regularizer": null, "kernel_constraint": null, "bias_constraint": null}, "inbound_nodes": [[["concatenate_104", 0, 0, {}]]]}, {"name": "dense_152", "class_name": "Dense", "config": {"name": "dense_152", "trainable": true, "dtype": "float32", "units": 100, "activation": "relu", "use_bias": true, "kernel_initializer": {"class_name": "VarianceScaling", "config": {"scale": 1.0, "mode": "fan_avg", "distribution": "uniform", "seed": null}}, "bias_initializer": {"class_name": "Zeros", "config": {}}, "kernel_regularizer": null, "bias_regularizer": null, "activity_regularizer": null, "kernel_constraint": null, "bias_constraint": null}, "inbound_nodes": [[["concatenate_110", 0, 0, {}]]]}, {"name": "dense_176", "class_name": "Dense", "config": {"name": "dense_176", "trainable": true, "dtype": "float32", "units": 100, "activation": "relu", "use_bias": true, "kernel_initializer": {"class_name": "VarianceScaling", "config": {"scale": 1.0, "mode": "fan_avg", "distribution": "uniform", "seed": null}}, "bias_initializer": {"class_name": "Zeros", "config": {}}, "kernel_regularizer": null, "bias_regularizer": null, "activity_regularizer": null, "kernel_constraint": null, "bias_constraint": null}, "inbound_nodes": [[["concatenate_134", 0, 0, {}]]]}, {"name": "dense_191", "class_name": "Dense", "config": {"name": "dense_191", "trainable": true, "dtype": "float32", "units": 100, "activation": "relu", "use_bias": true, "kernel_initializer": {"class_name": "VarianceScaling", "config": {"scale": 1.0, "mode": "fan_avg", "distribution": "uniform", "seed": null}}, "bias_initializer": {"class_name": "Zeros", "config": {}}, "kernel_regularizer": null, "bias_regularizer": null, "activity_regularizer": null, "kernel_constraint": null, "bias_constraint": null}, "inbound_nodes": [[["concatenate_149", 0, 0, {}]]]}, {"name": "dense_196", "class_name": "Dense", "config": {"name": "dense_196", "trainable": true, "dtype": "float32", "units": 100, "activation": "relu", "use_bias": true, "kernel_initializer": {"class_name": "VarianceScaling", "config": {"scale": 1.0, "mode": "fan_avg", "distribution": "uniform", "seed": null}}, "bias_initializer": {"class_name": "Zeros", "config": {}}, "kernel_regularizer": null, "bias_regularizer": null, "activity_regularizer": null, "kernel_constraint": null, "bias_constraint": null}, "inbound_nodes": [[["concatenate_154", 0, 0, {}]]]}, {"name": "dense_207", "class_name": "Dense", "config": {"name": "dense_207", "trainable": true, "dtype": "float32", "units": 100, "activation": "relu", "use_bias": true, "kernel_initializer": {"class_name": "VarianceScaling", "config": {"scale": 1.0, "mode": "fan_avg", "distribution": "uniform", "seed": null}}, "bias_initializer": {"class_name": "Zeros", "config": {}}, "kernel_regularizer": null, "bias_regularizer": null, "activity_regularizer": null, "kernel_constraint": null, "bias_constraint": null}, "inbound_nodes": [[["concatenate_165", 0, 0, {}]]]}, {"name": "dense_212", "class_name": "Dense", "config": {"name": "dense_212", "trainable": true, "dtype": "float32", "units": 100, "activation": "relu", "use_bias": true, "kernel_initializer": {"class_name": "VarianceScaling", "config": {"scale": 1.0, "mode": "fan_avg", "distribution": "uniform", "seed": null}}, "bias_initializer": {"class_name": "Zeros", "config": {}}, "kernel_regularizer": null, "bias_regularizer": null, "activity_regularizer": null, "kernel_constraint": null, "bias_constraint": null}, "inbound_nodes": [[["concatenate_170", 0, 0, {}]]]}, {"name": "dense_218", "class_name": "Dense", "config": {"name": "dense_218", "trainable": true, "dtype": "float32", "units": 100, "activation": "relu", "use_bias": true, "kernel_initializer": {"class_name": "VarianceScaling", "config": {"scale": 1.0, "mode": "fan_avg", "distribution": "uniform", "seed": null}}, "bias_initializer": {"class_name": "Zeros", "config": {}}, "kernel_regularizer": null, "bias_regularizer": null, "activity_regularizer": null, "kernel_constraint": null, "bias_constraint": null}, "inbound_nodes": [[["concatenate_176", 0, 0, {}]]]}, {"name": "dense_223", "class_name": "Dense", "config": {"name": "dense_223", "trainable": true, "dtype": "float32", "units": 100, "activation": "relu", "use_bias": true, "kernel_initializer": {"class_name": "VarianceScaling", "config": {"scale": 1.0, "mode": "fan_avg", "distribution": "uniform", "seed": null}}, "bias_initializer": {"class_name": "Zeros", "config": {}}, "kernel_regularizer": null, "bias_regularizer": null, "activity_regularizer": null, "kernel_constraint": null, "bias_constraint": null}, "inbound_nodes": [[["concatenate_181", 0, 0, {}]]]}, {"name": "dense_230", "class_name": "Dense", "config": {"name": "dense_230", "trainable": true, "dtype": "float32", "units": 100, "activation": "relu", "use_bias": true, "kernel_initializer": {"class_name": "VarianceScaling", "config": {"scale": 1.0, "mode": "fan_avg", "distribution": "uniform", "seed": null}}, "bias_initializer": {"class_name": "Zeros", "config": {}}, "kernel_regularizer": null, "bias_regularizer": null, "activity_regularizer": null, "kernel_constraint": null, "bias_constraint": null}, "inbound_nodes": [[["concatenate_188", 0, 0, {}]]]}, {"name": "dense_236", "class_name": "Dense", "config": {"name": "dense_236", "trainable": true, "dtype": "float32", "units": 100, "activation": "relu", "use_bias": true, "kernel_initializer": {"class_name": "VarianceScaling", "config": {"scale": 1.0, "mode": "fan_avg", "distribution": "uniform", "seed": null}}, "bias_initializer": {"class_name": "Zeros", "config": {}}, "kernel_regularizer": null, "bias_regularizer": null, "activity_regularizer": null, "kernel_constraint": null, "bias_constraint": null}, "inbound_nodes": [[["concatenate_194", 0, 0, {}]]]}, {"name": "dense_255", "class_name": "Dense", "config": {"name": "dense_255", "trainable": true, "dtype": "float32", "units": 100, "activation": "relu", "use_bias": true, "kernel_initializer": {"class_name": "VarianceScaling", "config": {"scale": 1.0, "mode": "fan_avg", "distribution": "uniform", "seed": null}}, "bias_initializer": {"class_name": "Zeros", "config": {}}, "kernel_regularizer": null, "bias_regularizer": null, "activity_regularizer": null, "kernel_constraint": null, "bias_constraint": null}, "inbound_nodes": [[["concatenate_213", 0, 0, {}]]]}, {"name": "dense_259", "class_name": "Dense", "config": {"name": "dense_259", "trainable": true, "dtype": "float32", "units": 100, "activation": "relu", "use_bias": true, "kernel_initializer": {"class_name": "VarianceScaling", "config": {"scale": 1.0, "mode": "fan_avg", "distribution": "uniform", "seed": null}}, "bias_initializer": {"class_name": "Zeros", "config": {}}, "kernel_regularizer": null, "bias_regularizer": null, "activity_regularizer": null, "kernel_constraint": null, "bias_constraint": null}, "inbound_nodes": [[["concatenate_217", 0, 0, {}]]]}, {"name": "dense_270", "class_name": "Dense", "config": {"name": "dense_270", "trainable": true, "dtype": "float32", "units": 100, "activation": "relu", "use_bias": true, "kernel_initializer": {"class_name": "VarianceScaling", "config": {"scale": 1.0, "mode": "fan_avg", "distribution": "uniform", "seed": null}}, "bias_initializer": {"class_name": "Zeros", "config": {}}, "kernel_regularizer": null, "bias_regularizer": null, "activity_regularizer": null, "kernel_constraint": null, "bias_constraint": null}, "inbound_nodes": [[["concatenate_228", 0, 0, {}]]]}, {"name": "dense_275", "class_name": "Dense", "config": {"name": "dense_275", "trainable": true, "dtype": "float32", "units": 100, "activation": "relu", "use_bias": true, "kernel_initializer": {"class_name": "VarianceScaling", "config": {"scale": 1.0, "mode": "fan_avg", "distribution": "uniform", "seed": null}}, "bias_initializer": {"class_name": "Zeros", "config": {}}, "kernel_regularizer": null, "bias_regularizer": null, "activity_regularizer": null, "kernel_constraint": null, "bias_constraint": null}, "inbound_nodes": [[["concatenate_233", 0, 0, {}]]]}, {"name": "dense_281", "class_name": "Dense", "config": {"name": "dense_281", "trainable": true, "dtype": "float32", "units": 100, "activation": "relu", "use_bias": true, "kernel_initializer": {"class_name": "VarianceScaling", "config": {"scale": 1.0, "mode": "fan_avg", "distribution": "uniform", "seed": null}}, "bias_initializer": {"class_name": "Zeros", "config": {}}, "kernel_regularizer": null, "bias_regularizer": null, "activity_regularizer": null, "kernel_constraint": null, "bias_constraint": null}, "inbound_nodes": [[["concatenate_239", 0, 0, {}]]]}, {"name": "dense_286", "class_name": "Dense", "config": {"name": "dense_286", "trainable": true, "dtype": "float32", "units": 100, "activation": "relu", "use_bias": true, "kernel_initializer": {"class_name": "VarianceScaling", "config": {"scale": 1.0, "mode": "fan_avg", "distribution": "uniform", "seed": null}}, "bias_initializer": {"class_name": "Zeros", "config": {}}, "kernel_regularizer": null, "bias_regularizer": null, "activity_regularizer": null, "kernel_constraint": null, "bias_constraint": null}, "inbound_nodes": [[["concatenate_244", 0, 0, {}]]]}, {"name": "dense_293", "class_name": "Dense", "config": {"name": "dense_293", "trainable": true, "dtype": "float32", "units": 100, "activation": "relu", "use_bias": true, "kernel_initializer": {"class_name": "VarianceScaling", "config": {"scale": 1.0, "mode": "fan_avg", "distribution": "uniform", "seed": null}}, "bias_initializer": {"class_name": "Zeros", "config": {}}, "kernel_regularizer": null, "bias_regularizer": null, "activity_regularizer": null, "kernel_constraint": null, "bias_constraint": null}, "inbound_nodes": [[["concatenate_251", 0, 0, {}]]]}, {"name": "dense_299", "class_name": "Dense", "config": {"name": "dense_299", "trainable": true, "dtype": "float32", "units": 100, "activation": "relu", "use_bias": true, "kernel_initializer": {"class_name": "VarianceScaling", "config": {"scale": 1.0, "mode": "fan_avg", "distribution": "uniform", "seed": null}}, "bias_initializer": {"class_name": "Zeros", "config": {}}, "kernel_regularizer": null, "bias_regularizer": null, "activity_regularizer": null, "kernel_constraint": null, "bias_constraint": null}, "inbound_nodes": [[["concatenate_257", 0, 0, {}]]]}, {"name": "dense_316", "class_name": "Dense", "config": {"name": "dense_316", "trainable": true, "dtype": "float32", "units": 100, "activation": "relu", "use_bias": true, "kernel_initializer": {"class_name": "VarianceScaling", "config": {"scale": 1.0, "mode": "fan_avg", "distribution": "uniform", "seed": null}}, "bias_initializer": {"class_name": "Zeros", "config": {}}, "kernel_regularizer": null, "bias_regularizer": null, "activity_regularizer": null, "kernel_constraint": null, "bias_constraint": null}, "inbound_nodes": [[["concatenate_274", 0, 0, {}]]]}, {"name": "dense_322", "class_name": "Dense", "config": {"name": "dense_322", "trainable": true, "dtype": "float32", "units": 100, "activation": "relu", "use_bias": true, "kernel_initializer": {"class_name": "VarianceScaling", "config": {"scale": 1.0, "mode": "fan_avg", "distribution": "uniform", "seed": null}}, "bias_initializer": {"class_name": "Zeros", "config": {}}, "kernel_regularizer": null, "bias_regularizer": null, "activity_regularizer": null, "kernel_constraint": null, "bias_constraint": null}, "inbound_nodes": [[["concatenate_280", 0, 0, {}]]]}, {"name": "dense_327", "class_name": "Dense", "config": {"name": "dense_327", "trainable": true, "dtype": "float32", "units": 100, "activation": "relu", "use_bias": true, "kernel_initializer": {"class_name": "VarianceScaling", "config": {"scale": 1.0, "mode": "fan_avg", "distribution": "uniform", "seed": null}}, "bias_initializer": {"class_name": "Zeros", "config": {}}, "kernel_regularizer": null, "bias_regularizer": null, "activity_regularizer": null, "kernel_constraint": null, "bias_constraint": null}, "inbound_nodes": [[["concatenate_285", 0, 0, {}]]]}, {"name": "dense_334", "class_name": "Dense", "config": {"name": "dense_334", "trainable": true, "dtype": "float32", "units": 100, "activation": "relu", "use_bias": true, "kernel_initializer": {"class_name": "VarianceScaling", "config": {"scale": 1.0, "mode": "fan_avg", "distribution": "uniform", "seed": null}}, "bias_initializer": {"class_name": "Zeros", "config": {}}, "kernel_regularizer": null, "bias_regularizer": null, "activity_regularizer": null, "kernel_constraint": null, "bias_constraint": null}, "inbound_nodes": [[["concatenate_292", 0, 0, {}]]]}, {"name": "dense_340", "class_name": "Dense", "config": {"name": "dense_340", "trainable": true, "dtype": "float32", "units": 100, "activation": "relu", "use_bias": true, "kernel_initializer": {"class_name": "VarianceScaling", "config": {"scale": 1.0, "mode": "fan_avg", "distribution": "uniform", "seed": null}}, "bias_initializer": {"class_name": "Zeros", "config": {}}, "kernel_regularizer": null, "bias_regularizer": null, "activity_regularizer": null, "kernel_constraint": null, "bias_constraint": null}, "inbound_nodes": [[["concatenate_298", 0, 0, {}]]]}, {"name": "dense_348", "class_name": "Dense", "config": {"name": "dense_348", "trainable": true, "dtype": "float32", "units": 100, "activation": "relu", "use_bias": true, "kernel_initializer": {"class_name": "VarianceScaling", "config": {"scale": 1.0, "mode": "fan_avg", "distribution": "uniform", "seed": null}}, "bias_initializer": {"class_name": "Zeros", "config": {}}, "kernel_regularizer": null, "bias_regularizer": null, "activity_regularizer": null, "kernel_constraint": null, "bias_constraint": null}, "inbound_nodes": [[["concatenate_306", 0, 0, {}]]]}, {"name": "dense_350", "class_name": "Dense", "config": {"name": "dense_350", "trainable": true, "dtype": "float32", "units": 100, "activation": "relu", "use_bias": true, "kernel_initializer": {"class_name": "VarianceScaling", "config": {"scale": 1.0, "mode": "fan_avg", "distribution": "uniform", "seed": null}}, "bias_initializer": {"class_name": "Zeros", "config": {}}, "kernel_regularizer": null, "bias_regularizer": null, "activity_regularizer": null, "kernel_constraint": null, "bias_constraint": null}, "inbound_nodes": [[["concatenate_308", 0, 0, {}]]]}, {"name": "dense_357", "class_name": "Dense", "config": {"name": "dense_357", "trainable": true, "dtype": "float32", "units": 100, "activation": "relu", "use_bias": true, "kernel_initializer": {"class_name": "VarianceScaling", "config": {"scale": 1.0, "mode": "fan_avg", "distribution": "uniform", "seed": null}}, "bias_initializer": {"class_name": "Zeros", "config": {}}, "kernel_regularizer": null, "bias_regularizer": null, "activity_regularizer": null, "kernel_constraint": null, "bias_constraint": null}, "inbound_nodes": [[["concatenate_315", 0, 0, {}]]]}, {"name": "dense_363", "class_name": "Dense", "config": {"name": "dense_363", "trainable": true, "dtype": "float32", "units": 100, "activation": "relu", "use_bias": true, "kernel_initializer": {"class_name": "VarianceScaling", "config": {"scale": 1.0, "mode": "fan_avg", "distribution": "uniform", "seed": null}}, "bias_initializer": {"class_name": "Zeros", "config": {}}, "kernel_regularizer": null, "bias_regularizer": null, "activity_regularizer": null, "kernel_constraint": null, "bias_constraint": null}, "inbound_nodes": [[["concatenate_321", 0, 0, {}]]]}, {"name": "dense_371", "class_name": "Dense", "config": {"name": "dense_371", "trainable": true, "dtype": "float32", "units": 100, "activation": "relu", "use_bias": true, "kernel_initializer": {"class_name": "VarianceScaling", "config": {"scale": 1.0, "mode": "fan_avg", "distribution": "uniform", "seed": null}}, "bias_initializer": {"class_name": "Zeros", "config": {}}, "kernel_regularizer": null, "bias_regularizer": null, "activity_regularizer": null, "kernel_constraint": null, "bias_constraint": null}, "inbound_nodes": [[["concatenate_329", 0, 0, {}]]]}, {"name": "dense_377", "class_name": "Dense", "config": {"name": "dense_377", "trainable": true, "dtype": "float32", "units": 100, "activation": "relu", "use_bias": true, "kernel_initializer": {"class_name": "VarianceScaling", "config": {"scale": 1.0, "mode": "fan_avg", "distribution": "uniform", "seed": null}}, "bias_initializer": {"class_name": "Zeros", "config": {}}, "kernel_regularizer": null, "bias_regularizer": null, "activity_regularizer": null, "kernel_constraint": null, "bias_constraint": null}, "inbound_nodes": [[["concatenate_335", 0, 0, {}]]]}, {"name": "dense_385", "class_name": "Dense", "config": {"name": "dense_385", "trainable": true, "dtype": "float32", "units": 100, "activation": "relu", "use_bias": true, "kernel_initializer": {"class_name": "VarianceScaling", "config": {"scale": 1.0, "mode": "fan_avg", "distribution": "uniform", "seed": null}}, "bias_initializer": {"class_name": "Zeros", "config": {}}, "kernel_regularizer": null, "bias_regularizer": null, "activity_regularizer": null, "kernel_constraint": null, "bias_constraint": null}, "inbound_nodes": [[["concatenate_343", 0, 0, {}]]]}, {"name": "dense_391", "class_name": "Dense", "config": {"name": "dense_391", "trainable": true, "dtype": "float32", "units": 100, "activation": "relu", "use_bias": true, "kernel_initializer": {"class_name": "VarianceScaling", "config": {"scale": 1.0, "mode": "fan_avg", "distribution": "uniform", "seed": null}}, "bias_initializer": {"class_name": "Zeros", "config": {}}, "kernel_regularizer": null, "bias_regularizer": null, "activity_regularizer": null, "kernel_constraint": null, "bias_constraint": null}, "inbound_nodes": [[["concatenate_349", 0, 0, {}]]]}, {"name": "concatenate_16", "class_name": "Concatenate", "config": {"name": "concatenate_16", "trainable": true, "dtype": "float32", "axis": -1}, "inbound_nodes": [[["dense_10", 0, 0, {}], ["dense_22", 0, 0, {}]]]}, {"name": "concatenate_20", "class_name": "Concatenate", "config": {"name": "concatenate_20", "trainable": true, "dtype": "float32", "axis": -1}, "inbound_nodes": [[["dense_16", 0, 0, {}], ["dense_61", 0, 0, {}]]]}, {"name": "concatenate_25", "class_name": "Concatenate", "config": {"name": "concatenate_25", "trainable": true, "dtype": "float32", "axis": -1}, "inbound_nodes": [[["dense_66", 0, 0, {}], ["dense_37", 0, 0, {}]]]}, {"name": "concatenate_42", "class_name": "Concatenate", "config": {"name": "concatenate_42", "trainable": true, "dtype": "float32", "axis": -1}, "inbound_nodes": [[["dense_31", 0, 0, {}], ["dense_10", 0, 0, {}]]]}, {"name": "concatenate_46", "class_name": "Concatenate", "config": {"name": "concatenate_46", "trainable": true, "dtype": "float32", "axis": -1}, "inbound_nodes": [[["dense_15", 0, 0, {}], ["dense_87", 0, 0, {}]]]}, {"name": "concatenate_51", "class_name": "Concatenate", "config": {"name": "concatenate_51", "trainable": true, "dtype": "float32", "axis": -1}, "inbound_nodes": [[["dense_92", 0, 0, {}], ["dense_1", 0, 0, {}]]]}, {"name": "concatenate_64", "class_name": "Concatenate", "config": {"name": "concatenate_64", "trainable": true, "dtype": "float32", "axis": -1}, "inbound_nodes": [[["dense_37", 0, 0, {}], ["dense_16", 0, 0, {}]]]}, {"name": "concatenate_68", "class_name": "Concatenate", "config": {"name": "concatenate_68", "trainable": true, "dtype": "float32", "axis": -1}, "inbound_nodes": [[["dense_8", 0, 0, {}], ["dense_109", 0, 0, {}]]]}, {"name": "concatenate_73", "class_name": "Concatenate", "config": {"name": "concatenate_73", "trainable": true, "dtype": "float32", "axis": -1}, "inbound_nodes": [[["dense_114", 0, 0, {}], ["dense_37", 0, 0, {}]]]}, {"name": "concatenate_80", "class_name": "Concatenate", "config": {"name": "concatenate_80", "trainable": true, "dtype": "float32", "axis": -1}, "inbound_nodes": [[["dense_3", 0, 0, {}], ["dense_5", 0, 0, {}]]]}, {"name": "concatenate_84", "class_name": "Concatenate", "config": {"name": "concatenate_84", "trainable": true, "dtype": "float32", "axis": -1}, "inbound_nodes": [[["dense_25", 0, 0, {}], ["dense_125", 0, 0, {}]]]}, {"name": "concatenate_89", "class_name": "Concatenate", "config": {"name": "concatenate_89", "trainable": true, "dtype": "float32", "axis": -1}, "inbound_nodes": [[["dense_130", 0, 0, {}], ["dense_3", 0, 0, {}]]]}, {"name": "concatenate_95", "class_name": "Concatenate", "config": {"name": "concatenate_95", "trainable": true, "dtype": "float32", "axis": -1}, "inbound_nodes": [[["dense_8", 0, 0, {}], ["dense_136", 0, 0, {}]]]}, {"name": "concatenate_100", "class_name": "Concatenate", "config": {"name": "concatenate_100", "trainable": true, "dtype": "float32", "axis": -1}, "inbound_nodes": [[["dense_141", 0, 0, {}], ["dense_13", 0, 0, {}]]]}, {"name": "concatenate_105", "class_name": "Concatenate", "config": {"name": "concatenate_105", "trainable": true, "dtype": "float32", "axis": -1}, "inbound_nodes": [[["dense_27", 0, 0, {}], ["dense_146", 0, 0, {}]]]}, {"name": "concatenate_111", "class_name": "Concatenate", "config": {"name": "concatenate_111", "trainable": true, "dtype": "float32", "axis": -1}, "inbound_nodes": [[["dense_152", 0, 0, {}], ["dense_4", 0, 0, {}]]]}, {"name": "concatenate_130", "class_name": "Concatenate", "config": {"name": "concatenate_130", "trainable": true, "dtype": "float32", "axis": -1}, "inbound_nodes": [[["dense_1", 0, 0, {}], ["dense_3", 0, 0, {}]]]}, {"name": "concatenate_135", "class_name": "Concatenate", "config": {"name": "concatenate_135", "trainable": true, "dtype": "float32", "axis": -1}, "inbound_nodes": [[["dense_40", 0, 0, {}], ["dense_176", 0, 0, {}]]]}, {"name": "concatenate_150", "class_name": "Concatenate", "config": {"name": "concatenate_150", "trainable": true, "dtype": "float32", "axis": -1}, "inbound_nodes": [[["dense_8", 0, 0, {}], ["dense_191", 0, 0, {}]]]}, {"name": "concatenate_155", "class_name": "Concatenate", "config": {"name": "concatenate_155", "trainable": true, "dtype": "float32", "axis": -1}, "inbound_nodes": [[["dense_196", 0, 0, {}], ["dense_8", 0, 0, {}]]]}, {"name": "concatenate_162", "class_name": "Concatenate", "config": {"name": "concatenate_162", "trainable": true, "dtype": "float32", "axis": -1}, "inbound_nodes": [[["dense_31", 0, 0, {}], ["dense_10", 0, 0, {}]]]}, {"name": "concatenate_166", "class_name": "Concatenate", "config": {"name": "concatenate_166", "trainable": true, "dtype": "float32", "axis": -1}, "inbound_nodes": [[["dense_40", 0, 0, {}], ["dense_207", 0, 0, {}]]]}, {"name": "concatenate_171", "class_name": "Concatenate", "config": {"name": "concatenate_171", "trainable": true, "dtype": "float32", "axis": -1}, "inbound_nodes": [[["dense_212", 0, 0, {}], ["dense_15", 0, 0, {}]]]}, {"name": "concatenate_177", "class_name": "Concatenate", "config": {"name": "concatenate_177", "trainable": true, "dtype": "float32", "axis": -1}, "inbound_nodes": [[["dense_25", 0, 0, {}], ["dense_218", 0, 0, {}]]]}, {"name": "concatenate_182", "class_name": "Concatenate", "config": {"name": "concatenate_182", "trainable": true, "dtype": "float32", "axis": -1}, "inbound_nodes": [[["dense_223", 0, 0, {}], ["dense_7", 0, 0, {}]]]}, {"name": "concatenate_189", "class_name": "Concatenate", "config": {"name": "concatenate_189", "trainable": true, "dtype": "float32", "axis": -1}, "inbound_nodes": [[["dense_230", 0, 0, {}], ["dense_13", 0, 0, {}]]]}, {"name": "concatenate_195", "class_name": "Concatenate", "config": {"name": "concatenate_195", "trainable": true, "dtype": "float32", "axis": -1}, "inbound_nodes": [[["dense_236", 0, 0, {}], ["dense_8", 0, 0, {}]]]}, {"name": "concatenate_210", "class_name": "Concatenate", "config": {"name": "concatenate_210", "trainable": true, "dtype": "float32", "axis": -1}, "inbound_nodes": [[["dense_8", 0, 0, {}], ["dense_40", 0, 0, {}]]]}, {"name": "concatenate_214", "class_name": "Concatenate", "config": {"name": "concatenate_214", "trainable": true, "dtype": "float32", "axis": -1}, "inbound_nodes": [[["dense_20", 0, 0, {}], ["dense_255", 0, 0, {}]]]}, {"name": "concatenate_218", "class_name": "Concatenate", "config": {"name": "concatenate_218", "trainable": true, "dtype": "float32", "axis": -1}, "inbound_nodes": [[["dense_259", 0, 0, {}], ["dense_40", 0, 0, {}]]]}, {"name": "concatenate_225", "class_name": "Concatenate", "config": {"name": "concatenate_225", "trainable": true, "dtype": "float32", "axis": -1}, "inbound_nodes": [[["dense_16", 0, 0, {}], ["dense_20", 0, 0, {}]]]}, {"name": "concatenate_229", "class_name": "Concatenate", "config": {"name": "concatenate_229", "trainable": true, "dtype": "float32", "axis": -1}, "inbound_nodes": [[["dense_25", 0, 0, {}], ["dense_270", 0, 0, {}]]]}, {"name": "concatenate_234", "class_name": "Concatenate", "config": {"name": "concatenate_234", "trainable": true, "dtype": "float32", "axis": -1}, "inbound_nodes": [[["dense_275", 0, 0, {}], ["dense_9", 0, 0, {}]]]}, {"name": "concatenate_240", "class_name": "Concatenate", "config": {"name": "concatenate_240", "trainable": true, "dtype": "float32", "axis": -1}, "inbound_nodes": [[["dense_21", 0, 0, {}], ["dense_281", 0, 0, {}]]]}, {"name": "concatenate_245", "class_name": "Concatenate", "config": {"name": "concatenate_245", "trainable": true, "dtype": "float32", "axis": -1}, "inbound_nodes": [[["dense_286", 0, 0, {}], ["dense_21", 0, 0, {}]]]}, {"name": "concatenate_252", "class_name": "Concatenate", "config": {"name": "concatenate_252", "trainable": true, "dtype": "float32", "axis": -1}, "inbound_nodes": [[["dense_293", 0, 0, {}], ["dense_8", 0, 0, {}]]]}, {"name": "concatenate_258", "class_name": "Concatenate", "config": {"name": "concatenate_258", "trainable": true, "dtype": "float32", "axis": -1}, "inbound_nodes": [[["dense_299", 0, 0, {}], ["dense_38", 0, 0, {}]]]}, {"name": "concatenate_267", "class_name": "Concatenate", "config": {"name": "concatenate_267", "trainable": true, "dtype": "float32", "axis": -1}, "inbound_nodes": [[["dense_13", 0, 0, {}], ["dense_7", 0, 0, {}]]]}, {"name": "concatenate_270", "class_name": "Concatenate", "config": {"name": "concatenate_270", "trainable": true, "dtype": "float32", "axis": -1}, "inbound_nodes": [[["dense_13", 0, 0, {}], ["dense_7", 0, 0, {}]]]}, {"name": "concatenate_275", "class_name": "Concatenate", "config": {"name": "concatenate_275", "trainable": true, "dtype": "float32", "axis": -1}, "inbound_nodes": [[["dense_316", 0, 0, {}], ["dense_25", 0, 0, {}]]]}, {"name": "concatenate_281", "class_name": "Concatenate", "config": {"name": "concatenate_281", "trainable": true, "dtype": "float32", "axis": -1}, "inbound_nodes": [[["dense_31", 0, 0, {}], ["dense_322", 0, 0, {}]]]}, {"name": "concatenate_286", "class_name": "Concatenate", "config": {"name": "concatenate_286", "trainable": true, "dtype": "float32", "axis": -1}, "inbound_nodes": [[["dense_327", 0, 0, {}], ["dense_13", 0, 0, {}]]]}, {"name": "concatenate_293", "class_name": "Concatenate", "config": {"name": "concatenate_293", "trainable": true, "dtype": "float32", "axis": -1}, "inbound_nodes": [[["dense_334", 0, 0, {}], ["dense_13", 0, 0, {}]]]}, {"name": "concatenate_299", "class_name": "Concatenate", "config": {"name": "concatenate_299", "trainable": true, "dtype": "float32", "axis": -1}, "inbound_nodes": [[["dense_340", 0, 0, {}], ["dense_13", 0, 0, {}]]]}, {"name": "concatenate_307", "class_name": "Concatenate", "config": {"name": "concatenate_307", "trainable": true, "dtype": "float32", "axis": -1}, "inbound_nodes": [[["dense_31", 0, 0, {}], ["dense_348", 0, 0, {}]]]}, {"name": "concatenate_309", "class_name": "Concatenate", "config": {"name": "concatenate_309", "trainable": true, "dtype": "float32", "axis": -1}, "inbound_nodes": [[["dense_22", 0, 0, {}], ["dense_350", 0, 0, {}]]]}, {"name": "concatenate_316", "class_name": "Concatenate", "config": {"name": "concatenate_316", "trainable": true, "dtype": "float32", "axis": -1}, "inbound_nodes": [[["dense_357", 0, 0, {}], ["dense_7", 0, 0, {}]]]}, {"name": "concatenate_322", "class_name": "Concatenate", "config": {"name": "concatenate_322", "trainable": true, "dtype": "float32", "axis": -1}, "inbound_nodes": [[["dense_363", 0, 0, {}], ["dense_7", 0, 0, {}]]]}, {"name": "concatenate_330", "class_name": "Concatenate", "config": {"name": "concatenate_330", "trainable": true, "dtype": "float32", "axis": -1}, "inbound_nodes": [[["dense_371", 0, 0, {}], ["dense_32", 0, 0, {}]]]}, {"name": "concatenate_336", "class_name": "Concatenate", "config": {"name": "concatenate_336", "trainable": true, "dtype": "float32", "axis": -1}, "inbound_nodes": [[["dense_377", 0, 0, {}], ["dense_8", 0, 0, {}]]]}, {"name": "concatenate_344", "class_name": "Concatenate", "config": {"name": "concatenate_344", "trainable": true, "dtype": "float32", "axis": -1}, "inbound_nodes": [[["dense_385", 0, 0, {}], ["dense_3", 0, 0, {}]]]}, {"name": "concatenate_350", "class_name": "Concatenate", "config": {"name": "concatenate_350", "trainable": true, "dtype": "float32", "axis": -1}, "inbound_nodes": [[["dense_391", 0, 0, {}], ["dense_16", 0, 0, {}]]]}, {"name": "dense_58", "class_name": "Dense", "config": {"name": "dense_58", "trainable": true, "dtype": "float32", "units": 100, "activation": "relu", "use_bias": true, "kernel_initializer": {"class_name": "VarianceScaling", "config": {"scale": 1.0, "mode": "fan_avg", "distribution": "uniform", "seed": null}}, "bias_initializer": {"class_name": "Zeros", "config": {}}, "kernel_regularizer": null, "bias_regularizer": null, "activity_regularizer": null, "kernel_constraint": null, "bias_constraint": null}, "inbound_nodes": [[["concatenate_16", 0, 0, {}]]]}, {"name": "dense_62", "class_name": "Dense", "config": {"name": "dense_62", "trainable": true, "dtype": "float32", "units": 100, "activation": "relu", "use_bias": true, "kernel_initializer": {"class_name": "VarianceScaling", "config": {"scale": 1.0, "mode": "fan_avg", "distribution": "uniform", "seed": null}}, "bias_initializer": {"class_name": "Zeros", "config": {}}, "kernel_regularizer": null, "bias_regularizer": null, "activity_regularizer": null, "kernel_constraint": null, "bias_constraint": null}, "inbound_nodes": [[["concatenate_20", 0, 0, {}]]]}, {"name": "dense_67", "class_name": "Dense", "config": {"name": "dense_67", "trainable": true, "dtype": "float32", "units": 100, "activation": "relu", "use_bias": true, "kernel_initializer": {"class_name": "VarianceScaling", "config": {"scale": 1.0, "mode": "fan_avg", "distribution": "uniform", "seed": null}}, "bias_initializer": {"class_name": "Zeros", "config": {}}, "kernel_regularizer": null, "bias_regularizer": null, "activity_regularizer": null, "kernel_constraint": null, "bias_constraint": null}, "inbound_nodes": [[["concatenate_25", 0, 0, {}]]]}, {"name": "dense_84", "class_name": "Dense", "config": {"name": "dense_84", "trainable": true, "dtype": "float32", "units": 100, "activation": "relu", "use_bias": true, "kernel_initializer": {"class_name": "VarianceScaling", "config": {"scale": 1.0, "mode": "fan_avg", "distribution": "uniform", "seed": null}}, "bias_initializer": {"class_name": "Zeros", "config": {}}, "kernel_regularizer": null, "bias_regularizer": null, "activity_regularizer": null, "kernel_constraint": null, "bias_constraint": null}, "inbound_nodes": [[["concatenate_42", 0, 0, {}]]]}, {"name": "dense_88", "class_name": "Dense", "config": {"name": "dense_88", "trainable": true, "dtype": "float32", "units": 100, "activation": "relu", "use_bias": true, "kernel_initializer": {"class_name": "VarianceScaling", "config": {"scale": 1.0, "mode": "fan_avg", "distribution": "uniform", "seed": null}}, "bias_initializer": {"class_name": "Zeros", "config": {}}, "kernel_regularizer": null, "bias_regularizer": null, "activity_regularizer": null, "kernel_constraint": null, "bias_constraint": null}, "inbound_nodes": [[["concatenate_46", 0, 0, {}]]]}, {"name": "dense_93", "class_name": "Dense", "config": {"name": "dense_93", "trainable": true, "dtype": "float32", "units": 100, "activation": "relu", "use_bias": true, "kernel_initializer": {"class_name": "VarianceScaling", "config": {"scale": 1.0, "mode": "fan_avg", "distribution": "uniform", "seed": null}}, "bias_initializer": {"class_name": "Zeros", "config": {}}, "kernel_regularizer": null, "bias_regularizer": null, "activity_regularizer": null, "kernel_constraint": null, "bias_constraint": null}, "inbound_nodes": [[["concatenate_51", 0, 0, {}]]]}, {"name": "dense_106", "class_name": "Dense", "config": {"name": "dense_106", "trainable": true, "dtype": "float32", "units": 100, "activation": "relu", "use_bias": true, "kernel_initializer": {"class_name": "VarianceScaling", "config": {"scale": 1.0, "mode": "fan_avg", "distribution": "uniform", "seed": null}}, "bias_initializer": {"class_name": "Zeros", "config": {}}, "kernel_regularizer": null, "bias_regularizer": null, "activity_regularizer": null, "kernel_constraint": null, "bias_constraint": null}, "inbound_nodes": [[["concatenate_64", 0, 0, {}]]]}, {"name": "dense_110", "class_name": "Dense", "config": {"name": "dense_110", "trainable": true, "dtype": "float32", "units": 100, "activation": "relu", "use_bias": true, "kernel_initializer": {"class_name": "VarianceScaling", "config": {"scale": 1.0, "mode": "fan_avg", "distribution": "uniform", "seed": null}}, "bias_initializer": {"class_name": "Zeros", "config": {}}, "kernel_regularizer": null, "bias_regularizer": null, "activity_regularizer": null, "kernel_constraint": null, "bias_constraint": null}, "inbound_nodes": [[["concatenate_68", 0, 0, {}]]]}, {"name": "dense_115", "class_name": "Dense", "config": {"name": "dense_115", "trainable": true, "dtype": "float32", "units": 100, "activation": "relu", "use_bias": true, "kernel_initializer": {"class_name": "VarianceScaling", "config": {"scale": 1.0, "mode": "fan_avg", "distribution": "uniform", "seed": null}}, "bias_initializer": {"class_name": "Zeros", "config": {}}, "kernel_regularizer": null, "bias_regularizer": null, "activity_regularizer": null, "kernel_constraint": null, "bias_constraint": null}, "inbound_nodes": [[["concatenate_73", 0, 0, {}]]]}, {"name": "dense_122", "class_name": "Dense", "config": {"name": "dense_122", "trainable": true, "dtype": "float32", "units": 100, "activation": "relu", "use_bias": true, "kernel_initializer": {"class_name": "VarianceScaling", "config": {"scale": 1.0, "mode": "fan_avg", "distribution": "uniform", "seed": null}}, "bias_initializer": {"class_name": "Zeros", "config": {}}, "kernel_regularizer": null, "bias_regularizer": null, "activity_regularizer": null, "kernel_constraint": null, "bias_constraint": null}, "inbound_nodes": [[["concatenate_80", 0, 0, {}]]]}, {"name": "dense_126", "class_name": "Dense", "config": {"name": "dense_126", "trainable": true, "dtype": "float32", "units": 100, "activation": "relu", "use_bias": true, "kernel_initializer": {"class_name": "VarianceScaling", "config": {"scale": 1.0, "mode": "fan_avg", "distribution": "uniform", "seed": null}}, "bias_initializer": {"class_name": "Zeros", "config": {}}, "kernel_regularizer": null, "bias_regularizer": null, "activity_regularizer": null, "kernel_constraint": null, "bias_constraint": null}, "inbound_nodes": [[["concatenate_84", 0, 0, {}]]]}, {"name": "dense_131", "class_name": "Dense", "config": {"name": "dense_131", "trainable": true, "dtype": "float32", "units": 100, "activation": "relu", "use_bias": true, "kernel_initializer": {"class_name": "VarianceScaling", "config": {"scale": 1.0, "mode": "fan_avg", "distribution": "uniform", "seed": null}}, "bias_initializer": {"class_name": "Zeros", "config": {}}, "kernel_regularizer": null, "bias_regularizer": null, "activity_regularizer": null, "kernel_constraint": null, "bias_constraint": null}, "inbound_nodes": [[["concatenate_89", 0, 0, {}]]]}, {"name": "dense_137", "class_name": "Dense", "config": {"name": "dense_137", "trainable": true, "dtype": "float32", "units": 100, "activation": "relu", "use_bias": true, "kernel_initializer": {"class_name": "VarianceScaling", "config": {"scale": 1.0, "mode": "fan_avg", "distribution": "uniform", "seed": null}}, "bias_initializer": {"class_name": "Zeros", "config": {}}, "kernel_regularizer": null, "bias_regularizer": null, "activity_regularizer": null, "kernel_constraint": null, "bias_constraint": null}, "inbound_nodes": [[["concatenate_95", 0, 0, {}]]]}, {"name": "dense_142", "class_name": "Dense", "config": {"name": "dense_142", "trainable": true, "dtype": "float32", "units": 100, "activation": "relu", "use_bias": true, "kernel_initializer": {"class_name": "VarianceScaling", "config": {"scale": 1.0, "mode": "fan_avg", "distribution": "uniform", "seed": null}}, "bias_initializer": {"class_name": "Zeros", "config": {}}, "kernel_regularizer": null, "bias_regularizer": null, "activity_regularizer": null, "kernel_constraint": null, "bias_constraint": null}, "inbound_nodes": [[["concatenate_100", 0, 0, {}]]]}, {"name": "dense_147", "class_name": "Dense", "config": {"name": "dense_147", "trainable": true, "dtype": "float32", "units": 100, "activation": "relu", "use_bias": true, "kernel_initializer": {"class_name": "VarianceScaling", "config": {"scale": 1.0, "mode": "fan_avg", "distribution": "uniform", "seed": null}}, "bias_initializer": {"class_name": "Zeros", "config": {}}, "kernel_regularizer": null, "bias_regularizer": null, "activity_regularizer": null, "kernel_constraint": null, "bias_constraint": null}, "inbound_nodes": [[["concatenate_105", 0, 0, {}]]]}, {"name": "dense_153", "class_name": "Dense", "config": {"name": "dense_153", "trainable": true, "dtype": "float32", "units": 100, "activation": "relu", "use_bias": true, "kernel_initializer": {"class_name": "VarianceScaling", "config": {"scale": 1.0, "mode": "fan_avg", "distribution": "uniform", "seed": null}}, "bias_initializer": {"class_name": "Zeros", "config": {}}, "kernel_regularizer": null, "bias_regularizer": null, "activity_regularizer": null, "kernel_constraint": null, "bias_constraint": null}, "inbound_nodes": [[["concatenate_111", 0, 0, {}]]]}, {"name": "dense_172", "class_name": "Dense", "config": {"name": "dense_172", "trainable": true, "dtype": "float32", "units": 100, "activation": "relu", "use_bias": true, "kernel_initializer": {"class_name": "VarianceScaling", "config": {"scale": 1.0, "mode": "fan_avg", "distribution": "uniform", "seed": null}}, "bias_initializer": {"class_name": "Zeros", "config": {}}, "kernel_regularizer": null, "bias_regularizer": null, "activity_regularizer": null, "kernel_constraint": null, "bias_constraint": null}, "inbound_nodes": [[["concatenate_130", 0, 0, {}]]]}, {"name": "dense_177", "class_name": "Dense", "config": {"name": "dense_177", "trainable": true, "dtype": "float32", "units": 100, "activation": "relu", "use_bias": true, "kernel_initializer": {"class_name": "VarianceScaling", "config": {"scale": 1.0, "mode": "fan_avg", "distribution": "uniform", "seed": null}}, "bias_initializer": {"class_name": "Zeros", "config": {}}, "kernel_regularizer": null, "bias_regularizer": null, "activity_regularizer": null, "kernel_constraint": null, "bias_constraint": null}, "inbound_nodes": [[["concatenate_135", 0, 0, {}]]]}, {"name": "dense_192", "class_name": "Dense", "config": {"name": "dense_192", "trainable": true, "dtype": "float32", "units": 100, "activation": "relu", "use_bias": true, "kernel_initializer": {"class_name": "VarianceScaling", "config": {"scale": 1.0, "mode": "fan_avg", "distribution": "uniform", "seed": null}}, "bias_initializer": {"class_name": "Zeros", "config": {}}, "kernel_regularizer": null, "bias_regularizer": null, "activity_regularizer": null, "kernel_constraint": null, "bias_constraint": null}, "inbound_nodes": [[["concatenate_150", 0, 0, {}]]]}, {"name": "dense_197", "class_name": "Dense", "config": {"name": "dense_197", "trainable": true, "dtype": "float32", "units": 100, "activation": "relu", "use_bias": true, "kernel_initializer": {"class_name": "VarianceScaling", "config": {"scale": 1.0, "mode": "fan_avg", "distribution": "uniform", "seed": null}}, "bias_initializer": {"class_name": "Zeros", "config": {}}, "kernel_regularizer": null, "bias_regularizer": null, "activity_regularizer": null, "kernel_constraint": null, "bias_constraint": null}, "inbound_nodes": [[["concatenate_155", 0, 0, {}]]]}, {"name": "dense_204", "class_name": "Dense", "config": {"name": "dense_204", "trainable": true, "dtype": "float32", "units": 100, "activation": "relu", "use_bias": true, "kernel_initializer": {"class_name": "VarianceScaling", "config": {"scale": 1.0, "mode": "fan_avg", "distribution": "uniform", "seed": null}}, "bias_initializer": {"class_name": "Zeros", "config": {}}, "kernel_regularizer": null, "bias_regularizer": null, "activity_regularizer": null, "kernel_constraint": null, "bias_constraint": null}, "inbound_nodes": [[["concatenate_162", 0, 0, {}]]]}, {"name": "dense_208", "class_name": "Dense", "config": {"name": "dense_208", "trainable": true, "dtype": "float32", "units": 100, "activation": "relu", "use_bias": true, "kernel_initializer": {"class_name": "VarianceScaling", "config": {"scale": 1.0, "mode": "fan_avg", "distribution": "uniform", "seed": null}}, "bias_initializer": {"class_name": "Zeros", "config": {}}, "kernel_regularizer": null, "bias_regularizer": null, "activity_regularizer": null, "kernel_constraint": null, "bias_constraint": null}, "inbound_nodes": [[["concatenate_166", 0, 0, {}]]]}, {"name": "dense_213", "class_name": "Dense", "config": {"name": "dense_213", "trainable": true, "dtype": "float32", "units": 100, "activation": "relu", "use_bias": true, "kernel_initializer": {"class_name": "VarianceScaling", "config": {"scale": 1.0, "mode": "fan_avg", "distribution": "uniform", "seed": null}}, "bias_initializer": {"class_name": "Zeros", "config": {}}, "kernel_regularizer": null, "bias_regularizer": null, "activity_regularizer": null, "kernel_constraint": null, "bias_constraint": null}, "inbound_nodes": [[["concatenate_171", 0, 0, {}]]]}, {"name": "dense_219", "class_name": "Dense", "config": {"name": "dense_219", "trainable": true, "dtype": "float32", "units": 100, "activation": "relu", "use_bias": true, "kernel_initializer": {"class_name": "VarianceScaling", "config": {"scale": 1.0, "mode": "fan_avg", "distribution": "uniform", "seed": null}}, "bias_initializer": {"class_name": "Zeros", "config": {}}, "kernel_regularizer": null, "bias_regularizer": null, "activity_regularizer": null, "kernel_constraint": null, "bias_constraint": null}, "inbound_nodes": [[["concatenate_177", 0, 0, {}]]]}, {"name": "dense_224", "class_name": "Dense", "config": {"name": "dense_224", "trainable": true, "dtype": "float32", "units": 100, "activation": "relu", "use_bias": true, "kernel_initializer": {"class_name": "VarianceScaling", "config": {"scale": 1.0, "mode": "fan_avg", "distribution": "uniform", "seed": null}}, "bias_initializer": {"class_name": "Zeros", "config": {}}, "kernel_regularizer": null, "bias_regularizer": null, "activity_regularizer": null, "kernel_constraint": null, "bias_constraint": null}, "inbound_nodes": [[["concatenate_182", 0, 0, {}]]]}, {"name": "dense_231", "class_name": "Dense", "config": {"name": "dense_231", "trainable": true, "dtype": "float32", "units": 100, "activation": "relu", "use_bias": true, "kernel_initializer": {"class_name": "VarianceScaling", "config": {"scale": 1.0, "mode": "fan_avg", "distribution": "uniform", "seed": null}}, "bias_initializer": {"class_name": "Zeros", "config": {}}, "kernel_regularizer": null, "bias_regularizer": null, "activity_regularizer": null, "kernel_constraint": null, "bias_constraint": null}, "inbound_nodes": [[["concatenate_189", 0, 0, {}]]]}, {"name": "dense_237", "class_name": "Dense", "config": {"name": "dense_237", "trainable": true, "dtype": "float32", "units": 100, "activation": "relu", "use_bias": true, "kernel_initializer": {"class_name": "VarianceScaling", "config": {"scale": 1.0, "mode": "fan_avg", "distribution": "uniform", "seed": null}}, "bias_initializer": {"class_name": "Zeros", "config": {}}, "kernel_regularizer": null, "bias_regularizer": null, "activity_regularizer": null, "kernel_constraint": null, "bias_constraint": null}, "inbound_nodes": [[["concatenate_195", 0, 0, {}]]]}, {"name": "dense_252", "class_name": "Dense", "config": {"name": "dense_252", "trainable": true, "dtype": "float32", "units": 100, "activation": "relu", "use_bias": true, "kernel_initializer": {"class_name": "VarianceScaling", "config": {"scale": 1.0, "mode": "fan_avg", "distribution": "uniform", "seed": null}}, "bias_initializer": {"class_name": "Zeros", "config": {}}, "kernel_regularizer": null, "bias_regularizer": null, "activity_regularizer": null, "kernel_constraint": null, "bias_constraint": null}, "inbound_nodes": [[["concatenate_210", 0, 0, {}]]]}, {"name": "dense_256", "class_name": "Dense", "config": {"name": "dense_256", "trainable": true, "dtype": "float32", "units": 100, "activation": "relu", "use_bias": true, "k…
": null, "activity_regularizer": null, "kernel_constraint": null, "bias_constraint": null}, "inbound_nodes": [[["concatenate_303", 0, 0, {}]]]}, {"name": "dense_368", "class_name": "Dense", "config": {"name": "dense_368", "trainable": true, "dtype": "float32", "units": 100, "activation": "relu", "use_bias": true, "kernel_initializer": {"class_name": "VarianceScaling", "config": {"scale": 1.0, "mode": "fan_avg", "distribution": "uniform", "seed": null}}, "bias_initializer": {"class_name": "Zeros", "config": {}}, "kernel_regularizer": null, "bias_regularizer": null, "activity_regularizer": null, "kernel_constraint": null, "bias_constraint": null}, "inbound_nodes": [[["concatenate_326", 0, 0, {}]]]}, {"name": "dense_396", "class_name": "Dense", "config": {"name": "dense_396", "trainable": true, "dtype": "float32", "units": 100, "activation": "relu", "use_bias": true, "kernel_initializer": {"class_name": "VarianceScaling", "config": {"scale": 1.0, "mode": "fan_avg", "distribution": "uniform", "seed": null}}, "bias_initializer": {"class_name": "Zeros", "config": {}}, "kernel_regularizer": null, "bias_regularizer": null, "activity_regularizer": null, "kernel_constraint": null, "bias_constraint": null}, "inbound_nodes": [[["concatenate_354", 0, 0, {}]]]}, {"name": "concatenate_3", "class_name": "Concatenate", "config": {"name": "concatenate_3", "trainable": true, "dtype": "float32", "axis": -1}, "inbound_nodes": [[["dense_1", 0, 0, {}], ["dense_44", 0, 0, {}]]]}, {"name": "concatenate_10", "class_name": "Concatenate", "config": {"name": "concatenate_10", "trainable": true, "dtype": "float32", "axis": -1}, "inbound_nodes": [[["dense_37", 0, 0, {}], ["dense_51", 0, 0, {}]]]}, {"name": "concatenate_30", "class_name": "Concatenate", "config": {"name": "concatenate_30", "trainable": true, "dtype": "float32", "axis": -1}, "inbound_nodes": [[["dense_57", 0, 0, {}], ["dense_71", 0, 0, {}]]]}, {"name": "concatenate_36", "class_name": "Concatenate", "config": {"name": "concatenate_36", "trainable": true, "dtype": "float32", "axis": -1}, "inbound_nodes": [[["dense_7", 0, 0, {}], ["dense_31", 0, 0, {}]]]}, {"name": "concatenate_56", "class_name": "Concatenate", "config": {"name": "concatenate_56", "trainable": true, "dtype": "float32", "axis": -1}, "inbound_nodes": [[["dense_83", 0, 0, {}], ["dense_97", 0, 0, {}]]]}, {"name": "concatenate_78", "class_name": "Concatenate", "config": {"name": "concatenate_78", "trainable": true, "dtype": "float32", "axis": -1}, "inbound_nodes": [[["dense_105", 0, 0, {}], ["dense_119", 0, 0, {}]]]}, {"name": "concatenate_116", "class_name": "Concatenate", "config": {"name": "concatenate_116", "trainable": true, "dtype": "float32", "axis": -1}, "inbound_nodes": [[["dense_135", 0, 0, {}], ["dense_157", 0, 0, {}]]]}, {"name": "concatenate_127", "class_name": "Concatenate", "config": {"name": "concatenate_127", "trainable": true, "dtype": "float32", "axis": -1}, "inbound_nodes": [[["dense_22", 0, 0, {}], ["dense_168", 0, 0, {}]]]}, {"name": "concatenate_140", "class_name": "Concatenate", "config": {"name": "concatenate_140", "trainable": true, "dtype": "float32", "axis": -1}, "inbound_nodes": [[["dense_171", 0, 0, {}], ["dense_181", 0, 0, {}]]]}, {"name": "concatenate_160", "class_name": "Concatenate", "config": {"name": "concatenate_160", "trainable": true, "dtype": "float32", "axis": -1}, "inbound_nodes": [[["dense_189", 0, 0, {}], ["dense_201", 0, 0, {}]]]}, {"name": "concatenate_200", "class_name": "Concatenate", "config": {"name": "concatenate_200", "trainable": true, "dtype": "float32", "axis": -1}, "inbound_nodes": [[["dense_217", 0, 0, {}], ["dense_241", 0, 0, {}]]]}, {"name": "concatenate_223", "class_name": "Concatenate", "config": {"name": "concatenate_223", "trainable": true, "dtype": "float32", "axis": -1}, "inbound_nodes": [[["dense_251", 0, 0, {}], ["dense_264", 0, 0, {}]]]}, {"name": "concatenate_263", "class_name": "Concatenate", "config": {"name": "concatenate_263", "trainable": true, "dtype": "float32", "axis": -1}, "inbound_nodes": [[["dense_280", 0, 0, {}], ["dense_304", 0, 0, {}]]]}, {"name": "concatenate_304", "class_name": "Concatenate", "config": {"name": "concatenate_304", "trainable": true, "dtype": "float32", "axis": -1}, "inbound_nodes": [[["dense_321", 0, 0, {}], ["dense_345", 0, 0, {}]]]}, {"name": "concatenate_355", "class_name": "Concatenate", "config": {"name": "concatenate_355", "trainable": true, "dtype": "float32", "axis": -1}, "inbound_nodes": [[["dense_368", 0, 0, {}], ["dense_396", 0, 0, {}]]]}, {"name": "dense_45", "class_name": "Dense", "config": {"name": "dense_45", "trainable": true, "dtype": "float32", "units": 100, "activation": "relu", "use_bias": true, "kernel_initializer": {"class_name": "VarianceScaling", "config": {"scale": 1.0, "mode": "fan_avg", "distribution": "uniform", "seed": null}}, "bias_initializer": {"class_name": "Zeros", "config": {}}, "kernel_regularizer": null, "bias_regularizer": null, "activity_regularizer": null, "kernel_constraint": null, "bias_constraint": null}, "inbound_nodes": [[["concatenate_3", 0, 0, {}]]]}, {"name": "dense_52", "class_name": "Dense", "config": {"name": "dense_52", "trainable": true, "dtype": "float32", "units": 100, "activation": "relu", "use_bias": true, "kernel_initializer": {"class_name": "VarianceScaling", "config": {"scale": 1.0, "mode": "fan_avg", "distribution": "uniform", "seed": null}}, "bias_initializer": {"class_name": "Zeros", "config": {}}, "kernel_regularizer": null, "bias_regularizer": null, "activity_regularizer": null, "kernel_constraint": null, "bias_constraint": null}, "inbound_nodes": [[["concatenate_10", 0, 0, {}]]]}, {"name": "dense_72", "class_name": "Dense", "config": {"name": "dense_72", "trainable": true, "dtype": "float32", "units": 100, "activation": "relu", "use_bias": true, "kernel_initializer": {"class_name": "VarianceScaling", "config": {"scale": 1.0, "mode": "fan_avg", "distribution": "uniform", "seed": null}}, "bias_initializer": {"class_name": "Zeros", "config": {}}, "kernel_regularizer": null, "bias_regularizer": null, "activity_regularizer": null, "kernel_constraint": null, "bias_constraint": null}, "inbound_nodes": [[["concatenate_30", 0, 0, {}]]]}, {"name": "dense_78", "class_name": "Dense", "config": {"name": "dense_78", "trainable": true, "dtype": "float32", "units": 100, "activation": "relu", "use_bias": true, "kernel_initializer": {"class_name": "VarianceScaling", "config": {"scale": 1.0, "mode": "fan_avg", "distribution": "uniform", "seed": null}}, "bias_initializer": {"class_name": "Zeros", "config": {}}, "kernel_regularizer": null, "bias_regularizer": null, "activity_regularizer": null, "kernel_constraint": null, "bias_constraint": null}, "inbound_nodes": [[["concatenate_36", 0, 0, {}]]]}, {"name": "dense_98", "class_name": "Dense", "config": {"name": "dense_98", "trainable": true, "dtype": "float32", "units": 100, "activation": "relu", "use_bias": true, "kernel_initializer": {"class_name": "VarianceScaling", "config": {"scale": 1.0, "mode": "fan_avg", "distribution": "uniform", "seed": null}}, "bias_initializer": {"class_name": "Zeros", "config": {}}, "kernel_regularizer": null, "bias_regularizer": null, "activity_regularizer": null, "kernel_constraint": null, "bias_constraint": null}, "inbound_nodes": [[["concatenate_56", 0, 0, {}]]]}, {"name": "dense_120", "class_name": "Dense", "config": {"name": "dense_120", "trainable": true, "dtype": "float32", "units": 100, "activation": "relu", "use_bias": true, "kernel_initializer": {"class_name": "VarianceScaling", "config": {"scale": 1.0, "mode": "fan_avg", "distribution": "uniform", "seed": null}}, "bias_initializer": {"class_name": "Zeros", "config": {}}, "kernel_regularizer": null, "bias_regularizer": null, "activity_regularizer": null, "kernel_constraint": null, "bias_constraint": null}, "inbound_nodes": [[["concatenate_78", 0, 0, {}]]]}, {"name": "dense_158", "class_name": "Dense", "config": {"name": "dense_158", "trainable": true, "dtype": "float32", "units": 100, "activation": "relu", "use_bias": true, "kernel_initializer": {"class_name": "VarianceScaling", "config": {"scale": 1.0, "mode": "fan_avg", "distribution": "uniform", "seed": null}}, "bias_initializer": {"class_name": "Zeros", "config": {}}, "kernel_regularizer": null, "bias_regularizer": null, "activity_regularizer": null, "kernel_constraint": null, "bias_constraint": null}, "inbound_nodes": [[["concatenate_116", 0, 0, {}]]]}, {"name": "dense_169", "class_name": "Dense", "config": {"name": "dense_169", "trainable": true, "dtype": "float32", "units": 100, "activation": "relu", "use_bias": true, "kernel_initializer": {"class_name": "VarianceScaling", "config": {"scale": 1.0, "mode": "fan_avg", "distribution": "uniform", "seed": null}}, "bias_initializer": {"class_name": "Zeros", "config": {}}, "kernel_regularizer": null, "bias_regularizer": null, "activity_regularizer": null, "kernel_constraint": null, "bias_constraint": null}, "inbound_nodes": [[["concatenate_127", 0, 0, {}]]]}, {"name": "dense_182", "class_name": "Dense", "config": {"name": "dense_182", "trainable": true, "dtype": "float32", "units": 100, "activation": "relu", "use_bias": true, "kernel_initializer": {"class_name": "VarianceScaling", "config": {"scale": 1.0, "mode": "fan_avg", "distribution": "uniform", "seed": null}}, "bias_initializer": {"class_name": "Zeros", "config": {}}, "kernel_regularizer": null, "bias_regularizer": null, "activity_regularizer": null, "kernel_constraint": null, "bias_constraint": null}, "inbound_nodes": [[["concatenate_140", 0, 0, {}]]]}, {"name": "dense_202", "class_name": "Dense", "config": {"name": "dense_202", "trainable": true, "dtype": "float32", "units": 100, "activation": "relu", "use_bias": true, "kernel_initializer": {"class_name": "VarianceScaling", "config": {"scale": 1.0, "mode": "fan_avg", "distribution": "uniform", "seed": null}}, "bias_initializer": {"class_name": "Zeros", "config": {}}, "kernel_regularizer": null, "bias_regularizer": null, "activity_regularizer": null, "kernel_constraint": null, "bias_constraint": null}, "inbound_nodes": [[["concatenate_160", 0, 0, {}]]]}, {"name": "dense_242", "class_name": "Dense", "config": {"name": "dense_242", "trainable": true, "dtype": "float32", "units": 100, "activation": "relu", "use_bias": true, "kernel_initializer": {"class_name": "VarianceScaling", "config": {"scale": 1.0, "mode": "fan_avg", "distribution": "uniform", "seed": null}}, "bias_initializer": {"class_name": "Zeros", "config": {}}, "kernel_regularizer": null, "bias_regularizer": null, "activity_regularizer": null, "kernel_constraint": null, "bias_constraint": null}, "inbound_nodes": [[["concatenate_200", 0, 0, {}]]]}, {"name": "dense_265", "class_name": "Dense", "config": {"name": "dense_265", "trainable": true, "dtype": "float32", "units": 100, "activation": "relu", "use_bias": true, "kernel_initializer": {"class_name": "VarianceScaling", "config": {"scale": 1.0, "mode": "fan_avg", "distribution": "uniform", "seed": null}}, "bias_initializer": {"class_name": "Zeros", "config": {}}, "kernel_regularizer": null, "bias_regularizer": null, "activity_regularizer": null, "kernel_constraint": null, "bias_constraint": null}, "inbound_nodes": [[["concatenate_223", 0, 0, {}]]]}, {"name": "dense_305", "class_name": "Dense", "config": {"name": "dense_305", "trainable": true, "dtype": "float32", "units": 100, "activation": "relu", "use_bias": true, "kernel_initializer": {"class_name": "VarianceScaling", "config": {"scale": 1.0, "mode": "fan_avg", "distribution": "uniform", "seed": null}}, "bias_initializer": {"class_name": "Zeros", "config": {}}, "kernel_regularizer": null, "bias_regularizer": null, "activity_regularizer": null, "kernel_constraint": null, "bias_constraint": null}, "inbound_nodes": [[["concatenate_263", 0, 0, {}]]]}, {"name": "dense_346", "class_name": "Dense", "config": {"name": "dense_346", "trainable": true, "dtype": "float32", "units": 100, "activation": "relu", "use_bias": true, "kernel_initializer": {"class_name": "VarianceScaling", "config": {"scale": 1.0, "mode": "fan_avg", "distribution": "uniform", "seed": null}}, "bias_initializer": {"class_name": "Zeros", "config": {}}, "kernel_regularizer": null, "bias_regularizer": null, "activity_regularizer": null, "kernel_constraint": null, "bias_constraint": null}, "inbound_nodes": [[["concatenate_304", 0, 0, {}]]]}, {"name": "dense_397", "class_name": "Dense", "config": {"name": "dense_397", "trainable": true, "dtype": "float32", "units": 100, "activation": "relu", "use_bias": true, "kernel_initializer": {"class_name": "VarianceScaling", "config": {"scale": 1.0, "mode": "fan_avg", "distribution": "uniform", "seed": null}}, "bias_initializer": {"class_name": "Zeros", "config": {}}, "kernel_regularizer": null, "bias_regularizer": null, "activity_regularizer": null, "kernel_constraint": null, "bias_constraint": null}, "inbound_nodes": [[["concatenate_355", 0, 0, {}]]]}, {"name": "concatenate_4", "class_name": "Concatenate", "config": {"name": "concatenate_4", "trainable": true, "dtype": "float32", "axis": -1}, "inbound_nodes": [[["dense_31", 0, 0, {}], ["dense_45", 0, 0, {}]]]}, {"name": "concatenate_11", "class_name": "Concatenate", "config": {"name": "concatenate_11", "trainable": true, "dtype": "float32", "axis": -1}, "inbound_nodes": [[["dense_1", 0, 0, {}], ["dense_52", 0, 0, {}]]]}, {"name": "concatenate_31", "class_name": "Concatenate", "config": {"name": "concatenate_31", "trainable": true, "dtype": "float32", "axis": -1}, "inbound_nodes": [[["dense_72", 0, 0, {}], ["dense_1", 0, 0, {}]]]}, {"name": "concatenate_37", "class_name": "Concatenate", "config": {"name": "concatenate_37", "trainable": true, "dtype": "float32", "axis": -1}, "inbound_nodes": [[["dense_14", 0, 0, {}], ["dense_78", 0, 0, {}]]]}, {"name": "concatenate_57", "class_name": "Concatenate", "config": {"name": "concatenate_57", "trainable": true, "dtype": "float32", "axis": -1}, "inbound_nodes": [[["dense_98", 0, 0, {}], ["dense_14", 0, 0, {}]]]}, {"name": "concatenate_79", "class_name": "Concatenate", "config": {"name": "concatenate_79", "trainable": true, "dtype": "float32", "axis": -1}, "inbound_nodes": [[["dense_120", 0, 0, {}], ["dense_25", 0, 0, {}]]]}, {"name": "concatenate_117", "class_name": "Concatenate", "config": {"name": "concatenate_117", "trainable": true, "dtype": "float32", "axis": -1}, "inbound_nodes": [[["dense_158", 0, 0, {}], ["dense_7", 0, 0, {}]]]}, {"name": "concatenate_128", "class_name": "Concatenate", "config": {"name": "concatenate_128", "trainable": true, "dtype": "float32", "axis": -1}, "inbound_nodes": [[["dense_20", 0, 0, {}], ["dense_169", 0, 0, {}]]]}, {"name": "concatenate_141", "class_name": "Concatenate", "config": {"name": "concatenate_141", "trainable": true, "dtype": "float32", "axis": -1}, "inbound_nodes": [[["dense_182", 0, 0, {}], ["dense_22", 0, 0, {}]]]}, {"name": "concatenate_161", "class_name": "Concatenate", "config": {"name": "concatenate_161", "trainable": true, "dtype": "float32", "axis": -1}, "inbound_nodes": [[["dense_202", 0, 0, {}], ["dense_13", 0, 0, {}]]]}, {"name": "concatenate_201", "class_name": "Concatenate", "config": {"name": "concatenate_201", "trainable": true, "dtype": "float32", "axis": -1}, "inbound_nodes": [[["dense_242", 0, 0, {}], ["dense_1", 0, 0, {}]]]}, {"name": "concatenate_224", "class_name": "Concatenate", "config": {"name": "concatenate_224", "trainable": true, "dtype": "float32", "axis": -1}, "inbound_nodes": [[["dense_265", 0, 0, {}], ["dense_15", 0, 0, {}]]]}, {"name": "concatenate_264", "class_name": "Concatenate", "config": {"name": "concatenate_264", "trainable": true, "dtype": "float32", "axis": -1}, "inbound_nodes": [[["dense_305", 0, 0, {}], ["dense_2", 0, 0, {}]]]}, {"name": "concatenate_305", "class_name": "Concatenate", "config": {"name": "concatenate_305", "trainable": true, "dtype": "float32", "axis": -1}, "inbound_nodes": [[["dense_346", 0, 0, {}], ["dense_17", 0, 0, {}]]]}, {"name": "concatenate_356", "class_name": "Concatenate", "config": {"name": "concatenate_356", "trainable": true, "dtype": "float32", "axis": -1}, "inbound_nodes": [[["dense_397", 0, 0, {}], ["dense_21", 0, 0, {}]]]}, {"name": "dense_46", "class_name": "Dense", "config": {"name": "dense_46", "trainable": true, "dtype": "float32", "units": 100, "activation": "relu", "use_bias": true, "kernel_initializer": {"class_name": "VarianceScaling", "config": {"scale": 1.0, "mode": "fan_avg", "distribution": "uniform", "seed": null}}, "bias_initializer": {"class_name": "Zeros", "config": {}}, "kernel_regularizer": null, "bias_regularizer": null, "activity_regularizer": null, "kernel_constraint": null, "bias_constraint": null}, "inbound_nodes": [[["concatenate_4", 0, 0, {}]]]}, {"name": "dense_53", "class_name": "Dense", "config": {"name": "dense_53", "trainable": true, "dtype": "float32", "units": 100, "activation": "relu", "use_bias": true, "kernel_initializer": {"class_name": "VarianceScaling", "config": {"scale": 1.0, "mode": "fan_avg", "distribution": "uniform", "seed": null}}, "bias_initializer": {"class_name": "Zeros", "config": {}}, "kernel_regularizer": null, "bias_regularizer": null, "activity_regularizer": null, "kernel_constraint": null, "bias_constraint": null}, "inbound_nodes": [[["concatenate_11", 0, 0, {}]]]}, {"name": "dense_73", "class_name": "Dense", "config": {"name": "dense_73", "trainable": true, "dtype": "float32", "units": 100, "activation": "relu", "use_bias": true, "kernel_initializer": {"class_name": "VarianceScaling", "config": {"scale": 1.0, "mode": "fan_avg", "distribution": "uniform", "seed": null}}, "bias_initializer": {"class_name": "Zeros", "config": {}}, "kernel_regularizer": null, "bias_regularizer": null, "activity_regularizer": null, "kernel_constraint": null, "bias_constraint": null}, "inbound_nodes": [[["concatenate_31", 0, 0, {}]]]}, {"name": "dense_79", "class_name": "Dense", "config": {"name": "dense_79", "trainable": true, "dtype": "float32", "units": 100, "activation": "relu", "use_bias": true, "kernel_initializer": {"class_name": "VarianceScaling", "config": {"scale": 1.0, "mode": "fan_avg", "distribution": "uniform", "seed": null}}, "bias_initializer": {"class_name": "Zeros", "config": {}}, "kernel_regularizer": null, "bias_regularizer": null, "activity_regularizer": null, "kernel_constraint": null, "bias_constraint": null}, "inbound_nodes": [[["concatenate_37", 0, 0, {}]]]}, {"name": "dense_99", "class_name": "Dense", "config": {"name": "dense_99", "trainable": true, "dtype": "float32", "units": 100, "activation": "relu", "use_bias": true, "kernel_initializer": {"class_name": "VarianceScaling", "config": {"scale": 1.0, "mode": "fan_avg", "distribution": "uniform", "seed": null}}, "bias_initializer": {"class_name": "Zeros", "config": {}}, "kernel_regularizer": null, "bias_regularizer": null, "activity_regularizer": null, "kernel_constraint": null, "bias_constraint": null}, "inbound_nodes": [[["concatenate_57", 0, 0, {}]]]}, {"name": "dense_121", "class_name": "Dense", "config": {"name": "dense_121", "trainable": true, "dtype": "float32", "units": 100, "activation": "relu", "use_bias": true, "kernel_initializer": {"class_name": "VarianceScaling", "config": {"scale": 1.0, "mode": "fan_avg", "distribution": "uniform", "seed": null}}, "bias_initializer": {"class_name": "Zeros", "config": {}}, "kernel_regularizer": null, "bias_regularizer": null, "activity_regularizer": null, "kernel_constraint": null, "bias_constraint": null}, "inbound_nodes": [[["concatenate_79", 0, 0, {}]]]}, {"name": "dense_159", "class_name": "Dense", "config": {"name": "dense_159", "trainable": true, "dtype": "float32", "units": 100, "activation": "relu", "use_bias": true, "kernel_initializer": {"class_name": "VarianceScaling", "config": {"scale": 1.0, "mode": "fan_avg", "distribution": "uniform", "seed": null}}, "bias_initializer": {"class_name": "Zeros", "config": {}}, "kernel_regularizer": null, "bias_regularizer": null, "activity_regularizer": null, "kernel_constraint": null, "bias_constraint": null}, "inbound_nodes": [[["concatenate_117", 0, 0, {}]]]}, {"name": "dense_170", "class_name": "Dense", "config": {"name": "dense_170", "trainable": true, "dtype": "float32", "units": 100, "activation": "relu", "use_bias": true, "kernel_initializer": {"class_name": "VarianceScaling", "config": {"scale": 1.0, "mode": "fan_avg", "distribution": "uniform", "seed": null}}, "bias_initializer": {"class_name": "Zeros", "config": {}}, "kernel_regularizer": null, "bias_regularizer": null, "activity_regularizer": null, "kernel_constraint": null, "bias_constraint": null}, "inbound_nodes": [[["concatenate_128", 0, 0, {}]]]}, {"name": "dense_183", "class_name": "Dense", "config": {"name": "dense_183", "trainable": true, "dtype": "float32", "units": 100, "activation": "relu", "use_bias": true, "kernel_initializer": {"class_name": "VarianceScaling", "config": {"scale": 1.0, "mode": "fan_avg", "distribution": "uniform", "seed": null}}, "bias_initializer": {"class_name": "Zeros", "config": {}}, "kernel_regularizer": null, "bias_regularizer": null, "activity_regularizer": null, "kernel_constraint": null, "bias_constraint": null}, "inbound_nodes": [[["concatenate_141", 0, 0, {}]]]}, {"name": "dense_203", "class_name": "Dense", "config": {"name": "dense_203", "trainable": true, "dtype": "float32", "units": 100, "activation": "relu", "use_bias": true, "kernel_initializer": {"class_name": "VarianceScaling", "config": {"scale": 1.0, "mode": "fan_avg", "distribution": "uniform", "seed": null}}, "bias_initializer": {"class_name": "Zeros", "config": {}}, "kernel_regularizer": null, "bias_regularizer": null, "activity_regularizer": null, "kernel_constraint": null, "bias_constraint": null}, "inbound_nodes": [[["concatenate_161", 0, 0, {}]]]}, {"name": "dense_243", "class_name": "Dense", "config": {"name": "dense_243", "trainable": true, "dtype": "float32", "units": 100, "activation": "relu", "use_bias": true, "kernel_initializer": {"class_name": "VarianceScaling", "config": {"scale": 1.0, "mode": "fan_avg", "distribution": "uniform", "seed": null}}, "bias_initializer": {"class_name": "Zeros", "config": {}}, "kernel_regularizer": null, "bias_regularizer": null, "activity_regularizer": null, "kernel_constraint": null, "bias_constraint": null}, "inbound_nodes": [[["concatenate_201", 0, 0, {}]]]}, {"name": "dense_266", "class_name": "Dense", "config": {"name": "dense_266", "trainable": true, "dtype": "float32", "units": 100, "activation": "relu", "use_bias": true, "kernel_initializer": {"class_name": "VarianceScaling", "config": {"scale": 1.0, "mode": "fan_avg", "distribution": "uniform", "seed": null}}, "bias_initializer": {"class_name": "Zeros", "config": {}}, "kernel_regularizer": null, "bias_regularizer": null, "activity_regularizer": null, "kernel_constraint": null, "bias_constraint": null}, "inbound_nodes": [[["concatenate_224", 0, 0, {}]]]}, {"name": "dense_306", "class_name": "Dense", "config": {"name": "dense_306", "trainable": true, "dtype": "float32", "units": 100, "activation": "relu", "use_bias": true, "kernel_initializer": {"class_name": "VarianceScaling", "config": {"scale": 1.0, "mode": "fan_avg", "distribution": "uniform", "seed": null}}, "bias_initializer": {"class_name": "Zeros", "config": {}}, "kernel_regularizer": null, "bias_regularizer": null, "activity_regularizer": null, "kernel_constraint": null, "bias_constraint": null}, "inbound_nodes": [[["concatenate_264", 0, 0, {}]]]}, {"name": "dense_347", "class_name": "Dense", "config": {"name": "dense_347", "trainable": true, "dtype": "float32", "units": 100, "activation": "relu", "use_bias": true, "kernel_initializer": {"class_name": "VarianceScaling", "config": {"scale": 1.0, "mode": "fan_avg", "distribution": "uniform", "seed": null}}, "bias_initializer": {"class_name": "Zeros", "config": {}}, "kernel_regularizer": null, "bias_regularizer": null, "activity_regularizer": null, "kernel_constraint": null, "bias_constraint": null}, "inbound_nodes": [[["concatenate_305", 0, 0, {}]]]}, {"name": "dense_398", "class_name": "Dense", "config": {"name": "dense_398", "trainable": true, "dtype": "float32", "units": 100, "activation": "relu", "use_bias": true, "kernel_initializer": {"class_name": "VarianceScaling", "config": {"scale": 1.0, "mode": "fan_avg", "distribution": "uniform", "seed": null}}, "bias_initializer": {"class_name": "Zeros", "config": {}}, "kernel_regularizer": null, "bias_regularizer": null, "activity_regularizer": null, "kernel_constraint": null, "bias_constraint": null}, "inbound_nodes": [[["concatenate_356", 0, 0, {}]]]}, {"name": "concatenate_5", "class_name": "Concatenate", "config": {"name": "concatenate_5", "trainable": true, "dtype": "float32", "axis": -1}, "inbound_nodes": [[["dense_25", 0, 0, {}], ["dense_46", 0, 0, {}]]]}, {"name": "concatenate_32", "class_name": "Concatenate", "config": {"name": "concatenate_32", "trainable": true, "dtype": "float32", "axis": -1}, "inbound_nodes": [[["dense_53", 0, 0, {}], ["dense_73", 0, 0, {}]]]}, {"name": "concatenate_58", "class_name": "Concatenate", "config": {"name": "concatenate_58", "trainable": true, "dtype": "float32", "axis": -1}, "inbound_nodes": [[["dense_79", 0, 0, {}], ["dense_99", 0, 0, {}]]]}, {"name": "concatenate_118", "class_name": "Concatenate", "config": {"name": "concatenate_118", "trainable": true, "dtype": "float32", "axis": -1}, "inbound_nodes": [[["dense_121", 0, 0, {}], ["dense_159", 0, 0, {}]]]}, {"name": "concatenate_142", "class_name": "Concatenate", "config": {"name": "concatenate_142", "trainable": true, "dtype": "float32", "axis": -1}, "inbound_nodes": [[["dense_170", 0, 0, {}], ["dense_183", 0, 0, {}]]]}, {"name": "concatenate_202", "class_name": "Concatenate", "config": {"name": "concatenate_202", "trainable": true, "dtype": "float32", "axis": -1}, "inbound_nodes": [[["dense_203", 0, 0, {}], ["dense_243", 0, 0, {}]]]}, {"name": "concatenate_265", "class_name": "Concatenate", "config": {"name": "concatenate_265", "trainable": true, "dtype": "float32", "axis": -1}, "inbound_nodes": [[["dense_266", 0, 0, {}], ["dense_306", 0, 0, {}]]]}, {"name": "concatenate_357", "class_name": "Concatenate", "config": {"name": "concatenate_357", "trainable": true, "dtype": "float32", "axis": -1}, "inbound_nodes": [[["dense_347", 0, 0, {}], ["dense_398", 0, 0, {}]]]}, {"name": "dense_47", "class_name": "Dense", "config": {"name": "dense_47", "trainable": true, "dtype": "float32", "units": 100, "activation": "relu", "use_bias": true, "kernel_initializer": {"class_name": "VarianceScaling", "config": {"scale": 1.0, "mode": "fan_avg", "distribution": "uniform", "seed": null}}, "bias_initializer": {"class_name": "Zeros", "config": {}}, "kernel_regularizer": null, "bias_regularizer": null, "activity_regularizer": null, "kernel_constraint": null, "bias_constraint": null}, "inbound_nodes": [[["concatenate_5", 0, 0, {}]]]}, {"name": "dense_74", "class_name": "Dense", "config": {"name": "dense_74", "trainable": true, "dtype": "float32", "units": 100, "activation": "relu", "use_bias": true, "kernel_initializer": {"class_name": "VarianceScaling", "config": {"scale": 1.0, "mode": "fan_avg", "distribution": "uniform", "seed": null}}, "bias_initializer": {"class_name": "Zeros", "config": {}}, "kernel_regularizer": null, "bias_regularizer": null, "activity_regularizer": null, "kernel_constraint": null, "bias_constraint": null}, "inbound_nodes": [[["concatenate_32", 0, 0, {}]]]}, {"name": "dense_100", "class_name": "Dense", "config": {"name": "dense_100", "trainable": true, "dtype": "float32", "units": 100, "activation": "relu", "use_bias": true, "kernel_initializer": {"class_name": "VarianceScaling", "config": {"scale": 1.0, "mode": "fan_avg", "distribution": "uniform", "seed": null}}, "bias_initializer": {"class_name": "Zeros", "config": {}}, "kernel_regularizer": null, "bias_regularizer": null, "activity_regularizer": null, "kernel_constraint": null, "bias_constraint": null}, "inbound_nodes": [[["concatenate_58", 0, 0, {}]]]}, {"name": "dense_160", "class_name": "Dense", "config": {"name": "dense_160", "trainable": true, "dtype": "float32", "units": 100, "activation": "relu", "use_bias": true, "kernel_initializer": {"class_name": "VarianceScaling", "config": {"scale": 1.0, "mode": "fan_avg", "distribution": "uniform", "seed": null}}, "bias_initializer": {"class_name": "Zeros", "config": {}}, "kernel_regularizer": null, "bias_regularizer": null, "activity_regularizer": null, "kernel_constraint": null, "bias_constraint": null}, "inbound_nodes": [[["concatenate_118", 0, 0, {}]]]}, {"name": "dense_184", "class_name": "Dense", "config": {"name": "dense_184", "trainable": true, "dtype": "float32", "units": 100, "activation": "relu", "use_bias": true, "kernel_initializer": {"class_name": "VarianceScaling", "config": {"scale": 1.0, "mode": "fan_avg", "distribution": "uniform", "seed": null}}, "bias_initializer": {"class_name": "Zeros", "config": {}}, "kernel_regularizer": null, "bias_regularizer": null, "activity_regularizer": null, "kernel_constraint": null, "bias_constraint": null}, "inbound_nodes": [[["concatenate_142", 0, 0, {}]]]}, {"name": "dense_244", "class_name": "Dense", "config": {"name": "dense_244", "trainable": true, "dtype": "float32", "units": 100, "activation": "relu", "use_bias": true, "kernel_initializer": {"class_name": "VarianceScaling", "config": {"scale": 1.0, "mode": "fan_avg", "distribution": "uniform", "seed": null}}, "bias_initializer": {"class_name": "Zeros", "config": {}}, "kernel_regularizer": null, "bias_regularizer": null, "activity_regularizer": null, "kernel_constraint": null, "bias_constraint": null}, "inbound_nodes": [[["concatenate_202", 0, 0, {}]]]}, {"name": "dense_307", "class_name": "Dense", "config": {"name": "dense_307", "trainable": true, "dtype": "float32", "units": 100, "activation": "relu", "use_bias": true, "kernel_initializer": {"class_name": "VarianceScaling", "config": {"scale": 1.0, "mode": "fan_avg", "distribution": "uniform", "seed": null}}, "bias_initializer": {"class_name": "Zeros", "config": {}}, "kernel_regularizer": null, "bias_regularizer": null, "activity_regularizer": null, "kernel_constraint": null, "bias_constraint": null}, "inbound_nodes": [[["concatenate_265", 0, 0, {}]]]}, {"name": "dense_399", "class_name": "Dense", "config": {"name": "dense_399", "trainable": true, "dtype": "float32", "units": 100, "activation": "relu", "use_bias": true, "kernel_initializer": {"class_name": "VarianceScaling", "config": {"scale": 1.0, "mode": "fan_avg", "distribution": "uniform", "seed": null}}, "bias_initializer": {"class_name": "Zeros", "config": {}}, "kernel_regularizer": null, "bias_regularizer": null, "activity_regularizer": null, "kernel_constraint": null, "bias_constraint": null}, "inbound_nodes": [[["concatenate_357", 0, 0, {}]]]}, {"name": "concatenate_6", "class_name": "Concatenate", "config": {"name": "concatenate_6", "trainable": true, "dtype": "float32", "axis": -1}, "inbound_nodes": [[["dense_15", 0, 0, {}], ["dense_47", 0, 0, {}]]]}, {"name": "concatenate_33", "class_name": "Concatenate", "config": {"name": "concatenate_33", "trainable": true, "dtype": "float32", "axis": -1}, "inbound_nodes": [[["dense_74", 0, 0, {}], ["dense_25", 0, 0, {}]]]}, {"name": "concatenate_59", "class_name": "Concatenate", "config": {"name": "concatenate_59", "trainable": true, "dtype": "float32", "axis": -1}, "inbound_nodes": [[["dense_100", 0, 0, {}], ["dense_22", 0, 0, {}]]]}, {"name": "concatenate_119", "class_name": "Concatenate", "config": {"name": "concatenate_119", "trainable": true, "dtype": "float32", "axis": -1}, "inbound_nodes": [[["dense_160", 0, 0, {}], ["dense_15", 0, 0, {}]]]}, {"name": "concatenate_143", "class_name": "Concatenate", "config": {"name": "concatenate_143", "trainable": true, "dtype": "float32", "axis": -1}, "inbound_nodes": [[["dense_184", 0, 0, {}], ["dense_13", 0, 0, {}]]]}, {"name": "concatenate_203", "class_name": "Concatenate", "config": {"name": "concatenate_203", "trainable": true, "dtype": "float32", "axis": -1}, "inbound_nodes": [[["dense_244", 0, 0, {}], ["dense_38", 0, 0, {}]]]}, {"name": "concatenate_266", "class_name": "Concatenate", "config": {"name": "concatenate_266", "trainable": true, "dtype": "float32", "axis": -1}, "inbound_nodes": [[["dense_307", 0, 0, {}], ["dense_7", 0, 0, {}]]]}, {"name": "concatenate_358", "class_name": "Concatenate", "config": {"name": "concatenate_358", "trainable": true, "dtype": "float32", "axis": -1}, "inbound_nodes": [[["dense_399", 0, 0, {}], ["dense_15", 0, 0, {}]]]}, {"name": "dense_48", "class_name": "Dense", "config": {"name": "dense_48", "trainable": true, "dtype": "float32", "units": 100, "activation": "relu", "use_bias": true, "kernel_initializer": {"class_name": "VarianceScaling", "config": {"scale": 1.0, "mode": "fan_avg", "distribution": "uniform", "seed": null}}, "bias_initializer": {"class_name": "Zeros", "config": {}}, "kernel_regularizer": null, "bias_regularizer": null, "activity_regularizer": null, "kernel_constraint": null, "bias_constraint": null}, "inbound_nodes": [[["concatenate_6", 0, 0, {}]]]}, {"name": "dense_75", "class_name": "Dense", "config": {"name": "dense_75", "trainable": true, "dtype": "float32", "units": 100, "activation": "relu", "use_bias": true, "kernel_initializer": {"class_name": "VarianceScaling", "config": {"scale": 1.0, "mode": "fan_avg", "distribution": "uniform", "seed": null}}, "bias_initializer": {"class_name": "Zeros", "config": {}}, "kernel_regularizer": null, "bias_regularizer": null, "activity_regularizer": null, "kernel_constraint": null, "bias_constraint": null}, "inbound_nodes": [[["concatenate_33", 0, 0, {}]]]}, {"name": "dense_101", "class_name": "Dense", "config": {"name": "dense_101", "trainable": true, "dtype": "float32", "units": 100, "activation": "relu", "use_bias": true, "kernel_initializer": {"class_name": "VarianceScaling", "config": {"scale": 1.0, "mode": "fan_avg", "distribution": "uniform", "seed": null}}, "bias_initializer": {"class_name": "Zeros", "config": {}}, "kernel_regularizer": null, "bias_regularizer": null, "activity_regularizer": null, "kernel_constraint": null, "bias_constraint": null}, "inbound_nodes": [[["concatenate_59", 0, 0, {}]]]}, {"name": "dense_161", "class_name": "Dense", "config": {"name": "dense_161", "trainable": true, "dtype": "float32", "units": 100, "activation": "relu", "use_bias": true, "kernel_initializer": {"class_name": "VarianceScaling", "config": {"scale": 1.0, "mode": "fan_avg", "distribution": "uniform", "seed": null}}, "bias_initializer": {"class_name": "Zeros", "config": {}}, "kernel_regularizer": null, "bias_regularizer": null, "activity_regularizer": null, "kernel_constraint": null, "bias_constraint": null}, "inbound_nodes": [[["concatenate_119", 0, 0, {}]]]}, {"name": "dense_185", "class_name": "Dense", "config": {"name": "dense_185", "trainable": true, "dtype": "float32", "units": 100, "activation": "relu", "use_bias": true, "kernel_initializer": {"class_name": "VarianceScaling", "config": {"scale": 1.0, "mode": "fan_avg", "distribution": "uniform", "seed": null}}, "bias_initializer": {"class_name": "Zeros", "config": {}}, "kernel_regularizer": null, "bias_regularizer": null, "activity_regularizer": null, "kernel_constraint": null, "bias_constraint": null}, "inbound_nodes": [[["concatenate_143", 0, 0, {}]]]}, {"name": "dense_245", "class_name": "Dense", "config": {"name": "dense_245", "trainable": true, "dtype": "float32", "units": 100, "activation": "relu", "use_bias": true, "kernel_initializer": {"class_name": "VarianceScaling", "config": {"scale": 1.0, "mode": "fan_avg", "distribution": "uniform", "seed": null}}, "bias_initializer": {"class_name": "Zeros", "config": {}}, "kernel_regularizer": null, "bias_regularizer": null, "activity_regularizer": null, "kernel_constraint": null, "bias_constraint": null}, "inbound_nodes": [[["concatenate_203", 0, 0, {}]]]}, {"name": "dense_308", "class_name": "Dense", "config": {"name": "dense_308", "trainable": true, "dtype": "float32", "units": 100, "activation": "relu", "use_bias": true, "kernel_initializer": {"class_name": "VarianceScaling", "config": {"scale": 1.0, "mode": "fan_avg", "distribution": "uniform", "seed": null}}, "bias_initializer": {"class_name": "Zeros", "config": {}}, "kernel_regularizer": null, "bias_regularizer": null, "activity_regularizer": null, "kernel_constraint": null, "bias_constraint": null}, "inbound_nodes": [[["concatenate_266", 0, 0, {}]]]}, {"name": "dense_400", "class_name": "Dense", "config": {"name": "dense_400", "trainable": true, "dtype": "float32", "units": 100, "activation": "relu", "use_bias": true, "kernel_initializer": {"class_name": "VarianceScaling", "config": {"scale": 1.0, "mode": "fan_avg", "distribution": "uniform", "seed": null}}, "bias_initializer": {"class_name": "Zeros", "config": {}}, "kernel_regularizer": null, "bias_regularizer": null, "activity_regularizer": null, "kernel_constraint": null, "bias_constraint": null}, "inbound_nodes": [[["concatenate_358", 0, 0, {}]]]}, {"name": "concatenate_34", "class_name": "Concatenate", "config": {"name": "concatenate_34", "trainable": true, "dtype": "float32", "axis": -1}, "inbound_nodes": [[["dense_48", 0, 0, {}], ["dense_75", 0, 0, {}]]]}, {"name": "concatenate_120", "class_name": "Concatenate", "config": {"name": "concatenate_120", "trainable": true, "dtype": "float32", "axis": -1}, "inbound_nodes": [[["dense_101", 0, 0, {}], ["dense_161", 0, 0, {}]]]}, {"name": "concatenate_204", "class_name": "Concatenate", "config": {"name": "concatenate_204", "trainable": true, "dtype": "float32", "axis": -1}, "inbound_nodes": [[["dense_185", 0, 0, {}], ["dense_245", 0, 0, {}]]]}, {"name": "concatenate_359", "class_name": "Concatenate", "config": {"name": "concatenate_359", "trainable": true, "dtype": "float32", "axis": -1}, "inbound_nodes": [[["dense_308", 0, 0, {}], ["dense_400", 0, 0, {}]]]}, {"name": "dense_76", "class_name": "Dense", "config": {"name": "dense_76", "trainable": true, "dtype": "float32", "units": 100, "activation": "relu", "use_bias": true, "kernel_initializer": {"class_name": "VarianceScaling", "config": {"scale": 1.0, "mode": "fan_avg", "distribution": "uniform", "seed": null}}, "bias_initializer": {"class_name": "Zeros", "config": {}}, "kernel_regularizer": null, "bias_regularizer": null, "activity_regularizer": null, "kernel_constraint": null, "bias_constraint": null}, "inbound_nodes": [[["concatenate_34", 0, 0, {}]]]}, {"name": "dense_162", "class_name": "Dense", "config": {"name": "dense_162", "trainable": true, "dtype": "float32", "units": 100, "activation": "relu", "use_bias": true, "kernel_initializer": {"class_name": "VarianceScaling", "config": {"scale": 1.0, "mode": "fan_avg", "distribution": "uniform", "seed": null}}, "bias_initializer": {"class_name": "Zeros", "config": {}}, "kernel_regularizer": null, "bias_regularizer": null, "activity_regularizer": null, "kernel_constraint": null, "bias_constraint": null}, "inbound_nodes": [[["concatenate_120", 0, 0, {}]]]}, {"name": "dense_246", "class_name": "Dense", "config": {"name": "dense_246", "trainable": true, "dtype": "float32", "units": 100, "activation": "relu", "use_bias": true, "kernel_initializer": {"class_name": "VarianceScaling", "config": {"scale": 1.0, "mode": "fan_avg", "distribution": "uniform", "seed": null}}, "bias_initializer": {"class_name": "Zeros", "config": {}}, "kernel_regularizer": null, "bias_regularizer": null, "activity_regularizer": null, "kernel_constraint": null, "bias_constraint": null}, "inbound_nodes": [[["concatenate_204", 0, 0, {}]]]}, {"name": "dense_401", "class_name": "Dense", "config": {"name": "dense_401", "trainable": true, "dtype": "float32", "units": 100, "activation": "relu", "use_bias": true, "kernel_initializer": {"class_name": "VarianceScaling", "config": {"scale": 1.0, "mode": "fan_avg", "distribution": "uniform", "seed": null}}, "bias_initializer": {"class_name": "Zeros", "config": {}}, "kernel_regularizer": null, "bias_regularizer": null, "activity_regularizer": null, "kernel_constraint": null, "bias_constraint": null}, "inbound_nodes": [[["concatenate_359", 0, 0, {}]]]}, {"name": "concatenate_35", "class_name": "Concatenate", "config": {"name": "concatenate_35", "trainable": true, "dtype": "float32", "axis": -1}, "inbound_nodes": [[["dense_76", 0, 0, {}], ["dense_7", 0, 0, {}]]]}, {"name": "concatenate_121", "class_name": "Concatenate", "config": {"name": "concatenate_121", "trainable": true, "dtype": "float32", "axis": -1}, "inbound_nodes": [[["dense_162", 0, 0, {}], ["dense_21", 0, 0, {}]]]}, {"name": "concatenate_205", "class_name": "Concatenate", "config": {"name": "concatenate_205", "trainable": true, "dtype": "float32", "axis": -1}, "inbound_nodes": [[["dense_246", 0, 0, {}], ["dense_21", 0, 0, {}]]]}, {"name": "concatenate_360", "class_name": "Concatenate", "config": {"name": "concatenate_360", "trainable": true, "dtype": "float32", "axis": -1}, "inbound_nodes": [[["dense_401", 0, 0, {}], ["dense_1", 0, 0, {}]]]}, {"name": "dense_77", "class_name": "Dense", "config": {"name": "dense_77", "trainable": true, "dtype": "float32", "units": 100, "activation": "relu", "use_bias": true, "kernel_initializer": {"class_name": "VarianceScaling", "config": {"scale": 1.0, "mode": "fan_avg", "distribution": "uniform", "seed": null}}, "bias_initializer": {"class_name": "Zeros", "config": {}}, "kernel_regularizer": null, "bias_regularizer": null, "activity_regularizer": null, "kernel_constraint": null, "bias_constraint": null}, "inbound_nodes": [[["concatenate_35", 0, 0, {}]]]}, {"name": "dense_163", "class_name": "Dense", "config": {"name": "dense_163", "trainable": true, "dtype": "float32", "units": 100, "activation": "relu", "use_bias": true, "kernel_initializer": {"class_name": "VarianceScaling", "config": {"scale": 1.0, "mode": "fan_avg", "distribution": "uniform", "seed": null}}, "bias_initializer": {"class_name": "Zeros", "config": {}}, "kernel_regularizer": null, "bias_regularizer": null, "activity_regularizer": null, "kernel_constraint": null, "bias_constraint": null}, "inbound_nodes": [[["concatenate_121", 0, 0, {}]]]}, {"name": "dense_247", "class_name": "Dense", "config": {"name": "dense_247", "trainable": true, "dtype": "float32", "units": 100, "activation": "relu", "use_bias": true, "kernel_initializer": {"class_name": "VarianceScaling", "config": {"scale": 1.0, "mode": "fan_avg", "distribution": "uniform", "seed": null}}, "bias_initializer": {"class_name": "Zeros", "config": {}}, "kernel_regularizer": null, "bias_regularizer": null, "activity_regularizer": null, "kernel_constraint": null, "bias_constraint": null}, "inbound_nodes": [[["concatenate_205", 0, 0, {}]]]}, {"name": "dense_402", "class_name": "Dense", "config": {"name": "dense_402", "trainable": true, "dtype": "float32", "units": 100, "activation": "relu", "use_bias": true, "kernel_initializer": {"class_name": "VarianceScaling", "config": {"scale": 1.0, "mode": "fan_avg", "distribution": "uniform", "seed": null}}, "bias_initializer": {"class_name": "Zeros", "config": {}}, "kernel_regularizer": null, "bias_regularizer": null, "activity_regularizer": null, "kernel_constraint": null, "bias_constraint": null}, "inbound_nodes": [[["concatenate_360", 0, 0, {}]]]}, {"name": "concatenate_122", "class_name": "Concatenate", "config": {"name": "concatenate_122", "trainable": true, "dtype": "float32", "axis": -1}, "inbound_nodes": [[["dense_77", 0, 0, {}], ["dense_163", 0, 0, {}]]]}, {"name": "concatenate_361", "class_name": "Concatenate", "config": {"name": "concatenate_361", "trainable": true, "dtype": "float32", "axis": -1}, "inbound_nodes": [[["dense_247", 0, 0, {}], ["dense_402", 0, 0, {}]]]}, {"name": "dense_164", "class_name": "Dense", "config": {"name": "dense_164", "trainable": true, "dtype": "float32", "units": 100, "activation": "relu", "use_bias": true, "kernel_initializer": {"class_name": "VarianceScaling", "config": {"scale": 1.0, "mode": "fan_avg", "distribution": "uniform", "seed": null}}, "bias_initializer": {"class_name": "Zeros", "config": {}}, "kernel_regularizer": null, "bias_regularizer": null, "activity_regularizer": null, "kernel_constraint": null, "bias_constraint": null}, "inbound_nodes": [[["concatenate_122", 0, 0, {}]]]}, {"name": "dense_403", "class_name": "Dense", "config": {"name": "dense_403", "trainable": true, "dtype": "float32", "units": 100, "activation": "relu", "use_bias": true, "kernel_initializer": {"class_name": "VarianceScaling", "config": {"scale": 1.0, "mode": "fan_avg", "distribution": "uniform", "seed": null}}, "bias_initializer": {"class_name": "Zeros", "config": {}}, "kernel_regularizer": null, "bias_regularizer": null, "activity_regularizer": null, "kernel_constraint": null, "bias_constraint": null}, "inbound_nodes": [[["concatenate_361", 0, 0, {}]]]}, {"name": "concatenate_123", "class_name": "Concatenate", "config": {"name": "concatenate_123", "trainable": true, "dtype": "float32", "axis": -1}, "inbound_nodes": [[["dense_164", 0, 0, {}], ["dense_20", 0, 0, {}]]]}, {"name": "concatenate_362", "class_name": "Concatenate", "config": {"name": "concatenate_362", "trainable": true, "dtype": "float32", "axis": -1}, "inbound_nodes": [[["dense_403", 0, 0, {}], ["dense_37", 0, 0, {}]]]}, {"name": "dense_165", "class_name": "Dense", "config": {"name": "dense_165", "trainable": true, "dtype": "float32", "units": 100, "activation": "relu", "use_bias": true, "kernel_initializer": {"class_name": "VarianceScaling", "config": {"scale": 1.0, "mode": "fan_avg", "distribution": "uniform", "seed": null}}, "bias_initializer": {"class_name": "Zeros", "config": {}}, "kernel_regularizer": null, "bias_regularizer": null, "activity_regularizer": null, "kernel_constraint": null, "bias_constraint": null}, "inbound_nodes": [[["concatenate_123", 0, 0, {}]]]}, {"name": "dense_404", "class_name": "Dense", "config": {"name": "dense_404", "trainable": true, "dtype": "float32", "units": 100, "activation": "relu", "use_bias": true, "kernel_initializer": {"class_name": "VarianceScaling", "config": {"scale": 1.0, "mode": "fan_avg", "distribution": "uniform", "seed": null}}, "bias_initializer": {"class_name": "Zeros", "config": {}}, "kernel_regularizer": null, "bias_regularizer": null, "activity_regularizer": null, "kernel_constraint": null, "bias_constraint": null}, "inbound_nodes": [[["concatenate_362", 0, 0, {}]]]}, {"name": "concatenate_363", "class_name": "Concatenate", "config": {"name": "concatenate_363", "trainable": true, "dtype": "float32", "axis": -1}, "inbound_nodes": [[["dense_165", 0, 0, {}], ["dense_404", 0, 0, {}]]]}, {"name": "input_19", "class_name": "InputLayer", "config": {"batch_input_shape": [null, 1], "dtype": "float32", "sparse": false, "name": "input_19"}, "inbound_nodes": []}, {"name": "dense_405", "class_name": "Dense", "config": {"name": "dense_405", "trainable": true, "dtype": "float32", "units": 100, "activation": "relu", "use_bias": true, "kernel_initializer": {"class_name": "VarianceScaling", "config": {"scale": 1.0, "mode": "fan_avg", "distribution": "uniform", "seed": null}}, "bias_initializer": {"class_name": "Zeros", "config": {}}, "kernel_regularizer": null, "bias_regularizer": null, "activity_regularizer": null, "kernel_constraint": null, "bias_constraint": null}, "inbound_nodes": [[["concatenate_363", 0, 0, {}]]]}, {"name": "dense_19", "class_name": "Dense", "config": {"name": "dense_19", "trainable": true, "dtype": "float32", "units": 50, "activation": "relu", "use_bias": true, "kernel_initializer": {"class_name": "VarianceScaling", "config": {"scale": 1.0, "mode": "fan_avg", "distribution": "uniform", "seed": null}}, "bias_initializer": {"class_name": "Zeros", "config": {}}, "kernel_regularizer": null, "bias_regularizer": null, "activity_regularizer": null, "kernel_constraint": null, "bias_constraint": null}, "inbound_nodes": [[["input_19", 0, 0, {}]]]}, {"name": "concatenate_364", "class_name": "Concatenate", "config": {"name": "concatenate_364", "trainable": true, "dtype": "float32", "axis": -1}, "inbound_nodes": [[["dense_405", 0, 0, {}], ["dense_19", 0, 0, {}]]]}, {"name": "dense_406", "class_name": "Dense", "config": {"name": "dense_406", "trainable": true, "dtype": "float32", "units": 100, "activation": "relu", "use_bias": true, "kernel_initializer": {"class_name": "VarianceScaling", "config": {"scale": 1.0, "mode": "fan_avg", "distribution": "uniform", "seed": null}}, "bias_initializer": {"class_name": "Zeros", "config": {}}, "kernel_regularizer": null, "bias_regularizer": null, "activity_regularizer": null, "kernel_constraint": null, "bias_constraint": null}, "inbound_nodes": [[["concatenate_364", 0, 0, {}]]]}, {"name": "dense_407", "class_name": "Dense", "config": {"name": "dense_407", "trainable": true, "dtype": "float32", "units": 3, "activation": "softmax", "use_bias": true, "kernel_initializer": {"class_name": "VarianceScaling", "config": {"scale": 1.0, "mode": "fan_avg", "distribution": "uniform", "seed": null}}, "bias_initializer": {"class_name": "Zeros", "config": {}}, "kernel_regularizer": null, "bias_regularizer": null, "activity_regularizer": null, "kernel_constraint": null, "bias_constraint": null}, "inbound_nodes": [[["dense_406", 0, 0, {}]]]}], "input_layers": [["input_1", 0, 0], ["input_2", 0, 0], ["input_3", 0, 0], ["input_4", 0, 0], ["input_5", 0, 0], ["input_7", 0, 0], ["input_8", 0, 0], ["input_9", 0, 0], ["input_10", 0, 0], ["input_13", 0, 0], ["input_14", 0, 0], ["input_15", 0, 0], ["input_16", 0, 0], ["input_17", 0, 0], ["input_18", 0, 0], ["input_19", 0, 0], ["input_20", 0, 0], ["input_21", 0, 0], ["input_22", 0, 0], ["input_23", 0, 0], ["input_24", 0, 0], ["input_25", 0, 0], ["input_26", 0, 0], ["input_27", 0, 0], ["input_28", 0, 0], ["input_31", 0, 0], ["input_32", 0, 0], ["input_33", 0, 0], ["input_34", 0, 0], ["input_37", 0, 0], ["input_38", 0, 0], ["input_39", 0, 0], ["input_40", 0, 0]], "output_layers": [["dense_407", 0, 0]]}, "keras_version": "2.3.1", "backend": "tensorflow"}