{"class_name": "Model", "config": {"name": "model_2", "layers": [{"name": "input_12", "class_name": "InputLayer", "config": {"batch_input_shape": [null, 1], "dtype": "float32", "sparse": false, "name": "input_12"}, "inbound_nodes": []}, {"name": "input_11", "class_name": "InputLayer", "config": {"batch_input_shape": [null, 1], "dtype": "float32", "sparse": false, "name": "input_11"}, "inbound_nodes": []}, {"name": "input_15", "class_name": "InputLayer", "config": {"batch_input_shape": [null, 1], "dtype": "float32", "sparse": false, "name": "input_15"}, "inbound_nodes": []}, {"name": "input_16", "class_name": "InputLayer", "config": {"batch_input_shape": [null, 1], "dtype": "float32", "sparse": false, "name": "input_16"}, "inbound_nodes": []}, {"name": "input_14", "class_name": "InputLayer", "config": {"batch_input_shape": [null, 1], "dtype": "float32", "sparse": false, "name": "input_14"}, "inbound_nodes": []}, {"name": "input_19", "class_name": "InputLayer", "config": {"batch_input_shape": [null, 1], "dtype": "float32", "sparse": false, "name": "input_19"}, "inbound_nodes": []}, {"name": "input_18", "class_name": "InputLayer", "config": {"batch_input_shape": [null, 1], "dtype": "float32", "sparse": false, "name": "input_18"}, "inbound_nodes": []}, {"name": "input_20", "class_name": "InputLayer", "config": {"batch_input_shape": [null, 1], "dtype": "float32", "sparse": false, "name": "input_20"}, "inbound_nodes": []}, {"name": "input_13", "class_name": "InputLayer", "config": {"batch_input_shape": [null, 1], "dtype": "float32", "sparse": false, "name": "input_13"}, "inbound_nodes": []}, {"name": "input_17", "class_name": "InputLayer", "config": {"batch_input_shape": [null, 1], "dtype": "float32", "sparse": false, "name": "input_17"}, "inbound_nodes": []}, {"name": "dense_880", "class_name": "Dense", "config": {"name": "dense_880", "trainable": true, "dtype": "float32", "units": 50, "activation": "relu", "use_bias": true, "kernel_initializer": {"class_name": "VarianceScaling", "config": {"scale": 1.0, "mode": "fan_avg", "distribution": "uniform", "seed": null}}, "bias_initializer": {"class_name": "Zeros", "config": {}}, "kernel_regularizer": null, "bias_regularizer": null, "activity_regularizer": null, "kernel_constraint": null, "bias_constraint": null}, "inbound_nodes": [[["input_12", 0, 0, {}]]]}, {"name": "dense_879", "class_name": "Dense", "config": {"name": "dense_879", "trainable": true, "dtype": "float32", "units": 50, "activation": "relu", "use_bias": true, "kernel_initializer": {"class_name": "VarianceScaling", "config": {"scale": 1.0, "mode": "fan_avg", "distribution": "uniform", "seed": null}}, "bias_initializer": {"class_name": "Zeros", "config": {}}, "kernel_regularizer": null, "bias_regularizer": null, "activity_regularizer": null, "kernel_constraint": null, "bias_constraint": null}, "inbound_nodes": [[["input_11", 0, 0, {}]]]}, {"name": "dense_883", "class_name": "Dense", "config": {"name": "dense_883", "trainable": true, "dtype": "float32", "units": 50, "activation": "relu", "use_bias": true, "kernel_initializer": {"class_name": "VarianceScaling", "config": {"scale": 1.0, "mode": "fan_avg", "distribution": "uniform", "seed": null}}, "bias_initializer": {"class_name": "Zeros", "config": {}}, "kernel_regularizer": null, "bias_regularizer": null, "activity_regularizer": null, "kernel_constraint": null, "bias_constraint": null}, "inbound_nodes": [[["input_15", 0, 0, {}]]]}, {"name": "dense_884", "class_name": "Dense", "config": {"name": "dense_884", "trainable": true, "dtype": "float32", "units": 50, "activation": "relu", "use_bias": true, "kernel_initializer": {"class_name": "VarianceScaling", "config": {"scale": 1.0, "mode": "fan_avg", "distribution": "uniform", "seed": null}}, "bias_initializer": {"class_name": "Zeros", "config": {}}, "kernel_regularizer": null, "bias_regularizer": null, "activity_regularizer": null, "kernel_constraint": null, "bias_constraint": null}, "inbound_nodes": [[["input_16", 0, 0, {}]]]}, {"name": "dense_882", "class_name": "Dense", "config": {"name": "dense_882", "trainable": true, "dtype": "float32", "units": 50, "activation": "relu", "use_bias": true, "kernel_initializer": {"class_name": "VarianceScaling", "config": {"scale": 1.0, "mode": "fan_avg", "distribution": "uniform", "seed": null}}, "bias_initializer": {"class_name": "Zeros", "config": {}}, "kernel_regularizer": null, "bias_regularizer": null, "activity_regularizer": null, "kernel_constraint": null, "bias_constraint": null}, "inbound_nodes": [[["input_14", 0, 0, {}]]]}, {"name": "dense_887", "class_name": "Dense", "config": {"name": "dense_887", "trainable": true, "dtype": "float32", "units": 50, "activation": "relu", "use_bias": true, "kernel_initializer": {"class_name": "VarianceScaling", "config": {"scale": 1.0, "mode": "fan_avg", "distribution": "uniform", "seed": null}}, "bias_initializer": {"class_name": "Zeros", "config": {}}, "kernel_regularizer": null, "bias_regularizer": null, "activity_regularizer": null, "kernel_constraint": null, "bias_constraint": null}, "inbound_nodes": [[["input_19", 0, 0, {}]]]}, {"name": "dense_886", "class_name": "Dense", "config": {"name": "dense_886", "trainable": true, "dtype": "float32", "units": 50, "activation": "relu", "use_bias": true, "kernel_initializer": {"class_name": "VarianceScaling", "config": {"scale": 1.0, "mode": "fan_avg", "distribution": "uniform", "seed": null}}, "bias_initializer": {"class_name": "Zeros", "config": {}}, "kernel_regularizer": null, "bias_regularizer": null, "activity_regularizer": null, "kernel_constraint": null, "bias_constraint": null}, "inbound_nodes": [[["input_18", 0, 0, {}]]]}, {"name": "dense_888", "class_name": "Dense", "config": {"name": "dense_888", "trainable": true, "dtype": "float32", "units": 50, "activation": "relu", "use_bias": true, "kernel_initializer": {"class_name": "VarianceScaling", "config": {"scale": 1.0, "mode": "fan_avg", "distribution": "uniform", "seed": null}}, "bias_initializer": {"class_name": "Zeros", "config": {}}, "kernel_regularizer": null, "bias_regularizer": null, "activity_regularizer": null, "kernel_constraint": null, "bias_constraint": null}, "inbound_nodes": [[["input_20", 0, 0, {}]]]}, {"name": "dense_881", "class_name": "Dense", "config": {"name": "dense_881", "trainable": true, "dtype": "float32", "units": 50, "activation": "relu", "use_bias": true, "kernel_initializer": {"class_name": "VarianceScaling", "config": {"scale": 1.0, "mode": "fan_avg", "distribution": "uniform", "seed": null}}, "bias_initializer": {"class_name": "Zeros", "config": {}}, "kernel_regularizer": null, "bias_regularizer": null, "activity_regularizer": null, "kernel_constraint": null, "bias_constraint": null}, "inbound_nodes": [[["input_13", 0, 0, {}]]]}, {"name": "dense_885", "class_name": "Dense", "config": {"name": "dense_885", "trainable": true, "dtype": "float32", "units": 50, "activation": "relu", "use_bias": true, "kernel_initializer": {"class_name": "VarianceScaling", "config": {"scale": 1.0, "mode": "fan_avg", "distribution": "uniform", "seed": null}}, "bias_initializer": {"class_name": "Zeros", "config": {}}, "kernel_regularizer": null, "bias_regularizer": null, "activity_regularizer": null, "kernel_constraint": null, "bias_constraint": null}, "inbound_nodes": [[["input_17", 0, 0, {}]]]}, {"name": "concatenate_868", "class_name": "Concatenate", "config": {"name": "concatenate_868", "trainable": true, "dtype": "float32", "axis": -1}, "inbound_nodes": [[["dense_880", 0, 0, {}], ["dense_879", 0, 0, {}]]]}, {"name": "concatenate_878", "class_name": "Concatenate", "config": {"name": "concatenate_878", "trainable": true, "dtype": "float32", "axis": -1}, "inbound_nodes": [[["dense_882", 0, 0, {}], ["dense_883", 0, 0, {}]]]}, {"name": "concatenate_882", "class_name": "Concatenate", "config": {"name": "concatenate_882", "trainable": true, "dtype": "float32", "axis": -1}, "inbound_nodes": [[["dense_879", 0, 0, {}], ["dense_886", 0, 0, {}]]]}, {"name": "concatenate_884", "class_name": "Concatenate", "config": {"name": "concatenate_884", "trainable": true, "dtype": "float32", "axis": -1}, "inbound_nodes": [[["dense_884", 0, 0, {}], ["dense_884", 0, 0, {}]]]}, {"name": "concatenate_913", "class_name": "Concatenate", "config": {"name": "concatenate_913", "trainable": true, "dtype": "float32", "axis": -1}, "inbound_nodes": [[["dense_888", 0, 0, {}], ["dense_886", 0, 0, {}]]]}, {"name": "concatenate_915", "class_name": "Concatenate", "config": {"name": "concatenate_915", "trainable": true, "dtype": "float32", "axis": -1}, "inbound_nodes": [[["dense_888", 0, 0, {}], ["dense_884", 0, 0, {}]]]}, {"name": "concatenate_923", "class_name": "Concatenate", "config": {"name": "concatenate_923", "trainable": true, "dtype": "float32", "axis": -1}, "inbound_nodes": [[["dense_883", 0, 0, {}], ["dense_884", 0, 0, {}]]]}, {"name": "concatenate_933", "class_name": "Concatenate", "config": {"name": "concatenate_933", "trainable": true, "dtype": "float32", "axis": -1}, "inbound_nodes": [[["dense_880", 0, 0, {}], ["dense_880", 0, 0, {}]]]}, {"name": "concatenate_970", "class_name": "Concatenate", "config": {"name": "concatenate_970", "trainable": true, "dtype": "float32", "axis": -1}, "inbound_nodes": [[["dense_879", 0, 0, {}], ["dense_880", 0, 0, {}]]]}, {"name": "concatenate_972", "class_name": "Concatenate", "config": {"name": "concatenate_972", "trainable": true, "dtype": "float32", "axis": -1}, "inbound_nodes": [[["dense_881", 0, 0, {}], ["dense_879", 0, 0, {}]]]}, {"name": "concatenate_1005", "class_name": "Concatenate", "config": {"name": "concatenate_1005", "trainable": true, "dtype": "float32", "axis": -1}, "inbound_nodes": [[["dense_882", 0, 0, {}], ["dense_883", 0, 0, {}]]]}, {"name": "concatenate_1007", "class_name": "Concatenate", "config": {"name": "concatenate_1007", "trainable": true, "dtype": "float32", "axis": -1}, "inbound_nodes": [[["dense_879", 0, 0, {}], ["dense_884", 0, 0, {}]]]}, {"name": "concatenate_1011", "class_name": "Concatenate", "config": {"name": "concatenate_1011", "trainable": true, "dtype": "float32", "axis": -1}, "inbound_nodes": [[["dense_883", 0, 0, {}], ["dense_886", 0, 0, {}]]]}, {"name": "concatenate_1013", "class_name": "Concatenate", "config": {"name": "concatenate_1013", "trainable": true, "dtype": "float32", "axis": -1}, "inbound_nodes": [[["dense_879", 0, 0, {}], ["dense_882", 0, 0, {}]]]}, {"name": "concatenate_1020", "class_name": "Concatenate", "config": {"name": "concatenate_1020", "trainable": true, "dtype": "float32", "axis": -1}, "inbound_nodes": [[["dense_879", 0, 0, {}], ["dense_884", 0, 0, {}]]]}, {"name": "concatenate_1024", "class_name": "Concatenate", "config": {"name": "concatenate_1024", "trainable": true, "dtype": "float32", "axis": -1}, "inbound_nodes": [[["dense_880", 0, 0, {}], ["dense_879", 0, 0, {}]]]}, {"name": "concatenate_1026", "class_name": "Concatenate", "config": {"name": "concatenate_1026", "trainable": true, "dtype": "float32", "axis": -1}, "inbound_nodes": [[["dense_879", 0, 0, {}], ["dense_882", 0, 0, {}]]]}, {"name": "concatenate_1036", "class_name": "Concatenate", "config": {"name": "concatenate_1036", "trainable": true, "dtype": "float32", "axis": -1}, "inbound_nodes": [[["dense_882", 0, 0, {}], ["dense_883", 0, 0, {}]]]}, {"name": "concatenate_1056", "class_name": "Concatenate", "config": {"name": "concatenate_1056", "trainable": true, "dtype": "float32", "axis": -1}, "inbound_nodes": [[["dense_886", 0, 0, {}], ["dense_879", 0, 0, {}]]]}, {"name": "concatenate_1078", "class_name": "Concatenate", "config": {"name": "concatenate_1078", "trainable": true, "dtype": "float32", "axis": -1}, "inbound_nodes": [[["dense_888", 0, 0, {}], ["dense_884", 0, 0, {}]]]}, {"name": "concatenate_1080", "class_name": "Concatenate", "config": {"name": "concatenate_1080", "trainable": true, "dtype": "float32", "axis": -1}, "inbound_nodes": [[["dense_884", 0, 0, {}], ["dense_880", 0, 0, {}]]]}, {"name": "concatenate_1089", "class_name": "Concatenate", "config": {"name": "concatenate_1089", "trainable": true, "dtype": "float32", "axis": -1}, "inbound_nodes": [[["dense_883", 0, 0, {}], ["dense_879", 0, 0, {}]]]}, {"name": "concatenate_1091", "class_name": "Concatenate", "config": {"name": "concatenate_1091", "trainable": true, "dtype": "float32", "axis": -1}, "inbound_nodes": [[["dense_882", 0, 0, {}], ["dense_882", 0, 0, {}]]]}, {"name": "concatenate_1095", "class_name": "Concatenate", "config": {"name": "concatenate_1095", "trainable": true, "dtype": "float32", "axis": -1}, "inbound_nodes": [[["dense_884", 0, 0, {}], ["dense_879", 0, 0, {}]]]}, {"name": "concatenate_1104", "class_name": "Concatenate", "config": {"name": "concatenate_1104", "trainable": true, "dtype": "float32", "axis": -1}, "inbound_nodes": [[["dense_883", 0, 0, {}], ["dense_879", 0, 0, {}]]]}, {"name": "concatenate_1106", "class_name": "Concatenate", "config": {"name": "concatenate_1106", "trainable": true, "dtype": "float32", "axis": -1}, "inbound_nodes": [[["dense_880", 0, 0, {}], ["dense_884", 0, 0, {}]]]}, {"name": "concatenate_1111", "class_name": "Concatenate", "config": {"name": "concatenate_1111", "trainable": true, "dtype": "float32", "axis": -1}, "inbound_nodes": [[["dense_879", 0, 0, {}], ["dense_886", 0, 0, {}]]]}, {"name": "concatenate_1149", "class_name": "Concatenate", "config": {"name": "concatenate_1149", "trainable": true, "dtype": "float32", "axis": -1}, "inbound_nodes": [[["dense_883", 0, 0, {}], ["dense_883", 0, 0, {}]]]}, {"name": "concatenate_1151", "class_name": "Concatenate", "config": {"name": "concatenate_1151", "trainable": true, "dtype": "float32", "axis": -1}, "inbound_nodes": [[["dense_882", 0, 0, {}], ["dense_886", 0, 0, {}]]]}, {"name": "concatenate_1172", "class_name": "Concatenate", "config": {"name": "concatenate_1172", "trainable": true, "dtype": "float32", "axis": -1}, "inbound_nodes": [[["dense_879", 0, 0, {}], ["dense_883", 0, 0, {}]]]}, {"name": "concatenate_1194", "class_name": "Concatenate", "config": {"name": "concatenate_1194", "trainable": true, "dtype": "float32", "axis": -1}, "inbound_nodes": [[["dense_884", 0, 0, {}], ["dense_883", 0, 0, {}]]]}, {"name": "concatenate_1198", "class_name": "Concatenate", "config": {"name": "concatenate_1198", "trainable": true, "dtype": "float32", "axis": -1}, "inbound_nodes": [[["dense_883", 0, 0, {}], ["dense_883", 0, 0, {}]]]}, {"name": "concatenate_1200", "class_name": "Concatenate", "config": {"name": "concatenate_1200", "trainable": true, "dtype": "float32", "axis": -1}, "inbound_nodes": [[["dense_883", 0, 0, {}], ["dense_882", 0, 0, {}]]]}, {"name": "concatenate_1224", "class_name": "Concatenate", "config": {"name": "concatenate_1224", "trainable": true, "dtype": "float32", "axis": -1}, "inbound_nodes": [[["dense_879", 0, 0, {}], ["dense_879", 0, 0, {}]]]}, {"name": "concatenate_1226", "class_name": "Concatenate", "config": {"name": "concatenate_1226", "trainable": true, "dtype": "float32", "axis": -1}, "inbound_nodes": [[["dense_880", 0, 0, {}], ["dense_882", 0, 0, {}]]]}, {"name": "concatenate_1247", "class_name": "Concatenate", "config": {"name": "concatenate_1247", "trainable": true, "dtype": "float32", "axis": -1}, "inbound_nodes": [[["dense_887", 0, 0, {}], ["dense_882", 0, 0, {}]]]}, {"name": "concatenate_1267", "class_name": "Concatenate", "config": {"name": "concatenate_1267", "trainable": true, "dtype": "float32", "axis": -1}, "inbound_nodes": [[["dense_884", 0, 0, {}], ["dense_879", 0, 0, {}]]]}, {"name": "concatenate_1276", "class_name": "Concatenate", "config": {"name": "concatenate_1276", "trainable": true, "dtype": "float32", "axis": -1}, "inbound_nodes": [[["dense_883", 0, 0, {}], ["dense_879", 0, 0, {}]]]}, {"name": "concatenate_1282", "class_name": "Concatenate", "config": {"name": "concatenate_1282", "trainable": true, "dtype": "float32", "axis": -1}, "inbound_nodes": [[["dense_883", 0, 0, {}], ["dense_880", 0, 0, {}]]]}, {"name": "concatenate_1296", "class_name": "Concatenate", "config": {"name": "concatenate_1296", "trainable": true, "dtype": "float32", "axis": -1}, "inbound_nodes": [[["dense_882", 0, 0, {}], ["dense_879", 0, 0, {}]]]}, {"name": "concatenate_1310", "class_name": "Concatenate", "config": {"name": "concatenate_1310", "trainable": true, "dtype": "float32", "axis": -1}, "inbound_nodes": [[["dense_879", 0, 0, {}], ["dense_883", 0, 0, {}]]]}, {"name": "concatenate_1315", "class_name": "Concatenate", "config": {"name": "concatenate_1315", "trainable": true, "dtype": "float32", "axis": -1}, "inbound_nodes": [[["dense_879", 0, 0, {}], ["dense_882", 0, 0, {}]]]}, {"name": "concatenate_1317", "class_name": "Concatenate", "config": {"name": "concatenate_1317", "trainable": true, "dtype": "float32", "axis": -1}, "inbound_nodes": [[["dense_883", 0, 0, {}], ["dense_884", 0, 0, {}]]]}, {"name": "concatenate_1332", "class_name": "Concatenate", "config": {"name": "concatenate_1332", "trainable": true, "dtype": "float32", "axis": -1}, "inbound_nodes": [[["dense_884", 0, 0, {}], ["dense_880", 0, 0, {}]]]}, {"name": "concatenate_1360", "class_name": "Concatenate", "config": {"name": "concatenate_1360", "trainable": true, "dtype": "float32", "axis": -1}, "inbound_nodes": [[["dense_880", 0, 0, {}], ["dense_880", 0, 0, {}]]]}, {"name": "concatenate_1369", "class_name": "Concatenate", "config": {"name": "concatenate_1369", "trainable": true, "dtype": "float32", "axis": -1}, "inbound_nodes": [[["dense_888", 0, 0, {}], ["dense_882", 0, 0, {}]]]}, {"name": "concatenate_1371", "class_name": "Concatenate", "config": {"name": "concatenate_1371", "trainable": true, "dtype": "float32", "axis": -1}, "inbound_nodes": [[["dense_882", 0, 0, {}], ["dense_886", 0, 0, {}]]]}, {"name": "concatenate_1396", "class_name": "Concatenate", "config": {"name": "concatenate_1396", "trainable": true, "dtype": "float32", "axis": -1}, "inbound_nodes": [[["dense_887", 0, 0, {}], ["dense_885", 0, 0, {}]]]}, {"name": "dense_889", "class_name": "Dense", "config": {"name": "dense_889", "trainable": true, "dtype": "float32", "units": 100, "activation": "relu", "use_bias": true, "kernel_initializer": {"class_name": "VarianceScaling", "config": {"scale": 1.0, "mode": "fan_avg", "distribution": "uniform", "seed": null}}, "bias_initializer": {"class_name": "Zeros", "config": {}}, "kernel_regularizer": null, "bias_regularizer": null, "activity_regularizer": null, "kernel_constraint": null, "bias_constraint": null}, "inbound_nodes": [[["concatenate_868", 0, 0, {}]]]}, {"name": "dense_899", "class_name": "Dense", "config": {"name": "dense_899", "trainable": true, "dtype": "float32", "units": 100, "activation": "relu", "use_bias": true, "kernel_initializer": {"class_name": "VarianceScaling", "config": {"scale": 1.0, "mode": "fan_avg", "distribution": "uniform", "seed": null}}, "bias_initializer": {"class_name": "Zeros", "config": {}}, "kernel_regularizer": null, "bias_regularizer": null, "activity_regularizer": null, "kernel_constraint": null, "bias_constraint": null}, "inbound_nodes": [[["concatenate_878", 0, 0, {}]]]}, {"name": "dense_903", "class_name": "Dense", "config": {"name": "dense_903", "trainable": true, "dtype": "float32", "units": 100, "activation": "relu", "use_bias": true, "kernel_initializer": {"class_name": "VarianceScaling", "config": {"scale": 1.0, "mode": "fan_avg", "distribution": "uniform", "seed": null}}, "bias_initializer": {"class_name": "Zeros", "config": {}}, "kernel_regularizer": null, "bias_regularizer": null, "activity_regularizer": null, "kernel_constraint": null, "bias_constraint": null}, "inbound_nodes": [[["concatenate_882", 0, 0, {}]]]}, {"name": "dense_905", "class_name": "Dense", "config": {"name": "dense_905", "trainable": true, "dtype": "float32", "units": 100, "activation": "relu", "use_bias": true, "kernel_initializer": {"class_name": "VarianceScaling", "config": {"scale": 1.0, "mode": "fan_avg", "distribution": "uniform", "seed": null}}, "bias_initializer": {"class_name": "Zeros", "config": {}}, "kernel_regularizer": null, "bias_regularizer": null, "activity_regularizer": null, "kernel_constraint": null, "bias_constraint": null}, "inbound_nodes": [[["concatenate_884", 0, 0, {}]]]}, {"name": "dense_934", "class_name": "Dense", "config": {"name": "dense_934", "trainable": true, "dtype": "float32", "units": 100, "activation": "relu", "use_bias": true, "kernel_initializer": {"class_name": "VarianceScaling", "config": {"scale": 1.0, "mode": "fan_avg", "distribution": "uniform", "seed": null}}, "bias_initializer": {"class_name": "Zeros", "config": {}}, "kernel_regularizer": null, "bias_regularizer": null, "activity_regularizer": null, "kernel_constraint": null, "bias_constraint": null}, "inbound_nodes": [[["concatenate_913", 0, 0, {}]]]}, {"name": "dense_936", "class_name": "Dense", "config": {"name": "dense_936", "trainable": true, "dtype": "float32", "units": 100, "activation": "relu", "use_bias": true, "kernel_initializer": {"class_name": "VarianceScaling", "config": {"scale": 1.0, "mode": "fan_avg", "distribution": "uniform", "seed": null}}, "bias_initializer": {"class_name": "Zeros", "config": {}}, "kernel_regularizer": null, "bias_regularizer": null, "activity_regularizer": null, "kernel_constraint": null, "bias_constraint": null}, "inbound_nodes": [[["concatenate_915", 0, 0, {}]]]}, {"name": "dense_944", "class_name": "Dense", "config": {"name": "dense_944", "trainable": true, "dtype": "float32", "units": 100, "activation": "relu", "use_bias": true, "kernel_initializer": {"class_name": "VarianceScaling", "config": {"scale": 1.0, "mode": "fan_avg", "distribution": "uniform", "seed": null}}, "bias_initializer": {"class_name": "Zeros", "config": {}}, "kernel_regularizer": null, "bias_regularizer": null, "activity_regularizer": null, "kernel_constraint": null, "bias_constraint": null}, "inbound_nodes": [[["concatenate_923", 0, 0, {}]]]}, {"name": "dense_954", "class_name": "Dense", "config": {"name": "dense_954", "trainable": true, "dtype": "float32", "units": 100, "activation": "relu", "use_bias": true, "kernel_initializer": {"class_name": "VarianceScaling", "config": {"scale": 1.0, "mode": "fan_avg", "distribution": "uniform", "seed": null}}, "bias_initializer": {"class_name": "Zeros", "config": {}}, "kernel_regularizer": null, "bias_regularizer": null, "activity_regularizer": null, "kernel_constraint": null, "bias_constraint": null}, "inbound_nodes": [[["concatenate_933", 0, 0, {}]]]}, {"name": "dense_991", "class_name": "Dense", "config": {"name": "dense_991", "trainable": true, "dtype": "float32", "units": 100, "activation": "relu", "use_bias": true, "kernel_initializer": {"class_name": "VarianceScaling", "config": {"scale": 1.0, "mode": "fan_avg", "distribution": "uniform", "seed": null}}, "bias_initializer": {"class_name": "Zeros", "config": {}}, "kernel_regularizer": null, "bias_regularizer": null, "activity_regularizer": null, "kernel_constraint": null, "bias_constraint": null}, "inbound_nodes": [[["concatenate_970", 0, 0, {}]]]}, {"name": "dense_993", "class_name": "Dense", "config": {"name": "dense_993", "trainable": true, "dtype": "float32", "units": 100, "activation": "relu", "use_bias": true, "kernel_initializer": {"class_name": "VarianceScaling", "config": {"scale": 1.0, "mode": "fan_avg", "distribution": "uniform", "seed": null}}, "bias_initializer": {"class_name": "Zeros", "config": {}}, "kernel_regularizer": null, "bias_regularizer": null, "activity_regularizer": null, "kernel_constraint": null, "bias_constraint": null}, "inbound_nodes": [[["concatenate_972", 0, 0, {}]]]}, {"name": "dense_1026", "class_name": "Dense", "config": {"name": "dense_1026", "trainable": true, "dtype": "float32", "units": 100, "activation": "relu", "use_bias": true, "kernel_initializer": {"class_name": "VarianceScaling", "config": {"scale": 1.0, "mode": "fan_avg", "distribution": "uniform", "seed": null}}, "bias_initializer": {"class_name": "Zeros", "config": {}}, "kernel_regularizer": null, "bias_regularizer": null, "activity_regularizer": null, "kernel_constraint": null, "bias_constraint": null}, "inbound_nodes": [[["concatenate_1005", 0, 0, {}]]]}, {"name": "dense_1028", "class_name": "Dense", "config": {"name": "dense_1028", "trainable": true, "dtype": "float32", "units": 100, "activation": "relu", "use_bias": true, "kernel_initializer": {"class_name": "VarianceScaling", "config": {"scale": 1.0, "mode": "fan_avg", "distribution": "uniform", "seed": null}}, "bias_initializer": {"class_name": "Zeros", "config": {}}, "kernel_regularizer": null, "bias_regularizer": null, "activity_regularizer": null, "kernel_constraint": null, "bias_constraint": null}, "inbound_nodes": [[["concatenate_1007", 0, 0, {}]]]}, {"name": "dense_1032", "class_name": "Dense", "config": {"name": "dense_1032", "trainable": true, "dtype": "float32", "units": 100, "activation": "relu", "use_bias": true, "kernel_initializer": {"class_name": "VarianceScaling", "config": {"scale": 1.0, "mode": "fan_avg", "distribution": "uniform", "seed": null}}, "bias_initializer": {"class_name": "Zeros", "config": {}}, "kernel_regularizer": null, "bias_regularizer": null, "activity_regularizer": null, "kernel_constraint": null, "bias_constraint": null}, "inbound_nodes": [[["concatenate_1011", 0, 0, {}]]]}, {"name": "dense_1034", "class_name": "Dense", "config": {"name": "dense_1034", "trainable": true, "dtype": "float32", "units": 100, "activation": "relu", "use_bias": true, "kernel_initializer": {"class_name": "VarianceScaling", "config": {"scale": 1.0, "mode": "fan_avg", "distribution": "uniform", "seed": null}}, "bias_initializer": {"class_name": "Zeros", "config": {}}, "kernel_regularizer": null, "bias_regularizer": null, "activity_regularizer": null, "kernel_constraint": null, "bias_constraint": null}, "inbound_nodes": [[["concatenate_1013", 0, 0, {}]]]}, {"name": "dense_1041", "class_name": "Dense", "config": {"name": "dense_1041", "trainable": true, "dtype": "float32", "units": 100, "activation": "relu", "use_bias": true, "kernel_initializer": {"class_name": "VarianceScaling", "config": {"scale": 1.0, "mode": "fan_avg", "distribution": "uniform", "seed": null}}, "bias_initializer": {"class_name": "Zeros", "config": {}}, "kernel_regularizer": null, "bias_regularizer": null, "activity_regularizer": null, "kernel_constraint": null, "bias_constraint": null}, "inbound_nodes": [[["concatenate_1020", 0, 0, {}]]]}, {"name": "dense_1045", "class_name": "Dense", "config": {"name": "dense_1045", "trainable": true, "dtype": "float32", "units": 100, "activation": "relu", "use_bias": true, "kernel_initializer": {"class_name": "VarianceScaling", "config": {"scale": 1.0, "mode": "fan_avg", "distribution": "uniform", "seed": null}}, "bias_initializer": {"class_name": "Zeros", "config": {}}, "kernel_regularizer": null, "bias_regularizer": null, "activity_regularizer": null, "kernel_constraint": null, "bias_constraint": null}, "inbound_nodes": [[["concatenate_1024", 0, 0, {}]]]}, {"name": "dense_1047", "class_name": "Dense", "config": {"name": "dense_1047", "trainable": true, "dtype": "float32", "units": 100, "activation": "relu", "use_bias": true, "kernel_initializer": {"class_name": "VarianceScaling", "config": {"scale": 1.0, "mode": "fan_avg", "distribution": "uniform", "seed": null}}, "bias_initializer": {"class_name": "Zeros", "config": {}}, "kernel_regularizer": null, "bias_regularizer": null, "activity_regularizer": null, "kernel_constraint": null, "bias_constraint": null}, "inbound_nodes": [[["concatenate_1026", 0, 0, {}]]]}, {"name": "dense_1057", "class_name": "Dense", "config": {"name": "dense_1057", "trainable": true, "dtype": "float32", "units": 100, "activation": "relu", "use_bias": true, "kernel_initializer": {"class_name": "VarianceScaling", "config": {"scale": 1.0, "mode": "fan_avg", "distribution": "uniform", "seed": null}}, "bias_initializer": {"class_name": "Zeros", "config": {}}, "kernel_regularizer": null, "bias_regularizer": null, "activity_regularizer": null, "kernel_constraint": null, "bias_constraint": null}, "inbound_nodes": [[["concatenate_1036", 0, 0, {}]]]}, {"name": "dense_1077", "class_name": "Dense", "config": {"name": "dense_1077", "trainable": true, "dtype": "float32", "units": 100, "activation": "relu", "use_bias": true, "kernel_initializer": {"class_name": "VarianceScaling", "config": {"scale": 1.0, "mode": "fan_avg", "distribution": "uniform", "seed": null}}, "bias_initializer": {"class_name": "Zeros", "config": {}}, "kernel_regularizer": null, "bias_regularizer": null, "activity_regularizer": null, "kernel_constraint": null, "bias_constraint": null}, "inbound_nodes": [[["concatenate_1056", 0, 0, {}]]]}, {"name": "dense_1099", "class_name": "Dense", "config": {"name": "dense_1099", "trainable": true, "dtype": "float32", "units": 100, "activation": "relu", "use_bias": true, "kernel_initializer": {"class_name": "VarianceScaling", "config": {"scale": 1.0, "mode": "fan_avg", "distribution": "uniform", "seed": null}}, "bias_initializer": {"class_name": "Zeros", "config": {}}, "kernel_regularizer": null, "bias_regularizer": null, "activity_regularizer": null, "kernel_constraint": null, "bias_constraint": null}, "inbound_nodes": [[["concatenate_1078", 0, 0, {}]]]}, {"name": "dense_1101", "class_name": "Dense", "config": {"name": "dense_1101", "trainable": true, "dtype": "float32", "units": 100, "activation": "relu", "use_bias": true, "kernel_initializer": {"class_name": "VarianceScaling", "config": {"scale": 1.0, "mode": "fan_avg", "distribution": "uniform", "seed": null}}, "bias_initializer": {"class_name": "Zeros", "config": {}}, "kernel_regularizer": null, "bias_regularizer": null, "activity_regularizer": null, "kernel_constraint": null, "bias_constraint": null}, "inbound_nodes": [[["concatenate_1080", 0, 0, {}]]]}, {"name": "dense_1110", "class_name": "Dense", "config": {"name": "dense_1110", "trainable": true, "dtype": "float32", "units": 100, "activation": "relu", "use_bias": true, "kernel_initializer": {"class_name": "VarianceScaling", "config": {"scale": 1.0, "mode": "fan_avg", "distribution": "uniform", "seed": null}}, "bias_initializer": {"class_name": "Zeros", "config": {}}, "kernel_regularizer": null, "bias_regularizer": null, "activity_regularizer": null, "kernel_constraint": null, "bias_constraint": null}, "inbound_nodes": [[["concatenate_1089", 0, 0, {}]]]}, {"name": "dense_1112", "class_name": "Dense", "config": {"name": "dense_1112", "trainable": true, "dtype": "float32", "units": 100, "activation": "relu", "use_bias": true, "kernel_initializer": {"class_name": "VarianceScaling", "config": {"scale": 1.0, "mode": "fan_avg", "distribution": "uniform", "seed": null}}, "bias_initializer": {"class_name": "Zeros", "config": {}}, "kernel_regularizer": null, "bias_regularizer": null, "activity_regularizer": null, "kernel_constraint": null, "bias_constraint": null}, "inbound_nodes": [[["concatenate_1091", 0, 0, {}]]]}, {"name": "dense_1116", "class_name": "Dense", "config": {"name": "dense_1116", "trainable": true, "dtype": "float32", "units": 100, "activation": "relu", "use_bias": true, "kernel_initializer": {"class_name": "VarianceScaling", "config": {"scale": 1.0, "mode": "fan_avg", "distribution": "uniform", "seed": null}}, "bias_initializer": {"class_name": "Zeros", "config": {}}, "kernel_regularizer": null, "bias_regularizer": null, "activity_regularizer": null, "kernel_constraint": null, "bias_constraint": null}, "inbound_nodes": [[["concatenate_1095", 0, 0, {}]]]}, {"name": "dense_1125", "class_name": "Dense", "config": {"name": "dense_1125", "trainable": true, "dtype": "float32", "units": 100, "activation": "relu", "use_bias": true, "kernel_initializer": {"class_name": "VarianceScaling", "config": {"scale": 1.0, "mode": "fan_avg", "distribution": "uniform", "seed": null}}, "bias_initializer": {"class_name": "Zeros", "config": {}}, "kernel_regularizer": null, "bias_regularizer": null, "activity_regularizer": null, "kernel_constraint": null, "bias_constraint": null}, "inbound_nodes": [[["concatenate_1104", 0, 0, {}]]]}, {"name": "dense_1127", "class_name": "Dense", "config": {"name": "dense_1127", "trainable": true, "dtype": "float32", "units": 100, "activation": "relu", "use_bias": true, "kernel_initializer": {"class_name": "VarianceScaling", "config": {"scale": 1.0, "mode": "fan_avg", "distribution": "uniform", "seed": null}}, "bias_initializer": {"class_name": "Zeros", "config": {}}, "kernel_regularizer": null, "bias_regularizer": null, "activity_regularizer": null, "kernel_constraint": null, "bias_constraint": null}, "inbound_nodes": [[["concatenate_1106", 0, 0, {}]]]}, {"name": "dense_1132", "class_name": "Dense", "config": {"name": "dense_1132", "trainable": true, "dtype": "float32", "units": 100, "activation": "relu", "use_bias": true, "kernel_initializer": {"class_name": "VarianceScaling", "config": {"scale": 1.0, "mode": "fan_avg", "distribution": "uniform", "seed": null}}, "bias_initializer": {"class_name": "Zeros", "config": {}}, "kernel_regularizer": null, "bias_regularizer": null, "activity_regularizer": null, "kernel_constraint": null, "bias_constraint": null}, "inbound_nodes": [[["concatenate_1111", 0, 0, {}]]]}, {"name": "dense_1170", "class_name": "Dense", "config": {"name": "dense_1170", "trainable": true, "dtype": "float32", "units": 100, "activation": "relu", "use_bias": true, "kernel_initializer": {"class_name": "VarianceScaling", "config": {"scale": 1.0, "mode": "fan_avg", "distribution": "uniform", "seed": null}}, "bias_initializer": {"class_name": "Zeros", "config": {}}, "kernel_regularizer": null, "bias_regularizer": null, "activity_regularizer": null, "kernel_constraint": null, "bias_constraint": null}, "inbound_nodes": [[["concatenate_1149", 0, 0, {}]]]}, {"name": "dense_1172", "class_name": "Dense", "config": {"name": "dense_1172", "trainable": true, "dtype": "float32", "units": 100, "activation": "relu", "use_bias": true, "kernel_initializer": {"class_name": "VarianceScaling", "config": {"scale": 1.0, "mode": "fan_avg", "distribution": "uniform", "seed": null}}, "bias_initializer": {"class_name": "Zeros", "config": {}}, "kernel_regularizer": null, "bias_regularizer": null, "activity_regularizer": null, "kernel_constraint": null, "bias_constraint": null}, "inbound_nodes": [[["concatenate_1151", 0, 0, {}]]]}, {"name": "dense_1193", "class_name": "Dense", "config": {"name": "dense_1193", "trainable": true, "dtype": "float32", "units": 100, "activation": "relu", "use_bias": true, "kernel_initializer": {"class_name": "VarianceScaling", "config": {"scale": 1.0, "mode": "fan_avg", "distribution": "uniform", "seed": null}}, "bias_initializer": {"class_name": "Zeros", "config": {}}, "kernel_regularizer": null, "bias_regularizer": null, "activity_regularizer": null, "kernel_constraint": null, "bias_constraint": null}, "inbound_nodes": [[["concatenate_1172", 0, 0, {}]]]}, {"name": "dense_1215", "class_name": "Dense", "config": {"name": "dense_1215", "trainable": true, "dtype": "float32", "units": 100, "activation": "relu", "use_bias": true, "kernel_initializer": {"class_name": "VarianceScaling", "config": {"scale": 1.0, "mode": "fan_avg", "distribution": "uniform", "seed": null}}, "bias_initializer": {"class_name": "Zeros", "config": {}}, "kernel_regularizer": null, "bias_regularizer": null, "activity_regularizer": null, "kernel_constraint": null, "bias_constraint": null}, "inbound_nodes": [[["concatenate_1194", 0, 0, {}]]]}, {"name": "dense_1219", "class_name": "Dense", "config": {"name": "dense_1219", "trainable": true, "dtype": "float32", "units": 100, "activation": "relu", "use_bias": true, "kernel_initializer": {"class_name": "VarianceScaling", "config": {"scale": 1.0, "mode": "fan_avg", "distribution": "uniform", "seed": null}}, "bias_initializer": {"class_name": "Zeros", "config": {}}, "kernel_regularizer": null, "bias_regularizer": null, "activity_regularizer": null, "kernel_constraint": null, "bias_constraint": null}, "inbound_nodes": [[["concatenate_1198", 0, 0, {}]]]}, {"name": "dense_1221", "class_name": "Dense", "config": {"name": "dense_1221", "trainable": true, "dtype": "float32", "units": 100, "activation": "relu", "use_bias": true, "kernel_initializer": {"class_name": "VarianceScaling", "config": {"scale": 1.0, "mode": "fan_avg", "distribution": "uniform", "seed": null}}, "bias_initializer": {"class_name": "Zeros", "config": {}}, "kernel_regularizer": null, "bias_regularizer": null, "activity_regularizer": null, "kernel_constraint": null, "bias_constraint": null}, "inbound_nodes": [[["concatenate_1200", 0, 0, {}]]]}, {"name": "dense_1245", "class_name": "Dense", "config": {"name": "dense_1245", "trainable": true, "dtype": "float32", "units": 100, "activation": "relu", "use_bias": true, "kernel_initializer": {"class_name": "VarianceScaling", "config": {"scale": 1.0, "mode": "fan_avg", "distribution": "uniform", "seed": null}}, "bias_initializer": {"class_name": "Zeros", "config": {}}, "kernel_regularizer": null, "bias_regularizer": null, "activity_regularizer": null, "kernel_constraint": null, "bias_constraint": null}, "inbound_nodes": [[["concatenate_1224", 0, 0, {}]]]}, {"name": "dense_1247", "class_name": "Dense", "config": {"name": "dense_1247", "trainable": true, "dtype": "float32", "units": 100, "activation": "relu", "use_bias": true, "kernel_initializer": {"class_name": "VarianceScaling", "config": {"scale": 1.0, "mode": "fan_avg", "distribution": "uniform", "seed": null}}, "bias_initializer": {"class_name": "Zeros", "config": {}}, "kernel_regularizer": null, "bias_regularizer": null, "activity_regularizer": null, "kernel_constraint": null, "bias_constraint": null}, "inbound_nodes": [[["concatenate_1226", 0, 0, {}]]]}, {"name": "dense_1268", "class_name": "Dense", "config": {"name": "dense_1268", "trainable": true, "dtype": "float32", "units": 100, "activation": "relu", "use_bias": true, "kernel_initializer": {"class_name": "VarianceScaling", "config": {"scale": 1.0, "mode": "fan_avg", "distribution": "uniform", "seed": null}}, "bias_initializer": {"class_name": "Zeros", "config": {}}, "kernel_regularizer": null, "bias_regularizer": null, "activity_regularizer": null, "kernel_constraint": null, "bias_constraint": null}, "inbound_nodes": [[["concatenate_1247", 0, 0, {}]]]}, {"name": "dense_1288", "class_name": "Dense", "config": {"name": "dense_1288", "trainable": true, "dtype": "float32", "units": 100, "activation": "relu", "use_bias": true, "kernel_initializer": {"class_name": "VarianceScaling", "config": {"scale": 1.0, "mode": "fan_avg", "distribution": "uniform", "seed": null}}, "bias_initializer": {"class_name": "Zeros", "config": {}}, "kernel_regularizer": null, "bias_regularizer": null, "activity_regularizer": null, "kernel_constraint": null, "bias_constraint": null}, "inbound_nodes": [[["concatenate_1267", 0, 0, {}]]]}, {"name": "dense_1297", "class_name": "Dense", "config": {"name": "dense_1297", "trainable": true, "dtype": "float32", "units": 100, "activation": "relu", "use_bias": true, "kernel_initializer": {"class_name": "VarianceScaling", "config": {"scale": 1.0, "mode": "fan_avg", "distribution": "uniform", "seed": null}}, "bias_initializer": {"class_name": "Zeros", "config": {}}, "kernel_regularizer": null, "bias_regularizer": null, "activity_regularizer": null, "kernel_constraint": null, "bias_constraint": null}, "inbound_nodes": [[["concatenate_1276", 0, 0, {}]]]}, {"name": "dense_1303", "class_name": "Dense", "config": {"name": "dense_1303", "trainable": true, "dtype": "float32", "units": 100, "activation": "relu", "use_bias": true, "kernel_initializer": {"class_name": "VarianceScaling", "config": {"scale": 1.0, "mode": "fan_avg", "distribution": "uniform", "seed": null}}, "bias_initializer": {"class_name": "Zeros", "config": {}}, "kernel_regularizer": null, "bias_regularizer": null, "activity_regularizer": null, "kernel_constraint": null, "bias_constraint": null}, "inbound_nodes": [[["concatenate_1282", 0, 0, {}]]]}, {"name": "dense_1317", "class_name": "Dense", "config": {"name": "dense_1317", "trainable": true, "dtype": "float32", "units": 100, "activation": "relu", "use_bias": true, "kernel_initializer": {"class_name": "VarianceScaling", "config": {"scale": 1.0, "mode": "fan_avg", "distribution": "uniform", "seed": null}}, "bias_initializer": {"class_name": "Zeros", "config": {}}, "kernel_regularizer": null, "bias_regularizer": null, "activity_regularizer": null, "kernel_constraint": null, "bias_constraint": null}, "inbound_nodes": [[["concatenate_1296", 0, 0, {}]]]}, {"name": "dense_1331", "class_name": "Dense", "config": {"name": "dense_1331", "trainable": true, "dtype": "float32", "units": 100, "activation": "relu", "use_bias": true, "kernel_initializer": {"class_name": "VarianceScaling", "config": {"scale": 1.0, "mode": "fan_avg", "distribution": "uniform", "seed": null}}, "bias_initializer": {"class_name": "Zeros", "config": {}}, "kernel_regularizer": null, "bias_regularizer": null, "activity_regularizer": null, "kernel_constraint": null, "bias_constraint": null}, "inbound_nodes": [[["concatenate_1310", 0, 0, {}]]]}, {"name": "dense_1336", "class_name": "Dense", "config": {"name": "dense_1336", "trainable": true, "dtype": "float32", "units": 100, "activation": "relu", "use_bias": true, "kernel_initializer": {"class_name": "VarianceScaling", "config": {"scale": 1.0, "mode": "fan_avg", "distribution": "uniform", "seed": null}}, "bias_initializer": {"class_name": "Zeros", "config": {}}, "kernel_regularizer": null, "bias_regularizer": null, "activity_regularizer": null, "kernel_constraint": null, "bias_constraint": null}, "inbound_nodes": [[["concatenate_1315", 0, 0, {}]]]}, {"name": "dense_1338", "class_name": "Dense", "config": {"name": "dense_1338", "trainable": true, "dtype": "float32", "units": 100, "activation": "relu", "use_bias": true, "kernel_initializer": {"class_name": "VarianceScaling", "config": {"scale": 1.0, "mode": "fan_avg", "distribution": "uniform", "seed": null}}, "bias_initializer": {"class_name": "Zeros", "config": {}}, "kernel_regularizer": null, "bias_regularizer": null, "activity_regularizer": null, "kernel_constraint": null, "bias_constraint": null}, "inbound_nodes": [[["concatenate_1317", 0, 0, {}]]]}, {"name": "dense_1353", "class_name": "Dense", "config": {"name": "dense_1353", "trainable": true, "dtype": "float32", "units": 100, "activation": "relu", "use_bias": true, "kernel_initializer": {"class_name": "VarianceScaling", "config": {"scale": 1.0, "mode": "fan_avg", "distribution": "uniform", "seed": null}}, "bias_initializer": {"class_name": "Zeros", "config": {}}, "kernel_regularizer": null, "bias_regularizer": null, "activity_regularizer": null, "kernel_constraint": null, "bias_constraint": null}, "inbound_nodes": [[["concatenate_1332", 0, 0, {}]]]}, {"name": "dense_1381", "class_name": "Dense", "config": {"name": "dense_1381", "trainable": true, "dtype": "float32", "units": 100, "activation": "relu", "use_bias": true, "kernel_initializer": {"class_name": "VarianceScaling", "config": {"scale": 1.0, "mode": "fan_avg", "distribution": "uniform", "seed": null}}, "bias_initializer": {"class_name": "Zeros", "config": {}}, "kernel_regularizer": null, "bias_regularizer": null, "activity_regularizer": null, "kernel_constraint": null, "bias_constraint": null}, "inbound_nodes": [[["concatenate_1360", 0, 0, {}]]]}, {"name": "dense_1390", "class_name": "Dense", "config": {"name": "dense_1390", "trainable": true, "dtype": "float32", "units": 100, "activation": "relu", "use_bias": true, "kernel_initializer": {"class_name": "VarianceScaling", "config": {"scale": 1.0, "mode": "fan_avg", "distribution": "uniform", "seed": null}}, "bias_initializer": {"class_name": "Zeros", "config": {}}, "kernel_regularizer": null, "bias_regularizer": null, "activity_regularizer": null, "kernel_constraint": null, "bias_constraint": null}, "inbound_nodes": [[["concatenate_1369", 0, 0, {}]]]}, {"name": "dense_1392", "class_name": "Dense", "config": {"name": "dense_1392", "trainable": true, "dtype": "float32", "units": 100, "activation": "relu", "use_bias": true, "kernel_initializer": {"class_name": "VarianceScaling", "config": {"scale": 1.0, "mode": "fan_avg", "distribution": "uniform", "seed": null}}, "bias_initializer": {"class_name": "Zeros", "config": {}}, "kernel_regularizer": null, "bias_regularizer": null, "activity_regularizer": null, "kernel_constraint": null, "bias_constraint": null}, "inbound_nodes": [[["concatenate_1371", 0, 0, {}]]]}, {"name": "dense_1417", "class_name": "Dense", "config": {"name": "dense_1417", "trainable": true, "dtype": "float32", "units": 100, "activation": "relu", "use_bias": true, "kernel_initializer": {"class_name": "VarianceScaling", "config": {"scale": 1.0, "mode": "fan_avg", "distribution": "uniform", "seed": null}}, "bias_initializer": {"class_name": "Zeros", "config": {}}, "kernel_regularizer": null, "bias_regularizer": null, "activity_regularizer": null, "kernel_constraint": null, "bias_constraint": null}, "inbound_nodes": [[["concatenate_1396", 0, 0, {}]]]}, {"name": "concatenate_869", "class_name": "Concatenate", "config": {"name": "concatenate_869", "trainable": true, "dtype": "float32", "axis": -1}, "inbound_nodes": [[["dense_889", 0, 0, {}], ["dense_879", 0, 0, {}]]]}, {"name": "concatenate_872", "class_name": "Concatenate", "config": {"name": "concatenate_872", "trainable": true, "dtype": "float32", "axis": -1}, "inbound_nodes": [[["dense_884", 0, 0, {}], ["dense_882", 0, 0, {}]]]}, {"name": "concatenate_877", "class_name": "Concatenate", "config": {"name": "concatenate_877", "trainable": true, "dtype": "float32", "axis": -1}, "inbound_nodes": [[["dense_879", 0, 0, {}], ["dense_887", 0, 0, {}]]]}, {"name": "concatenate_879", "class_name": "Concatenate", "config": {"name": "concatenate_879", "trainable": true, "dtype": "float32", "axis": -1}, "inbound_nodes": [[["dense_899", 0, 0, {}], ["dense_886", 0, 0, {}]]]}, {"name": "concatenate_883", "class_name": "Concatenate", "config": {"name": "concatenate_883", "trainable": true, "dtype": "float32", "axis": -1}, "inbound_nodes": [[["dense_903", 0, 0, {}], ["dense_882", 0, 0, {}]]]}, {"name": "concatenate_885", "class_name": "Concatenate", "config": {"name": "concatenate_885", "trainable": true, "dtype": "float32", "axis": -1}, "inbound_nodes": [[["dense_905", 0, 0, {}], ["dense_880", 0, 0, {}]]]}, {"name": "concatenate_892", "class_name": "Concatenate", "config": {"name": "concatenate_892", "trainable": true, "dtype": "float32", "axis": -1}, "inbound_nodes": [[["dense_882", 0, 0, {}], ["dense_880", 0, 0, {}]]]}, {"name": "concatenate_895", "class_name": "Concatenate", "config": {"name": "concatenate_895", "trainable": true, "dtype": "float32", "axis": -1}, "inbound_nodes": [[["dense_880", 0, 0, {}], ["dense_884", 0, 0, {}]]]}, {"name": "concatenate_900", "class_name": "Concatenate", "config": {"name": "concatenate_900", "trainable": true, "dtype": "float32", "axis": -1}, "inbound_nodes": [[["dense_879", 0, 0, {}], ["dense_880", 0, 0, {}]]]}, {"name": "concatenate_903", "class_name": "Concatenate", "config": {"name": "concatenate_903", "trainable": true, "dtype": "float32", "axis": -1}, "inbound_nodes": [[["dense_884", 0, 0, {}], ["dense_883", 0, 0, {}]]]}, {"name": "concatenate_904", "class_name": "Concatenate", "config": {"name": "concatenate_904", "trainable": true, "dtype": "float32", "axis": -1}, "inbound_nodes": [[["dense_880", 0, 0, {}], ["dense_887", 0, 0, {}]]]}, {"name": "concatenate_914", "class_name": "Concatenate", "config": {"name": "concatenate_914", "trainable": true, "dtype": "float32", "axis": -1}, "inbound_nodes": [[["dense_934", 0, 0, {}], ["dense_882", 0, 0, {}]]]}, {"name": "concatenate_916", "class_name": "Concatenate", "config": {"name": "concatenate_916", "trainable": true, "dtype": "float32", "axis": -1}, "inbound_nodes": [[["dense_936", 0, 0, {}], ["dense_879", 0, 0, {}]]]}, {"name": "concatenate_924", "class_name": "Concatenate", "config": {"name": "concatenate_924", "trainable": true, "dtype": "float32", "axis": -1}, "inbound_nodes": [[["dense_944", 0, 0, {}], ["dense_883", 0, 0, {}]]]}, {"name": "concatenate_925", "class_name": "Concatenate", "config": {"name": "concatenate_925", "trainable": true, "dtype": "float32", "axis": -1}, "inbound_nodes": [[["dense_882", 0, 0, {}], ["dense_883", 0, 0, {}]]]}, {"name": "concatenate_932", "class_name": "Concatenate", "config": {"name": "concatenate_932", "trainable": true, "dtype": "float32", "axis": -1}, "inbound_nodes": [[["dense_882", 0, 0, {}], ["dense_887", 0, 0, {}]]]}, {"name": "concatenate_934", "class_name": "Concatenate", "config": {"name": "concatenate_934", "trainable": true, "dtype": "float32", "axis": -1}, "inbound_nodes": [[["dense_954", 0, 0, {}], ["dense_882", 0, 0, {}]]]}, {"name": "concatenate_937", "class_name": "Concatenate", "config": {"name": "concatenate_937", "trainable": true, "dtype": "float32", "axis": -1}, "inbound_nodes": [[["dense_884", 0, 0, {}], ["dense_887", 0, 0, {}]]]}, {"name": "concatenate_938", "class_name": "Concatenate", "config": {"name": "concatenate_938", "trainable": true, "dtype": "float32", "axis": -1}, "inbound_nodes": [[["dense_882", 0, 0, {}], ["dense_884", 0, 0, {}]]]}, {"name": "concatenate_950", "class_name": "Concatenate", "config": {"name": "concatenate_950", "trainable": true, "dtype": "float32", "axis": -1}, "inbound_nodes": [[["dense_888", 0, 0, {}], ["dense_880", 0, 0, {}]]]}, {"name": "concatenate_971", "class_name": "Concatenate", "config": {"name": "concatenate_971", "trainable": true, "dtype": "float32", "axis": -1}, "inbound_nodes": [[["dense_991", 0, 0, {}], ["dense_879", 0, 0, {}]]]}, {"name": "concatenate_973", "class_name": "Concatenate", "config": {"name": "concatenate_973", "trainable": true, "dtype": "float32", "axis": -1}, "inbound_nodes": [[["dense_993", 0, 0, {}], ["dense_884", 0, 0, {}]]]}, {"name": "concatenate_982", "class_name": "Concatenate", "config": {"name": "concatenate_982", "trainable": true, "dtype": "float32", "axis": -1}, "inbound_nodes": [[["dense_879", 0, 0, {}], ["dense_887", 0, 0, {}]]]}, {"name": "concatenate_983", "class_name": "Concatenate", "config": {"name": "concatenate_983", "trainable": true, "dtype": "float32", "axis": -1}, "inbound_nodes": [[["dense_882", 0, 0, {}], ["dense_887", 0, 0, {}]]]}, {"name": "concatenate_1006", "class_name": "Concatenate", "config": {"name": "concatenate_1006", "trainable": true, "dtype": "float32", "axis": -1}, "inbound_nodes": [[["dense_1026", 0, 0, {}], ["dense_880", 0, 0, {}]]]}, {"name": "concatenate_1008", "class_name": "Concatenate", "config": {"name": "concatenate_1008", "trainable": true, "dtype": "float32", "axis": -1}, "inbound_nodes": [[["dense_1028", 0, 0, {}], ["dense_882", 0, 0, {}]]]}, {"name": "concatenate_1012", "class_name": "Concatenate", "config": {"name": "concatenate_1012", "trainable": true, "dtype": "float32", "axis": -1}, "inbound_nodes": [[["dense_1032", 0, 0, {}], ["dense_879", 0, 0, {}]]]}, {"name": "concatenate_1014", "class_name": "Concatenate", "config": {"name": "concatenate_1014", "trainable": true, "dtype": "float32", "axis": -1}, "inbound_nodes": [[["dense_1034", 0, 0, {}], ["dense_883", 0, 0, {}]]]}, {"name": "concatenate_1019", "class_name": "Concatenate", "config": {"name": "concatenate_1019", "trainable": true, "dtype": "float32", "axis": -1}, "inbound_nodes": [[["dense_882", 0, 0, {}], ["dense_887", 0, 0, {}]]]}, {"name": "concatenate_1021", "class_name": "Concatenate", "config": {"name": "concatenate_1021", "trainable": true, "dtype": "float32", "axis": -1}, "inbound_nodes": [[["dense_1041", 0, 0, {}], ["dense_888", 0, 0, {}]]]}, {"name": "concatenate_1025", "class_name": "Concatenate", "config": {"name": "concatenate_1025", "trainable": true, "dtype": "float32", "axis": -1}, "inbound_nodes": [[["dense_1045", 0, 0, {}], ["dense_884", 0, 0, {}]]]}, {"name": "concatenate_1027", "class_name": "Concatenate", "config": {"name": "concatenate_1027", "trainable": true, "dtype": "float32", "axis": -1}, "inbound_nodes": [[["dense_1047", 0, 0, {}], ["dense_882", 0, 0, {}]]]}, {"name": "concatenate_1037", "class_name": "Concatenate", "config": {"name": "concatenate_1037", "trainable": true, "dtype": "float32", "axis": -1}, "inbound_nodes": [[["dense_1057", 0, 0, {}], ["dense_884", 0, 0, {}]]]}, {"name": "concatenate_1038", "class_name": "Concatenate", "config": {"name": "concatenate_1038", "trainable": true, "dtype": "float32", "axis": -1}, "inbound_nodes": [[["dense_880", 0, 0, {}], ["dense_879", 0, 0, {}]]]}, {"name": "concatenate_1047", "class_name": "Concatenate", "config": {"name": "concatenate_1047", "trainable": true, "dtype": "float32", "axis": -1}, "inbound_nodes": [[["dense_882", 0, 0, {}], ["dense_883", 0, 0, {}]]]}, {"name": "concatenate_1053", "class_name": "Concatenate", "config": {"name": "concatenate_1053", "trainable": true, "dtype": "float32", "axis": -1}, "inbound_nodes": [[["dense_880", 0, 0, {}], ["dense_882", 0, 0, {}]]]}, {"name": "concatenate_1057", "class_name": "Concatenate", "config": {"name": "concatenate_1057", "trainable": true, "dtype": "float32", "axis": -1}, "inbound_nodes": [[["dense_1077", 0, 0, {}], ["dense_883", 0, 0, {}]]]}, {"name": "concatenate_1058", "class_name": "Concatenate", "config": {"name": "concatenate_1058", "trainable": true, "dtype": "float32", "axis": -1}, "inbound_nodes": [[["dense_888", 0, 0, {}], ["dense_879", 0, 0, {}]]]}, {"name": "concatenate_1067", "class_name": "Concatenate", "config": {"name": "concatenate_1067", "trainable": true, "dtype": "float32", "axis": -1}, "inbound_nodes": [[["dense_882", 0, 0, {}], ["dense_882", 0, 0, {}]]]}, {"name": "concatenate_1079", "class_name": "Concatenate", "config": {"name": "concatenate_1079", "trainable": true, "dtype": "float32", "axis": -1}, "inbound_nodes": [[["dense_1099", 0, 0, {}], ["dense_882", 0, 0, {}]]]}, {"name": "concatenate_1081", "class_name": "Concatenate", "config": {"name": "concatenate_1081", "trainable": true, "dtype": "float32", "axis": -1}, "inbound_nodes": [[["dense_1101", 0, 0, {}], ["dense_888", 0, 0, {}]]]}, {"name": "concatenate_1084", "class_name": "Concatenate", "config": {"name": "concatenate_1084", "trainable": true, "dtype": "float32", "axis": -1}, "inbound_nodes": [[["dense_883", 0, 0, {}], ["dense_883", 0, 0, {}]]]}, {"name": "concatenate_1090", "class_name": "Concatenate", "config": {"name": "concatenate_1090", "trainable": true, "dtype": "float32", "axis": -1}, "inbound_nodes": [[["dense_1110", 0, 0, {}], ["dense_888", 0, 0, {}]]]}, {"name": "concatenate_1092", "class_name": "Concatenate", "config": {"name": "concatenate_1092", "trainable": true, "dtype": "float32", "axis": -1}, "inbound_nodes": [[["dense_1112", 0, 0, {}], ["dense_879", 0, 0, {}]]]}, {"name": "concatenate_1096", "class_name": "Concatenate", "config": {"name": "concatenate_1096", "trainable": true, "dtype": "float32", "axis": -1}, "inbound_nodes": [[["dense_1116", 0, 0, {}], ["dense_883", 0, 0, {}]]]}, {"name": "concatenate_1097", "class_name": "Concatenate", "config": {"name": "concatenate_1097", "trainable": true, "dtype": "float32", "axis": -1}, "inbound_nodes": [[["dense_882", 0, 0, {}], ["dense_884", 0, 0, {}]]]}, {"name": "concatenate_1105", "class_name": "Concatenate", "config": {"name": "concatenate_1105", "trainable": true, "dtype": "float32", "axis": -1}, "inbound_nodes": [[["dense_1125", 0, 0, {}], ["dense_883", 0, 0, {}]]]}, {"name": "concatenate_1107", "class_name": "Concatenate", "config": {"name": "concatenate_1107", "trainable": true, "dtype": "float32", "axis": -1}, "inbound_nodes": [[["dense_1127", 0, 0, {}], ["dense_882", 0, 0, {}]]]}, {"name": "concatenate_1110", "class_name": "Concatenate", "config": {"name": "concatenate_1110", "trainable": true, "dtype": "float32", "axis": -1}, "inbound_nodes": [[["dense_888", 0, 0, {}], ["dense_887", 0, 0, {}]]]}, {"name": "concatenate_1112", "class_name": "Concatenate", "config": {"name": "concatenate_1112", "trainable": true, "dtype": "float32", "axis": -1}, "inbound_nodes": [[["dense_1132", 0, 0, {}], ["dense_883", 0, 0, {}]]]}, {"name": "concatenate_1118", "class_name": "Concatenate", "config": {"name": "concatenate_1118", "trainable": true, "dtype": "float32", "axis": -1}, "inbound_nodes": [[["dense_879", 0, 0, {}], ["dense_882", 0, 0, {}]]]}, {"name": "concatenate_1127", "class_name": "Concatenate", "config": {"name": "concatenate_1127", "trainable": true, "dtype": "float32", "axis": -1}, "inbound_nodes": [[["dense_879", 0, 0, {}], ["dense_886", 0, 0, {}]]]}, {"name": "concatenate_1132", "class_name": "Concatenate", "config": {"name": "concatenate_1132", "trainable": true, "dtype": "float32", "axis": -1}, "inbound_nodes": [[["dense_882", 0, 0, {}], ["dense_883", 0, 0, {}]]]}, {"name": "concatenate_1134", "class_name": "Concatenate", "config": {"name": "concatenate_1134", "trainable": true, "dtype": "float32", "axis": -1}, "inbound_nodes": [[["dense_879", 0, 0, {}], ["dense_883", 0, 0, {}]]]}, {"name": "concatenate_1146", "class_name": "Concatenate", "config": {"name": "concatenate_1146", "trainable": true, "dtype": "float32", "axis": -1}, "inbound_nodes": [[["dense_881", 0, 0, {}], ["dense_881", 0, 0, {}]]]}, {"name": "concatenate_1150", "class_name": "Concatenate", "config": {"name": "concatenate_1150", "trainable": true, "dtype": "float32", "axis": -1}, "inbound_nodes": [[["dense_1170", 0, 0, {}], ["dense_882", 0, 0, {}]]]}, {"name": "concatenate_1152", "class_name": "Concatenate", "config": {"name": "concatenate_1152", "trainable": true, "dtype": "float32", "axis": -1}, "inbound_nodes": [[["dense_1172", 0, 0, {}], ["dense_880", 0, 0, {}]]]}, {"name": "concatenate_1167", "class_name": "Concatenate", "config": {"name": "concatenate_1167", "trainable": true, "dtype": "float32", "axis": -1}, "inbound_nodes": [[["dense_882", 0, 0, {}], ["dense_879", 0, 0, {}]]]}, {"name": "concatenate_1173", "class_name": "Concatenate", "config": {"name": "concatenate_1173", "trainable": true, "dtype": "float32", "axis": -1}, "inbound_nodes": [[["dense_1193", 0, 0, {}], ["dense_879", 0, 0, {}]]]}, {"name": "concatenate_1174", "class_name": "Concatenate", "config": {"name": "concatenate_1174", "trainable": true, "dtype": "float32", "axis": -1}, "inbound_nodes": [[["dense_884", 0, 0, {}], ["dense_887", 0, 0, {}]]]}, {"name": "concatenate_1181", "class_name": "Concatenate", "config": {"name": "concatenate_1181", "trainable": true, "dtype": "float32", "axis": -1}, "inbound_nodes": [[["dense_882", 0, 0, {}], ["dense_879", 0, 0, {}]]]}, {"name": "concatenate_1193", "class_name": "Concatenate", "config": {"name": "concatenate_1193", "trainable": true, "dtype": "float32", "axis": -1}, "inbound_nodes": [[["dense_884", 0, 0, {}], ["dense_887", 0, 0, {}]]]}, {"name": "concatenate_1195", "class_name": "Concatenate", "config": {"name": "concatenate_1195", "trainable": true, "dtype": "float32", "axis": -1}, "inbound_nodes": [[["dense_1215", 0, 0, {}], ["dense_883", 0, 0, {}]]]}, {"name": "concatenate_1199", "class_name": "Concatenate", "config": {"name": "concatenate_1199", "trainable": true, "dtype": "float32", "axis": -1}, "inbound_nodes": [[["dense_1219", 0, 0, {}], ["dense_883", 0, 0, {}]]]}, {"name": "concatenate_1201", "class_name": "Concatenate", "config": {"name": "concatenate_1201", "trainable": true, "dtype": "float32", "axis": -1}, "inbound_nodes": [[["dense_1221", 0, 0, {}], ["dense_886", 0, 0, {}]]]}, {"name": "concatenate_1206", "class_name": "Concatenate", "config": {"name": "concatenate_1206", "trainable": true, "dtype": "float32", "axis": -1}, "inbound_nodes": [[["dense_882", 0, 0, {}], ["dense_884", 0, 0, {}]]]}, {"name": "concatenate_1215", "class_name": "Concatenate", "config": {"name": "concatenate_1215", "trainable": true, "dtype": "float32", "axis": -1}, "inbound_nodes": [[["dense_882", 0, 0, {}], ["dense_882", 0, 0, {}]]]}, {"name": "concatenate_1218", "class_name": "Concatenate", "config": {"name": "concatenate_1218", "trainable": true, "dtype": "float32", "axis": -1}, "inbound_nodes": [[["dense_882", 0, 0, {}], ["dense_883", 0, 0, {}]]]}, {"name": "concatenate_1219", "class_name": "Concatenate", "config": {"name": "concatenate_1219", "trainable": true, "dtype": "float32", "axis": -1}, "inbound_nodes": [[["dense_884", 0, 0, {}], ["dense_887", 0, 0, {}]]]}, {"name": "concatenate_1225", "class_name": "Concatenate", "config": {"name": "concatenate_1225", "trainable": true, "dtype": "float32", "axis": -1}, "inbound_nodes": [[["dense_1245", 0, 0, {}], ["dense_880", 0, 0, {}]]]}, {"name": "concatenate_1227", "class_name": "Concatenate", "config": {"name": "concatenate_1227", "trainable": true, "dtype": "float32", "axis": -1}, "inbound_nodes": [[["dense_1247", 0, 0, {}], ["dense_883", 0, 0, {}]]]}, {"name": "concatenate_1240", "class_name": "Concatenate", "config": {"name": "concatenate_1240", "trainable": true, "dtype": "float32", "axis": -1}, "inbound_nodes": [[["dense_883", 0, 0, {}], ["dense_882", 0, 0, {}]]]}, {"name": "concatenate_1248", "class_name": "Concatenate", "config": {"name": "concatenate_1248", "trainable": true, "dtype": "float32", "axis": -1}, "inbound_nodes": [[["dense_1268", 0, 0, {}], ["dense_884", 0, 0, {}]]]}, {"name": "concatenate_1257", "class_name": "Concatenate", "config": {"name": "concatenate_1257", "trainable": true, "dtype": "float32", "axis": -1}, "inbound_nodes": [[["dense_880", 0, 0, {}], ["dense_888", 0, 0, {}]]]}, {"name": "concatenate_1266", "class_name": "Concatenate", "config": {"name": "concatenate_1266", "trainable": true, "dtype": "float32", "axis": -1}, "inbound_nodes": [[["dense_882", 0, 0, {}], ["dense_887", 0, 0, {}]]]}, {"name": "concatenate_1268", "class_name": "Concatenate", "config": {"name": "concatenate_1268", "trainable": true, "dtype": "float32", "axis": -1}, "inbound_nodes": [[["dense_1288", 0, 0, {}], ["dense_882", 0, 0, {}]]]}, {"name": "concatenate_1271", "class_name": "Concatenate", "config": {"name": "concatenate_1271", "trainable": true, "dtype": "float32", "axis": -1}, "inbound_nodes": [[["dense_883", 0, 0, {}], ["dense_879", 0, 0, {}]]]}, {"name": "concatenate_1277", "class_name": "Concatenate", "config": {"name": "concatenate_1277", "trainable": true, "dtype": "float32", "axis": -1}, "inbound_nodes": [[["dense_1297", 0, 0, {}], ["dense_882", 0, 0, {}]]]}, {"name": "concatenate_1278", "class_name": "Concatenate", "config": {"name": "concatenate_1278", "trainable": true, "dtype": "float32", "axis": -1}, "inbound_nodes": [[["dense_883", 0, 0, {}], ["dense_883", 0, 0, {}]]]}, {"name": "concatenate_1281", "class_name": "Concatenate", "config": {"name": "concatenate_1281", "trainable": true, "dtype": "float32", "axis": -1}, "inbound_nodes": [[["dense_880", 0, 0, {}], ["dense_882", 0, 0, {}]]]}, {"name": "concatenate_1283", "class_name": "Concatenate", "config": {"name": "concatenate_1283", "trainable": true, "dtype": "float32", "axis": -1}, "inbound_nodes": [[["dense_1303", 0, 0, {}], ["dense_880", 0, 0, {}]]]}, {"name": "concatenate_1297", "class_name": "Concatenate", "config": {"name": "concatenate_1297", "trainable": true, "dtype": "float32", "axis": -1}, "inbound_nodes": [[["dense_1317", 0, 0, {}], ["dense_882", 0, 0, {}]]]}, {"name": "concatenate_1298", "class_name": "Concatenate", "config": {"name": "concatenate_1298", "trainable": true, "dtype": "float32", "axis": -1}, "inbound_nodes": [[["dense_879", 0, 0, {}], ["dense_887", 0, 0, {}]]]}, {"name": "concatenate_1301", "class_name": "Concatenate", "config": {"name": "concatenate_1301", "trainable": true, "dtype": "float32", "axis": -1}, "inbound_nodes": [[["dense_879", 0, 0, {}], ["dense_884", 0, 0, {}]]]}, {"name": "concatenate_1311", "class_name": "Concatenate", "config": {"name": "concatenate_1311", "trainable": true, "dtype": "float32", "axis": -1}, "inbound_nodes": [[["dense_1331", 0, 0, {}], ["dense_884", 0, 0, {}]]]}, {"name": "concatenate_1312", "class_name": "Concatenate", "config": {"name": "concatenate_1312", "trainable": true, "dtype": "float32", "axis": -1}, "inbound_nodes": [[["dense_882", 0, 0, {}], ["dense_880", 0, 0, {}]]]}, {"name": "concatenate_1316", "class_name": "Concatenate", "config": {"name": "concatenate_1316", "trainable": true, "dtype": "float32", "axis": -1}, "inbound_nodes": [[["dense_1336", 0, 0, {}], ["dense_883", 0, 0, {}]]]}, {"name": "concatenate_1318", "class_name": "Concatenate", "config": {"name": "concatenate_1318", "trainable": true, "dtype": "float32", "axis": -1}, "inbound_nodes": [[["dense_1338", 0, 0, {}], ["dense_888", 0, 0, {}]]]}, {"name": "concatenate_1331", "class_name": "Concatenate", "config": {"name": "concatenate_1331", "trainable": true, "dtype": "float32", "axis": -1}, "inbound_nodes": [[["dense_882", 0, 0, {}], ["dense_887", 0, 0, {}]]]}, {"name": "concatenate_1333", "class_name": "Concatenate", "config": {"name": "concatenate_1333", "trainable": true, "dtype": "float32", "axis": -1}, "inbound_nodes": [[["dense_1353", 0, 0, {}], ["dense_879", 0, 0, {}]]]}, {"name": "concatenate_1340", "class_name": "Concatenate", "config": {"name": "concatenate_1340", "trainable": true, "dtype": "float32", "axis": -1}, "inbound_nodes": [[["dense_888", 0, 0, {}], ["dense_883", 0, 0, {}]]]}, {"name": "concatenate_1359", "class_name": "Concatenate", "config": {"name": "concatenate_1359", "trainable": true, "dtype": "float32", "axis": -1}, "inbound_nodes": [[["dense_883", 0, 0, {}], ["dense_883", 0, 0, {}]]]}, {"name": "concatenate_1361", "class_name": "Concatenate", "config": {"name": "concatenate_1361", "trainable": true, "dtype": "float32", "axis": -1}, "inbound_nodes": [[["dense_1381", 0, 0, {}], ["dense_883", 0, 0, {}]]]}, {"name": "concatenate_1366", "class_name": "Concatenate", "config": {"name": "concatenate_1366", "trainable": true, "dtype": "float32", "axis": -1}, "inbound_nodes": [[["dense_880", 0, 0, {}], ["dense_880", 0, 0, {}]]]}, {"name": "concatenate_1370", "class_name": "Concatenate", "config": {"name": "concatenate_1370", "trainable": true, "dtype": "float32", "axis": -1}, "inbound_nodes": [[["dense_1390", 0, 0, {}], ["dense_880", 0, 0, {}]]]}, {"name": "concatenate_1372", "class_name": "Concatenate", "config": {"name": "concatenate_1372", "trainable": true, "dtype": "float32", "axis": -1}, "inbound_nodes": [[["dense_1392", 0, 0, {}], ["dense_883", 0, 0, {}]]]}, {"name": "concatenate_1379", "class_name": "Concatenate", "config": {"name": "concatenate_1379", "trainable": true, "dtype": "float32", "axis": -1}, "inbound_nodes": [[["dense_884", 0, 0, {}], ["dense_880", 0, 0, {}]]]}, {"name": "concatenate_1397", "class_name": "Concatenate", "config": {"name": "concatenate_1397", "trainable": true, "dtype": "float32", "axis": -1}, "inbound_nodes": [[["dense_1417", 0, 0, {}], ["dense_888", 0, 0, {}]]]}, {"name": "concatenate_1398", "class_name": "Concatenate", "config": {"name": "concatenate_1398", "trainable": true, "dtype": "float32", "axis": -1}, "inbound_nodes": [[["dense_880", 0, 0, {}], ["dense_880", 0, 0, {}]]]}, {"name": "concatenate_1405", "class_name": "Concatenate", "config": {"name": "concatenate_1405", "trainable": true, "dtype": "float32", "axis": -1}, "inbound_nodes": [[["dense_884", 0, 0, {}], ["dense_887", 0, 0, {}]]]}, {"name": "dense_890", "class_name": "Dense", "config": {"name": "dense_890", "trainable": true, "dtype": "float32", "units": 100, "activation": "relu", "use_bias": true, "kernel_initializer": {"class_name": "VarianceScaling", "config": {"scale": 1.0, "mode": "fan_avg", "distribution": "uniform", "seed": null}}, "bias_initializer": {"class_name": "Zeros", "config": {}}, "kernel_regularizer": null, "bias_regularizer": null, "activity_regularizer": null, "kernel_constraint": null, "bias_constraint": null}, "inbound_nodes": [[["concatenate_869", 0, 0, {}]]]}, {"name": "dense_893", "class_name": "Dense", "config": {"name": "dense_893", "trainable": true, "dtype": "float32", "units": 100, "activation": "relu", "use_bias": true, "kernel_initializer": {"class_name": "VarianceScaling", "config": {"scale": 1.0, "mode": "fan_avg", "distribution": "uniform", "seed": null}}, "bias_initializer": {"class_name": "Zeros", "config": {}}, "kernel_regularizer": null, "bias_regularizer": null, "activity_regularizer": null, "kernel_constraint": null, "bias_constraint": null}, "inbound_nodes": [[["concatenate_872", 0, 0, {}]]]}, {"name": "dense_898", "class_name": "Dense", "config": {"name": "dense_898", "trainable": true, "dtype": "float32", "units": 100, "activation": "relu", "use_bias": true, "kernel_initializer": {"class_name": "VarianceScaling", "config": {"scale": 1.0, "mode": "fan_avg", "distribution": "uniform", "seed": null}}, "bias_initializer": {"class_name": "Zeros", "config": {}}, "kernel_regularizer": null, "bias_regularizer": null, "activity_regularizer": null, "kernel_constraint": null, "bias_constraint": null}, "inbound_nodes": [[["concatenate_877", 0, 0, {}]]]}, {"name": "dense_900", "class_name": "Dense", "config": {"name": "dense_900", "trainable": true, "dtype": "float32", "units": 100, "activation": "relu", "use_bias": true, "kernel_initializer": {"class_name": "VarianceScaling", "config": {"scale": 1.0, "mode": "fan_avg", "distribution": "uniform", "seed": null}}, "bias_initializer": {"class_name": "Zeros", "config": {}}, "kernel_regularizer": null, "bias_regularizer": null, "activity_regularizer": null, "kernel_constraint": null, "bias_constraint": null}, "inbound_nodes": [[["concatenate_879", 0, 0, {}]]]}, {"name": "dense_904", "class_name": "Dense", "config": {"name": "dense_904", "trainable": true, "dtype": "float32", "units": 100, "activation": "relu", "use_bias": true, "kernel_initializer": {"class_name": "VarianceScaling", "config": {"scale": 1.0, "mode": "fan_avg", "distribution": "uniform", "seed": null}}, "bias_initializer": {"class_name": "Zeros", "config": {}}, "kernel_regularizer": null, "bias_regularizer": null, "activity_regularizer": null, "kernel_constraint": null, "bias_constraint": null}, "inbound_nodes": [[["concatenate_883", 0, 0, {}]]]}, {"name": "dense_906", "class_name": "Dense", "config": {"name": "dense_906", "trainable": true, "dtype": "float32", "units": 100, "activation": "relu", "use_bias": true, "kernel_initializer": {"class_name": "VarianceScaling", "config": {"scale": 1.0, "mode": "fan_avg", "distribution": "uniform", "seed": null}}, "bias_initializer": {"class_name": "Zeros", "config": {}}, "kernel_regularizer": null, "bias_regularizer": null, "activity_regularizer": null, "kernel_constraint": null, "bias_constraint": null}, "inbound_nodes": [[["concatenate_885", 0, 0, {}]]]}, {"name": "dense_913", "class_name": "Dense", "config": {"name": "dense_913", "trainable": true, "dtype": "float32", "units": 100, "activation": "relu", "use_bias": true, "kernel_initializer": {"class_name": "VarianceScaling", "config": {"scale": 1.0, "mode": "fan_avg", "distribution": "uniform", "seed": null}}, "bias_initializer": {"class_name": "Zeros", "config": {}}, "kernel_regularizer": null, "bias_regularizer": null, "activity_regularizer": null, "kernel_constraint": null, "bias_constraint": null}, "inbound_nodes": [[["concatenate_892", 0, 0, {}]]]}, {"name": "dense_916", "class_name": "Dense", "config": {"name": "dense_916", "trainable": true, "dtype": "float32", "units": 100, "activation": "relu", "use_bias": true, "kernel_initializer": {"class_name": "VarianceScaling", "config": {"scale": 1.0, "mode": "fan_avg", "distribution": "uniform", "seed": null}}, "bias_initializer": {"class_name": "Zeros", "config": {}}, "kernel_regularizer": null, "bias_regularizer": null, "activity_regularizer": null, "kernel_constraint": null, "bias_constraint": null}, "inbound_nodes": [[["concatenate_895", 0, 0, {}]]]}, {"name": "dense_921", "class_name": "Dense", "config": {"name": "dense_921", "trainable": true, "dtype": "float32", "units": 100, "activation": "relu", "use_bias": true, "kernel_initializer": {"class_name": "VarianceScaling", "config": {"scale": 1.0, "mode": "fan_avg", "distribution": "uniform", "seed": null}}, "bias_initializer": {"class_name": "Zeros", "config": {}}, "kernel_regularizer": null, "bias_regularizer": null, "activity_regularizer": null, "kernel_constraint": null, "bias_constraint": null}, "inbound_nodes": [[["concatenate_900", 0, 0, {}]]]}, {"name": "dense_924", "class_name": "Dense", "config": {"name": "dense_924", "trainable": true, "dtype": "float32", "units": 100, "activation": "relu", "use_bias": true, "kernel_initializer": {"class_name": "VarianceScaling", "config": {"scale": 1.0, "mode": "fan_avg", "distribution": "uniform", "seed": null}}, "bias_initializer": {"class_name": "Zeros", "config": {}}, "kernel_regularizer": null, "bias_regularizer": null, "activity_regularizer": null, "kernel_constraint": null, "bias_constraint": null}, "inbound_nodes": [[["concatenate_903", 0, 0, {}]]]}, {"name": "dense_925", "class_name": "Dense", "config": {"name": "dense_925", "trainable": true, "dtype": "float32", "units": 100, "activation": "relu", "use_bias": true, "kernel_initializer": {"class_name": "VarianceScaling", "config": {"scale": 1.0, "mode": "fan_avg", "distribution": "uniform", "seed": null}}, "bias_initializer": {"class_name": "Zeros", "config": {}}, "kernel_regularizer": null, "bias_regularizer": null, "activity_regularizer": null, "kernel_constraint": null, "bias_constraint": null}, "inbound_nodes": [[["concatenate_904", 0, 0, {}]]]}, {"name": "dense_935", "class_name": "Dense", "config": {"name": "dense_935", "trainable": true, "dtype": "float32", "units": 100, "activation": "relu", "use_bias": true, "kernel_initializer": {"class_name": "VarianceScaling", "config": {"scale": 1.0, "mode": "fan_avg", "distribution": "uniform", "seed": null}}, "bias_initializer": {"class_name": "Zeros", "config": {}}, "kernel_regularizer": null, "bias_regularizer": null, "activity_regularizer": null, "kernel_constraint": null, "bias_constraint": null}, "inbound_nodes": [[["concatenate_914", 0, 0, {}]]]}, {"name": "dense_937", "class_name": "Dense", "config": {"name": "dense_937", "trainable": true, "dtype": "float32", "units": 100, "activation": "relu", "use_bias": true, "kernel_initializer": {"class_name": "VarianceScaling", "config": {"scale": 1.0, "mode": "fan_avg", "distribution": "uniform", "seed": null}}, "bias_initializer": {"class_name": "Zeros", "config": {}}, "kernel_regularizer": null, "bias_regularizer": null, "activity_regularizer": null, "kernel_constraint": null, "bias_constraint": null}, "inbound_nodes": [[["concatenate_916", 0, 0, {}]]]}, {"name": "dense_945", "class_name": "Dense", "config": {"name": "dense_945", "trainable": true, "dtype": "float32", "units": 100, "activation": "relu", "use_bias": true, "kernel_initializer": {"class_name": "VarianceScaling", "config": {"scale": 1.0, "mode": "fan_avg", "distribution": "uniform", "seed": null}}, "bias_initializer": {"class_name": "Zeros", "config": {}}, "kernel_regularizer": null, "bias_regularizer": null, "activity_regularizer": null, "kernel_constraint": null, "bias_constraint": null}, "inbound_nodes": [[["concatenate_924", 0, 0, {}]]]}, {"name": "dense_946", "class_name": "Dense", "config": {"name": "dense_946", "trainable": true, "dtype": "float32", "units": 100, "activation": "relu", "use_bias": true, "kernel_initializer": {"class_name": "VarianceScaling", "config": {"scale": 1.0, "mode": "fan_avg", "distribution": "uniform", "seed": null}}, "bias_initializer": {"class_name": "Zeros", "config": {}}, "kernel_regularizer": null, "bias_regularizer": null, "activity_regularizer": null, "kernel_constraint": null, "bias_constraint": null}, "inbound_nodes": [[["concatenate_925", 0, 0, {}]]]}, {"name": "dense_953", "class_name": "Dense", "config": {"name": "dense_953", "trainable": true, "dtype": "float32", "units": 100, "activation": "relu", "use_bias": true, "kernel_initializer": {"class_name": "VarianceScaling", "config": {"scale": 1.0, "mode": "fan_avg", "distribution": "uniform", "seed": null}}, "bias_initializer": {"class_name": "Zeros", "config": {}}, "kernel_regularizer": null, "bias_regularizer": null, "activity_regularizer": null, "kernel_constraint": null, "bias_constraint": null}, "inbound_nodes": [[["concatenate_932", 0, 0, {}]]]}, {"name": "dense_955", "class_name": "Dense", "config": {"name": "dense_955", "trainable": true, "dtype": "float32", "units": 100, "activation": "relu", "use_bias": true, "kernel_initializer": {"class_name": "VarianceScaling", "config": {"scale": 1.0, "mode": "fan_avg", "distribution": "uniform", "seed": null}}, "bias_initializer": {"class_name": "Zeros", "config": {}}, "kernel_regularizer": null, "bias_regularizer": null, "activity_regularizer": null, "kernel_constraint": null, "bias_constraint": null}, "inbound_nodes": [[["concatenate_934", 0, 0, {}]]]}, {"name": "dense_958", "class_name": "Dense", "config": {"name": "dense_958", "trainable": true, "dtype": "float32", "units": 100, "activation": "relu", "use_bias": true, "kernel_initializer": {"class_name": "VarianceScaling", "config": {"scale": 1.0, "mode": "fan_avg", "distribution": "uniform", "seed": null}}, "bias_initializer": {"class_name": "Zeros", "config": {}}, "kernel_regularizer": null, "bias_regularizer": null, "activity_regularizer": null, "kernel_constraint": null, "bias_constraint": null}, "inbound_nodes": [[["concatenate_937", 0, 0, {}]]]}, {"name": "dense_959", "class_name": "Dense", "config": {"name": "dense_959", "trainable": true, "dtype": "float32", "units": 100, "activation": "relu", "use_bias": true, "kernel_initializer": {"class_name": "VarianceScaling", "config": {"scale": 1.0, "mode": "fan_avg", "distribution": "uniform", "seed": null}}, "bias_initializer": {"class_name": "Zeros", "config": {}}, "kernel_regularizer": null, "bias_regularizer": null, "activity_regularizer": null, "kernel_constraint": null, "bias_constraint": null}, "inbound_nodes": [[["concatenate_938", 0, 0, {}]]]}, {"name": "dense_971", "class_name": "Dense", "config": {"name": "dense_971", "trainable": true, "dtype": "float32", "units": 100, "activation": "relu", "use_bias": true, "kernel_initializer": {"class_name": "VarianceScaling", "config": {"scale": 1.0, "mode": "fan_avg", "distribution": "uniform", "seed": null}}, "bias_initializer": {"class_name": "Zeros", "config": {}}, "kernel_regularizer": null, "bias_regularizer": null, "activity_regularizer": null, "kernel_constraint": null, "bias_constraint": null}, "inbound_nodes": [[["concatenate_950", 0, 0, {}]]]}, {"name": "dense_992", "class_name": "Dense", "config": {"name": "dense_992", "trainable": true, "dtype": "float32", "units": 100, "activation": "relu", "use_bias": true, "kernel_initializer": {"class_name": "VarianceScaling", "config": {"scale": 1.0, "mode": "fan_avg", "distribution": "uniform", "seed": null}}, "bias_initializer": {"class_name": "Zeros", "config": {}}, "kernel_regularizer": null, "bias_regularizer": null, "activity_regularizer": null, "kernel_constraint": null, "bias_constraint": null}, "inbound_nodes": [[["concatenate_971", 0, 0, {}]]]}, {"name": "dense_994", "class_name": "Dense", "config": {"name": "dense_994", "trainable": true, "dtype": "float32", "units": 100, "activation": "relu", "use_bias": true, "kernel_initializer": {"class_name": "VarianceScaling", "config": {"scale": 1.0, "mode": "fan_avg", "distribution": "uniform", "seed": null}}, "bias_initializer": {"class_name": "Zeros", "config": {}}, "kernel_regularizer": null, "bias_regularizer": null, "activity_regularizer": null, "kernel_constraint": null, "bias_constraint": null}, "inbound_nodes": [[["concatenate_973", 0, 0, {}]]]}, {"name": "dense_1003", "class_name": "Dense", "config": {"name": "dense_1003", "trainable": true, "dtype": "float32", "units": 100, "activation": "relu", "use_bias": true, "kernel_initializer": {"class_name": "VarianceScaling", "config": {"scale": 1.0, "mode": "fan_avg", "distribution": "uniform", "seed": null}}, "bias_initializer": {"class_name": "Zeros", "config": {}}, "kernel_regularizer": null, "bias_regularizer": null, "activity_regularizer": null, "kernel_constraint": null, "bias_constraint": null}, "inbound_nodes": [[["concatenate_982", 0, 0, {}]]]}, {"name": "dense_1004", "class_name": "Dense", "config": {"name": "dense_1004", "trainable": true, "dtype": "float32", "units": 100, "activation": "relu", "use_bias": true, "kernel_initializer": {"class_name": "VarianceScaling", "config": {"scale": 1.0, "mode": "fan_avg", "distribution": "uniform", "seed": null}}, "bias_initializer": {"class_name": "Zeros", "config": {}}, "kernel_regularizer": null, "bias_regularizer": null, "activity_regularizer": null, "kernel_constraint": null, "bias_constraint": null}, "inbound_nodes": [[["concatenate_983", 0, 0, {}]]]}, {"name": "dense_1027", "class_name": "Dense", "config": {"name": "dense_1027", "trainable": true, "dtype": "float32", "units": 100, "activation": "relu", "use_bias": true, "kernel_initializer": {"class_name": "VarianceScaling", "config": {"scale": 1.0, "mode": "fan_avg", "distribution": "uniform", "seed": null}}, "bias_initializer": {"class_name": "Zeros", "config": {}}, "kernel_regularizer": null, "bias_regularizer": null, "activity_regularizer": null, "kernel_constraint": null, "bias_constraint": null}, "inbound_nodes": [[["concatenate_1006", 0, 0, {}]]]}, {"name": "dense_1029", "class_name": "Dense", "config": {"name": "dense_1029", "trainable": true, "dtype": "float32", "units": 100, "activation": "relu", "use_bias": true, "kernel_initializer": {"class_name": "VarianceScaling", "config": {"scale": 1.0, "mode": "fan_avg", "distribution": "uniform", "seed": null}}, "bias_initializer": {"class_name": "Zeros", "config": {}}, "kernel_regularizer": null, "bias_regularizer": null, "activity_regularizer": null, "kernel_constraint": null, "bias_constraint": null}, "inbound_nodes": [[["concatenate_1008", 0, 0, {}]]]}, {"name": "dense_1033", "class_name": "Dense", "config": {"name": "dense_1033", "trainable": true, "dtype": "float32", "units": 100, "activation": "relu", "use_bias": true, "kernel_initializer": {"class_name": "VarianceScaling", "config": {"scale": 1.0, "mode": "fan_avg", "distribution": "uniform", "seed": null}}, "bias_initializer": {"class_name": "Zeros", "config": {}}, "kernel_regularizer": null, "bias_regularizer": null, "activity_regularizer": null, "kernel_constraint": null, "bias_constraint": null}, "inbound_nodes": [[["concatenate_1012", 0, 0, {}]]]}, {"name": "dense_1035", "class_name": "Dense", "config": {"name": "dense_1035", "trainable": true, "dtype": "float32", "units": 100, "activation": "relu", "use_bias": true, "kernel_initializer": {"class_name": "VarianceScaling", "config": {"scale": 1.0, "mode": "fan_avg", "distribution": "uniform", "seed": null}}, "bias_initializer": {"class_name": "Zeros", "config": {}}, "kernel_regularizer": null, "bias_regularizer": null, "activity_regularizer": null, "kernel_constraint": null, "bias_constraint": null}, "inbound_nodes": [[["concatenate_1014", 0, 0, {}]]]}, {"name": "dense_1040", "class_name": "Dense", "config": {"name": "dense_1040", "trainable": true, "dtype": "float32", "units": 100, "activation": "relu", "use_bias": true, "kernel_initializer": {"class_name": "VarianceScaling", "config": {"scale": 1.0, "mode": "fan_avg", "distribution": "uniform", "seed": null}}, "bias_initializer": {"class_name": "Zeros", "config": {}}, "kernel_regularizer": null, "bias_regularizer": null, "activity_regularizer": null, "kernel_constraint": null, "bias_constraint": null}, "inbound_nodes": [[["concatenate_1019", 0, 0, {}]]]}, {"name": "dense_1042", "class_name": "Dense", "config": {"name": "dense_1042", "trainable": true, "dtype": "float32", "units": 100, "activation": "relu", "use_bias": true, "kernel_initializer": {"class_name": "VarianceScaling", "config": {"scale": 1.0, "mode": "fan_avg", "distribution": "uniform", "seed": null}}, "bias_initializer": {"class_name": "Zeros", "config": {}}, "kernel_regularizer": null, "bias_regularizer": null, "activity_regularizer": null, "kernel_constraint": null, "bias_constraint": null}, "inbound_nodes": [[["concatenate_1021", 0, 0, {}]]]}, {"name": "dense_1046", "class_name": "Dense", "config": {"name": "dense_1046", "trainable": true, "dtype": "float32", "units": 100, "activation": "relu", "use_bias": true, "kernel_initializer": {"class_name": "VarianceScaling", "config": {"scale": 1.0, "mode": "fan_avg", "distribution": "uniform", "seed": null}}, "bias_initializer": {"class_name": "Zeros", "config": {}}, "kernel_regularizer": null, "bias_regularizer": null, "activity_regularizer": null, "kernel_constraint": null, "bias_constraint": null}, "inbound_nodes": [[["concatenate_1025", 0, 0, {}]]]}, {"name": "dense_1048", "class_name": "Dense", "config": {"name": "dense_1048", "trainable": true, "dtype": "float32", "units": 100, "activation": "relu", "use_bias": true, "kernel_initializer": {"class_name": "VarianceScaling", "config": {"scale": 1.0, "mode": "fan_avg", "distribution": "uniform", "seed": null}}, "bias_initializer": {"class_name": "Zeros", "config": {}}, "kernel_regularizer": null, "bias_regularizer": null, "activity_regularizer": null, "kernel_constraint": null, "bias_constraint": null}, "inbound_nodes": [[["concatenate_1027", 0, 0, {}]]]}, {"name": "dense_1058", "class_name": "Dense", "config": {"name": "dense_1058", "trainable": true, "dtype": "float32", "units": 100, "activation": "relu", "use_bias": true, "kernel_initializer": {"class_name": "VarianceScaling", "config": {"scale": 1.0, "mode": "fan_avg", "distribution": "uniform", "seed": null}}, "bias_initializer": {"class_name": "Zeros", "config": {}}, "kernel_regularizer": null, "bias_regularizer": null, "activity_regularizer": null, "kernel_constraint": null, "bias_constraint": null}, "inbound_nodes": [[["concatenate_1037", 0, 0, {}]]]}, {"name": "dense_1059", "class_name": "Dense", "config": {"name": "dense_1059", "trainable": true, "dtype": "float32", "units": 100, "activation": "relu", "use_bias": true, "kernel_initializer": {"class_name": "VarianceScaling", "config": {"scale": 1.0, "mode": "fan_avg", "distribution": "uniform", "seed": null}}, "bias_initializer": {"class_name": "Zeros", "config": {}}, "kernel_regularizer": null, "bias_regularizer": null, "activity_regularizer": null, "kernel_constraint": null, "bias_constraint": null}, "inbound_nodes": [[["concatenate_1038", 0, 0, {}]]]}, {"name": "dense_1068", "class_name": "Dense", "config": {"name": "dense_1068", "trainable": true, "dtype": "float32", "units": 100, "activation": "relu", "use_bias": true, "kernel_initializer": {"class_name": "VarianceScaling", "config": {"scale": 1.0, "mode": "fan_avg", "distribution": "uniform", "seed": null}}, "bias_initializer": {"class_name": "Zeros", "config": {}}, "kernel_regularizer": null, "bias_regularizer": null, "activity_regularizer": null, "kernel_constraint": null, "bias_constraint": null}, "inbound_nodes": [[["concatenate_1047", 0, 0, {}]]]}, {"name": "dense_1074", "class_name": "Dense", "config": {"name": "dense_1074", "trainable": true, "dtype": "float32", "units": 100, "activation": "relu", "use_bias": true, "kernel_initializer": {"class_name": "VarianceScaling", "config": {"scale": 1.0, "mode": "fan_avg", "distribution": "uniform", "seed": null}}, "bias_initializer": {"class_name": "Zeros", "config": {}}, "kernel_regularizer": null, "bias_regularizer": null, "activity_regularizer": null, "kernel_constraint": null, "bias_constraint": null}, "inbound_nodes": [[["concatenate_1053", 0, 0, {}]]]}, {"name": "dense_1078", "class_name": "Dense", "config": {"name": "dense_1078", "trainable": true, "dtype": "float32", "units": 100, "activation": "relu", "use_bias": true, "kernel_initializer": {"class_name": "VarianceScaling", "config": {"scale": 1.0, "mode": "fan_avg", "distribution": "uniform", "seed": null}}, "bias_initializer": {"class_name": "Zeros", "config": {}}, "kernel_regularizer": null, "bias_regularizer": null, "activity_regularizer": null, "kernel_constraint": null, "bias_constraint": null}, "inbound_nodes": [[["concatenate_1057", 0, 0, {}]]]}, {"name": "dense_1079", "class_name": "Dense", "config": {"name": "dense_1079", "trainable": true, "dtype": "float32", "units": 100, "activation": "relu", "use_bias": true, "kernel_initializer": {"class_name": "VarianceScaling", "config": {"scale": 1.0, "mode": "fan_avg", "distribution": "uniform", "seed": null}}, "bias_initializer": {"class_name": "Zeros", "config": {}}, "kernel_regularizer": null, "bias_regularizer": null, "activity_regularizer": null, "kernel_constraint": null, "bias_constraint": null}, "inbound_nodes": [[["concatenate_1058", 0, 0, {}]]]}, {"name": "dense_1088", "class_name": "Dense", "config": {"name": "dense_1088", "trainable": true, "dtype": "float32", "units": 100, "activation": "relu", "use_bias": true, "kernel_initializer": {"class_name": "VarianceScaling", "config": {"scale": 1.0, "mode": "fan_avg", "distribution": "uniform", "seed": null}}, "bias_initializer": {"class_name": "Zeros", "config": {}}, "kernel_regularizer": null, "bias_regularizer": null, "activity_regularizer": null, "kernel_constraint": null, "bias_constraint": null}, "inbound_nodes": [[["concatenate_1067", 0, 0, {}]]]}, {"name": "dense_1100", "class_name": "Dense", "config": {"name": "dense_1100", "trainable": true, "dtype": "float32", "units": 100, "activation": "relu", "use_bias": true, "kernel_initializer": {"class_name": "VarianceScaling", "config": {"scale": 1.0, "mode": "fan_avg", "distribution": "uniform", "seed": null}}, "bias_initializer": {"class_name": "Zeros", "config": {}}, "kernel_regularizer": null, "bias_regularizer": null, "activity_regularizer": null, "kernel_constraint": null, "bias_constraint": null}, "inbound_nodes": [[["concatenate_1079", 0, 0, {}]]]}, {"name": "dense_1102", "class_name": "Dense", "config": {"name": "dense_1102", "trainable": true, "dtype": "float32", "units": 100, "activation": "relu", "use_bias": true, "kernel_initializer": {"class_name": "VarianceScaling", "config": {"scale": 1.0, "mode": "fan_avg", "distribution": "uniform", "seed": null}}, "bias_initializer": {"class_name": "Zeros", "config": {}}, "kernel_regularizer": null, "bias_regularizer": null, "activity_regularizer": null, "kernel_constraint": null, "bias_constraint": null}, "inbound_nodes": [[["concatenate_1081", 0, 0, {}]]]}, {"name": "dense_1105", "class_name": "Dense", "config": {"name": "dense_1105", "trainable": true, "dtype": "float32", "units": 100, "activation": "relu", "use_bias": true, "kernel_initializer": {"class_name": "VarianceScaling", "config": {"scale": 1.0, "mode": "fan_avg", "distribution": "uniform", "seed": null}}, "bias_initializer": {"class_name": "Zeros", "config": {}}, "kernel_regularizer": null, "bias_regularizer": null, "activity_regularizer": null, "kernel_constraint": null, "bias_constraint": null}, "inbound_nodes": [[["concatenate_1084", 0, 0, {}]]]}, {"name": "dense_1111", "class_name": "Dense", "config": {"name": "dense_1111", "trainable": true, "dtype": "float32", "units": 100, "activation": "relu", "use_bias": true, "kernel_initializer": {"class_name": "VarianceScaling", "config": {"scale": 1.0, "mode": "fan_avg", "distribution": "uniform", "seed": null}}, "bias_initializer": {"class_name": "Zeros", "config": {}}, "kernel_regularizer": null, "bias_regularizer": null, "activity_regularizer": null, "kernel_constraint": null, "bias_constraint": null}, "inbound_nodes": [[["concatenate_1090", 0, 0, {}]]]}, {"name": "dense_1113", "class_name": "Dense", "config": {"name": "dense_1113", "trainable": true, "dtype": "float32", "units": 100, "activation": "relu", "use_bias": true, "kernel_initializer": {"class_name": "VarianceScaling", "config": {"scale": 1.0, "mode": "fan_avg", "distribution": "uniform", "seed": null}}, "bias_initializer": {"class_name": "Zeros", "config": {}}, "kernel_regularizer": null, "bias_regularizer": null, "activity_regularizer": null, "kernel_constraint": null, "bias_constraint": null}, "inbound_nodes": [[["concatenate_1092", 0, 0, {}]]]}, {"name": "dense_1117", "class_name": "Dense", "config": {"name": "dense_1117", "trainable": true, "dtype": "float32", "units": 100, "activation": "relu", "use_bias": true, "kernel_initializer": {"class_name": "VarianceScaling", "config": {"scale": 1.0, "mode": "fan_avg", "distribution": "uniform", "seed": null}}, "bias_initializer": {"class_name": "Zeros", "config": {}}, "kernel_regularizer": null, "bias_regularizer": null, "activity_regularizer": null, "kernel_constraint": null, "bias_constraint": null}, "inbound_nodes": [[["concatenate_1096", 0, 0, {}]]]}, {"name": "dense_1118", "class_name": "Dense", "config": {"name": "dense_1118", "trainable": true, "dtype": "float32", "units": 100, "activation": "relu", "use_bias": true, "kernel_initializer": {"class_name": "VarianceScaling", "config": {"scale": 1.0, "mode": "fan_avg", "distribution": "uniform", "seed": null}}, "bias_initializer": {"class_name": "Zeros", "config": {}}, "kernel_regularizer": null, "bias_regularizer": null, "activity_regularizer": null, "kernel_constraint": null, "bias_constraint": null}, "inbound_nodes": [[["concatenate_1097", 0, 0, {}]]]}, {"name": "dense_1126", "class_name": "Dense", "config": {"name": "dense_1126", "trainable": true, "dtype": "float32", "units": 100, "activation": "relu", "use_bias": true, "kernel_initializer": {"class_name": "VarianceScaling", "config": {"scale": 1.0, "mode": "fan_avg", "distribution": "uniform", "seed": null}}, "bias_initializer": {"class_name": "Zeros", "config": {}}, "kernel_regularizer": null, "bias_regularizer": null, "activity_regularizer": null, "kernel_constraint": null, "bias_constraint": null}, "inbound_nodes": [[["concatenate_1105", 0, 0, {}]]]}, {"name": "dense_1128", "class_name": "Dense", "config": {"name": "dense_1128", "trainable": true, "dtype": "float32", "units": 100, "activation": "relu", "use_bias": true, "kernel_initializer": {"class_name": "VarianceScaling", "config": {"scale": 1.0, "mode": "fan_avg", "distribution": "uniform", "seed": null}}, "bias_initializer": {"class_name": "Zeros", "config": {}}, "kernel_regularizer": null, "bias_regularizer": null, "activity_regularizer": null, "kernel_constraint": null, "bias_constraint": null}, "inbound_nodes": [[["concatenate_1107", 0, 0, {}]]]}, {"name": "dense_1131", "class_name": "Dense", "config": {"name": "dense_1131", "trainable": true, "dtype": "float32", "units": 100, "activation": "relu", "use_bias": true, "kernel_initializer": {"class_name": "VarianceScaling", "config": {"scale": 1.0, "mode": "fan_avg", "distribution": "uniform", "seed": null}}, "bias_initializer": {"class_name": "Zeros", "config": {}}, "kernel_regularizer": null, "bias_regularizer": null, "activity_regularizer": null, "kernel_constraint": null, "bias_constraint": null}, "inbound_nodes": [[["concatenate_1110", 0, 0, {}]]]}, {"name": "dense_1133", "class_name": "Dense", "config": {"name": "dense_1133", "trainable": true, "dtype": "float32", "units": 100, "activation": "relu", "use_bias": true, "kernel_initializer": {"class_name": "VarianceScaling", "config": {"scale": 1.0, "mode": "fan_avg", "distribution": "uniform", "seed": null}}, "bias_initializer": {"class_name": "Zeros", "config": {}}, "kernel_regularizer": null, "bias_regularizer": null, "activity_regularizer": null, "kernel_constraint": null, "bias_constraint": null}, "inbound_nodes": [[["concatenate_1112", 0, 0, {}]]]}, {"name": "dense_1139", "class_name": "Dense", "config": {"name": "dense_1139", "trainable": true, "dtype": "float32", "units": 100, "activation": "relu", "use_bias": true, "kernel_initializer": {"class_name": "VarianceScaling", "config": {"scale": 1.0, "mode": "fan_avg", "distribution": "uniform", "seed": null}}, "bias_initializer": {"class_name": "Zeros", "config": {}}, "kernel_regularizer": null, "bias_regularizer": null, "activity_regularizer": null, "kernel_constraint": null, "bias_constraint": null}, "inbound_nodes": [[["concatenate_1118", 0, 0, {}]]]}, {"name": "dense_1148", "class_name": "Dense", "config": {"name": "dense_1148", "trainable": true, "dtype": "float32", "units": 100, "activation": "relu", "use_bias": true, "kernel_initializer": {"class_name": "VarianceScaling", "config": {"scale": 1.0, "mode": "fan_avg", "distribution": "uniform", "seed": null}}, "bias_initializer": {"class_name": "Zeros", "config": {}}, "kernel_regularizer": null, "bias_regularizer": null, "activity_regularizer": null, "kernel_constraint": null, "bias_constraint": null}, "inbound_nodes": [[["concatenate_1127", 0, 0, {}]]]}, {"name": "dense_1153", "class_name": "Dense", "config": {"name": "dense_1153", "trainable": true, "dtype": "float32", "units": 100, "activation": "relu", "use_bias": true, "kernel_initializer": {"class_name": "VarianceScaling", "config": {"scale": 1.0, "mode": "fan_avg", "distribution": "uniform", "seed": null}}, "bias_initializer": {"class_name": "Zeros", "config": {}}, "kernel_regularizer": null, "bias_regularizer": null, "activity_regularizer": null, "kernel_constraint": null, "bias_constraint": null}, "inbound_nodes": [[["concatenate_1132", 0, 0, {}]]]}, {"name": "dense_1155", "class_name": "Dense", "config": {"name": "dense_1155", "trainable": true, "dtype": "float32", "units": 100, "activation": "relu", "use_bias": true, "kernel_initializer": {"class_name": "VarianceScaling", "config": {"scale": 1.0, "mode": "fan_avg", "distribution": "uniform", "seed": null}}, "bias_initializer": {"class_name": "Zeros", "config": {}}, "kernel_regularizer": null, "bias_regularizer": null, "activity_regularizer": null, "kernel_constraint": null, "bias_constraint": null}, "inbound_nodes": [[["concatenate_1134", 0, 0, {}]]]}, {"name": "dense_1167", "class_name": "Dense", "config": {"name": "dense_1167", "trainable": true, "dtype": "float32", "units": 100, "activation": "relu", "use_bias": true, "kernel_initializer": {"class_name": "VarianceScaling", "config": {"scale": 1.0, "mode": "fan_avg", "distribution": "uniform", "seed": null}}, "bias_initializer": {"class_name": "Zeros", "config": {}}, "kernel_regularizer": null, "bias_regularizer": null, "activity_regularizer": null, "kernel_constraint": null, "bias_constraint": null}, "inbound_nodes": [[["concatenate_1146", 0, 0, {}]]]}, {"name": "dense_1171", "class_name": "Dense", "config": {"name": "dense_1171", "trainable": true, "dtype": "float32", "units": 100, "activation": "relu", "use_bias": true, "kernel_initializer": {"class_name": "VarianceScaling", "config": {"scale": 1.0, "mode": "fan_avg", "distribution": "uniform", "seed": null}}, "bias_initializer": {"class_name": "Zeros", "config": {}}, "kernel_regularizer": null, "bias_regularizer": null, "activity_regularizer": null, "kernel_constraint": null, "bias_constraint": null}, "inbound_nodes": [[["concatenate_1150", 0, 0, {}]]]}, {"name": "dense_1173", "class_name": "Dense", "config": {"name": "dense_1173", "trainable": true, "dtype": "float32", "units": 100, "activation": "relu", "use_bias": true, "kernel_initializer": {"class_name": "VarianceScaling", "config": {"scale": 1.0, "mode": "fan_avg", "distribution": "uniform", "seed": null}}, "bias_initializer": {"class_name": "Zeros", "config": {}}, "kernel_regularizer": null, "bias_regularizer": null, "activity_regularizer": null, "kernel_constraint": null, "bias_constraint": null}, "inbound_nodes": [[["concatenate_1152", 0, 0, {}]]]}, {"name": "dense_1188", "class_name": "Dense", "config": {"name": "dense_1188", "trainable": true, "dtype": "float32", "units": 100, "activation": "relu", "use_bias": true, "kernel_initializer": {"class_name": "VarianceScaling", "config": {"scale": 1.0, "mode": "fan_avg", "distribution": "uniform", "seed": null}}, "bias_initializer": {"class_name": "Zeros", "config": {}}, "kernel_regularizer": null, "bias_regularizer": null, "activity_regularizer": null, "kernel_constraint": null, "bias_constraint": null}, "inbound_nodes": [[["concatenate_1167", 0, 0, {}]]]}, {"name": "dense_1194", "class_name": "Dense", "config": {"name": "dense_1194", "trainable": true, "dtype": "float32", "units": 100, "activation": "relu", "use_bias": true, "kernel_initializer": {"class_name": "VarianceScaling", "config": {"scale": 1.0, "mode": "fan_avg", "distribution": "uniform", "seed": null}}, "bias_initializer": {"class_name": "Zeros", "config": {}}, "kernel_regularizer": null, "bias_regularizer": null, "activity_regularizer": null, "kernel_constraint": null, "bias_constraint": null}, "inbound_nodes": [[["concatenate_1173", 0, 0, {}]]]}, {"name": "dense_1195", "class_name": "Dense", "config": {"name": "dense_1195", "trainable": true, "dtype": "float32", "units": 100, "activation": "relu", "use_bias": true, "kernel_initializer": {"class_name": "VarianceScaling", "config": {"scale": 1.0, "mode": "fan_avg", "distribution": "uniform", "seed": null}}, "bias_initializer": {"class_name": "Zeros", "config": {}}, "kernel_regularizer": null, "bias_regularizer": null, "activity_regularizer": null, "kernel_constraint": null, "bias_constraint": null}, "inbound_nodes": [[["concatenate_1174", 0, 0, {}]]]}, {"name": "dense_1202", "class_name": "Dense", "config": {"name": "dense_1202", "trainable": true, "dtype": "float32", "units": 100, "activation": "relu", "use_bias": true, "kernel_initializer": {"class_name": "VarianceScaling", "config": {"scale": 1.0, "mode": "fan_avg", "distribution": "uniform", "seed": null}}, "bias_initializer": {"class_name": "Zeros", "config": {}}, "kernel_regularizer": null, "bias_regularizer": null, "activity_regularizer": null, "kernel_constraint": null, "bias_constraint": null}, "inbound_nodes": [[["concatenate_1181", 0, 0, {}]]]}, {"name": "dense_1214", "class_name": "Dense", "config": {"name": "dense_1214", "trainable": true, "dtype": "float32", "units": 100, "activation": "relu", "use_bias": true, "kernel_initializer": {"class_name": "VarianceScaling", "config": {"scale": 1.0, "mode": "fan_avg", "distribution": "uniform", "seed": null}}, "bias_initializer": {"class_name": "Zeros", "config": {}}, "kernel_regularizer": null, "bias_regularizer": null, "activity_regularizer": null, "kernel_constraint": null, "bias_constraint": null}, "inbound_nodes": [[["concatenate_1193", 0, 0, {}]]]}, {"name": "dense_1216", "class_name": "Dense", "config": {"name": "dense_1216", "trainable": true, "dtype": "float32", "units": 100, "activation": "relu", "use_bias": true, "kernel_initializer": {"class_name": "VarianceScaling", "config": {"scale": 1.0, "mode": "fan_avg", "distribution": "uniform", "seed": null}}, "bias_initializer": {"class_name": "Zeros", "config": {}}, "kernel_regularizer": null, "bias_regularizer": null, "activity_regularizer": null, "kernel_constraint": null, "bias_constraint": null}, "inbound_nodes": [[["concatenate_1195", 0, 0, {}]]]}, {"name": "dense_1220", "class_name": "Dense", "config": {"name": "dense_1220", "trainable": true, "dtype": "float32", "units": 100, "activation": "relu", "use_bias": true, "kernel_initializer": {"class_name": "VarianceScaling", "config": {"scale": 1.0, "mode": "fan_avg", "distribution": "uniform", "seed": null}}, "bias_initializer": {"class_name": "Zeros", "config": {}}, "kernel_regularizer": null, "bias_regularizer": null, "activity_regularizer": null, "kernel_constraint": null, "bias_constraint": null}, "inbound_nodes": [[["concatenate_1199", 0, 0, {}]]]}, {"name": "dense_1222", "class_name": "Dense", "config": {"name": "dense_1222", "trainable": true, "dtype": "float32", "units": 100, "activation": "relu", "use_bias": true, "kernel_initializer": {"class_name": "VarianceScaling", "config": {"scale": 1.0, "mode": "fan_avg", "distribution": "uniform", "seed": null}}, "bias_initializer": {"class_name": "Zeros", "config": {}}, "kernel_regularizer": null, "bias_regularizer": null, "activity_regularizer": null, "kernel_constraint": null, "bias_constraint": null}, "inbound_nodes": [[["concatenate_1201", 0, 0, {}]]]}, {"name": "dense_1227", "class_name": "Dense", "config": {"name": "dense_1227", "trainable": true, "dtype": "float32", "units": 100, "activation": "relu", "use_bias": true, "kernel_initializer": {"class_name": "VarianceScaling", "config": {"scale": 1.0, "mode": "fan_avg", "distribution": "uniform", "seed": null}}, "bias_initializer": {"class_name": "Zeros", "config": {}}, "kernel_regularizer": null, "bias_regularizer": null, "activity_regularizer": null, "kernel_constraint": null, "bias_constraint": null}, "inbound_nodes": [[["concatenate_1206", 0, 0, {}]]]}, {"name": "dense_1236", "class_name": "Dense", "config": {"name": "dense_1236", "trainable": true, "dtype": "float32", "units": 100, "activation": "relu", "use_bias": true, "kernel_initializer": {"class_name": "VarianceScaling", "config": {"scale": 1.0, "mode": "fan_avg", "distribution": "uniform", "seed": null}}, "bias_initializer": {"class_name": "Zeros", "config": {}}, "kernel_regularizer": null, "bias_regularizer": null, "activity_regularizer": null, "kernel_constraint": null, "bias_constraint": null}, "inbound_nodes": [[["concatenate_1215", 0, 0, {}]]]}, {"name": "dense_1239", "class_name": "Dense", "config": {"name": "dense_1239", "trainable": true, "dtype": "float32", "units": 100, "activation": "relu", "use_bias": true, "kernel_initializer": {"class_name": "VarianceScaling", "config": {"scale": 1.0, "mode": "fan_avg", "distribution": "uniform", "seed": null}}, "bias_initializer": {"class_name": "Zeros", "config": {}}, "kernel_regularizer": null, "bias_regularizer": null, "activity_regularizer": null, "kernel_constraint": null, "bias_constraint": null}, "inbound_nodes": [[["concatenate_1218", 0, 0, {}]]]}, {"name": "dense_1240", "class_name": "Dense", "config": {"name": "dense_1240", "trainable": true, "dtype": "float32", "units": 100, "activation": "relu", "use_bias": true, "kernel_initializer": {"class_name": "VarianceScaling", "config": {"scale": 1.0, "mode": "fan_avg", "distribution": "uniform", "seed": null}}, "bias_initializer": {"class_name": "Zeros", "config": {}}, "kernel_regularizer": null, "bias_regularizer": null, "activity_regularizer": null, "kernel_constraint": null, "bias_constraint": null}, "inbound_nodes": [[["concatenate_1219", 0, 0, {}]]]}, {"name": "dense_1246", "class_name": "Dense", "config": {"name": "dense_1246", "trainable": true, "dtype": "float32", "units": 100, "activation": "relu", "use_bias": true, "kernel_initializer": {"class_name": "VarianceScaling", "config": {"scale": 1.0, "mode": "fan_avg", "distribution": "uniform", "seed": null}}, "bias_initializer": {"class_name": "Zeros", "config": {}}, "kernel_regularizer": null, "bias_regularizer": null, "activity_regularizer": null, "kernel_constraint": null, "bias_constraint": null}, "inbound_nodes": [[["concatenate_1225", 0, 0, {}]]]}, {"name": "dense_1248", "class_name": "Dense", "config": {"name": "dense_1248", "trainable": true, "dtype": "float32", "units": 100, "activation": "relu", "use_bias": true, "kernel_initializer": {"class_name": "VarianceScaling", "config": {"scale": 1.0, "mode": "fan_avg", "distribution": "uniform", "seed": null}}, "bias_initializer": {"class_name": "Zeros", "config": {}}, "kernel_regularizer": null, "bias_regularizer": null, "activity_regularizer": null, "kernel_constraint": null, "bias_constraint": null}, "inbound_nodes": [[["concatenate_1227", 0, 0, {}]]]}, {"name": "dense_1261", "class_name": "Dense", "config": {"name": "dense_1261", "trainable": true, "dtype": "float32", "units": 100, "activation": "relu", "use_bias": true, "kernel_initializer": {"class_name": "VarianceScaling", "config": {"scale": 1.0, "mode": "fan_avg", "distribution": "uniform", "seed": null}}, "bias_initializer": {"class_name": "Zeros", "config": {}}, "kernel_regularizer": null, "bias_regularizer": null, "activity_regularizer": null, "kernel_constraint": null, "bias_constraint": null}, "inbound_nodes": [[["concatenate_1240", 0, 0, {}]]]}, {"name": "dense_1269", "class_name": "Dense", "config": {"name": "dense_1269", "trainable": true, "dtype": "float32", "units": 100, "activation": "relu", "use_bias": true, "kernel_initializer": {"class_name": "VarianceScaling", "config": {"scale": 1.0, "mode": "fan_avg", "distribution": "uniform", "seed": null}}, "bias_initializer": {"class_name": "Zeros", "config": {}}, "kernel_regularizer": null, "bias_regularizer": null, "activity_regularizer": null, "kernel_constraint": null, "bias_constraint": null}, "inbound_nodes": [[["concatenate_1248", 0, 0, {}]]]}, {"name": "dense_1278", "class_name": "Dense", "config": {"name": "dense_1278", "trainable": true, "dtype": "float32", "units": 100, "activation": "relu", "use_bias": true, "kernel_initializer": {"class_name": "VarianceScaling", "config": {"scale": 1.0, "mode": "fan_avg", "distribution": "uniform", "seed": null}}, "bias_initializer": {"class_name": "Zeros", "config": {}}, "kernel_regularizer": null, "bias_regularizer": null, "activity_regularizer": null, "kernel_constraint": null, "bias_constraint": null}, "inbound_nodes": [[["concatenate_1257", 0, 0, {}]]]}, {"name": "dense_1287", "class_name": "Dense", "config": {"name": "dense_1287", "trainable": true, "dtype": "float32", "units": 100, "activation": "relu", "use_bias": true, "kernel_initializer": {"class_name": "VarianceScaling", "config": {"scale": 1.0, "mode": "fan_avg", "distribution": "uniform", "seed": null}}, "bias_initializer": {"class_name": "Zeros", "config": {}}, "kernel_regularizer": null, "bias_regularizer": null, "activity_regularizer": null, "kernel_constraint": null, "bias_constraint": null}, "inbound_nodes": [[["concatenate_1266", 0, 0, {}]]]}, {"name": "dense_1289", "class_name": "Dense", "config": {"name": "dense_1289", "trainable": true, "dtype": "float32", "units": 100, "activation": "relu", "use_bias": true, "kernel_initializer": {"class_name": "VarianceScaling", "config": {"scale": 1.0, "mode": "fan_avg", "distribution": "uniform", "seed": null}}, "bias_initializer": {"class_name": "Zeros", "config": {}}, "kernel_regularizer": null, "bias_regularizer": null, "activity_regularizer": null, "kernel_constraint": null, "bias_constraint": null}, "inbound_nodes": [[["concatenate_1268", 0, 0, {}]]]}, {"name": "dense_1292", "class_name": "Dense", "config": {"name": "dense_1292", "trainable": true, "dtype": "float32", "units": 100, "activation": "relu", "use_bias": true, "kernel_initializer": {"class_name": "VarianceScaling", "config": {"scale": 1.0, "mode": "fan_avg", "distribution": "uniform", "seed": null}}, "bias_initializer": {"class_name": "Zeros", "config": {}}, "kernel_regularizer": null, "bias_regularizer": null, "activity_regularizer": null, "kernel_constraint": null, "bias_constraint": null}, "inbound_nodes": [[["concatenate_1271", 0, 0, {}]]]}, {"name": "dense_1298", "class_name": "Dense", "config": {"name": "dense_1298", "trainable": true, "dtype": "float32", "units": 100, "activation": "relu", "use_bias": true, "kernel_initializer": {"class_name": "VarianceScaling", "config": {"scale": 1.0, "mode": "fan_avg", "distribution": "uniform", "seed": null}}, "bias_initializer": {"class_name": "Zeros", "config": {}}, "kernel_regularizer": null, "bias_regularizer": null, "activity_regularizer": null, "kernel_constraint": null, "bias_constraint": null}, "inbound_nodes": [[["concatenate_1277", 0, 0, {}]]]}, {"name": "dense_1299", "class_name": "Dense", "config": {"name": "dense_1299", "trainable": true, "dtype": "float32", "units": 100, "activation": "relu", "use_bias": true, "kernel_initializer": {"class_name": "VarianceScaling", "config": {"scale": 1.0, "mode": "fan_avg", "distribution": "uniform", "seed": null}}, "bias_initializer": {"class_name": "Zeros", "config": {}}, "kernel_regularizer": null, "bias_regularizer": null, "activity_regularizer": null, "kernel_constraint": null, "bias_constraint": null}, "inbound_nodes": [[["concatenate_1278", 0, 0, {}]]]}, {"name": "dense_1302", "class_name": "Dense", "config": {"name": "dense_1302", "trainable": true, "dtype": "float32", "units": 100, "activation": "relu", "use_bias": true, "kernel_initializer": {"class_name": "VarianceScaling", "config": {"scale": 1.0, "mode": "fan_avg", "distribution": "uniform", "seed": null}}, "bias_initializer": {"class_name": "Zeros", "config": {}}, "kernel_regularizer": null, "bias_regularizer": null, "activity_regularizer": null, "kernel_constraint": null, "bias_constraint": null}, "inbound_nodes": [[["concatenate_1281", 0, 0, {}]]]}, {"name": "dense_1304", "class_name": "Dense", "config": {"name": "dense_1304", "trainable": true, "dtype": "float32", "units": 100, "activation": "relu", "use_bias": true, "kernel_initializer": {"class_name": "VarianceScaling", "config": {"scale": 1.0, "mode": "fan_avg", "distribution": "uniform", "seed": null}}, "bias_initializer": {"class_name": "Zeros", "config": {}}, "kernel_regularizer": null, "bias_regularizer": null, "activity_regularizer": null, "kernel_constraint": null, "bias_constraint": null}, "inbound_nodes": [[["concatenate_1283", 0, 0, {}]]]}, {"name": "dense_1318", "class_name": "Dense", "config": {"name": "dense_1318", "trainable": true, "dtype": "float32", "units": 100, "activation": "relu", "use_bias": true, "kernel_initializer": {"class_name": "VarianceScaling", "config": {"scale": 1.0, "mode": "fan_avg", "distribution": "uniform", "seed": null}}, "bias_initializer": {"class_name": "Zeros", "config": {}}, "kernel_regularizer": null, "bias_regularizer": null, "activity_regularizer": null, "kernel_constraint": null, "bias_constraint": null}, "inbound_nodes": [[["concatenate_1297", 0, 0, {}]]]}, {"name": "dense_1319", "class_name": "Dense", "config": {"name": "dense_1319", "trainable": true, "dtype": "float32", "units": 100, "activation": "relu", "use_bias": true, "kernel_initializer": {"class_name": "VarianceScaling", "config": {"scale": 1.0, "mode": "fan_avg", "distribution": "uniform", "seed": null}}, "bias_initializer": {"class_name": "Zeros", "config": {}}, "kernel_regularizer": null, "bias_regularizer": null, "activity_regularizer": null, "kernel_constraint": null, "bias_constraint": null}, "inbound_nodes": [[["concatenate_1298", 0, 0, {}]]]}, {"name": "dense_1322", "class_name": "Dense", "config": {"name": "dense_1322", "trainable": true, "dtype": "float32", "units": 100, "activation": "relu", "use_bias": true, "kernel_initializer": {"class_name": "VarianceScaling", "config": {"scale": 1.0, "mode": "fan_avg", "distribution": "uniform", "seed": null}}, "bias_initializer": {"class_name": "Zeros", "config": {}}, "kernel_regularizer": null, "bias_regularizer": null, "activity_regularizer": null, "kernel_constraint": null, "bias_constraint": null}, "inbound_nodes": [[["concatenate_1301", 0, 0, {}]]]}, {"name": "dense_1332", "class_name": "Dense", "config": {"name": "dense_1332", "trainable": true, "dtype": "float32", "units": 100, "activation": "relu", "use_bias": true, "kernel_initializer": {"class_name": "VarianceScaling", "config": {"scale": 1.0, "mode": "fan_avg", "distribution": "uniform", "seed": null}}, "bias_initializer": {"class_name": "Zeros", "config": {}}, "kernel_regularizer": null, "bias_regularizer": null, "activity_regularizer": null, "kernel_constraint": null, "bias_constraint": null}, "inbound_nodes": [[["concatenate_1311", 0, 0, {}]]]}, {"name": "dense_1333", "class_name": "Dense", "config": {"name": "dense_1333", "trainable": true, "dtype": "float32", "units": 100, "activation": "relu", "use_bias": true, "kernel_initializer": {"class_name": "VarianceScaling", "config": {"scale": 1.0, "mode": "fan_avg", "distribution": "uniform", "seed": null}}, "bias_initializer": {"class_name": "Zeros", "config": {}}, "kernel_regularizer": null, "bias_regularizer": null, "activity_regularizer": null, "kernel_constraint": null, "bias_constraint": null}, "inbound_nodes": [[["concatenate_1312", 0, 0, {}]]]}, {"name": "dense_1337", "class_name": "Dense", "config": {"name": "dense_1337", "trainable": true, "dtype": "float32", "units": 100, "activation": "relu", "use_bias": true, "kernel_initializer": {"class_name": "VarianceScaling", "config": {"scale": 1.0, "mode": "fan_avg", "distribution": "uniform", "seed": null}}, "bias_initializer": {"class_name": "Zeros", "config": {}}, "kernel_regularizer": null, "bias_regularizer": null, "activity_regularizer": null, "kernel_constraint": null, "bias_constraint": null}, "inbound_nodes": [[["concatenate_1316", 0, 0, {}]]]}, {"name": "dense_1339", "class_name": "Dense", "config": {"name": "dense_1339", "trainable": true, "dtype": "float32", "units": 100, "activation": "relu", "use_bias": true, "kernel_initializer": {"class_name": "VarianceScaling", "config": {"scale": 1.0, "mode": "fan_avg", "distribution": "uniform", "seed": null}}, "bias_initializer": {"class_name": "Zeros", "config": {}}, "kernel_regularizer": null, "bias_regularizer": null, "activity_regularizer": null, "kernel_constraint": null, "bias_constraint": null}, "inbound_nodes": [[["concatenate_1318", 0, 0, {}]]]}, {"name": "dense_1352", "class_name": "Dense", "config": {"name": "dense_1352", "trainable": true, "dtype": "float32", "units": 100, "activation": "relu", "use_bias": true, "kernel_initializer": {"class_name": "VarianceScaling", "config": {"scale": 1.0, "mode": "fan_avg", "distribution": "uniform", "seed": null}}, "bias_initializer": {"class_name": "Zeros", "config": {}}, "kernel_regularizer": null, "bias_regularizer": null, "activity_regularizer": null, "kernel_constraint": null, "bias_constraint": null}, "inbound_nodes": [[["concatenate_1331", 0, 0, {}]]]}, {"name": "dense_1354", "class_name": "Dense", "config": {"name": "dense_1354", "trainable": true, "dtype": "float32", "units": 100, "activation": "relu", "use_bias": true, "kernel_initializer": {"class_name": "VarianceScaling", "config": {"scale": 1.0, "mode": "fan_avg", "distribution": "uniform", "seed": null}}, "bias_initializer": {"class_name": "Zeros", "config": {}}, "kernel_regularizer": null, "bias_regularizer": null, "activity_regularizer": null, "kernel_constraint": null, "bias_constraint": null}, "inbound_nodes": [[["concatenate_1333", 0, 0, {}]]]}, {"name": "dense_1361", "class_name": "Dense", "config": {"name": "dense_1361", "trainable": true, "dtype": "float32", "units": 100, "activation": "relu", "use_bias": true, "kernel_initializer": {"class_name": "VarianceScaling", "config": {"scale": 1.0, "mode": "fan_avg", "distribution": "uniform", "seed": null}}, "bias_initializer": {"class_name": "Zeros", "config": {}}, "kernel_regularizer": null, "bias_regularizer": null, "activity_regularizer": null, "kernel_constraint": null, "bias_constraint": null}, "inbound_nodes": [[["concatenate_1340", 0, 0, {}]]]}, {"name": "dense_1380", "class_name": "Dense", "config": {"name": "dense_1380", "trainable": true, "dtype": "float32", "units": 100, "activation": "relu", "use_bias": true, "kernel_initializer": {"class_name": "VarianceScaling", "config": {"scale": 1.0, "mode": "fan_avg", "distribution": "uniform", "seed": null}}, "bias_initializer": {"class_name": "Zeros", "config": {}}, "kernel_regularizer": null, "bias_regularizer": null, "activity_regularizer": null, "kernel_constraint": null, "bias_constraint": null}, "inbound_nodes": [[["concatenate_1359", 0, 0, {}]]]}, {"name": "dense_1382", "class_name": "Dense", "config": {"name": "dense_1382", "trainable": true, "dtype": "float32", "units": 100, "activation": "relu", "use_bias": true, "kernel_initializer": {"class_name": "VarianceScaling", "config": {"scale": 1.0, "mode": "fan_avg", "distribution": "uniform", "seed": null}}, "bias_initializer": {"class_name": "Zeros", "config": {}}, "kernel_regularizer": null, "bias_regularizer": null, "activity_regularizer": null, "kernel_constraint": null, "bias_constraint": null}, "inbound_nodes": [[["concatenate_1361", 0, 0, {}]]]}, {"name": "dense_1387", "class_name": "Dense", "config": {"name": "dense_1387", "trainable": true, "dtype": "float32", "units": 100, "activation": "relu", "use_bias": true, "kernel_initializer": {"class_name": "VarianceScaling", "config": {"scale": 1.0, "mode": "fan_avg", "distribution": "uniform", "seed": null}}, "bias_initializer": {"class_name": "Zeros", "config": {}}, "kernel_regularizer": null, "bias_regularizer": null, "activity_regularizer": null, "kernel_constraint": null, "bias_constraint": null}, "inbound_nodes": [[["concatenate_1366", 0, 0, {}]]]}, {"name": "dense_1391", "class_name": "Dense", "config": {"name": "dense_1391", "trainable": true, "dtype": "float32", "units": 100, "activation": "relu", "use_bias": true, "kernel_initializer": {"class_name": "VarianceScaling", "config": {"scale": 1.0, "mode": "fan_avg", "distribution": "uniform", "seed": null}}, "bias_initializer": {"class_name": "Zeros", "config": {}}, "kernel_regularizer": null, "bias_regularizer": null, "activity_regularizer": null, "kernel_constraint": null, "bias_constraint": null}, "inbound_nodes": [[["concatenate_1370", 0, 0, {}]]]}, {"name": "dense_1393", "class_name": "Dense", "config": {"name": "dense_1393", "trainable": true, "dtype": "float32", "units": 100, "activation": "relu", "use_bias": true, "kernel_initializer": {"class_name": "VarianceScaling", "config": {"scale": 1.0, "mode": "fan_avg", "distribution": "uniform", "seed": null}}, "bias_initializer": {"class_name": "Zeros", "config": {}}, "kernel_regularizer": null, "bias_regularizer": null, "activity_regularizer": null, "kernel_constraint": null, "bias_constraint": null}, "inbound_nodes": [[["concatenate_1372", 0, 0, {}]]]}, {"name": "dense_1400", "class_name": "Dense", "config": {"name": "dense_1400", "trainable": true, "dtype": "float32", "units": 100, "activation": "relu", "use_bias": true, "kernel_initializer": {"class_name": "VarianceScaling", "config": {"scale": 1.0, "mode": "fan_avg", "distribution": "uniform", "seed": null}}, "bias_initializer": {"class_name": "Zeros", "config": {}}, "kernel_regularizer": null, "bias_regularizer": null, "activity_regularizer": null, "kernel_constraint": null, "bias_constraint": null}, "inbound_nodes": [[["concatenate_1379", 0, 0, {}]]]}, {"name": "dense_1418", "class_name": "Dense", "config": {"name": "dense_1418", "trainable": true, "dtype": "float32", "units": 100, "activation": "relu", "use_bias": true, "kernel_initializer": {"class_name": "VarianceScaling", "config": {"scale": 1.0, "mode": "fan_avg", "distribution": "uniform", "seed": null}}, "bias_initializer": {"class_name": "Zeros", "config": {}}, "kernel_regularizer": null, "bias_regularizer": null, "activity_regularizer": null, "kernel_constraint": null, "bias_constraint": null}, "inbound_nodes": [[["concatenate_1397", 0, 0, {}]]]}, {"name": "dense_1419", "class_name": "Dense", "config": {"name": "dense_1419", "trainable": true, "dtype": "float32", "units": 100, "activation": "relu", "use_bias": true, "kernel_initializer": {"class_name": "VarianceScaling", "config": {"scale": 1.0, "mode": "fan_avg", "distribution": "uniform", "seed": null}}, "bias_initializer": {"class_name": "Zeros", "config": {}}, "kernel_regularizer": null, "bias_regularizer": null, "activity_regularizer": null, "kernel_constraint": null, "bias_constraint": null}, "inbound_nodes": [[["concatenate_1398", 0, 0, {}]]]}, {"name": "dense_1426", "class_name": "Dense", "config": {"name": "dense_1426", "trainable": true, "dtype": "float32", "units": 100, "activation": "relu", "use_bias": true, "kernel_initializer": {"class_name": "VarianceScaling", "config": {"scale": 1.0, "mode": "fan_avg", "distribution": "uniform", "seed": null}}, "bias_initializer": {"class_name": "Zeros", "config": {}}, "kernel_regularizer": null, "bias_regularizer": null, "activity_regularizer": null, "kernel_constraint": null, "bias_constraint": null}, "inbound_nodes": [[["concatenate_1405", 0, 0, {}]]]}, {"name": "concatenate_870", "class_name": "Concatenate", "config": {"name": "concatenate_870", "trainable": true, "dtype": "float32", "axis": -1}, "inbound_nodes": [[["dense_890", 0, 0, {}], ["dense_883", 0, 0, {}]]]}, {"name": "concatenate_873", "class_name": "Concatenate", "config": {"name": "concatenate_873", "trainable": true, "dtype": "float32", "axis": -1}, "inbound_nodes": [[["dense_893", 0, 0, {}], ["dense_880", 0, 0, {}]]]}, {"name": "concatenate_880", "class_name": "Concatenate", "config": {"name": "concatenate_880", "trainable": true, "dtype": "float32", "axis": -1}, "inbound_nodes": [[["dense_898", 0, 0, {}], ["dense_900", 0, 0, {}]]]}, {"name": "concatenate_886", "class_name": "Concatenate", "config": {"name": "concatenate_886", "trainable": true, "dtype": "float32", "axis": -1}, "inbound_nodes": [[["dense_904", 0, 0, {}], ["dense_906", 0, 0, {}]]]}, {"name": "concatenate_893", "class_name": "Concatenate", "config": {"name": "concatenate_893", "trainable": true, "dtype": "float32", "axis": -1}, "inbound_nodes": [[["dense_913", 0, 0, {}], ["dense_883", 0, 0, {}]]]}, {"name": "concatenate_896", "class_name": "Concatenate", "config": {"name": "concatenate_896", "trainable": true, "dtype": "float32", "axis": -1}, "inbound_nodes": [[["dense_916", 0, 0, {}], ["dense_884", 0, 0, {}]]]}, {"name": "concatenate_901", "class_name": "Concatenate", "config": {"name": "concatenate_901", "trainable": true, "dtype": "float32", "axis": -1}, "inbound_nodes": [[["dense_921", 0, 0, {}], ["dense_884", 0, 0, {}]]]}, {"name": "concatenate_905", "class_name": "Concatenate", "config": {"name": "concatenate_905", "trainable": true, "dtype": "float32", "axis": -1}, "inbound_nodes": [[["dense_924", 0, 0, {}], ["dense_925", 0, 0, {}]]]}, {"name": "concatenate_917", "class_name": "Concatenate", "config": {"name": "concatenate_917", "trainable": true, "dtype": "float32", "axis": -1}, "inbound_nodes": [[["dense_935", 0, 0, {}], ["dense_937", 0, 0, {}]]]}, {"name": "concatenate_926", "class_name": "Concatenate", "config": {"name": "concatenate_926", "trainable": true, "dtype": "float32", "axis": -1}, "inbound_nodes": [[["dense_945", 0, 0, {}], ["dense_946", 0, 0, {}]]]}, {"name": "concatenate_935", "class_name": "Concatenate", "config": {"name": "concatenate_935", "trainable": true, "dtype": "float32", "axis": -1}, "inbound_nodes": [[["dense_953", 0, 0, {}], ["dense_955", 0, 0, {}]]]}, {"name": "concatenate_939", "class_name": "Concatenate", "config": {"name": "concatenate_939", "trainable": true, "dtype": "float32", "axis": -1}, "inbound_nodes": [[["dense_958", 0, 0, {}], ["dense_959", 0, 0, {}]]]}, {"name": "concatenate_951", "class_name": "Concatenate", "config": {"name": "concatenate_951", "trainable": true, "dtype": "float32", "axis": -1}, "inbound_nodes": [[["dense_971", 0, 0, {}], ["dense_880", 0, 0, {}]]]}, {"name": "concatenate_954", "class_name": "Concatenate", "config": {"name": "concatenate_954", "trainable": true, "dtype": "float32", "axis": -1}, "inbound_nodes": [[["dense_879", 0, 0, {}], ["dense_882", 0, 0, {}]]]}, {"name": "concatenate_960", "class_name": "Concatenate", "config": {"name": "concatenate_960", "trainable": true, "dtype": "float32", "axis": -1}, "inbound_nodes": [[["dense_879", 0, 0, {}], ["dense_887", 0, 0, {}]]]}, {"name": "concatenate_961", "class_name": "Concatenate", "config": {"name": "concatenate_961", "trainable": true, "dtype": "float32", "axis": -1}, "inbound_nodes": [[["dense_884", 0, 0, {}], ["dense_887", 0, 0, {}]]]}, {"name": "concatenate_974", "class_name": "Concatenate", "config": {"name": "concatenate_974", "trainable": true, "dtype": "float32", "axis": -1}, "inbound_nodes": [[["dense_992", 0, 0, {}], ["dense_994", 0, 0, {}]]]}, {"name": "concatenate_976", "class_name": "Concatenate", "config": {"name": "concatenate_976", "trainable": true, "dtype": "float32", "axis": -1}, "inbound_nodes": [[["dense_879", 0, 0, {}], ["dense_886", 0, 0, {}]]]}, {"name": "concatenate_980", "class_name": "Concatenate", "config": {"name": "concatenate_980", "trainable": true, "dtype": "float32", "axis": -1}, "inbound_nodes": [[["dense_883", 0, 0, {}], ["dense_887", 0, 0, {}]]]}, {"name": "concatenate_984", "class_name": "Concatenate", "config": {"name": "concatenate_984", "trainable": true, "dtype": "float32", "axis": -1}, "inbound_nodes": [[["dense_1003", 0, 0, {}], ["dense_1004", 0, 0, {}]]]}, {"name": "concatenate_993", "class_name": "Concatenate", "config": {"name": "concatenate_993", "trainable": true, "dtype": "float32", "axis": -1}, "inbound_nodes": [[["dense_879", 0, 0, {}], ["dense_882", 0, 0, {}]]]}, {"name": "concatenate_1009", "class_name": "Concatenate", "config": {"name": "concatenate_1009", "trainable": true, "dtype": "float32", "axis": -1}, "inbound_nodes": [[["dense_1027", 0, 0, {}], ["dense_1029", 0, 0, {}]]]}, {"name": "concatenate_1015", "class_name": "Concatenate", "config": {"name": "concatenate_1015", "trainable": true, "dtype": "float32", "axis": -1}, "inbound_nodes": [[["dense_1033", 0, 0, {}], ["dense_1035", 0, 0, {}]]]}, {"name": "concatenate_1022", "class_name": "Concatenate", "config": {"name": "concatenate_1022", "trainable": true, "dtype": "float32", "axis": -1}, "inbound_nodes": [[["dense_1040", 0, 0, {}], ["dense_1042", 0, 0, {}]]]}, {"name": "concatenate_1028", "class_name": "Concatenate", "config": {"name": "concatenate_1028", "trainable": true, "dtype": "float32", "axis": -1}, "inbound_nodes": [[["dense_1046", 0, 0, {}], ["dense_1048", 0, 0, {}]]]}, {"name": "concatenate_1039", "class_name": "Concatenate", "config": {"name": "concatenate_1039", "trainable": true, "dtype": "float32", "axis": -1}, "inbound_nodes": [[["dense_1058", 0, 0, {}], ["dense_1059", 0, 0, {}]]]}, {"name": "concatenate_1048", "class_name": "Concatenate", "config": {"name": "concatenate_1048", "trainable": true, "dtype": "float32", "axis": -1}, "inbound_nodes": [[["dense_1068", 0, 0, {}], ["dense_882", 0, 0, {}]]]}, {"name": "concatenate_1049", "class_name": "Concatenate", "config": {"name": "concatenate_1049", "trainable": true, "dtype": "float32", "axis": -1}, "inbound_nodes": [[["dense_883", 0, 0, {}], ["dense_880", 0, 0, {}]]]}, {"name": "concatenate_1054", "class_name": "Concatenate", "config": {"name": "concatenate_1054", "trainable": true, "dtype": "float32", "axis": -1}, "inbound_nodes": [[["dense_1074", 0, 0, {}], ["dense_882", 0, 0, {}]]]}, {"name": "concatenate_1059", "class_name": "Concatenate", "config": {"name": "concatenate_1059", "trainable": true, "dtype": "float32", "axis": -1}, "inbound_nodes": [[["dense_1078", 0, 0, {}], ["dense_1079", 0, 0, {}]]]}, {"name": "concatenate_1066", "class_name": "Concatenate", "config": {"name": "concatenate_1066", "trainable": true, "dtype": "float32", "axis": -1}, "inbound_nodes": [[["dense_880", 0, 0, {}], ["dense_887", 0, 0, {}]]]}, {"name": "concatenate_1068", "class_name": "Concatenate", "config": {"name": "concatenate_1068", "trainable": true, "dtype": "float32", "axis": -1}, "inbound_nodes": [[["dense_1088", 0, 0, {}], ["dense_879", 0, 0, {}]]]}, {"name": "concatenate_1082", "class_name": "Concatenate", "config": {"name": "concatenate_1082", "trainable": true, "dtype": "float32", "axis": -1}, "inbound_nodes": [[["dense_1100", 0, 0, {}], ["dense_1102", 0, 0, {}]]]}, {"name": "concatenate_1085", "class_name": "Concatenate", "config": {"name": "concatenate_1085", "trainable": true, "dtype": "float32", "axis": -1}, "inbound_nodes": [[["dense_1105", 0, 0, {}], ["dense_880", 0, 0, {}]]]}, {"name": "concatenate_1093", "class_name": "Concatenate", "config": {"name": "concatenate_1093", "trainable": true, "dtype": "float32", "axis": -1}, "inbound_nodes": [[["dense_1111", 0, 0, {}], ["dense_1113", 0, 0, {}]]]}, {"name": "concatenate_1098", "class_name": "Concatenate", "config": {"name": "concatenate_1098", "trainable": true, "dtype": "float32", "axis": -1}, "inbound_nodes": [[["dense_1117", 0, 0, {}], ["dense_1118", 0, 0, {}]]]}, {"name": "concatenate_1108", "class_name": "Concatenate", "config": {"name": "concatenate_1108", "trainable": true, "dtype": "float32", "axis": -1}, "inbound_nodes": [[["dense_1126", 0, 0, {}], ["dense_1128", 0, 0, {}]]]}, {"name": "concatenate_1113", "class_name": "Concatenate", "config": {"name": "concatenate_1113", "trainable": true, "dtype": "float32", "axis": -1}, "inbound_nodes": [[["dense_1131", 0, 0, {}], ["dense_1133", 0, 0, {}]]]}, {"name": "concatenate_1117", "class_name": "Concatenate", "config": {"name": "concatenate_1117", "trainable": true, "dtype": "float32", "axis": -1}, "inbound_nodes": [[["dense_882", 0, 0, {}], ["dense_882", 0, 0, {}]]]}, {"name": "concatenate_1119", "class_name": "Concatenate", "config": {"name": "concatenate_1119", "trainable": true, "dtype": "float32", "axis": -1}, "inbound_nodes": [[["dense_1139", 0, 0, {}], ["dense_887", 0, 0, {}]]]}, {"name": "concatenate_1128", "class_name": "Concatenate", "config": {"name": "concatenate_1128", "trainable": true, "dtype": "float32", "axis": -1}, "inbound_nodes": [[["dense_1148", 0, 0, {}], ["dense_884", 0, 0, {}]]]}, {"name": "concatenate_1133", "class_name": "Concatenate", "config": {"name": "concatenate_1133", "trainable": true, "dtype": "float32", "axis": -1}, "inbound_nodes": [[["dense_1153", 0, 0, {}], ["dense_883", 0, 0, {}]]]}, {"name": "concatenate_1135", "class_name": "Concatenate", "config": {"name": "concatenate_1135", "trainable": true, "dtype": "float32", "axis": -1}, "inbound_nodes": [[["dense_1155", 0, 0, {}], ["dense_882", 0, 0, {}]]]}, {"name": "concatenate_1141", "class_name": "Concatenate", "config": {"name": "concatenate_1141", "trainable": true, "dtype": "float32", "axis": -1}, "inbound_nodes": [[["dense_880", 0, 0, {}], ["dense_887", 0, 0, {}]]]}, {"name": "concatenate_1142", "class_name": "Concatenate", "config": {"name": "concatenate_1142", "trainable": true, "dtype": "float32", "axis": -1}, "inbound_nodes": [[["dense_880", 0, 0, {}], ["dense_886", 0, 0, {}]]]}, {"name": "concatenate_1147", "class_name": "Concatenate", "config": {"name": "concatenate_1147", "trainable": true, "dtype": "float32", "axis": -1}, "inbound_nodes": [[["dense_1167", 0, 0, {}], ["dense_879", 0, 0, {}]]]}, {"name": "concatenate_1153", "class_name": "Concatenate", "config": {"name": "concatenate_1153", "trainable": true, "dtype": "float32", "axis": -1}, "inbound_nodes": [[["dense_1171", 0, 0, {}], ["dense_1173", 0, 0, {}]]]}, {"name": "concatenate_1168", "class_name": "Concatenate", "config": {"name": "concatenate_1168", "trainable": true, "dtype": "float32", "axis": -1}, "inbound_nodes": [[["dense_1188", 0, 0, {}], ["dense_879", 0, 0, {}]]]}, {"name": "concatenate_1175", "class_name": "Concatenate", "config": {"name": "concatenate_1175", "trainable": true, "dtype": "float32", "axis": -1}, "inbound_nodes": [[["dense_1194", 0, 0, {}], ["dense_1195", 0, 0, {}]]]}, {"name": "concatenate_1182", "class_name": "Concatenate", "config": {"name": "concatenate_1182", "trainable": true, "dtype": "float32", "axis": -1}, "inbound_nodes": [[["dense_1202", 0, 0, {}], ["dense_880", 0, 0, {}]]]}, {"name": "concatenate_1196", "class_name": "Concatenate", "config": {"name": "concatenate_1196", "trainable": true, "dtype": "float32", "axis": -1}, "inbound_nodes": [[["dense_1214", 0, 0, {}], ["dense_1216", 0, 0, {}]]]}, {"name": "concatenate_1202", "class_name": "Concatenate", "config": {"name": "concatenate_1202", "trainable": true, "dtype": "float32", "axis": -1}, "inbound_nodes": [[["dense_1220", 0, 0, {}], ["dense_1222", 0, 0, {}]]]}, {"name": "concatenate_1207", "class_name": "Concatenate", "config": {"name": "concatenate_1207", "trainable": true, "dtype": "float32", "axis": -1}, "inbound_nodes": [[["dense_1227", 0, 0, {}], ["dense_879", 0, 0, {}]]]}, {"name": "concatenate_1209", "class_name": "Concatenate", "config": {"name": "concatenate_1209", "trainable": true, "dtype": "float32", "axis": -1}, "inbound_nodes": [[["dense_882", 0, 0, {}], ["dense_879", 0, 0, {}]]]}, {"name": "concatenate_1216", "class_name": "Concatenate", "config": {"name": "concatenate_1216", "trainable": true, "dtype": "float32", "axis": -1}, "inbound_nodes": [[["dense_1236", 0, 0, {}], ["dense_882", 0, 0, {}]]]}, {"name": "concatenate_1220", "class_name": "Concatenate", "config": {"name": "concatenate_1220", "trainable": true, "dtype": "float32", "axis": -1}, "inbound_nodes": [[["dense_1239", 0, 0, {}], ["dense_1240", 0, 0, {}]]]}, {"name": "concatenate_1228", "class_name": "Concatenate", "config": {"name": "concatenate_1228", "trainable": true, "dtype": "float32", "axis": -1}, "inbound_nodes": [[["dense_1246", 0, 0, {}], ["dense_1248", 0, 0, {}]]]}, {"name": "concatenate_1230", "class_name": "Concatenate", "config": {"name": "concatenate_1230", "trainable": true, "dtype": "float32", "axis": -1}, "inbound_nodes": [[["dense_880", 0, 0, {}], ["dense_887", 0, 0, {}]]]}, {"name": "concatenate_1241", "class_name": "Concatenate", "config": {"name": "concatenate_1241", "trainable": true, "dtype": "float32", "axis": -1}, "inbound_nodes": [[["dense_1261", 0, 0, {}], ["dense_883", 0, 0, {}]]]}, {"name": "concatenate_1243", "class_name": "Concatenate", "config": {"name": "concatenate_1243", "trainable": true, "dtype": "float32", "axis": -1}, "inbound_nodes": [[["dense_882", 0, 0, {}], ["dense_886", 0, 0, {}]]]}, {"name": "concatenate_1249", "class_name": "Concatenate", "config": {"name": "concatenate_1249", "trainable": true, "dtype": "float32", "axis": -1}, "inbound_nodes": [[["dense_1269", 0, 0, {}], ["dense_883", 0, 0, {}]]]}, {"name": "concatenate_1258", "class_name": "Concatenate", "config": {"name": "concatenate_1258", "trainable": true, "dtype": "float32", "axis": -1}, "inbound_nodes": [[["dense_1278", 0, 0, {}], ["dense_880", 0, 0, {}]]]}, {"name": "concatenate_1269", "class_name": "Concatenate", "config": {"name": "concatenate_1269", "trainable": true, "dtype": "float32", "axis": -1}, "inbound_nodes": [[["dense_1287", 0, 0, {}], ["dense_1289", 0, 0, {}]]]}, {"name": "concatenate_1272", "class_name": "Concatenate", "config": {"name": "concatenate_1272", "trainable": true, "dtype": "float32", "axis": -1}, "inbound_nodes": [[["dense_1292", 0, 0, {}], ["dense_880", 0, 0, {}]]]}, {"name": "concatenate_1279", "class_name": "Concatenate", "config": {"name": "concatenate_1279", "trainable": true, "dtype": "float32", "axis": -1}, "inbound_nodes": [[["dense_1298", 0, 0, {}], ["dense_1299", 0, 0, {}]]]}, {"name": "concatenate_1284", "class_name": "Concatenate", "config": {"name": "concatenate_1284", "trainable": true, "dtype": "float32", "axis": -1}, "inbound_nodes": [[["dense_1302", 0, 0, {}], ["dense_1304", 0, 0, {}]]]}, {"name": "concatenate_1299", "class_name": "Concatenate", "config": {"name": "concatenate_1299", "trainable": true, "dtype": "float32", "axis": -1}, "inbound_nodes": [[["dense_1318", 0, 0, {}], ["dense_1319", 0, 0, {}]]]}, {"name": "concatenate_1302", "class_name": "Concatenate", "config": {"name": "concatenate_1302", "trainable": true, "dtype": "float32", "axis": -1}, "inbound_nodes": [[["dense_1322", 0, 0, {}], ["dense_888", 0, 0, {}]]]}, {"name": "concatenate_1313", "class_name": "Concatenate", "config": {"name": "concatenate_1313", "trainable": true, "dtype": "float32", "axis": -1}, "inbound_nodes": [[["dense_1332", 0, 0, {}], ["dense_1333", 0, 0, {}]]]}, {"name": "concatenate_1319", "class_name": "Concatenate", "config": {"name": "concatenate_1319", "trainable": true, "dtype": "float32", "axis": -1}, "inbound_nodes": [[["dense_1337", 0, 0, {}], ["dense_1339", 0, 0, {}]]]}, {"name": "concatenate_1323", "class_name": "Concatenate", "config": {"name": "concatenate_1323", "trainable": true, "dtype": "float32", "axis": -1}, "inbound_nodes": [[["dense_884", 0, 0, {}], ["dense_883", 0, 0, {}]]]}, {"name": "concatenate_1334", "class_name": "Concatenate", "config": {"name": "concatenate_1334", "trainable": true, "dtype": "float32", "axis": -1}, "inbound_nodes": [[["dense_1352", 0, 0, {}], ["dense_1354", 0, 0, {}]]]}, {"name": "concatenate_1336", "class_name": "Concatenate", "config": {"name": "concatenate_1336", "trainable": true, "dtype": "float32", "axis": -1}, "inbound_nodes": [[["dense_883", 0, 0, {}], ["dense_880", 0, 0, {}]]]}, {"name": "concatenate_1341", "class_name": "Concatenate", "config": {"name": "concatenate_1341", "trainable": true, "dtype": "float32", "axis": -1}, "inbound_nodes": [[["dense_882", 0, 0, {}], ["dense_1361", 0, 0, {}]]]}, {"name": "concatenate_1357", "class_name": "Concatenate", "config": {"name": "concatenate_1357", "trainable": true, "dtype": "float32", "axis": -1}, "inbound_nodes": [[["dense_879", 0, 0, {}], ["dense_881", 0, 0, {}]]]}, {"name": "concatenate_1362", "class_name": "Concatenate", "config": {"name": "concatenate_1362", "trainable": true, "dtype": "float32", "axis": -1}, "inbound_nodes": [[["dense_1380", 0, 0, {}], ["dense_1382", 0, 0, {}]]]}, {"name": "concatenate_1367", "class_name": "Concatenate", "config": {"name": "concatenate_1367", "trainable": true, "dtype": "float32", "axis": -1}, "inbound_nodes": [[["dense_1387", 0, 0, {}], ["dense_883", 0, 0, {}]]]}, {"name": "concatenate_1373", "class_name": "Concatenate", "config": {"name": "concatenate_1373", "trainable": true, "dtype": "float32", "axis": -1}, "inbound_nodes": [[["dense_1391", 0, 0, {}], ["dense_1393", 0, 0, {}]]]}, {"name": "concatenate_1380", "class_name": "Concatenate", "config": {"name": "concatenate_1380", "trainable": true, "dtype": "float32", "axis": -1}, "inbound_nodes": [[["dense_1400", 0, 0, {}], ["dense_881", 0, 0, {}]]]}, {"name": "concatenate_1382", "class_name": "Concatenate", "config": {"name": "concatenate_1382", "trainable": true, "dtype": "float32", "axis": -1}, "inbound_nodes": [[["dense_879", 0, 0, {}], ["dense_884", 0, 0, {}]]]}, {"name": "concatenate_1386", "class_name": "Concatenate", "config": {"name": "concatenate_1386", "trainable": true, "dtype": "float32", "axis": -1}, "inbound_nodes": [[["dense_888", 0, 0, {}], ["dense_887", 0, 0, {}]]]}, {"name": "concatenate_1388", "class_name": "Concatenate", "config": {"name": "concatenate_1388", "trainable": true, "dtype": "float32", "axis": -1}, "inbound_nodes": [[["dense_882", 0, 0, {}], ["dense_887", 0, 0, {}]]]}, {"name": "concatenate_1399", "class_name": "Concatenate", "config": {"name": "concatenate_1399", "trainable": true, "dtype": "float32", "axis": -1}, "inbound_nodes": [[["dense_1418", 0, 0, {}], ["dense_1419", 0, 0, {}]]]}, {"name": "concatenate_1403", "class_name": "Concatenate", "config": {"name": "concatenate_1403", "trainable": true, "dtype": "float32", "axis": -1}, "inbound_nodes": [[["dense_887", 0, 0, {}], ["dense_887", 0, 0, {}]]]}, {"name": "concatenate_1406", "class_name": "Concatenate", "config": {"name": "concatenate_1406", "trainable": true, "dtype": "float32", "axis": -1}, "inbound_nodes": [[["dense_1426", 0, 0, {}], ["dense_881", 0, 0, {}]]]}, {"name": "dense_891", "class_name": "Dense", "config": {"name": "dense_891", "trainable": true, "dtype": "float32", "units": 100, "activation": "relu", "use_bias": true, "kernel_initializer": {"class_name": "VarianceScaling", "config": {"scale": 1.0, "mode": "fan_avg", "distribution": "uniform", "seed": null}}, "bias_initializer": {"class_name": "Zeros", "config": {}}, "kernel_regularizer": null, "bias_regularizer": null, "activity_regularizer": null, "kernel_constraint": null, "bias_constraint": null}, "inbound_nodes": [[["concatenate_870", 0, 0, {}]]]}, {"name": "dense_894", "class_name": "Dense", "config": {"name": "dense_894", "trainable": true, "dtype": "float32", "units": 100, "activation": "relu", "use_bias": true, "kernel_initializer": {"class_name": "VarianceScaling", "config": {"scale": 1.0, "mode": "fan_avg", "distribution": "uniform", "seed": null}}, "bias_initializer": {"class_name": "Zeros", "config": {}}, "kernel_regularizer": null, "bias_regularizer": null, "activity_regularizer": null, "kernel_constraint": null, "bias_constraint": null}, "inbound_nodes": [[["concatenate_873", 0, 0, {}]]]}, {"name": "dense_901", "class_name": "Dense", "config": {"name": "dense_901", "trainable": true, "dtype": "float32", "units": 100, "activation": "relu", "use_bias": true, "kernel_initializer": {"class_name": "VarianceScaling", "config": {"scale": 1.0, "mode": "fan_avg", "distribution": "uniform", "seed": null}}, "bias_initializer": {"class_name": "Zeros", "config": {}}, "kernel_regularizer": null, "bias_regularizer": null, "activity_regularizer": null, "kernel_constraint": null, "bias_constraint": null}, "inbound_nodes": [[["concatenate_880", 0, 0, {}]]]}, {"name": "dense_907", "class_name": "Dense", "config": {"name": "dense_907", "trainable": true, "dtype": "float32", "units": 100, "activation": "relu", "use_bias": true, "kernel_initializer": {"class_name": "VarianceScaling", "config": {"scale": 1.0, "mode": "fan_avg", "distribution": "uniform", "seed": null}}, "bias_initializer": {"class_name": "Zeros", "config": {}}, "kernel_regularizer": null, "bias_regularizer": null, "activity_regularizer": null, "kernel_constraint": null, "bias_constraint": null}, "inbound_nodes": [[["concatenate_886", 0, 0, {}]]]}, {"name": "dense_914", "class_name": "Dense", "config": {"name": "dense_914", "trainable": true, "dtype": "float32", "units": 100, "activation": "relu", "use_bias": true, "kernel_initializer": {"class_name": "VarianceScaling", "config": {"scale": 1.0, "mode": "fan_avg", "distribution": "uniform", "seed": null}}, "bias_initializer": {"class_name": "Zeros", "config": {}}, "kernel_regularizer": null, "bias_regularizer": null, "activity_regularizer": null, "kernel_constraint": null, "bias_constraint": null}, "inbound_nodes": [[["concatenate_893", 0, 0, {}]]]}, {"name": "dense_917", "class_name": "Dense", "config": {"name": "dense_917", "trainable": true, "dtype": "float32", "units": 100, "activation": "relu", "use_bias": true, "kernel_initializer": {"class_name": "VarianceScaling", "config": {"scale": 1.0, "mode": "fan_avg", "distribution": "uniform", "seed": null}}, "bias_initializer": {"class_name": "Zeros", "config": {}}, "kernel_regularizer": null, "bias_regularizer": null, "activity_regularizer": null, "kernel_constraint": null, "bias_constraint": null}, "inbound_nodes": [[["concatenate_896", 0, 0, {}]]]}, {"name": "dense_922", "class_name": "Dense", "config": {"name": "dense_922", "trainable": true, "dtype": "float32", "units": 100, "activation": "relu", "use_bias": true, "kernel_initializer": {"class_name": "VarianceScaling", "config": {"scale": 1.0, "mode": "fan_avg", "distribution": "uniform", "seed": null}}, "bias_initializer": {"class_name": "Zeros", "config": {}}, "kernel_regularizer": null, "bias_regularizer": null, "activity_regularizer": null, "kernel_constraint": null, "bias_constraint": null}, "inbound_nodes": [[["concatenate_901", 0, 0, {}]]]}, {"name": "dense_926", "class_name": "Dense", "config": {"name": "dense_926", "trainable": true, "dtype": "float32", "units": 100, "activation": "relu", "use_bias": true, "kernel_initializer": {"class_name": "VarianceScaling", "config": {"scale": 1.0, "mode": "fan_avg", "distribution": "uniform", "seed": null}}, "bias_initializer": {"class_name": "Zeros", "config": {}}, "kernel_regularizer": null, "bias_regularizer": null, "activity_regularizer": null, "kernel_constraint": null, "bias_constraint": null}, "inbound_nodes": [[["concatenate_905", 0, 0, {}]]]}, {"name": "dense_938", "class_name": "Dense", "config": {"name": "dense_938", "trainable": true, "dtype": "float32", "units": 100, "activation": "relu", "use_bias": true, "kernel_initializer": {"class_name": "VarianceScaling", "config": {"scale": 1.0, "mode": "fan_avg", "distribution": "uniform", "seed": null}}, "bias_initializer": {"class_name": "Zeros", "config": {}}, "kernel_regularizer": null, "bias_regularizer": null, "activity_regularizer": null, "kernel_constraint": null, "bias_constraint": null}, "inbound_nodes": [[["concatenate_917", 0, 0, {}]]]}, {"name": "dense_947", "class_name": "Dense", "config": {"name": "dense_947", "trainable": true, "dtype": "float32", "units": 100, "activation": "relu", "use_bias": true, "kernel_initializer": {"class_name": "VarianceScaling", "config": {"scale": 1.0, "mode": "fan_avg", "distribution": "uniform", "seed": null}}, "bias_initializer": {"class_name": "Zeros", "config": {}}, "kernel_regularizer": null, "bias_regularizer": null, "activity_regularizer": null, "kernel_constraint": null, "bias_constraint": null}, "inbound_nodes": [[["concatenate_926", 0, 0, {}]]]}, {"name": "dense_956", "class_name": "Dense", "config": {"name": "dense_956", "trainable": true, "dtype": "float32", "units": 100, "activation": "relu", "use_bias": true, "kernel_initializer": {"class_name": "VarianceScaling", "config": {"scale": 1.0, "mode": "fan_avg", "distribution": "uniform", "seed": null}}, "bias_initializer": {"class_name": "Zeros", "config": {}}, "kernel_regularizer": null, "bias_regularizer": null, "activity_regularizer": null, "kernel_constraint": null, "bias_constraint": null}, "inbound_nodes": [[["concatenate_935", 0, 0, {}]]]}, {"name": "dense_960", "class_name": "Dense", "config": {"name": "dense_960", "trainable": true, "dtype": "float32", "units": 100, "activation": "relu", "use_bias": true, "kernel_initializer": {"class_name": "VarianceScaling", "config": {"scale": 1.0, "mode": "fan_avg", "distribution": "uniform", "seed": null}}, "bias_initializer": {"class_name": "Zeros", "config": {}}, "kernel_regularizer": null, "bias_regularizer": null, "activity_regularizer": null, "kernel_constraint": null, "bias_constraint": null}, "inbound_nodes": [[["concatenate_939", 0, 0, {}]]]}, {"name": "dense_972", "class_name": "Dense", "config": {"name": "dense_972", "trainable": true, "dtype": "float32", "units": 100, "activation": "relu", "use_bias": true, "kernel_initializer": {"class_name": "VarianceScaling", "config": {"scale": 1.0, "mode": "fan_avg", "distribution": "uniform", "seed": null}}, "bias_initializer": {"class_name": "Zeros", "config": {}}, "kernel_regularizer": null, "bias_regularizer": null, "activity_regularizer": null, "kernel_constraint": null, "bias_constraint": null}, "inbound_nodes": [[["concatenate_951", 0, 0, {}]]]}, {"name": "dense_975", "class_name": "Dense", "config": {"name": "dense_975", "trainable": true, "dtype": "float32", "units": 100, "activation": "relu", "use_bias": true, "kernel_initializer": {"class_name": "VarianceScaling", "config": {"scale": 1.0, "mode": "fan_avg", "distribution": "uniform", "seed": null}}, "bias_initializer": {"class_name": …
ame": "VarianceScaling", "config": {"scale": 1.0, "mode": "fan_avg", "distribution": "uniform", "seed": null}}, "bias_initializer": {"class_name": "Zeros", "config": {}}, "kernel_regularizer": null, "bias_regularizer": null, "activity_regularizer": null, "kernel_constraint": null, "bias_constraint": null}, "inbound_nodes": [[["concatenate_1417", 0, 0, {}]]]}, {"name": "concatenate_911", "class_name": "Concatenate", "config": {"name": "concatenate_911", "trainable": true, "dtype": "float32", "axis": -1}, "inbound_nodes": [[["dense_912", 0, 0, {}], ["dense_931", 0, 0, {}]]]}, {"name": "concatenate_946", "class_name": "Concatenate", "config": {"name": "concatenate_946", "trainable": true, "dtype": "float32", "axis": -1}, "inbound_nodes": [[["dense_952", 0, 0, {}], ["dense_966", 0, 0, {}]]]}, {"name": "concatenate_968", "class_name": "Concatenate", "config": {"name": "concatenate_968", "trainable": true, "dtype": "float32", "axis": -1}, "inbound_nodes": [[["dense_980", 0, 0, {}], ["dense_988", 0, 0, {}]]]}, {"name": "concatenate_999", "class_name": "Concatenate", "config": {"name": "concatenate_999", "trainable": true, "dtype": "float32", "axis": -1}, "inbound_nodes": [[["dense_1010", 0, 0, {}], ["dense_1019", 0, 0, {}]]]}, {"name": "concatenate_1045", "class_name": "Concatenate", "config": {"name": "concatenate_1045", "trainable": true, "dtype": "float32", "axis": -1}, "inbound_nodes": [[["dense_1054", 0, 0, {}], ["dense_1065", 0, 0, {}]]]}, {"name": "concatenate_1074", "class_name": "Concatenate", "config": {"name": "concatenate_1074", "trainable": true, "dtype": "float32", "axis": -1}, "inbound_nodes": [[["dense_1085", 0, 0, {}], ["dense_1094", 0, 0, {}]]]}, {"name": "concatenate_1125", "class_name": "Concatenate", "config": {"name": "concatenate_1125", "trainable": true, "dtype": "float32", "axis": -1}, "inbound_nodes": [[["dense_1124", 0, 0, {}], ["dense_1145", 0, 0, {}]]]}, {"name": "concatenate_1159", "class_name": "Concatenate", "config": {"name": "concatenate_1159", "trainable": true, "dtype": "float32", "axis": -1}, "inbound_nodes": [[["dense_1161", 0, 0, {}], ["dense_1179", 0, 0, {}]]]}, {"name": "concatenate_1191", "class_name": "Concatenate", "config": {"name": "concatenate_1191", "trainable": true, "dtype": "float32", "axis": -1}, "inbound_nodes": [[["dense_1201", 0, 0, {}], ["dense_1211", 0, 0, {}]]]}, {"name": "concatenate_1236", "class_name": "Concatenate", "config": {"name": "concatenate_1236", "trainable": true, "dtype": "float32", "axis": -1}, "inbound_nodes": [[["dense_1235", 0, 0, {}], ["dense_1256", 0, 0, {}]]]}, {"name": "concatenate_1255", "class_name": "Concatenate", "config": {"name": "concatenate_1255", "trainable": true, "dtype": "float32", "axis": -1}, "inbound_nodes": [[["dense_1275", 0, 0, {}], ["dense_879", 0, 0, {}]]]}, {"name": "concatenate_1290", "class_name": "Concatenate", "config": {"name": "concatenate_1290", "trainable": true, "dtype": "float32", "axis": -1}, "inbound_nodes": [[["dense_1286", 0, 0, {}], ["dense_1310", 0, 0, {}]]]}, {"name": "concatenate_1329", "class_name": "Concatenate", "config": {"name": "concatenate_1329", "trainable": true, "dtype": "float32", "axis": -1}, "inbound_nodes": [[["dense_1330", 0, 0, {}], ["dense_1349", 0, 0, {}]]]}, {"name": "concatenate_1353", "class_name": "Concatenate", "config": {"name": "concatenate_1353", "trainable": true, "dtype": "float32", "axis": -1}, "inbound_nodes": [[["dense_1367", 0, 0, {}], ["dense_1373", 0, 0, {}]]]}, {"name": "concatenate_1394", "class_name": "Concatenate", "config": {"name": "concatenate_1394", "trainable": true, "dtype": "float32", "axis": -1}, "inbound_nodes": [[["dense_1399", 0, 0, {}], ["dense_1414", 0, 0, {}]]]}, {"name": "concatenate_1418", "class_name": "Concatenate", "config": {"name": "concatenate_1418", "trainable": true, "dtype": "float32", "axis": -1}, "inbound_nodes": [[["dense_1432", 0, 0, {}], ["dense_1438", 0, 0, {}]]]}, {"name": "dense_932", "class_name": "Dense", "config": {"name": "dense_932", "trainable": true, "dtype": "float32", "units": 100, "activation": "relu", "use_bias": true, "kernel_initializer": {"class_name": "VarianceScaling", "config": {"scale": 1.0, "mode": "fan_avg", "distribution": "uniform", "seed": null}}, "bias_initializer": {"class_name": "Zeros", "config": {}}, "kernel_regularizer": null, "bias_regularizer": null, "activity_regularizer": null, "kernel_constraint": null, "bias_constraint": null}, "inbound_nodes": [[["concatenate_911", 0, 0, {}]]]}, {"name": "dense_967", "class_name": "Dense", "config": {"name": "dense_967", "trainable": true, "dtype": "float32", "units": 100, "activation": "relu", "use_bias": true, "kernel_initializer": {"class_name": "VarianceScaling", "config": {"scale": 1.0, "mode": "fan_avg", "distribution": "uniform", "seed": null}}, "bias_initializer": {"class_name": "Zeros", "config": {}}, "kernel_regularizer": null, "bias_regularizer": null, "activity_regularizer": null, "kernel_constraint": null, "bias_constraint": null}, "inbound_nodes": [[["concatenate_946", 0, 0, {}]]]}, {"name": "dense_989", "class_name": "Dense", "config": {"name": "dense_989", "trainable": true, "dtype": "float32", "units": 100, "activation": "relu", "use_bias": true, "kernel_initializer": {"class_name": "VarianceScaling", "config": {"scale": 1.0, "mode": "fan_avg", "distribution": "uniform", "seed": null}}, "bias_initializer": {"class_name": "Zeros", "config": {}}, "kernel_regularizer": null, "bias_regularizer": null, "activity_regularizer": null, "kernel_constraint": null, "bias_constraint": null}, "inbound_nodes": [[["concatenate_968", 0, 0, {}]]]}, {"name": "dense_1020", "class_name": "Dense", "config": {"name": "dense_1020", "trainable": true, "dtype": "float32", "units": 100, "activation": "relu", "use_bias": true, "kernel_initializer": {"class_name": "VarianceScaling", "config": {"scale": 1.0, "mode": "fan_avg", "distribution": "uniform", "seed": null}}, "bias_initializer": {"class_name": "Zeros", "config": {}}, "kernel_regularizer": null, "bias_regularizer": null, "activity_regularizer": null, "kernel_constraint": null, "bias_constraint": null}, "inbound_nodes": [[["concatenate_999", 0, 0, {}]]]}, {"name": "dense_1066", "class_name": "Dense", "config": {"name": "dense_1066", "trainable": true, "dtype": "float32", "units": 100, "activation": "relu", "use_bias": true, "kernel_initializer": {"class_name": "VarianceScaling", "config": {"scale": 1.0, "mode": "fan_avg", "distribution": "uniform", "seed": null}}, "bias_initializer": {"class_name": "Zeros", "config": {}}, "kernel_regularizer": null, "bias_regularizer": null, "activity_regularizer": null, "kernel_constraint": null, "bias_constraint": null}, "inbound_nodes": [[["concatenate_1045", 0, 0, {}]]]}, {"name": "dense_1095", "class_name": "Dense", "config": {"name": "dense_1095", "trainable": true, "dtype": "float32", "units": 100, "activation": "relu", "use_bias": true, "kernel_initializer": {"class_name": "VarianceScaling", "config": {"scale": 1.0, "mode": "fan_avg", "distribution": "uniform", "seed": null}}, "bias_initializer": {"class_name": "Zeros", "config": {}}, "kernel_regularizer": null, "bias_regularizer": null, "activity_regularizer": null, "kernel_constraint": null, "bias_constraint": null}, "inbound_nodes": [[["concatenate_1074", 0, 0, {}]]]}, {"name": "dense_1146", "class_name": "Dense", "config": {"name": "dense_1146", "trainable": true, "dtype": "float32", "units": 100, "activation": "relu", "use_bias": true, "kernel_initializer": {"class_name": "VarianceScaling", "config": {"scale": 1.0, "mode": "fan_avg", "distribution": "uniform", "seed": null}}, "bias_initializer": {"class_name": "Zeros", "config": {}}, "kernel_regularizer": null, "bias_regularizer": null, "activity_regularizer": null, "kernel_constraint": null, "bias_constraint": null}, "inbound_nodes": [[["concatenate_1125", 0, 0, {}]]]}, {"name": "dense_1180", "class_name": "Dense", "config": {"name": "dense_1180", "trainable": true, "dtype": "float32", "units": 100, "activation": "relu", "use_bias": true, "kernel_initializer": {"class_name": "VarianceScaling", "config": {"scale": 1.0, "mode": "fan_avg", "distribution": "uniform", "seed": null}}, "bias_initializer": {"class_name": "Zeros", "config": {}}, "kernel_regularizer": null, "bias_regularizer": null, "activity_regularizer": null, "kernel_constraint": null, "bias_constraint": null}, "inbound_nodes": [[["concatenate_1159", 0, 0, {}]]]}, {"name": "dense_1212", "class_name": "Dense", "config": {"name": "dense_1212", "trainable": true, "dtype": "float32", "units": 100, "activation": "relu", "use_bias": true, "kernel_initializer": {"class_name": "VarianceScaling", "config": {"scale": 1.0, "mode": "fan_avg", "distribution": "uniform", "seed": null}}, "bias_initializer": {"class_name": "Zeros", "config": {}}, "kernel_regularizer": null, "bias_regularizer": null, "activity_regularizer": null, "kernel_constraint": null, "bias_constraint": null}, "inbound_nodes": [[["concatenate_1191", 0, 0, {}]]]}, {"name": "dense_1257", "class_name": "Dense", "config": {"name": "dense_1257", "trainable": true, "dtype": "float32", "units": 100, "activation": "relu", "use_bias": true, "kernel_initializer": {"class_name": "VarianceScaling", "config": {"scale": 1.0, "mode": "fan_avg", "distribution": "uniform", "seed": null}}, "bias_initializer": {"class_name": "Zeros", "config": {}}, "kernel_regularizer": null, "bias_regularizer": null, "activity_regularizer": null, "kernel_constraint": null, "bias_constraint": null}, "inbound_nodes": [[["concatenate_1236", 0, 0, {}]]]}, {"name": "dense_1276", "class_name": "Dense", "config": {"name": "dense_1276", "trainable": true, "dtype": "float32", "units": 100, "activation": "relu", "use_bias": true, "kernel_initializer": {"class_name": "VarianceScaling", "config": {"scale": 1.0, "mode": "fan_avg", "distribution": "uniform", "seed": null}}, "bias_initializer": {"class_name": "Zeros", "config": {}}, "kernel_regularizer": null, "bias_regularizer": null, "activity_regularizer": null, "kernel_constraint": null, "bias_constraint": null}, "inbound_nodes": [[["concatenate_1255", 0, 0, {}]]]}, {"name": "dense_1311", "class_name": "Dense", "config": {"name": "dense_1311", "trainable": true, "dtype": "float32", "units": 100, "activation": "relu", "use_bias": true, "kernel_initializer": {"class_name": "VarianceScaling", "config": {"scale": 1.0, "mode": "fan_avg", "distribution": "uniform", "seed": null}}, "bias_initializer": {"class_name": "Zeros", "config": {}}, "kernel_regularizer": null, "bias_regularizer": null, "activity_regularizer": null, "kernel_constraint": null, "bias_constraint": null}, "inbound_nodes": [[["concatenate_1290", 0, 0, {}]]]}, {"name": "dense_1350", "class_name": "Dense", "config": {"name": "dense_1350", "trainable": true, "dtype": "float32", "units": 100, "activation": "relu", "use_bias": true, "kernel_initializer": {"class_name": "VarianceScaling", "config": {"scale": 1.0, "mode": "fan_avg", "distribution": "uniform", "seed": null}}, "bias_initializer": {"class_name": "Zeros", "config": {}}, "kernel_regularizer": null, "bias_regularizer": null, "activity_regularizer": null, "kernel_constraint": null, "bias_constraint": null}, "inbound_nodes": [[["concatenate_1329", 0, 0, {}]]]}, {"name": "dense_1374", "class_name": "Dense", "config": {"name": "dense_1374", "trainable": true, "dtype": "float32", "units": 100, "activation": "relu", "use_bias": true, "kernel_initializer": {"class_name": "VarianceScaling", "config": {"scale": 1.0, "mode": "fan_avg", "distribution": "uniform", "seed": null}}, "bias_initializer": {"class_name": "Zeros", "config": {}}, "kernel_regularizer": null, "bias_regularizer": null, "activity_regularizer": null, "kernel_constraint": null, "bias_constraint": null}, "inbound_nodes": [[["concatenate_1353", 0, 0, {}]]]}, {"name": "dense_1415", "class_name": "Dense", "config": {"name": "dense_1415", "trainable": true, "dtype": "float32", "units": 100, "activation": "relu", "use_bias": true, "kernel_initializer": {"class_name": "VarianceScaling", "config": {"scale": 1.0, "mode": "fan_avg", "distribution": "uniform", "seed": null}}, "bias_initializer": {"class_name": "Zeros", "config": {}}, "kernel_regularizer": null, "bias_regularizer": null, "activity_regularizer": null, "kernel_constraint": null, "bias_constraint": null}, "inbound_nodes": [[["concatenate_1394", 0, 0, {}]]]}, {"name": "dense_1439", "class_name": "Dense", "config": {"name": "dense_1439", "trainable": true, "dtype": "float32", "units": 100, "activation": "relu", "use_bias": true, "kernel_initializer": {"class_name": "VarianceScaling", "config": {"scale": 1.0, "mode": "fan_avg", "distribution": "uniform", "seed": null}}, "bias_initializer": {"class_name": "Zeros", "config": {}}, "kernel_regularizer": null, "bias_regularizer": null, "activity_regularizer": null, "kernel_constraint": null, "bias_constraint": null}, "inbound_nodes": [[["concatenate_1418", 0, 0, {}]]]}, {"name": "concatenate_912", "class_name": "Concatenate", "config": {"name": "concatenate_912", "trainable": true, "dtype": "float32", "axis": -1}, "inbound_nodes": [[["dense_932", 0, 0, {}], ["dense_879", 0, 0, {}]]]}, {"name": "concatenate_947", "class_name": "Concatenate", "config": {"name": "concatenate_947", "trainable": true, "dtype": "float32", "axis": -1}, "inbound_nodes": [[["dense_967", 0, 0, {}], ["dense_881", 0, 0, {}]]]}, {"name": "concatenate_969", "class_name": "Concatenate", "config": {"name": "concatenate_969", "trainable": true, "dtype": "float32", "axis": -1}, "inbound_nodes": [[["dense_989", 0, 0, {}], ["dense_887", 0, 0, {}]]]}, {"name": "concatenate_1000", "class_name": "Concatenate", "config": {"name": "concatenate_1000", "trainable": true, "dtype": "float32", "axis": -1}, "inbound_nodes": [[["dense_1020", 0, 0, {}], ["dense_887", 0, 0, {}]]]}, {"name": "concatenate_1046", "class_name": "Concatenate", "config": {"name": "concatenate_1046", "trainable": true, "dtype": "float32", "axis": -1}, "inbound_nodes": [[["dense_1066", 0, 0, {}], ["dense_886", 0, 0, {}]]]}, {"name": "concatenate_1075", "class_name": "Concatenate", "config": {"name": "concatenate_1075", "trainable": true, "dtype": "float32", "axis": -1}, "inbound_nodes": [[["dense_1095", 0, 0, {}], ["dense_879", 0, 0, {}]]]}, {"name": "concatenate_1126", "class_name": "Concatenate", "config": {"name": "concatenate_1126", "trainable": true, "dtype": "float32", "axis": -1}, "inbound_nodes": [[["dense_1146", 0, 0, {}], ["dense_881", 0, 0, {}]]]}, {"name": "concatenate_1160", "class_name": "Concatenate", "config": {"name": "concatenate_1160", "trainable": true, "dtype": "float32", "axis": -1}, "inbound_nodes": [[["dense_1180", 0, 0, {}], ["dense_887", 0, 0, {}]]]}, {"name": "concatenate_1192", "class_name": "Concatenate", "config": {"name": "concatenate_1192", "trainable": true, "dtype": "float32", "axis": -1}, "inbound_nodes": [[["dense_1212", 0, 0, {}], ["dense_881", 0, 0, {}]]]}, {"name": "concatenate_1237", "class_name": "Concatenate", "config": {"name": "concatenate_1237", "trainable": true, "dtype": "float32", "axis": -1}, "inbound_nodes": [[["dense_1257", 0, 0, {}], ["dense_881", 0, 0, {}]]]}, {"name": "concatenate_1256", "class_name": "Concatenate", "config": {"name": "concatenate_1256", "trainable": true, "dtype": "float32", "axis": -1}, "inbound_nodes": [[["dense_1276", 0, 0, {}], ["dense_880", 0, 0, {}]]]}, {"name": "concatenate_1291", "class_name": "Concatenate", "config": {"name": "concatenate_1291", "trainable": true, "dtype": "float32", "axis": -1}, "inbound_nodes": [[["dense_1311", 0, 0, {}], ["dense_884", 0, 0, {}]]]}, {"name": "concatenate_1330", "class_name": "Concatenate", "config": {"name": "concatenate_1330", "trainable": true, "dtype": "float32", "axis": -1}, "inbound_nodes": [[["dense_1350", 0, 0, {}], ["dense_879", 0, 0, {}]]]}, {"name": "concatenate_1354", "class_name": "Concatenate", "config": {"name": "concatenate_1354", "trainable": true, "dtype": "float32", "axis": -1}, "inbound_nodes": [[["dense_1374", 0, 0, {}], ["dense_887", 0, 0, {}]]]}, {"name": "concatenate_1395", "class_name": "Concatenate", "config": {"name": "concatenate_1395", "trainable": true, "dtype": "float32", "axis": -1}, "inbound_nodes": [[["dense_1415", 0, 0, {}], ["dense_879", 0, 0, {}]]]}, {"name": "concatenate_1419", "class_name": "Concatenate", "config": {"name": "concatenate_1419", "trainable": true, "dtype": "float32", "axis": -1}, "inbound_nodes": [[["dense_1439", 0, 0, {}], ["dense_879", 0, 0, {}]]]}, {"name": "dense_933", "class_name": "Dense", "config": {"name": "dense_933", "trainable": true, "dtype": "float32", "units": 100, "activation": "relu", "use_bias": true, "kernel_initializer": {"class_name": "VarianceScaling", "config": {"scale": 1.0, "mode": "fan_avg", "distribution": "uniform", "seed": null}}, "bias_initializer": {"class_name": "Zeros", "config": {}}, "kernel_regularizer": null, "bias_regularizer": null, "activity_regularizer": null, "kernel_constraint": null, "bias_constraint": null}, "inbound_nodes": [[["concatenate_912", 0, 0, {}]]]}, {"name": "dense_968", "class_name": "Dense", "config": {"name": "dense_968", "trainable": true, "dtype": "float32", "units": 100, "activation": "relu", "use_bias": true, "kernel_initializer": {"class_name": "VarianceScaling", "config": {"scale": 1.0, "mode": "fan_avg", "distribution": "uniform", "seed": null}}, "bias_initializer": {"class_name": "Zeros", "config": {}}, "kernel_regularizer": null, "bias_regularizer": null, "activity_regularizer": null, "kernel_constraint": null, "bias_constraint": null}, "inbound_nodes": [[["concatenate_947", 0, 0, {}]]]}, {"name": "dense_990", "class_name": "Dense", "config": {"name": "dense_990", "trainable": true, "dtype": "float32", "units": 100, "activation": "relu", "use_bias": true, "kernel_initializer": {"class_name": "VarianceScaling", "config": {"scale": 1.0, "mode": "fan_avg", "distribution": "uniform", "seed": null}}, "bias_initializer": {"class_name": "Zeros", "config": {}}, "kernel_regularizer": null, "bias_regularizer": null, "activity_regularizer": null, "kernel_constraint": null, "bias_constraint": null}, "inbound_nodes": [[["concatenate_969", 0, 0, {}]]]}, {"name": "dense_1021", "class_name": "Dense", "config": {"name": "dense_1021", "trainable": true, "dtype": "float32", "units": 100, "activation": "relu", "use_bias": true, "kernel_initializer": {"class_name": "VarianceScaling", "config": {"scale": 1.0, "mode": "fan_avg", "distribution": "uniform", "seed": null}}, "bias_initializer": {"class_name": "Zeros", "config": {}}, "kernel_regularizer": null, "bias_regularizer": null, "activity_regularizer": null, "kernel_constraint": null, "bias_constraint": null}, "inbound_nodes": [[["concatenate_1000", 0, 0, {}]]]}, {"name": "dense_1067", "class_name": "Dense", "config": {"name": "dense_1067", "trainable": true, "dtype": "float32", "units": 100, "activation": "relu", "use_bias": true, "kernel_initializer": {"class_name": "VarianceScaling", "config": {"scale": 1.0, "mode": "fan_avg", "distribution": "uniform", "seed": null}}, "bias_initializer": {"class_name": "Zeros", "config": {}}, "kernel_regularizer": null, "bias_regularizer": null, "activity_regularizer": null, "kernel_constraint": null, "bias_constraint": null}, "inbound_nodes": [[["concatenate_1046", 0, 0, {}]]]}, {"name": "dense_1096", "class_name": "Dense", "config": {"name": "dense_1096", "trainable": true, "dtype": "float32", "units": 100, "activation": "relu", "use_bias": true, "kernel_initializer": {"class_name": "VarianceScaling", "config": {"scale": 1.0, "mode": "fan_avg", "distribution": "uniform", "seed": null}}, "bias_initializer": {"class_name": "Zeros", "config": {}}, "kernel_regularizer": null, "bias_regularizer": null, "activity_regularizer": null, "kernel_constraint": null, "bias_constraint": null}, "inbound_nodes": [[["concatenate_1075", 0, 0, {}]]]}, {"name": "dense_1147", "class_name": "Dense", "config": {"name": "dense_1147", "trainable": true, "dtype": "float32", "units": 100, "activation": "relu", "use_bias": true, "kernel_initializer": {"class_name": "VarianceScaling", "config": {"scale": 1.0, "mode": "fan_avg", "distribution": "uniform", "seed": null}}, "bias_initializer": {"class_name": "Zeros", "config": {}}, "kernel_regularizer": null, "bias_regularizer": null, "activity_regularizer": null, "kernel_constraint": null, "bias_constraint": null}, "inbound_nodes": [[["concatenate_1126", 0, 0, {}]]]}, {"name": "dense_1181", "class_name": "Dense", "config": {"name": "dense_1181", "trainable": true, "dtype": "float32", "units": 100, "activation": "relu", "use_bias": true, "kernel_initializer": {"class_name": "VarianceScaling", "config": {"scale": 1.0, "mode": "fan_avg", "distribution": "uniform", "seed": null}}, "bias_initializer": {"class_name": "Zeros", "config": {}}, "kernel_regularizer": null, "bias_regularizer": null, "activity_regularizer": null, "kernel_constraint": null, "bias_constraint": null}, "inbound_nodes": [[["concatenate_1160", 0, 0, {}]]]}, {"name": "dense_1213", "class_name": "Dense", "config": {"name": "dense_1213", "trainable": true, "dtype": "float32", "units": 100, "activation": "relu", "use_bias": true, "kernel_initializer": {"class_name": "VarianceScaling", "config": {"scale": 1.0, "mode": "fan_avg", "distribution": "uniform", "seed": null}}, "bias_initializer": {"class_name": "Zeros", "config": {}}, "kernel_regularizer": null, "bias_regularizer": null, "activity_regularizer": null, "kernel_constraint": null, "bias_constraint": null}, "inbound_nodes": [[["concatenate_1192", 0, 0, {}]]]}, {"name": "dense_1258", "class_name": "Dense", "config": {"name": "dense_1258", "trainable": true, "dtype": "float32", "units": 100, "activation": "relu", "use_bias": true, "kernel_initializer": {"class_name": "VarianceScaling", "config": {"scale": 1.0, "mode": "fan_avg", "distribution": "uniform", "seed": null}}, "bias_initializer": {"class_name": "Zeros", "config": {}}, "kernel_regularizer": null, "bias_regularizer": null, "activity_regularizer": null, "kernel_constraint": null, "bias_constraint": null}, "inbound_nodes": [[["concatenate_1237", 0, 0, {}]]]}, {"name": "dense_1277", "class_name": "Dense", "config": {"name": "dense_1277", "trainable": true, "dtype": "float32", "units": 100, "activation": "relu", "use_bias": true, "kernel_initializer": {"class_name": "VarianceScaling", "config": {"scale": 1.0, "mode": "fan_avg", "distribution": "uniform", "seed": null}}, "bias_initializer": {"class_name": "Zeros", "config": {}}, "kernel_regularizer": null, "bias_regularizer": null, "activity_regularizer": null, "kernel_constraint": null, "bias_constraint": null}, "inbound_nodes": [[["concatenate_1256", 0, 0, {}]]]}, {"name": "dense_1312", "class_name": "Dense", "config": {"name": "dense_1312", "trainable": true, "dtype": "float32", "units": 100, "activation": "relu", "use_bias": true, "kernel_initializer": {"class_name": "VarianceScaling", "config": {"scale": 1.0, "mode": "fan_avg", "distribution": "uniform", "seed": null}}, "bias_initializer": {"class_name": "Zeros", "config": {}}, "kernel_regularizer": null, "bias_regularizer": null, "activity_regularizer": null, "kernel_constraint": null, "bias_constraint": null}, "inbound_nodes": [[["concatenate_1291", 0, 0, {}]]]}, {"name": "dense_1351", "class_name": "Dense", "config": {"name": "dense_1351", "trainable": true, "dtype": "float32", "units": 100, "activation": "relu", "use_bias": true, "kernel_initializer": {"class_name": "VarianceScaling", "config": {"scale": 1.0, "mode": "fan_avg", "distribution": "uniform", "seed": null}}, "bias_initializer": {"class_name": "Zeros", "config": {}}, "kernel_regularizer": null, "bias_regularizer": null, "activity_regularizer": null, "kernel_constraint": null, "bias_constraint": null}, "inbound_nodes": [[["concatenate_1330", 0, 0, {}]]]}, {"name": "dense_1375", "class_name": "Dense", "config": {"name": "dense_1375", "trainable": true, "dtype": "float32", "units": 100, "activation": "relu", "use_bias": true, "kernel_initializer": {"class_name": "VarianceScaling", "config": {"scale": 1.0, "mode": "fan_avg", "distribution": "uniform", "seed": null}}, "bias_initializer": {"class_name": "Zeros", "config": {}}, "kernel_regularizer": null, "bias_regularizer": null, "activity_regularizer": null, "kernel_constraint": null, "bias_constraint": null}, "inbound_nodes": [[["concatenate_1354", 0, 0, {}]]]}, {"name": "dense_1416", "class_name": "Dense", "config": {"name": "dense_1416", "trainable": true, "dtype": "float32", "units": 100, "activation": "relu", "use_bias": true, "kernel_initializer": {"class_name": "VarianceScaling", "config": {"scale": 1.0, "mode": "fan_avg", "distribution": "uniform", "seed": null}}, "bias_initializer": {"class_name": "Zeros", "config": {}}, "kernel_regularizer": null, "bias_regularizer": null, "activity_regularizer": null, "kernel_constraint": null, "bias_constraint": null}, "inbound_nodes": [[["concatenate_1395", 0, 0, {}]]]}, {"name": "dense_1440", "class_name": "Dense", "config": {"name": "dense_1440", "trainable": true, "dtype": "float32", "units": 100, "activation": "relu", "use_bias": true, "kernel_initializer": {"class_name": "VarianceScaling", "config": {"scale": 1.0, "mode": "fan_avg", "distribution": "uniform", "seed": null}}, "bias_initializer": {"class_name": "Zeros", "config": {}}, "kernel_regularizer": null, "bias_regularizer": null, "activity_regularizer": null, "kernel_constraint": null, "bias_constraint": null}, "inbound_nodes": [[["concatenate_1419", 0, 0, {}]]]}, {"name": "concatenate_948", "class_name": "Concatenate", "config": {"name": "concatenate_948", "trainable": true, "dtype": "float32", "axis": -1}, "inbound_nodes": [[["dense_933", 0, 0, {}], ["dense_968", 0, 0, {}]]]}, {"name": "concatenate_1001", "class_name": "Concatenate", "config": {"name": "concatenate_1001", "trainable": true, "dtype": "float32", "axis": -1}, "inbound_nodes": [[["dense_990", 0, 0, {}], ["dense_1021", 0, 0, {}]]]}, {"name": "concatenate_1076", "class_name": "Concatenate", "config": {"name": "concatenate_1076", "trainable": true, "dtype": "float32", "axis": -1}, "inbound_nodes": [[["dense_1067", 0, 0, {}], ["dense_1096", 0, 0, {}]]]}, {"name": "concatenate_1161", "class_name": "Concatenate", "config": {"name": "concatenate_1161", "trainable": true, "dtype": "float32", "axis": -1}, "inbound_nodes": [[["dense_1147", 0, 0, {}], ["dense_1181", 0, 0, {}]]]}, {"name": "concatenate_1238", "class_name": "Concatenate", "config": {"name": "concatenate_1238", "trainable": true, "dtype": "float32", "axis": -1}, "inbound_nodes": [[["dense_1213", 0, 0, {}], ["dense_1258", 0, 0, {}]]]}, {"name": "concatenate_1292", "class_name": "Concatenate", "config": {"name": "concatenate_1292", "trainable": true, "dtype": "float32", "axis": -1}, "inbound_nodes": [[["dense_1277", 0, 0, {}], ["dense_1312", 0, 0, {}]]]}, {"name": "concatenate_1355", "class_name": "Concatenate", "config": {"name": "concatenate_1355", "trainable": true, "dtype": "float32", "axis": -1}, "inbound_nodes": [[["dense_1351", 0, 0, {}], ["dense_1375", 0, 0, {}]]]}, {"name": "concatenate_1420", "class_name": "Concatenate", "config": {"name": "concatenate_1420", "trainable": true, "dtype": "float32", "axis": -1}, "inbound_nodes": [[["dense_1416", 0, 0, {}], ["dense_1440", 0, 0, {}]]]}, {"name": "dense_969", "class_name": "Dense", "config": {"name": "dense_969", "trainable": true, "dtype": "float32", "units": 100, "activation": "relu", "use_bias": true, "kernel_initializer": {"class_name": "VarianceScaling", "config": {"scale": 1.0, "mode": "fan_avg", "distribution": "uniform", "seed": null}}, "bias_initializer": {"class_name": "Zeros", "config": {}}, "kernel_regularizer": null, "bias_regularizer": null, "activity_regularizer": null, "kernel_constraint": null, "bias_constraint": null}, "inbound_nodes": [[["concatenate_948", 0, 0, {}]]]}, {"name": "dense_1022", "class_name": "Dense", "config": {"name": "dense_1022", "trainable": true, "dtype": "float32", "units": 100, "activation": "relu", "use_bias": true, "kernel_initializer": {"class_name": "VarianceScaling", "config": {"scale": 1.0, "mode": "fan_avg", "distribution": "uniform", "seed": null}}, "bias_initializer": {"class_name": "Zeros", "config": {}}, "kernel_regularizer": null, "bias_regularizer": null, "activity_regularizer": null, "kernel_constraint": null, "bias_constraint": null}, "inbound_nodes": [[["concatenate_1001", 0, 0, {}]]]}, {"name": "dense_1097", "class_name": "Dense", "config": {"name": "dense_1097", "trainable": true, "dtype": "float32", "units": 100, "activation": "relu", "use_bias": true, "kernel_initializer": {"class_name": "VarianceScaling", "config": {"scale": 1.0, "mode": "fan_avg", "distribution": "uniform", "seed": null}}, "bias_initializer": {"class_name": "Zeros", "config": {}}, "kernel_regularizer": null, "bias_regularizer": null, "activity_regularizer": null, "kernel_constraint": null, "bias_constraint": null}, "inbound_nodes": [[["concatenate_1076", 0, 0, {}]]]}, {"name": "dense_1182", "class_name": "Dense", "config": {"name": "dense_1182", "trainable": true, "dtype": "float32", "units": 100, "activation": "relu", "use_bias": true, "kernel_initializer": {"class_name": "VarianceScaling", "config": {"scale": 1.0, "mode": "fan_avg", "distribution": "uniform", "seed": null}}, "bias_initializer": {"class_name": "Zeros", "config": {}}, "kernel_regularizer": null, "bias_regularizer": null, "activity_regularizer": null, "kernel_constraint": null, "bias_constraint": null}, "inbound_nodes": [[["concatenate_1161", 0, 0, {}]]]}, {"name": "dense_1259", "class_name": "Dense", "config": {"name": "dense_1259", "trainable": true, "dtype": "float32", "units": 100, "activation": "relu", "use_bias": true, "kernel_initializer": {"class_name": "VarianceScaling", "config": {"scale": 1.0, "mode": "fan_avg", "distribution": "uniform", "seed": null}}, "bias_initializer": {"class_name": "Zeros", "config": {}}, "kernel_regularizer": null, "bias_regularizer": null, "activity_regularizer": null, "kernel_constraint": null, "bias_constraint": null}, "inbound_nodes": [[["concatenate_1238", 0, 0, {}]]]}, {"name": "dense_1313", "class_name": "Dense", "config": {"name": "dense_1313", "trainable": true, "dtype": "float32", "units": 100, "activation": "relu", "use_bias": true, "kernel_initializer": {"class_name": "VarianceScaling", "config": {"scale": 1.0, "mode": "fan_avg", "distribution": "uniform", "seed": null}}, "bias_initializer": {"class_name": "Zeros", "config": {}}, "kernel_regularizer": null, "bias_regularizer": null, "activity_regularizer": null, "kernel_constraint": null, "bias_constraint": null}, "inbound_nodes": [[["concatenate_1292", 0, 0, {}]]]}, {"name": "dense_1376", "class_name": "Dense", "config": {"name": "dense_1376", "trainable": true, "dtype": "float32", "units": 100, "activation": "relu", "use_bias": true, "kernel_initializer": {"class_name": "VarianceScaling", "config": {"scale": 1.0, "mode": "fan_avg", "distribution": "uniform", "seed": null}}, "bias_initializer": {"class_name": "Zeros", "config": {}}, "kernel_regularizer": null, "bias_regularizer": null, "activity_regularizer": null, "kernel_constraint": null, "bias_constraint": null}, "inbound_nodes": [[["concatenate_1355", 0, 0, {}]]]}, {"name": "dense_1441", "class_name": "Dense", "config": {"name": "dense_1441", "trainable": true, "dtype": "float32", "units": 100, "activation": "relu", "use_bias": true, "kernel_initializer": {"class_name": "VarianceScaling", "config": {"scale": 1.0, "mode": "fan_avg", "distribution": "uniform", "seed": null}}, "bias_initializer": {"class_name": "Zeros", "config": {}}, "kernel_regularizer": null, "bias_regularizer": null, "activity_regularizer": null, "kernel_constraint": null, "bias_constraint": null}, "inbound_nodes": [[["concatenate_1420", 0, 0, {}]]]}, {"name": "concatenate_949", "class_name": "Concatenate", "config": {"name": "concatenate_949", "trainable": true, "dtype": "float32", "axis": -1}, "inbound_nodes": [[["dense_969", 0, 0, {}], ["dense_881", 0, 0, {}]]]}, {"name": "concatenate_1002", "class_name": "Concatenate", "config": {"name": "concatenate_1002", "trainable": true, "dtype": "float32", "axis": -1}, "inbound_nodes": [[["dense_1022", 0, 0, {}], ["dense_881", 0, 0, {}]]]}, {"name": "concatenate_1077", "class_name": "Concatenate", "config": {"name": "concatenate_1077", "trainable": true, "dtype": "float32", "axis": -1}, "inbound_nodes": [[["dense_1097", 0, 0, {}], ["dense_887", 0, 0, {}]]]}, {"name": "concatenate_1162", "class_name": "Concatenate", "config": {"name": "concatenate_1162", "trainable": true, "dtype": "float32", "axis": -1}, "inbound_nodes": [[["dense_1182", 0, 0, {}], ["dense_879", 0, 0, {}]]]}, {"name": "concatenate_1239", "class_name": "Concatenate", "config": {"name": "concatenate_1239", "trainable": true, "dtype": "float32", "axis": -1}, "inbound_nodes": [[["dense_1259", 0, 0, {}], ["dense_879", 0, 0, {}]]]}, {"name": "concatenate_1293", "class_name": "Concatenate", "config": {"name": "concatenate_1293", "trainable": true, "dtype": "float32", "axis": -1}, "inbound_nodes": [[["dense_1313", 0, 0, {}], ["dense_879", 0, 0, {}]]]}, {"name": "concatenate_1356", "class_name": "Concatenate", "config": {"name": "concatenate_1356", "trainable": true, "dtype": "float32", "axis": -1}, "inbound_nodes": [[["dense_1376", 0, 0, {}], ["dense_885", 0, 0, {}]]]}, {"name": "concatenate_1421", "class_name": "Concatenate", "config": {"name": "concatenate_1421", "trainable": true, "dtype": "float32", "axis": -1}, "inbound_nodes": [[["dense_1441", 0, 0, {}], ["dense_882", 0, 0, {}]]]}, {"name": "dense_970", "class_name": "Dense", "config": {"name": "dense_970", "trainable": true, "dtype": "float32", "units": 100, "activation": "relu", "use_bias": true, "kernel_initializer": {"class_name": "VarianceScaling", "config": {"scale": 1.0, "mode": "fan_avg", "distribution": "uniform", "seed": null}}, "bias_initializer": {"class_name": "Zeros", "config": {}}, "kernel_regularizer": null, "bias_regularizer": null, "activity_regularizer": null, "kernel_constraint": null, "bias_constraint": null}, "inbound_nodes": [[["concatenate_949", 0, 0, {}]]]}, {"name": "dense_1023", "class_name": "Dense", "config": {"name": "dense_1023", "trainable": true, "dtype": "float32", "units": 100, "activation": "relu", "use_bias": true, "kernel_initializer": {"class_name": "VarianceScaling", "config": {"scale": 1.0, "mode": "fan_avg", "distribution": "uniform", "seed": null}}, "bias_initializer": {"class_name": "Zeros", "config": {}}, "kernel_regularizer": null, "bias_regularizer": null, "activity_regularizer": null, "kernel_constraint": null, "bias_constraint": null}, "inbound_nodes": [[["concatenate_1002", 0, 0, {}]]]}, {"name": "dense_1098", "class_name": "Dense", "config": {"name": "dense_1098", "trainable": true, "dtype": "float32", "units": 100, "activation": "relu", "use_bias": true, "kernel_initializer": {"class_name": "VarianceScaling", "config": {"scale": 1.0, "mode": "fan_avg", "distribution": "uniform", "seed": null}}, "bias_initializer": {"class_name": "Zeros", "config": {}}, "kernel_regularizer": null, "bias_regularizer": null, "activity_regularizer": null, "kernel_constraint": null, "bias_constraint": null}, "inbound_nodes": [[["concatenate_1077", 0, 0, {}]]]}, {"name": "dense_1183", "class_name": "Dense", "config": {"name": "dense_1183", "trainable": true, "dtype": "float32", "units": 100, "activation": "relu", "use_bias": true, "kernel_initializer": {"class_name": "VarianceScaling", "config": {"scale": 1.0, "mode": "fan_avg", "distribution": "uniform", "seed": null}}, "bias_initializer": {"class_name": "Zeros", "config": {}}, "kernel_regularizer": null, "bias_regularizer": null, "activity_regularizer": null, "kernel_constraint": null, "bias_constraint": null}, "inbound_nodes": [[["concatenate_1162", 0, 0, {}]]]}, {"name": "dense_1260", "class_name": "Dense", "config": {"name": "dense_1260", "trainable": true, "dtype": "float32", "units": 100, "activation": "relu", "use_bias": true, "kernel_initializer": {"class_name": "VarianceScaling", "config": {"scale": 1.0, "mode": "fan_avg", "distribution": "uniform", "seed": null}}, "bias_initializer": {"class_name": "Zeros", "config": {}}, "kernel_regularizer": null, "bias_regularizer": null, "activity_regularizer": null, "kernel_constraint": null, "bias_constraint": null}, "inbound_nodes": [[["concatenate_1239", 0, 0, {}]]]}, {"name": "dense_1314", "class_name": "Dense", "config": {"name": "dense_1314", "trainable": true, "dtype": "float32", "units": 100, "activation": "relu", "use_bias": true, "kernel_initializer": {"class_name": "VarianceScaling", "config": {"scale": 1.0, "mode": "fan_avg", "distribution": "uniform", "seed": null}}, "bias_initializer": {"class_name": "Zeros", "config": {}}, "kernel_regularizer": null, "bias_regularizer": null, "activity_regularizer": null, "kernel_constraint": null, "bias_constraint": null}, "inbound_nodes": [[["concatenate_1293", 0, 0, {}]]]}, {"name": "dense_1377", "class_name": "Dense", "config": {"name": "dense_1377", "trainable": true, "dtype": "float32", "units": 100, "activation": "relu", "use_bias": true, "kernel_initializer": {"class_name": "VarianceScaling", "config": {"scale": 1.0, "mode": "fan_avg", "distribution": "uniform", "seed": null}}, "bias_initializer": {"class_name": "Zeros", "config": {}}, "kernel_regularizer": null, "bias_regularizer": null, "activity_regularizer": null, "kernel_constraint": null, "bias_constraint": null}, "inbound_nodes": [[["concatenate_1356", 0, 0, {}]]]}, {"name": "dense_1442", "class_name": "Dense", "config": {"name": "dense_1442", "trainable": true, "dtype": "float32", "units": 100, "activation": "relu", "use_bias": true, "kernel_initializer": {"class_name": "VarianceScaling", "config": {"scale": 1.0, "mode": "fan_avg", "distribution": "uniform", "seed": null}}, "bias_initializer": {"class_name": "Zeros", "config": {}}, "kernel_regularizer": null, "bias_regularizer": null, "activity_regularizer": null, "kernel_constraint": null, "bias_constraint": null}, "inbound_nodes": [[["concatenate_1421", 0, 0, {}]]]}, {"name": "concatenate_1003", "class_name": "Concatenate", "config": {"name": "concatenate_1003", "trainable": true, "dtype": "float32", "axis": -1}, "inbound_nodes": [[["dense_970", 0, 0, {}], ["dense_1023", 0, 0, {}]]]}, {"name": "concatenate_1163", "class_name": "Concatenate", "config": {"name": "concatenate_1163", "trainable": true, "dtype": "float32", "axis": -1}, "inbound_nodes": [[["dense_1098", 0, 0, {}], ["dense_1183", 0, 0, {}]]]}, {"name": "concatenate_1294", "class_name": "Concatenate", "config": {"name": "concatenate_1294", "trainable": true, "dtype": "float32", "axis": -1}, "inbound_nodes": [[["dense_1260", 0, 0, {}], ["dense_1314", 0, 0, {}]]]}, {"name": "concatenate_1422", "class_name": "Concatenate", "config": {"name": "concatenate_1422", "trainable": true, "dtype": "float32", "axis": -1}, "inbound_nodes": [[["dense_1377", 0, 0, {}], ["dense_1442", 0, 0, {}]]]}, {"name": "dense_1024", "class_name": "Dense", "config": {"name": "dense_1024", "trainable": true, "dtype": "float32", "units": 100, "activation": "relu", "use_bias": true, "kernel_initializer": {"class_name": "VarianceScaling", "config": {"scale": 1.0, "mode": "fan_avg", "distribution": "uniform", "seed": null}}, "bias_initializer": {"class_name": "Zeros", "config": {}}, "kernel_regularizer": null, "bias_regularizer": null, "activity_regularizer": null, "kernel_constraint": null, "bias_constraint": null}, "inbound_nodes": [[["concatenate_1003", 0, 0, {}]]]}, {"name": "dense_1184", "class_name": "Dense", "config": {"name": "dense_1184", "trainable": true, "dtype": "float32", "units": 100, "activation": "relu", "use_bias": true, "kernel_initializer": {"class_name": "VarianceScaling", "config": {"scale": 1.0, "mode": "fan_avg", "distribution": "uniform", "seed": null}}, "bias_initializer": {"class_name": "Zeros", "config": {}}, "kernel_regularizer": null, "bias_regularizer": null, "activity_regularizer": null, "kernel_constraint": null, "bias_constraint": null}, "inbound_nodes": [[["concatenate_1163", 0, 0, {}]]]}, {"name": "dense_1315", "class_name": "Dense", "config": {"name": "dense_1315", "trainable": true, "dtype": "float32", "units": 100, "activation": "relu", "use_bias": true, "kernel_initializer": {"class_name": "VarianceScaling", "config": {"scale": 1.0, "mode": "fan_avg", "distribution": "uniform", "seed": null}}, "bias_initializer": {"class_name": "Zeros", "config": {}}, "kernel_regularizer": null, "bias_regularizer": null, "activity_regularizer": null, "kernel_constraint": null, "bias_constraint": null}, "inbound_nodes": [[["concatenate_1294", 0, 0, {}]]]}, {"name": "dense_1443", "class_name": "Dense", "config": {"name": "dense_1443", "trainable": true, "dtype": "float32", "units": 100, "activation": "relu", "use_bias": true, "kernel_initializer": {"class_name": "VarianceScaling", "config": {"scale": 1.0, "mode": "fan_avg", "distribution": "uniform", "seed": null}}, "bias_initializer": {"class_name": "Zeros", "config": {}}, "kernel_regularizer": null, "bias_regularizer": null, "activity_regularizer": null, "kernel_constraint": null, "bias_constraint": null}, "inbound_nodes": [[["concatenate_1422", 0, 0, {}]]]}, {"name": "concatenate_1004", "class_name": "Concatenate", "config": {"name": "concatenate_1004", "trainable": true, "dtype": "float32", "axis": -1}, "inbound_nodes": [[["dense_1024", 0, 0, {}], ["dense_887", 0, 0, {}]]]}, {"name": "concatenate_1164", "class_name": "Concatenate", "config": {"name": "concatenate_1164", "trainable": true, "dtype": "float32", "axis": -1}, "inbound_nodes": [[["dense_1184", 0, 0, {}], ["dense_881", 0, 0, {}]]]}, {"name": "concatenate_1295", "class_name": "Concatenate", "config": {"name": "concatenate_1295", "trainable": true, "dtype": "float32", "axis": -1}, "inbound_nodes": [[["dense_1315", 0, 0, {}], ["dense_887", 0, 0, {}]]]}, {"name": "concatenate_1423", "class_name": "Concatenate", "config": {"name": "concatenate_1423", "trainable": true, "dtype": "float32", "axis": -1}, "inbound_nodes": [[["dense_1443", 0, 0, {}], ["dense_881", 0, 0, {}]]]}, {"name": "dense_1025", "class_name": "Dense", "config": {"name": "dense_1025", "trainable": true, "dtype": "float32", "units": 100, "activation": "relu", "use_bias": true, "kernel_initializer": {"class_name": "VarianceScaling", "config": {"scale": 1.0, "mode": "fan_avg", "distribution": "uniform", "seed": null}}, "bias_initializer": {"class_name": "Zeros", "config": {}}, "kernel_regularizer": null, "bias_regularizer": null, "activity_regularizer": null, "kernel_constraint": null, "bias_constraint": null}, "inbound_nodes": [[["concatenate_1004", 0, 0, {}]]]}, {"name": "dense_1185", "class_name": "Dense", "config": {"name": "dense_1185", "trainable": true, "dtype": "float32", "units": 100, "activation": "relu", "use_bias": true, "kernel_initializer": {"class_name": "VarianceScaling", "config": {"scale": 1.0, "mode": "fan_avg", "distribution": "uniform", "seed": null}}, "bias_initializer": {"class_name": "Zeros", "config": {}}, "kernel_regularizer": null, "bias_regularizer": null, "activity_regularizer": null, "kernel_constraint": null, "bias_constraint": null}, "inbound_nodes": [[["concatenate_1164", 0, 0, {}]]]}, {"name": "dense_1316", "class_name": "Dense", "config": {"name": "dense_1316", "trainable": true, "dtype": "float32", "units": 100, "activation": "relu", "use_bias": true, "kernel_initializer": {"class_name": "VarianceScaling", "config": {"scale": 1.0, "mode": "fan_avg", "distribution": "uniform", "seed": null}}, "bias_initializer": {"class_name": "Zeros", "config": {}}, "kernel_regularizer": null, "bias_regularizer": null, "activity_regularizer": null, "kernel_constraint": null, "bias_constraint": null}, "inbound_nodes": [[["concatenate_1295", 0, 0, {}]]]}, {"name": "dense_1444", "class_name": "Dense", "config": {"name": "dense_1444", "trainable": true, "dtype": "float32", "units": 100, "activation": "relu", "use_bias": true, "kernel_initializer": {"class_name": "VarianceScaling", "config": {"scale": 1.0, "mode": "fan_avg", "distribution": "uniform", "seed": null}}, "bias_initializer": {"class_name": "Zeros", "config": {}}, "kernel_regularizer": null, "bias_regularizer": null, "activity_regularizer": null, "kernel_constraint": null, "bias_constraint": null}, "inbound_nodes": [[["concatenate_1423", 0, 0, {}]]]}, {"name": "concatenate_1165", "class_name": "Concatenate", "config": {"name": "concatenate_1165", "trainable": true, "dtype": "float32", "axis": -1}, "inbound_nodes": [[["dense_1025", 0, 0, {}], ["dense_1185", 0, 0, {}]]]}, {"name": "concatenate_1424", "class_name": "Concatenate", "config": {"name": "concatenate_1424", "trainable": true, "dtype": "float32", "axis": -1}, "inbound_nodes": [[["dense_1316", 0, 0, {}], ["dense_1444", 0, 0, {}]]]}, {"name": "dense_1186", "class_name": "Dense", "config": {"name": "dense_1186", "trainable": true, "dtype": "float32", "units": 100, "activation": "relu", "use_bias": true, "kernel_initializer": {"class_name": "VarianceScaling", "config": {"scale": 1.0, "mode": "fan_avg", "distribution": "uniform", "seed": null}}, "bias_initializer": {"class_name": "Zeros", "config": {}}, "kernel_regularizer": null, "bias_regularizer": null, "activity_regularizer": null, "kernel_constraint": null, "bias_constraint": null}, "inbound_nodes": [[["concatenate_1165", 0, 0, {}]]]}, {"name": "dense_1445", "class_name": "Dense", "config": {"name": "dense_1445", "trainable": true, "dtype": "float32", "units": 100, "activation": "relu", "use_bias": true, "kernel_initializer": {"class_name": "VarianceScaling", "config": {"scale": 1.0, "mode": "fan_avg", "distribution": "uniform", "seed": null}}, "bias_initializer": {"class_name": "Zeros", "config": {}}, "kernel_regularizer": null, "bias_regularizer": null, "activity_regularizer": null, "kernel_constraint": null, "bias_constraint": null}, "inbound_nodes": [[["concatenate_1424", 0, 0, {}]]]}, {"name": "concatenate_1166", "class_name": "Concatenate", "config": {"name": "concatenate_1166", "trainable": true, "dtype": "float32", "axis": -1}, "inbound_nodes": [[["dense_1186", 0, 0, {}], ["dense_879", 0, 0, {}]]]}, {"name": "concatenate_1425", "class_name": "Concatenate", "config": {"name": "concatenate_1425", "trainable": true, "dtype": "float32", "axis": -1}, "inbound_nodes": [[["dense_1445", 0, 0, {}], ["dense_885", 0, 0, {}]]]}, {"name": "dense_1187", "class_name": "Dense", "config": {"name": "dense_1187", "trainable": true, "dtype": "float32", "units": 100, "activation": "relu", "use_bias": true, "kernel_initializer": {"class_name": "VarianceScaling", "config": {"scale": 1.0, "mode": "fan_avg", "distribution": "uniform", "seed": null}}, "bias_initializer": {"class_name": "Zeros", "config": {}}, "kernel_regularizer": null, "bias_regularizer": null, "activity_regularizer": null, "kernel_constraint": null, "bias_constraint": null}, "inbound_nodes": [[["concatenate_1166", 0, 0, {}]]]}, {"name": "dense_1446", "class_name": "Dense", "config": {"name": "dense_1446", "trainable": true, "dtype": "float32", "units": 100, "activation": "relu", "use_bias": true, "kernel_initializer": {"class_name": "VarianceScaling", "config": {"scale": 1.0, "mode": "fan_avg", "distribution": "uniform", "seed": null}}, "bias_initializer": {"class_name": "Zeros", "config": {}}, "kernel_regularizer": null, "bias_regularizer": null, "activity_regularizer": null, "kernel_constraint": null, "bias_constraint": null}, "inbound_nodes": [[["concatenate_1425", 0, 0, {}]]]}, {"name": "concatenate_1426", "class_name": "Concatenate", "config": {"name": "concatenate_1426", "trainable": true, "dtype": "float32", "axis": -1}, "inbound_nodes": [[["dense_1187", 0, 0, {}], ["dense_1446", 0, 0, {}]]]}, {"name": "dense_1447", "class_name": "Dense", "config": {"name": "dense_1447", "trainable": true, "dtype": "float32", "units": 100, "activation": "relu", "use_bias": true, "kernel_initializer": {"class_name": "VarianceScaling", "config": {"scale": 1.0, "mode": "fan_avg", "distribution": "uniform", "seed": null}}, "bias_initializer": {"class_name": "Zeros", "config": {}}, "kernel_regularizer": null, "bias_regularizer": null, "activity_regularizer": null, "kernel_constraint": null, "bias_constraint": null}, "inbound_nodes": [[["concatenate_1426", 0, 0, {}]]]}, {"name": "concatenate_1427", "class_name": "Concatenate", "config": {"name": "concatenate_1427", "trainable": true, "dtype": "float32", "axis": -1}, "inbound_nodes": [[["dense_1447", 0, 0, {}], ["dense_885", 0, 0, {}]]]}, {"name": "dense_1448", "class_name": "Dense", "config": {"name": "dense_1448", "trainable": true, "dtype": "float32", "units": 100, "activation": "relu", "use_bias": true, "kernel_initializer": {"class_name": "VarianceScaling", "config": {"scale": 1.0, "mode": "fan_avg", "distribution": "uniform", "seed": null}}, "bias_initializer": {"class_name": "Zeros", "config": {}}, "kernel_regularizer": null, "bias_regularizer": null, "activity_regularizer": null, "kernel_constraint": null, "bias_constraint": null}, "inbound_nodes": [[["concatenate_1427", 0, 0, {}]]]}, {"name": "dense_1449", "class_name": "Dense", "config": {"name": "dense_1449", "trainable": true, "dtype": "float32", "units": 2, "activation": "softmax", "use_bias": true, "kernel_initializer": {"class_name": "VarianceScaling", "config": {"scale": 1.0, "mode": "fan_avg", "distribution": "uniform", "seed": null}}, "bias_initializer": {"class_name": "Zeros", "config": {}}, "kernel_regularizer": null, "bias_regularizer": null, "activity_regularizer": null, "kernel_constraint": null, "bias_constraint": null}, "inbound_nodes": [[["dense_1448", 0, 0, {}]]]}], "input_layers": [["input_11", 0, 0], ["input_12", 0, 0], ["input_13", 0, 0], ["input_14", 0, 0], ["input_15", 0, 0], ["input_16", 0, 0], ["input_17", 0, 0], ["input_18", 0, 0], ["input_19", 0, 0], ["input_20", 0, 0]], "output_layers": [["dense_1449", 0, 0]]}, "keras_version": "2.3.1", "backend": "tensorflow"}