{"class_name": "Model", "config": {"name": "model_6", "layers": [{"name": "input_39", "class_name": "InputLayer", "config": {"batch_input_shape": [null, 1], "dtype": "float32", "sparse": false, "name": "input_39"}, "inbound_nodes": []}, {"name": "input_40", "class_name": "InputLayer", "config": {"batch_input_shape": [null, 1], "dtype": "float32", "sparse": false, "name": "input_40"}, "inbound_nodes": []}, {"name": "dense_546", "class_name": "Dense", "config": {"name": "dense_546", "trainable": true, "dtype": "float32", "units": 50, "activation": "relu", "use_bias": true, "kernel_initializer": {"class_name": "VarianceScaling", "config": {"scale": 1.0, "mode": "fan_avg", "distribution": "uniform", "seed": null}}, "bias_initializer": {"class_name": "Zeros", "config": {}}, "kernel_regularizer": null, "bias_regularizer": null, "activity_regularizer": null, "kernel_constraint": null, "bias_constraint": null}, "inbound_nodes": [[["input_39", 0, 0, {}]]]}, {"name": "dense_547", "class_name": "Dense", "config": {"name": "dense_547", "trainable": true, "dtype": "float32", "units": 50, "activation": "relu", "use_bias": true, "kernel_initializer": {"class_name": "VarianceScaling", "config": {"scale": 1.0, "mode": "fan_avg", "distribution": "uniform", "seed": null}}, "bias_initializer": {"class_name": "Zeros", "config": {}}, "kernel_regularizer": null, "bias_regularizer": null, "activity_regularizer": null, "kernel_constraint": null, "bias_constraint": null}, "inbound_nodes": [[["input_40", 0, 0, {}]]]}, {"name": "concatenate_545", "class_name": "Concatenate", "config": {"name": "concatenate_545", "trainable": true, "dtype": "float32", "axis": -1}, "inbound_nodes": [[["dense_546", 0, 0, {}], ["dense_547", 0, 0, {}]]]}, {"name": "dense_590", "class_name": "Dense", "config": {"name": "dense_590", "trainable": true, "dtype": "float32", "units": 100, "activation": "relu", "use_bias": true, "kernel_initializer": {"class_name": "VarianceScaling", "config": {"scale": 1.0, "mode": "fan_avg", "distribution": "uniform", "seed": null}}, "bias_initializer": {"class_name": "Zeros", "config": {}}, "kernel_regularizer": null, "bias_regularizer": null, "activity_regularizer": null, "kernel_constraint": null, "bias_constraint": null}, "inbound_nodes": [[["concatenate_545", 0, 0, {}]]]}, {"name": "input_34", "class_name": "InputLayer", "config": {"batch_input_shape": [null, 1], "dtype": "float32", "sparse": false, "name": "input_34"}, "inbound_nodes": []}, {"name": "concatenate_546", "class_name": "Concatenate", "config": {"name": "concatenate_546", "trainable": true, "dtype": "float32", "axis": -1}, "inbound_nodes": [[["dense_546", 0, 0, {}], ["dense_590", 0, 0, {}]]]}, {"name": "dense_541", "class_name": "Dense", "config": {"name": "dense_541", "trainable": true, "dtype": "float32", "units": 50, "activation": "relu", "use_bias": true, "kernel_initializer": {"class_name": "VarianceScaling", "config": {"scale": 1.0, "mode": "fan_avg", "distribution": "uniform", "seed": null}}, "bias_initializer": {"class_name": "Zeros", "config": {}}, "kernel_regularizer": null, "bias_regularizer": null, "activity_regularizer": null, "kernel_constraint": null, "bias_constraint": null}, "inbound_nodes": [[["input_34", 0, 0, {}]]]}, {"name": "dense_591", "class_name": "Dense", "config": {"name": "dense_591", "trainable": true, "dtype": "float32", "units": 100, "activation": "relu", "use_bias": true, "kernel_initializer": {"class_name": "VarianceScaling", "config": {"scale": 1.0, "mode": "fan_avg", "distribution": "uniform", "seed": null}}, "bias_initializer": {"class_name": "Zeros", "config": {}}, "kernel_regularizer": null, "bias_regularizer": null, "activity_regularizer": null, "kernel_constraint": null, "bias_constraint": null}, "inbound_nodes": [[["concatenate_546", 0, 0, {}]]]}, {"name": "input_33", "class_name": "InputLayer", "config": {"batch_input_shape": [null, 1], "dtype": "float32", "sparse": false, "name": "input_33"}, "inbound_nodes": []}, {"name": "concatenate_547", "class_name": "Concatenate", "config": {"name": "concatenate_547", "trainable": true, "dtype": "float32", "axis": -1}, "inbound_nodes": [[["dense_591", 0, 0, {}], ["dense_541", 0, 0, {}]]]}, {"name": "dense_540", "class_name": "Dense", "config": {"name": "dense_540", "trainable": true, "dtype": "float32", "units": 50, "activation": "relu", "use_bias": true, "kernel_initializer": {"class_name": "VarianceScaling", "config": {"scale": 1.0, "mode": "fan_avg", "distribution": "uniform", "seed": null}}, "bias_initializer": {"class_name": "Zeros", "config": {}}, "kernel_regularizer": null, "bias_regularizer": null, "activity_regularizer": null, "kernel_constraint": null, "bias_constraint": null}, "inbound_nodes": [[["input_33", 0, 0, {}]]]}, {"name": "dense_592", "class_name": "Dense", "config": {"name": "dense_592", "trainable": true, "dtype": "float32", "units": 100, "activation": "relu", "use_bias": true, "kernel_initializer": {"class_name": "VarianceScaling", "config": {"scale": 1.0, "mode": "fan_avg", "distribution": "uniform", "seed": null}}, "bias_initializer": {"class_name": "Zeros", "config": {}}, "kernel_regularizer": null, "bias_regularizer": null, "activity_regularizer": null, "kernel_constraint": null, "bias_constraint": null}, "inbound_nodes": [[["concatenate_547", 0, 0, {}]]]}, {"name": "concatenate_548", "class_name": "Concatenate", "config": {"name": "concatenate_548", "trainable": true, "dtype": "float32", "axis": -1}, "inbound_nodes": [[["dense_592", 0, 0, {}], ["dense_546", 0, 0, {}]]]}, {"name": "concatenate_549", "class_name": "Concatenate", "config": {"name": "concatenate_549", "trainable": true, "dtype": "float32", "axis": -1}, "inbound_nodes": [[["dense_540", 0, 0, {}], ["dense_546", 0, 0, {}]]]}, {"name": "dense_593", "class_name": "Dense", "config": {"name": "dense_593", "trainable": true, "dtype": "float32", "units": 100, "activation": "relu", "use_bias": true, "kernel_initializer": {"class_name": "VarianceScaling", "config": {"scale": 1.0, "mode": "fan_avg", "distribution": "uniform", "seed": null}}, "bias_initializer": {"class_name": "Zeros", "config": {}}, "kernel_regularizer": null, "bias_regularizer": null, "activity_regularizer": null, "kernel_constraint": null, "bias_constraint": null}, "inbound_nodes": [[["concatenate_548", 0, 0, {}]]]}, {"name": "dense_594", "class_name": "Dense", "config": {"name": "dense_594", "trainable": true, "dtype": "float32", "units": 100, "activation": "relu", "use_bias": true, "kernel_initializer": {"class_name": "VarianceScaling", "config": {"scale": 1.0, "mode": "fan_avg", "distribution": "uniform", "seed": null}}, "bias_initializer": {"class_name": "Zeros", "config": {}}, "kernel_regularizer": null, "bias_regularizer": null, "activity_regularizer": null, "kernel_constraint": null, "bias_constraint": null}, "inbound_nodes": [[["concatenate_549", 0, 0, {}]]]}, {"name": "input_38", "class_name": "InputLayer", "config": {"batch_input_shape": [null, 1], "dtype": "float32", "sparse": false, "name": "input_38"}, "inbound_nodes": []}, {"name": "input_35", "class_name": "InputLayer", "config": {"batch_input_shape": [null, 1], "dtype": "float32", "sparse": false, "name": "input_35"}, "inbound_nodes": []}, {"name": "input_37", "class_name": "InputLayer", "config": {"batch_input_shape": [null, 1], "dtype": "float32", "sparse": false, "name": "input_37"}, "inbound_nodes": []}, {"name": "concatenate_550", "class_name": "Concatenate", "config": {"name": "concatenate_550", "trainable": true, "dtype": "float32", "axis": -1}, "inbound_nodes": [[["dense_593", 0, 0, {}], ["dense_594", 0, 0, {}]]]}, {"name": "concatenate_587", "class_name": "Concatenate", "config": {"name": "concatenate_587", "trainable": true, "dtype": "float32", "axis": -1}, "inbound_nodes": [[["dense_546", 0, 0, {}], ["dense_546", 0, 0, {}]]]}, {"name": "dense_545", "class_name": "Dense", "config": {"name": "dense_545", "trainable": true, "dtype": "float32", "units": 50, "activation": "relu", "use_bias": true, "kernel_initializer": {"class_name": "VarianceScaling", "config": {"scale": 1.0, "mode": "fan_avg", "distribution": "uniform", "seed": null}}, "bias_initializer": {"class_name": "Zeros", "config": {}}, "kernel_regularizer": null, "bias_regularizer": null, "activity_regularizer": null, "kernel_constraint": null, "bias_constraint": null}, "inbound_nodes": [[["input_38", 0, 0, {}]]]}, {"name": "dense_542", "class_name": "Dense", "config": {"name": "dense_542", "trainable": true, "dtype": "float32", "units": 50, "activation": "relu", "use_bias": true, "kernel_initializer": {"class_name": "VarianceScaling", "config": {"scale": 1.0, "mode": "fan_avg", "distribution": "uniform", "seed": null}}, "bias_initializer": {"class_name": "Zeros", "config": {}}, "kernel_regularizer": null, "bias_regularizer": null, "activity_regularizer": null, "kernel_constraint": null, "bias_constraint": null}, "inbound_nodes": [[["input_35", 0, 0, {}]]]}, {"name": "dense_544", "class_name": "Dense", "config": {"name": "dense_544", "trainable": true, "dtype": "float32", "units": 50, "activation": "relu", "use_bias": true, "kernel_initializer": {"class_name": "VarianceScaling", "config": {"scale": 1.0, "mode": "fan_avg", "distribution": "uniform", "seed": null}}, "bias_initializer": {"class_name": "Zeros", "config": {}}, "kernel_regularizer": null, "bias_regularizer": null, "activity_regularizer": null, "kernel_constraint": null, "bias_constraint": null}, "inbound_nodes": [[["input_37", 0, 0, {}]]]}, {"name": "dense_595", "class_name": "Dense", "config": {"name": "dense_595", "trainable": true, "dtype": "float32", "units": 100, "activation": "relu", "use_bias": true, "kernel_initializer": {"class_name": "VarianceScaling", "config": {"scale": 1.0, "mode": "fan_avg", "distribution": "uniform", "seed": null}}, "bias_initializer": {"class_name": "Zeros", "config": {}}, "kernel_regularizer": null, "bias_regularizer": null, "activity_regularizer": null, "kernel_constraint": null, "bias_constraint": null}, "inbound_nodes": [[["concatenate_550", 0, 0, {}]]]}, {"name": "dense_632", "class_name": "Dense", "config": {"name": "dense_632", "trainable": true, "dtype": "float32", "units": 100, "activation": "relu", "use_bias": true, "kernel_initializer": {"class_name": "VarianceScaling", "config": {"scale": 1.0, "mode": "fan_avg", "distribution": "uniform", "seed": null}}, "bias_initializer": {"class_name": "Zeros", "config": {}}, "kernel_regularizer": null, "bias_regularizer": null, "activity_regularizer": null, "kernel_constraint": null, "bias_constraint": null}, "inbound_nodes": [[["concatenate_587", 0, 0, {}]]]}, {"name": "concatenate_512", "class_name": "Concatenate", "config": {"name": "concatenate_512", "trainable": true, "dtype": "float32", "axis": -1}, "inbound_nodes": [[["dense_544", 0, 0, {}], ["dense_544", 0, 0, {}]]]}, {"name": "concatenate_538", "class_name": "Concatenate", "config": {"name": "concatenate_538", "trainable": true, "dtype": "float32", "axis": -1}, "inbound_nodes": [[["dense_542", 0, 0, {}], ["dense_546", 0, 0, {}]]]}, {"name": "concatenate_544", "class_name": "Concatenate", "config": {"name": "concatenate_544", "trainable": true, "dtype": "float32", "axis": -1}, "inbound_nodes": [[["dense_546", 0, 0, {}], ["dense_545", 0, 0, {}]]]}, {"name": "concatenate_551", "class_name": "Concatenate", "config": {"name": "concatenate_551", "trainable": true, "dtype": "float32", "axis": -1}, "inbound_nodes": [[["dense_595", 0, 0, {}], ["dense_545", 0, 0, {}]]]}, {"name": "concatenate_588", "class_name": "Concatenate", "config": {"name": "concatenate_588", "trainable": true, "dtype": "float32", "axis": -1}, "inbound_nodes": [[["dense_632", 0, 0, {}], ["dense_542", 0, 0, {}]]]}, {"name": "concatenate_598", "class_name": "Concatenate", "config": {"name": "concatenate_598", "trainable": true, "dtype": "float32", "axis": -1}, "inbound_nodes": [[["dense_547", 0, 0, {}], ["dense_547", 0, 0, {}]]]}, {"name": "dense_557", "class_name": "Dense", "config": {"name": "dense_557", "trainable": true, "dtype": "float32", "units": 100, "activation": "relu", "use_bias": true, "kernel_initializer": {"class_name": "VarianceScaling", "config": {"scale": 1.0, "mode": "fan_avg", "distribution": "uniform", "seed": null}}, "bias_initializer": {"class_name": "Zeros", "config": {}}, "kernel_regularizer": null, "bias_regularizer": null, "activity_regularizer": null, "kernel_constraint": null, "bias_constraint": null}, "inbound_nodes": [[["concatenate_512", 0, 0, {}]]]}, {"name": "dense_583", "class_name": "Dense", "config": {"name": "dense_583", "trainable": true, "dtype": "float32", "units": 100, "activation": "relu", "use_bias": true, "kernel_initializer": {"class_name": "VarianceScaling", "config": {"scale": 1.0, "mode": "fan_avg", "distribution": "uniform", "seed": null}}, "bias_initializer": {"class_name": "Zeros", "config": {}}, "kernel_regularizer": null, "bias_regularizer": null, "activity_regularizer": null, "kernel_constraint": null, "bias_constraint": null}, "inbound_nodes": [[["concatenate_538", 0, 0, {}]]]}, {"name": "dense_589", "class_name": "Dense", "config": {"name": "dense_589", "trainable": true, "dtype": "float32", "units": 100, "activation": "relu", "use_bias": true, "kernel_initializer": {"class_name": "VarianceScaling", "config": {"scale": 1.0, "mode": "fan_avg", "distribution": "uniform", "seed": null}}, "bias_initializer": {"class_name": "Zeros", "config": {}}, "kernel_regularizer": null, "bias_regularizer": null, "activity_regularizer": null, "kernel_constraint": null, "bias_constraint": null}, "inbound_nodes": [[["concatenate_544", 0, 0, {}]]]}, {"name": "dense_596", "class_name": "Dense", "config": {"name": "dense_596", "trainable": true, "dtype": "float32", "units": 100, "activation": "relu", "use_bias": true, "kernel_initializer": {"class_name": "VarianceScaling", "config": {"scale": 1.0, "mode": "fan_avg", "distribution": "uniform", "seed": null}}, "bias_initializer": {"class_name": "Zeros", "config": {}}, "kernel_regularizer": null, "bias_regularizer": null, "activity_regularizer": null, "kernel_constraint": null, "bias_constraint": null}, "inbound_nodes": [[["concatenate_551", 0, 0, {}]]]}, {"name": "dense_633", "class_name": "Dense", "config": {"name": "dense_633", "trainable": true, "dtype": "float32", "units": 100, "activation": "relu", "use_bias": true, "kernel_initializer": {"class_name": "VarianceScaling", "config": {"scale": 1.0, "mode": "fan_avg", "distribution": "uniform", "seed": null}}, "bias_initializer": {"class_name": "Zeros", "config": {}}, "kernel_regularizer": null, "bias_regularizer": null, "activity_regularizer": null, "kernel_constraint": null, "bias_constraint": null}, "inbound_nodes": [[["concatenate_588", 0, 0, {}]]]}, {"name": "dense_643", "class_name": "Dense", "config": {"name": "dense_643", "trainable": true, "dtype": "float32", "units": 100, "activation": "relu", "use_bias": true, "kernel_initializer": {"class_name": "VarianceScaling", "config": {"scale": 1.0, "mode": "fan_avg", "distribution": "uniform", "seed": null}}, "bias_initializer": {"class_name": "Zeros", "config": {}}, "kernel_regularizer": null, "bias_regularizer": null, "activity_regularizer": null, "kernel_constraint": null, "bias_constraint": null}, "inbound_nodes": [[["concatenate_598", 0, 0, {}]]]}, {"name": "input_36", "class_name": "InputLayer", "config": {"batch_input_shape": [null, 1], "dtype": "float32", "sparse": false, "name": "input_36"}, "inbound_nodes": []}, {"name": "concatenate_506", "class_name": "Concatenate", "config": {"name": "concatenate_506", "trainable": true, "dtype": "float32", "axis": -1}, "inbound_nodes": [[["dense_541", 0, 0, {}], ["dense_541", 0, 0, {}]]]}, {"name": "concatenate_513", "class_name": "Concatenate", "config": {"name": "concatenate_513", "trainable": true, "dtype": "float32", "axis": -1}, "inbound_nodes": [[["dense_545", 0, 0, {}], ["dense_557", 0, 0, {}]]]}, {"name": "concatenate_539", "class_name": "Concatenate", "config": {"name": "concatenate_539", "trainable": true, "dtype": "float32", "axis": -1}, "inbound_nodes": [[["dense_583", 0, 0, {}], ["dense_541", 0, 0, {}]]]}, {"name": "concatenate_552", "class_name": "Concatenate", "config": {"name": "concatenate_552", "trainable": true, "dtype": "float32", "axis": -1}, "inbound_nodes": [[["dense_589", 0, 0, {}], ["dense_596", 0, 0, {}]]]}, {"name": "concatenate_589", "class_name": "Concatenate", "config": {"name": "concatenate_589", "trainable": true, "dtype": "float32", "axis": -1}, "inbound_nodes": [[["dense_633", 0, 0, {}], ["dense_547", 0, 0, {}]]]}, {"name": "concatenate_599", "class_name": "Concatenate", "config": {"name": "concatenate_599", "trainable": true, "dtype": "float32", "axis": -1}, "inbound_nodes": [[["dense_643", 0, 0, {}], ["dense_544", 0, 0, {}]]]}, {"name": "dense_543", "class_name": "Dense", "config": {"name": "dense_543", "trainable": true, "dtype": "float32", "units": 50, "activation": "relu", "use_bias": true, "kernel_initializer": {"class_name": "VarianceScaling", "config": {"scale": 1.0, "mode": "fan_avg", "distribution": "uniform", "seed": null}}, "bias_initializer": {"class_name": "Zeros", "config": {}}, "kernel_regularizer": null, "bias_regularizer": null, "activity_regularizer": null, "kernel_constraint": null, "bias_constraint": null}, "inbound_nodes": [[["input_36", 0, 0, {}]]]}, {"name": "dense_551", "class_name": "Dense", "config": {"name": "dense_551", "trainable": true, "dtype": "float32", "units": 100, "activation": "relu", "use_bias": true, "kernel_initializer": {"class_name": "VarianceScaling", "config": {"scale": 1.0, "mode": "fan_avg", "distribution": "uniform", "seed": null}}, "bias_initializer": {"class_name": "Zeros", "config": {}}, "kernel_regularizer": null, "bias_regularizer": null, "activity_regularizer": null, "kernel_constraint": null, "bias_constraint": null}, "inbound_nodes": [[["concatenate_506", 0, 0, {}]]]}, {"name": "dense_558", "class_name": "Dense", "config": {"name": "dense_558", "trainable": true, "dtype": "float32", "units": 100, "activation": "relu", "use_bias": true, "kernel_initializer": {"class_name": "VarianceScaling", "config": {"scale": 1.0, "mode": "fan_avg", "distribution": "uniform", "seed": null}}, "bias_initializer": {"class_name": "Zeros", "config": {}}, "kernel_regularizer": null, "bias_regularizer": null, "activity_regularizer": null, "kernel_constraint": null, "bias_constraint": null}, "inbound_nodes": [[["concatenate_513", 0, 0, {}]]]}, {"name": "dense_584", "class_name": "Dense", "config": {"name": "dense_584", "trainable": true, "dtype": "float32", "units": 100, "activation": "relu", "use_bias": true, "kernel_initializer": {"class_name": "VarianceScaling", "config": {"scale": 1.0, "mode": "fan_avg", "distribution": "uniform", "seed": null}}, "bias_initializer": {"class_name": "Zeros", "config": {}}, "kernel_regularizer": null, "bias_regularizer": null, "activity_regularizer": null, "kernel_constraint": null, "bias_constraint": null}, "inbound_nodes": [[["concatenate_539", 0, 0, {}]]]}, {"name": "dense_597", "class_name": "Dense", "config": {"name": "dense_597", "trainable": true, "dtype": "float32", "units": 100, "activation": "relu", "use_bias": true, "kernel_initializer": {"class_name": "VarianceScaling", "config": {"scale": 1.0, "mode": "fan_avg", "distribution": "uniform", "seed": null}}, "bias_initializer": {"class_name": "Zeros", "config": {}}, "kernel_regularizer": null, "bias_regularizer": null, "activity_regularizer": null, "kernel_constraint": null, "bias_constraint": null}, "inbound_nodes": [[["concatenate_552", 0, 0, {}]]]}, {"name": "dense_634", "class_name": "Dense", "config": {"name": "dense_634", "trainable": true, "dtype": "float32", "units": 100, "activation": "relu", "use_bias": true, "kernel_initializer": {"class_name": "VarianceScaling", "config": {"scale": 1.0, "mode": "fan_avg", "distribution": "uniform", "seed": null}}, "bias_initializer": {"class_name": "Zeros", "config": {}}, "kernel_regularizer": null, "bias_regularizer": null, "activity_regularizer": null, "kernel_constraint": null, "bias_constraint": null}, "inbound_nodes": [[["concatenate_589", 0, 0, {}]]]}, {"name": "dense_644", "class_name": "Dense", "config": {"name": "dense_644", "trainable": true, "dtype": "float32", "units": 100, "activation": "relu", "use_bias": true, "kernel_initializer": {"class_name": "VarianceScaling", "config": {"scale": 1.0, "mode": "fan_avg", "distribution": "uniform", "seed": null}}, "bias_initializer": {"class_name": "Zeros", "config": {}}, "kernel_regularizer": null, "bias_regularizer": null, "activity_regularizer": null, "kernel_constraint": null, "bias_constraint": null}, "inbound_nodes": [[["concatenate_599", 0, 0, {}]]]}, {"name": "concatenate_507", "class_name": "Concatenate", "config": {"name": "concatenate_507", "trainable": true, "dtype": "float32", "axis": -1}, "inbound_nodes": [[["dense_551", 0, 0, {}], ["dense_546", 0, 0, {}]]]}, {"name": "concatenate_514", "class_name": "Concatenate", "config": {"name": "concatenate_514", "trainable": true, "dtype": "float32", "axis": -1}, "inbound_nodes": [[["dense_558", 0, 0, {}], ["dense_546", 0, 0, {}]]]}, {"name": "concatenate_517", "class_name": "Concatenate", "config": {"name": "concatenate_517", "trainable": true, "dtype": "float32", "axis": -1}, "inbound_nodes": [[["dense_541", 0, 0, {}], ["dense_542", 0, 0, {}]]]}, {"name": "concatenate_529", "class_name": "Concatenate", "config": {"name": "concatenate_529", "trainable": true, "dtype": "float32", "axis": -1}, "inbound_nodes": [[["dense_541", 0, 0, {}], ["dense_546", 0, 0, {}]]]}, {"name": "concatenate_540", "class_name": "Concatenate", "config": {"name": "concatenate_540", "trainable": true, "dtype": "float32", "axis": -1}, "inbound_nodes": [[["dense_584", 0, 0, {}], ["dense_541", 0, 0, {}]]]}, {"name": "concatenate_543", "class_name": "Concatenate", "config": {"name": "concatenate_543", "trainable": true, "dtype": "float32", "axis": -1}, "inbound_nodes": [[["dense_545", 0, 0, {}], ["dense_546", 0, 0, {}]]]}, {"name": "concatenate_553", "class_name": "Concatenate", "config": {"name": "concatenate_553", "trainable": true, "dtype": "float32", "axis": -1}, "inbound_nodes": [[["dense_597", 0, 0, {}], ["dense_542", 0, 0, {}]]]}, {"name": "concatenate_590", "class_name": "Concatenate", "config": {"name": "concatenate_590", "trainable": true, "dtype": "float32", "axis": -1}, "inbound_nodes": [[["dense_634", 0, 0, {}], ["dense_546", 0, 0, {}]]]}, {"name": "concatenate_600", "class_name": "Concatenate", "config": {"name": "concatenate_600", "trainable": true, "dtype": "float32", "axis": -1}, "inbound_nodes": [[["dense_644", 0, 0, {}], ["dense_543", 0, 0, {}]]]}, {"name": "concatenate_612", "class_name": "Concatenate", "config": {"name": "concatenate_612", "trainable": true, "dtype": "float32", "axis": -1}, "inbound_nodes": [[["dense_545", 0, 0, {}], ["dense_546", 0, 0, {}]]]}, {"name": "dense_552", "class_name": "Dense", "config": {"name": "dense_552", "trainable": true, "dtype": "float32", "units": 100, "activation": "relu", "use_bias": true, "kernel_initializer": {"class_name": "VarianceScaling", "config": {"scale": 1.0, "mode": "fan_avg", "distribution": "uniform", "seed": null}}, "bias_initializer": {"class_name": "Zeros", "config": {}}, "kernel_regularizer": null, "bias_regularizer": null, "activity_regularizer": null, "kernel_constraint": null, "bias_constraint": null}, "inbound_nodes": [[["concatenate_507", 0, 0, {}]]]}, {"name": "dense_559", "class_name": "Dense", "config": {"name": "dense_559", "trainable": true, "dtype": "float32", "units": 100, "activation": "relu", "use_bias": true, "kernel_initializer": {"class_name": "VarianceScaling", "config": {"scale": 1.0, "mode": "fan_avg", "distribution": "uniform", "seed": null}}, "bias_initializer": {"class_name": "Zeros", "config": {}}, "kernel_regularizer": null, "bias_regularizer": null, "activity_regularizer": null, "kernel_constraint": null, "bias_constraint": null}, "inbound_nodes": [[["concatenate_514", 0, 0, {}]]]}, {"name": "dense_562", "class_name": "Dense", "config": {"name": "dense_562", "trainable": true, "dtype": "float32", "units": 100, "activation": "relu", "use_bias": true, "kernel_initializer": {"class_name": "VarianceScaling", "config": {"scale": 1.0, "mode": "fan_avg", "distribution": "uniform", "seed": null}}, "bias_initializer": {"class_name": "Zeros", "config": {}}, "kernel_regularizer": null, "bias_regularizer": null, "activity_regularizer": null, "kernel_constraint": null, "bias_constraint": null}, "inbound_nodes": [[["concatenate_517", 0, 0, {}]]]}, {"name": "dense_574", "class_name": "Dense", "config": {"name": "dense_574", "trainable": true, "dtype": "float32", "units": 100, "activation": "relu", "use_bias": true, "kernel_initializer": {"class_name": "VarianceScaling", "config": {"scale": 1.0, "mode": "fan_avg", "distribution": "uniform", "seed": null}}, "bias_initializer": {"class_name": "Zeros", "config": {}}, "kernel_regularizer": null, "bias_regularizer": null, "activity_regularizer": null, "kernel_constraint": null, "bias_constraint": null}, "inbound_nodes": [[["concatenate_529", 0, 0, {}]]]}, {"name": "dense_585", "class_name": "Dense", "config": {"name": "dense_585", "trainable": true, "dtype": "float32", "units": 100, "activation": "relu", "use_bias": true, "kernel_initializer": {"class_name": "VarianceScaling", "config": {"scale": 1.0, "mode": "fan_avg", "distribution": "uniform", "seed": null}}, "bias_initializer": {"class_name": "Zeros", "config": {}}, "kernel_regularizer": null, "bias_regularizer": null, "activity_regularizer": null, "kernel_constraint": null, "bias_constraint": null}, "inbound_nodes": [[["concatenate_540", 0, 0, {}]]]}, {"name": "dense_588", "class_name": "Dense", "config": {"name": "dense_588", "trainable": true, "dtype": "float32", "units": 100, "activation": "relu", "use_bias": true, "kernel_initializer": {"class_name": "VarianceScaling", "config": {"scale": 1.0, "mode": "fan_avg", "distribution": "uniform", "seed": null}}, "bias_initializer": {"class_name": "Zeros", "config": {}}, "kernel_regularizer": null, "bias_regularizer": null, "activity_regularizer": null, "kernel_constraint": null, "bias_constraint": null}, "inbound_nodes": [[["concatenate_543", 0, 0, {}]]]}, {"name": "dense_598", "class_name": "Dense", "config": {"name": "dense_598", "trainable": true, "dtype": "float32", "units": 100, "activation": "relu", "use_bias": true, "kernel_initializer": {"class_name": "VarianceScaling", "config": {"scale": 1.0, "mode": "fan_avg", "distribution": "uniform", "seed": null}}, "bias_initializer": {"class_name": "Zeros", "config": {}}, "kernel_regularizer": null, "bias_regularizer": null, "activity_regularizer": null, "kernel_constraint": null, "bias_constraint": null}, "inbound_nodes": [[["concatenate_553", 0, 0, {}]]]}, {"name": "dense_635", "class_name": "Dense", "config": {"name": "dense_635", "trainable": true, "dtype": "float32", "units": 100, "activation": "relu", "use_bias": true, "kernel_initializer": {"class_name": "VarianceScaling", "config": {"scale": 1.0, "mode": "fan_avg", "distribution": "uniform", "seed": null}}, "bias_initializer": {"class_name": "Zeros", "config": {}}, "kernel_regularizer": null, "bias_regularizer": null, "activity_regularizer": null, "kernel_constraint": null, "bias_constraint": null}, "inbound_nodes": [[["concatenate_590", 0, 0, {}]]]}, {"name": "dense_645", "class_name": "Dense", "config": {"name": "dense_645", "trainable": true, "dtype": "float32", "units": 100, "activation": "relu", "use_bias": true, "kernel_initializer": {"class_name": "VarianceScaling", "config": {"scale": 1.0, "mode": "fan_avg", "distribution": "uniform", "seed": null}}, "bias_initializer": {"class_name": "Zeros", "config": {}}, "kernel_regularizer": null, "bias_regularizer": null, "activity_regularizer": null, "kernel_constraint": null, "bias_constraint": null}, "inbound_nodes": [[["concatenate_600", 0, 0, {}]]]}, {"name": "dense_657", "class_name": "Dense", "config": {"name": "dense_657", "trainable": true, "dtype": "float32", "units": 100, "activation": "relu", "use_bias": true, "kernel_initializer": {"class_name": "VarianceScaling", "config": {"scale": 1.0, "mode": "fan_avg", "distribution": "uniform", "seed": null}}, "bias_initializer": {"class_name": "Zeros", "config": {}}, "kernel_regularizer": null, "bias_regularizer": null, "activity_regularizer": null, "kernel_constraint": null, "bias_constraint": null}, "inbound_nodes": [[["concatenate_612", 0, 0, {}]]]}, {"name": "concatenate_508", "class_name": "Concatenate", "config": {"name": "concatenate_508", "trainable": true, "dtype": "float32", "axis": -1}, "inbound_nodes": [[["dense_552", 0, 0, {}], ["dense_546", 0, 0, {}]]]}, {"name": "concatenate_515", "class_name": "Concatenate", "config": {"name": "concatenate_515", "trainable": true, "dtype": "float32", "axis": -1}, "inbound_nodes": [[["dense_559", 0, 0, {}], ["dense_541", 0, 0, {}]]]}, {"name": "concatenate_518", "class_name": "Concatenate", "config": {"name": "concatenate_518", "trainable": true, "dtype": "float32", "axis": -1}, "inbound_nodes": [[["dense_562", 0, 0, {}], ["dense_546", 0, 0, {}]]]}, {"name": "concatenate_528", "class_name": "Concatenate", "config": {"name": "concatenate_528", "trainable": true, "dtype": "float32", "axis": -1}, "inbound_nodes": [[["dense_546", 0, 0, {}], ["dense_546", 0, 0, {}]]]}, {"name": "concatenate_530", "class_name": "Concatenate", "config": {"name": "concatenate_530", "trainable": true, "dtype": "float32", "axis": -1}, "inbound_nodes": [[["dense_545", 0, 0, {}], ["dense_574", 0, 0, {}]]]}, {"name": "concatenate_541", "class_name": "Concatenate", "config": {"name": "concatenate_541", "trainable": true, "dtype": "float32", "axis": -1}, "inbound_nodes": [[["dense_585", 0, 0, {}], ["dense_546", 0, 0, {}]]]}, {"name": "concatenate_554", "class_name": "Concatenate", "config": {"name": "concatenate_554", "trainable": true, "dtype": "float32", "axis": -1}, "inbound_nodes": [[["dense_588", 0, 0, {}], ["dense_598", 0, 0, {}]]]}, {"name": "concatenate_558", "class_name": "Concatenate", "config": {"name": "concatenate_558", "trainable": true, "dtype": "float32", "axis": -1}, "inbound_nodes": [[["dense_547", 0, 0, {}], ["dense_545", 0, 0, {}]]]}, {"name": "concatenate_559", "class_name": "Concatenate", "config": {"name": "concatenate_559", "trainable": true, "dtype": "float32", "axis": -1}, "inbound_nodes": [[["dense_544", 0, 0, {}], ["dense_546", 0, 0, {}]]]}, {"name": "concatenate_591", "class_name": "Concatenate", "config": {"name": "concatenate_591", "trainable": true, "dtype": "float32", "axis": -1}, "inbound_nodes": [[["dense_635", 0, 0, {}], ["dense_545", 0, 0, {}]]]}, {"name": "concatenate_601", "class_name": "Concatenate", "config": {"name": "concatenate_601", "trainable": true, "dtype": "float32", "axis": -1}, "inbound_nodes": [[["dense_545", 0, 0, {}], ["dense_645", 0, 0, {}]]]}, {"name": "concatenate_613", "class_name": "Concatenate", "config": {"name": "concatenate_613", "trainable": true, "dtype": "float32", "axis": -1}, "inbound_nodes": [[["dense_547", 0, 0, {}], ["dense_657", 0, 0, {}]]]}, {"name": "concatenate_614", "class_name": "Concatenate", "config": {"name": "concatenate_614", "trainable": true, "dtype": "float32", "axis": -1}, "inbound_nodes": [[["dense_547", 0, 0, {}], ["dense_547", 0, 0, {}]]]}, {"name": "dense_553", "class_name": "Dense", "config": {"name": "dense_553", "trainable": true, "dtype": "float32", "units": 100, "activation": "relu", "use_bias": true, "kernel_initializer": {"class_name": "VarianceScaling", "config": {"scale": 1.0, "mode": "fan_avg", "distribution": "uniform", "seed": null}}, "bias_initializer": {"class_name": "Zeros", "config": {}}, "kernel_regularizer": null, "bias_regularizer": null, "activity_regularizer": null, "kernel_constraint": null, "bias_constraint": null}, "inbound_nodes": [[["concatenate_508", 0, 0, {}]]]}, {"name": "dense_560", "class_name": "Dense", "config": {"name": "dense_560", "trainable": true, "dtype": "float32", "units": 100, "activation": "relu", "use_bias": true, "kernel_initializer": {"class_name": "VarianceScaling", "config": {"scale": 1.0, "mode": "fan_avg", "distribution": "uniform", "seed": null}}, "bias_initializer": {"class_name": "Zeros", "config": {}}, "kernel_regularizer": null, "bias_regularizer": null, "activity_regularizer": null, "kernel_constraint": null, "bias_constraint": null}, "inbound_nodes": [[["concatenate_515", 0, 0, {}]]]}, {"name": "dense_563", "class_name": "Dense", "config": {"name": "dense_563", "trainable": true, "dtype": "float32", "units": 100, "activation": "relu", "use_bias": true, "kernel_initializer": {"class_name": "VarianceScaling", "config": {"scale": 1.0, "mode": "fan_avg", "distribution": "uniform", "seed": null}}, "bias_initializer": {"class_name": "Zeros", "config": {}}, "kernel_regularizer": null, "bias_regularizer": null, "activity_regularizer": null, "kernel_constraint": null, "bias_constraint": null}, "inbound_nodes": [[["concatenate_518", 0, 0, {}]]]}, {"name": "dense_573", "class_name": "Dense", "config": {"name": "dense_573", "trainable": true, "dtype": "float32", "units": 100, "activation": "relu", "use_bias": true, "kernel_initializer": {"class_name": "VarianceScaling", "config": {"scale": 1.0, "mode": "fan_avg", "distribution": "uniform", "seed": null}}, "bias_initializer": {"class_name": "Zeros", "config": {}}, "kernel_regularizer": null, "bias_regularizer": null, "activity_regularizer": null, "kernel_constraint": null, "bias_constraint": null}, "inbound_nodes": [[["concatenate_528", 0, 0, {}]]]}, {"name": "dense_575", "class_name": "Dense", "config": {"name": "dense_575", "trainable": true, "dtype": "float32", "units": 100, "activation": "relu", "use_bias": true, "kernel_initializer": {"class_name": "VarianceScaling", "config": {"scale": 1.0, "mode": "fan_avg", "distribution": "uniform", "seed": null}}, "bias_initializer": {"class_name": "Zeros", "config": {}}, "kernel_regularizer": null, "bias_regularizer": null, "activity_regularizer": null, "kernel_constraint": null, "bias_constraint": null}, "inbound_nodes": [[["concatenate_530", 0, 0, {}]]]}, {"name": "dense_586", "class_name": "Dense", "config": {"name": "dense_586", "trainable": true, "dtype": "float32", "units": 100, "activation": "relu", "use_bias": true, "kernel_initializer": {"class_name": "VarianceScaling", "config": {"scale": 1.0, "mode": "fan_avg", "distribution": "uniform", "seed": null}}, "bias_initializer": {"class_name": "Zeros", "config": {}}, "kernel_regularizer": null, "bias_regularizer": null, "activity_regularizer": null, "kernel_constraint": null, "bias_constraint": null}, "inbound_nodes": [[["concatenate_541", 0, 0, {}]]]}, {"name": "dense_599", "class_name": "Dense", "config": {"name": "dense_599", "trainable": true, "dtype": "float32", "units": 100, "activation": "relu", "use_bias": true, "kernel_initializer": {"class_name": "VarianceScaling", "config": {"scale": 1.0, "mode": "fan_avg", "distribution": "uniform", "seed": null}}, "bias_initializer": {"class_name": "Zeros", "config": {}}, "kernel_regularizer": null, "bias_regularizer": null, "activity_regularizer": null, "kernel_constraint": null, "bias_constraint": null}, "inbound_nodes": [[["concatenate_554", 0, 0, {}]]]}, {"name": "dense_603", "class_name": "Dense", "config": {"name": "dense_603", "trainable": true, "dtype": "float32", "units": 100, "activation": "relu", "use_bias": true, "kernel_initializer": {"class_name": "VarianceScaling", "config": {"scale": 1.0, "mode": "fan_avg", "distribution": "uniform", "seed": null}}, "bias_initializer": {"class_name": "Zeros", "config": {}}, "kernel_regularizer": null, "bias_regularizer": null, "activity_regularizer": null, "kernel_constraint": null, "bias_constraint": null}, "inbound_nodes": [[["concatenate_558", 0, 0, {}]]]}, {"name": "dense_604", "class_name": "Dense", "config": {"name": "dense_604", "trainable": true, "dtype": "float32", "units": 100, "activation": "relu", "use_bias": true, "kernel_initializer": {"class_name": "VarianceScaling", "config": {"scale": 1.0, "mode": "fan_avg", "distribution": "uniform", "seed": null}}, "bias_initializer": {"class_name": "Zeros", "config": {}}, "kernel_regularizer": null, "bias_regularizer": null, "activity_regularizer": null, "kernel_constraint": null, "bias_constraint": null}, "inbound_nodes": [[["concatenate_559", 0, 0, {}]]]}, {"name": "dense_636", "class_name": "Dense", "config": {"name": "dense_636", "trainable": true, "dtype": "float32", "units": 100, "activation": "relu", "use_bias": true, "kernel_initializer": {"class_name": "VarianceScaling", "config": {"scale": 1.0, "mode": "fan_avg", "distribution": "uniform", "seed": null}}, "bias_initializer": {"class_name": "Zeros", "config": {}}, "kernel_regularizer": null, "bias_regularizer": null, "activity_regularizer": null, "kernel_constraint": null, "bias_constraint": null}, "inbound_nodes": [[["concatenate_591", 0, 0, {}]]]}, {"name": "dense_646", "class_name": "Dense", "config": {"name": "dense_646", "trainable": true, "dtype": "float32", "units": 100, "activation": "relu", "use_bias": true, "kernel_initializer": {"class_name": "VarianceScaling", "config": {"scale": 1.0, "mode": "fan_avg", "distribution": "uniform", "seed": null}}, "bias_initializer": {"class_name": "Zeros", "config": {}}, "kernel_regularizer": null, "bias_regularizer": null, "activity_regularizer": null, "kernel_constraint": null, "bias_constraint": null}, "inbound_nodes": [[["concatenate_601", 0, 0, {}]]]}, {"name": "dense_658", "class_name": "Dense", "config": {"name": "dense_658", "trainable": true, "dtype": "float32", "units": 100, "activation": "relu", "use_bias": true, "kernel_initializer": {"class_name": "VarianceScaling", "config": {"scale": 1.0, "mode": "fan_avg", "distribution": "uniform", "seed": null}}, "bias_initializer": {"class_name": "Zeros", "config": {}}, "kernel_regularizer": null, "bias_regularizer": null, "activity_regularizer": null, "kernel_constraint": null, "bias_constraint": null}, "inbound_nodes": [[["concatenate_613", 0, 0, {}]]]}, {"name": "dense_659", "class_name": "Dense", "config": {"name": "dense_659", "trainable": true, "dtype": "float32", "units": 100, "activation": "relu", "use_bias": true, "kernel_initializer": {"class_name": "VarianceScaling", "config": {"scale": 1.0, "mode": "fan_avg", "distribution": "uniform", "seed": null}}, "bias_initializer": {"class_name": "Zeros", "config": {}}, "kernel_regularizer": null, "bias_regularizer": null, "activity_regularizer": null, "kernel_constraint": null, "bias_constraint": null}, "inbound_nodes": [[["concatenate_614", 0, 0, {}]]]}, {"name": "concatenate_505", "class_name": "Concatenate", "config": {"name": "concatenate_505", "trainable": true, "dtype": "float32", "axis": -1}, "inbound_nodes": [[["dense_545", 0, 0, {}], ["dense_543", 0, 0, {}]]]}, {"name": "concatenate_509", "class_name": "Concatenate", "config": {"name": "concatenate_509", "trainable": true, "dtype": "float32", "axis": -1}, "inbound_nodes": [[["dense_553", 0, 0, {}], ["dense_546", 0, 0, {}]]]}, {"name": "concatenate_516", "class_name": "Concatenate", "config": {"name": "concatenate_516", "trainable": true, "dtype": "float32", "axis": -1}, "inbound_nodes": [[["dense_541", 0, 0, {}], ["dense_560", 0, 0, {}]]]}, {"name": "concatenate_519", "class_name": "Concatenate", "config": {"name": "concatenate_519", "trainable": true, "dtype": "float32", "axis": -1}, "inbound_nodes": [[["dense_541", 0, 0, {}], ["dense_563", 0, 0, {}]]]}, {"name": "concatenate_531", "class_name": "Concatenate", "config": {"name": "concatenate_531", "trainable": true, "dtype": "float32", "axis": -1}, "inbound_nodes": [[["dense_573", 0, 0, {}], ["dense_575", 0, 0, {}]]]}, {"name": "concatenate_533", "class_name": "Concatenate", "config": {"name": "concatenate_533", "trainable": true, "dtype": "float32", "axis": -1}, "inbound_nodes": [[["dense_546", 0, 0, {}], ["dense_546", 0, 0, {}]]]}, {"name": "concatenate_542", "class_name": "Concatenate", "config": {"name": "concatenate_542", "trainable": true, "dtype": "float32", "axis": -1}, "inbound_nodes": [[["dense_545", 0, 0, {}], ["dense_586", 0, 0, {}]]]}, {"name": "concatenate_555", "class_name": "Concatenate", "config": {"name": "concatenate_555", "trainable": true, "dtype": "float32", "axis": -1}, "inbound_nodes": [[["dense_599", 0, 0, {}], ["dense_540", 0, 0, {}]]]}, {"name": "concatenate_560", "class_name": "Concatenate", "config": {"name": "concatenate_560", "trainable": true, "dtype": "float32", "axis": -1}, "inbound_nodes": [[["dense_603", 0, 0, {}], ["dense_604", 0, 0, {}]]]}, {"name": "concatenate_571", "class_name": "Concatenate", "config": {"name": "concatenate_571", "trainable": true, "dtype": "float32", "axis": -1}, "inbound_nodes": [[["dense_541", 0, 0, {}], ["dense_541", 0, 0, {}]]]}, {"name": "concatenate_592", "class_name": "Concatenate", "config": {"name": "concatenate_592", "trainable": true, "dtype": "float32", "axis": -1}, "inbound_nodes": [[["dense_636", 0, 0, {}], ["dense_540", 0, 0, {}]]]}, {"name": "concatenate_602", "class_name": "Concatenate", "config": {"name": "concatenate_602", "trainable": true, "dtype": "float32", "axis": -1}, "inbound_nodes": [[["dense_545", 0, 0, {}], ["dense_646", 0, 0, {}]]]}, {"name": "concatenate_605", "class_name": "Concatenate", "config": {"name": "concatenate_605", "trainable": true, "dtype": "float32", "axis": -1}, "inbound_nodes": [[["dense_545", 0, 0, {}], ["dense_545", 0, 0, {}]]]}, {"name": "concatenate_615", "class_name": "Concatenate", "config": {"name": "concatenate_615", "trainable": true, "dtype": "float32", "axis": -1}, "inbound_nodes": [[["dense_658", 0, 0, {}], ["dense_659", 0, 0, {}]]]}, {"name": "concatenate_618", "class_name": "Concatenate", "config": {"name": "concatenate_618", "trainable": true, "dtype": "float32", "axis": -1}, "inbound_nodes": [[["dense_547", 0, 0, {}], ["dense_540", 0, 0, {}]]]}, {"name": "dense_550", "class_name": "Dense", "config": {"name": "dense_550", "trainable": true, "dtype": "float32", "units": 100, "activation": "relu", "use_bias": true, "kernel_initializer": {"class_name": "VarianceScaling", "config": {"scale": 1.0, "mode": "fan_avg", "distribution": "uniform", "seed": null}}, "bias_initializer": {"class_name": "Zeros", "config": {}}, "kernel_regularizer": null, "bias_regularizer": null, "activity_regularizer": null, "kernel_constraint": null, "bias_constraint": null}, "inbound_nodes": [[["concatenate_505", 0, 0, {}]]]}, {"name": "dense_554", "class_name": "Dense", "config": {"name": "dense_554", "trainable": true, "dtype": "float32", "units": 100, "activation": "relu", "use_bias": true, "kernel_initializer": {"class_name": "VarianceScaling", "config": {"scale": 1.0, "mode": "fan_avg", "distribution": "uniform", "seed": null}}, "bias_initializer": {"class_name": "Zeros", "config": {}}, "kernel_regularizer": null, "bias_regularizer": null, "activity_regularizer": null, "kernel_constraint": null, "bias_constraint": null}, "inbound_nodes": [[["concatenate_509", 0, 0, {}]]]}, {"name": "dense_561", "class_name": "Dense", "config": {"name": "dense_561", "trainable": true, "dtype": "float32", "units": 100, "activation": "relu", "use_bias": true, "kernel_initializer": {"class_name": "VarianceScaling", "config": {"scale": 1.0, "mode": "fan_avg", "distribution": "uniform", "seed": null}}, "bias_initializer": {"class_name": "Zeros", "config": {}}, "kernel_regularizer": null, "bias_regularizer": null, "activity_regularizer": null, "kernel_constraint": null, "bias_constraint": null}, "inbound_nodes": [[["concatenate_516", 0, 0, {}]]]}, {"name": "dense_564", "class_name": "Dense", "config": {"name": "dense_564", "trainable": true, "dtype": "float32", "units": 100, "activation": "relu", "use_bias": true, "kernel_initializer": {"class_name": "VarianceScaling", "config": {"scale": 1.0, "mode": "fan_avg", "distribution": "uniform", "seed": null}}, "bias_initializer": {"class_name": "Zeros", "config": {}}, "kernel_regularizer": null, "bias_regularizer": null, "activity_regularizer": null, "kernel_constraint": null, "bias_constraint": null}, "inbound_nodes": [[["concatenate_519", 0, 0, {}]]]}, {"name": "dense_576", "class_name": "Dense", "config": {"name": "dense_576", "trainable": true, "dtype": "float32", "units": 100, "activation": "relu", "use_bias": true, "kernel_initializer": {"class_name": "VarianceScaling", "config": {"scale": 1.0, "mode": "fan_avg", "distribution": "uniform", "seed": null}}, "bias_initializer": {"class_name": "Zeros", "config": {}}, "kernel_regularizer": null, "bias_regularizer": null, "activity_regularizer": null, "kernel_constraint": null, "bias_constraint": null}, "inbound_nodes": [[["concatenate_531", 0, 0, {}]]]}, {"name": "dense_578", "class_name": "Dense", "config": {"name": "dense_578", "trainable": true, "dtype": "float32", "units": 100, "activation": "relu", "use_bias": true, "kernel_initializer": {"class_name": "VarianceScaling", "config": {"scale": 1.0, "mode": "fan_avg", "distribution": "uniform", "seed": null}}, "bias_initializer": {"class_name": "Zeros", "config": {}}, "kernel_regularizer": null, "bias_regularizer": null, "activity_regularizer": null, "kernel_constraint": null, "bias_constraint": null}, "inbound_nodes": [[["concatenate_533", 0, 0, {}]]]}, {"name": "dense_587", "class_name": "Dense", "config": {"name": "dense_587", "trainable": true, "dtype": "float32", "units": 100, "activation": "relu", "use_bias": true, "kernel_initializer": {"class_name": "VarianceScaling", "config": {"scale": 1.0, "mode": "fan_avg", "distribution": "uniform", "seed": null}}, "bias_initializer": {"class_name": "Zeros", "config": {}}, "kernel_regularizer": null, "bias_regularizer": null, "activity_regularizer": null, "kernel_constraint": null, "bias_constraint": null}, "inbound_nodes": [[["concatenate_542", 0, 0, {}]]]}, {"name": "dense_600", "class_name": "Dense", "config": {"name": "dense_600", "trainable": true, "dtype": "float32", "units": 100, "activation": "relu", "use_bias": true, "kernel_initializer": {"class_name": "VarianceScaling", "config": {"scale": 1.0, "mode": "fan_avg", "distribution": "uniform", "seed": null}}, "bias_initializer": {"class_name": "Zeros", "config": {}}, "kernel_regularizer": null, "bias_regularizer": null, "activity_regularizer": null, "kernel_constraint": null, "bias_constraint": null}, "inbound_nodes": [[["concatenate_555", 0, 0, {}]]]}, {"name": "dense_605", "class_name": "Dense", "config": {"name": "dense_605", "trainable": true, "dtype": "float32", "units": 100, "activation": "relu", "use_bias": true, "kernel_initializer": {"class_name": "VarianceScaling", "config": {"scale": 1.0, "mode": "fan_avg", "distribution": "uniform", "seed": null}}, "bias_initializer": {"class_name": "Zeros", "config": {}}, "kernel_regularizer": null, "bias_regularizer": null, "activity_regularizer": null, "kernel_constraint": null, "bias_constraint": null}, "inbound_nodes": [[["concatenate_560", 0, 0, {}]]]}, {"name": "dense_616", "class_name": "Dense", "config": {"name": "dense_616", "trainable": true, "dtype": "float32", "units": 100, "activation": "relu", "use_bias": true, "kernel_initializer": {"class_name": "VarianceScaling", "config": {"scale": 1.0, "mode": "fan_avg", "distribution": "uniform", "seed": null}}, "bias_initializer": {"class_name": "Zeros", "config": {}}, "kernel_regularizer": null, "bias_regularizer": null, "activity_regularizer": null, "kernel_constraint": null, "bias_constraint": null}, "inbound_nodes": [[["concatenate_571", 0, 0, {}]]]}, {"name": "dense_637", "class_name": "Dense", "config": {"name": "dense_637", "trainable": true, "dtype": "float32", "units": 100, "activation": "relu", "use_bias": true, "kernel_initializer": {"class_name": "VarianceScaling", "config": {"scale": 1.0, "mode": "fan_avg", "distribution": "uniform", "seed": null}}, "bias_initializer": {"class_name": "Zeros", "config": {}}, "kernel_regularizer": null, "bias_regularizer": null, "activity_regularizer": null, "kernel_constraint": null, "bias_constraint": null}, "inbound_nodes": [[["concatenate_592", 0, 0, {}]]]}, {"name": "dense_647", "class_name": "Dense", "config": {"name": "dense_647", "trainable": true, "dtype": "float32", "units": 100, "activation": "relu", "use_bias": true, "kernel_initializer": {"class_name": "VarianceScaling", "config": {"scale": 1.0, "mode": "fan_avg", "distribution": "uniform", "seed": null}}, "bias_initializer": {"class_name": "Zeros", "config": {}}, "kernel_regularizer": null, "bias_regularizer": null, "activity_regularizer": null, "kernel_constraint": null, "bias_constraint": null}, "inbound_nodes": [[["concatenate_602", 0, 0, {}]]]}, {"name": "dense_650", "class_name": "Dense", "config": {"name": "dense_650", "trainable": true, "dtype": "float32", "units": 100, "activation": "relu", "use_bias": true, "kernel_initializer": {"class_name": "VarianceScaling", "config": {"scale": 1.0, "mode": "fan_avg", "distribution": "uniform", "seed": null}}, "bias_initializer": {"class_name": "Zeros", "config": {}}, "kernel_regularizer": null, "bias_regularizer": null, "activity_regularizer": null, "kernel_constraint": null, "bias_constraint": null}, "inbound_nodes": [[["concatenate_605", 0, 0, {}]]]}, {"name": "dense_660", "class_name": "Dense", "config": {"name": "dense_660", "trainable": true, "dtype": "float32", "units": 100, "activation": "relu", "use_bias": true, "kernel_initializer": {"class_name": "VarianceScaling", "config": {"scale": 1.0, "mode": "fan_avg", "distribution": "uniform", "seed": null}}, "bias_initializer": {"class_name": "Zeros", "config": {}}, "kernel_regularizer": null, "bias_regularizer": null, "activity_regularizer": null, "kernel_constraint": null, "bias_constraint": null}, "inbound_nodes": [[["concatenate_615", 0, 0, {}]]]}, {"name": "dense_663", "class_name": "Dense", "config": {"name": "dense_663", "trainable": true, "dtype": "float32", "units": 100, "activation": "relu", "use_bias": true, "kernel_initializer": {"class_name": "VarianceScaling", "config": {"scale": 1.0, "mode": "fan_avg", "distribution": "uniform", "seed": null}}, "bias_initializer": {"class_name": "Zeros", "config": {}}, "kernel_regularizer": null, "bias_regularizer": null, "activity_regularizer": null, "kernel_constraint": null, "bias_constraint": null}, "inbound_nodes": [[["concatenate_618", 0, 0, {}]]]}, {"name": "concatenate_510", "class_name": "Concatenate", "config": {"name": "concatenate_510", "trainable": true, "dtype": "float32", "axis": -1}, "inbound_nodes": [[["dense_550", 0, 0, {}], ["dense_554", 0, 0, {}]]]}, {"name": "concatenate_520", "class_name": "Concatenate", "config": {"name": "concatenate_520", "trainable": true, "dtype": "float32", "axis": -1}, "inbound_nodes": [[["dense_561", 0, 0, {}], ["dense_564", 0, 0, {}]]]}, {"name": "concatenate_532", "class_name": "Concatenate", "config": {"name": "concatenate_532", "trainable": true, "dtype": "float32", "axis": -1}, "inbound_nodes": [[["dense_576", 0, 0, {}], ["dense_547", 0, 0, {}]]]}, {"name": "concatenate_534", "class_name": "Concatenate", "config": {"name": "concatenate_534", "trainable": true, "dtype": "float32", "axis": -1}, "inbound_nodes": [[["dense_540", 0, 0, {}], ["dense_578", 0, 0, {}]]]}, {"name": "concatenate_556", "class_name": "Concatenate", "config": {"name": "concatenate_556", "trainable": true, "dtype": "float32", "axis": -1}, "inbound_nodes": [[["dense_587", 0, 0, {}], ["dense_600", 0, 0, {}]]]}, {"name": "concatenate_561", "class_name": "Concatenate", "config": {"name": "concatenate_561", "trainable": true, "dtype": "float32", "axis": -1}, "inbound_nodes": [[["dense_605", 0, 0, {}], ["dense_544", 0, 0, {}]]]}, {"name": "concatenate_572", "class_name": "Concatenate", "config": {"name": "concatenate_572", "trainable": true, "dtype": "float32", "axis": -1}, "inbound_nodes": [[["dense_616", 0, 0, {}], ["dense_546", 0, 0, {}]]]}, {"name": "concatenate_579", "class_name": "Concatenate", "config": {"name": "concatenate_579", "trainable": true, "dtype": "float32", "axis": -1}, "inbound_nodes": [[["dense_540", 0, 0, {}], ["dense_546", 0, 0, {}]]]}, {"name": "concatenate_593", "class_name": "Concatenate", "config": {"name": "concatenate_593", "trainable": true, "dtype": "float32", "axis": -1}, "inbound_nodes": [[["dense_637", 0, 0, {}], ["dense_546", 0, 0, {}]]]}, {"name": "concatenate_594", "class_name": "Concatenate", "config": {"name": "concatenate_594", "trainable": true, "dtype": "float32", "axis": -1}, "inbound_nodes": [[["dense_546", 0, 0, {}], ["dense_541", 0, 0, {}]]]}, {"name": "concatenate_603", "class_name": "Concatenate", "config": {"name": "concatenate_603", "trainable": true, "dtype": "float32", "axis": -1}, "inbound_nodes": [[["dense_546", 0, 0, {}], ["dense_647", 0, 0, {}]]]}, {"name": "concatenate_606", "class_name": "Concatenate", "config": {"name": "concatenate_606", "trainable": true, "dtype": "float32", "axis": -1}, "inbound_nodes": [[["dense_650", 0, 0, {}], ["dense_546", 0, 0, {}]]]}, {"name": "concatenate_616", "class_name": "Concatenate", "config": {"name": "concatenate_616", "trainable": true, "dtype": "float32", "axis": -1}, "inbound_nodes": [[["dense_660", 0, 0, {}], ["dense_547", 0, 0, {}]]]}, {"name": "concatenate_619", "class_name": "Concatenate", "config": {"name": "concatenate_619", "trainable": true, "dtype": "float32", "axis": -1}, "inbound_nodes": [[["dense_663", 0, 0, {}], ["dense_546", 0, 0, {}]]]}, {"name": "dense_555", "class_name": "Dense", "config": {"name": "dense_555", "trainable": true, "dtype": "float32", "units": 100, "activation": "relu", "use_bias": true, "kernel_initializer": {"class_name": "VarianceScaling", "config": {"scale": 1.0, "mode": "fan_avg", "distribution": "uniform", "seed": null}}, "bias_initializer": {"class_name": "Zeros", "config": {}}, "kernel_regularizer": null, "bias_regularizer": null, "activity_regularizer": null, "kernel_constraint": null, "bias_constraint": null}, "inbound_nodes": [[["concatenate_510", 0, 0, {}]]]}, {"name": "dense_565", "class_name": "Dense", "config": {"name": "dense_565", "trainable": true, "dtype": "float32", "units": 100, "activation": "relu", "use_bias": true, "kernel_initializer": {"class_name": "VarianceScaling", "config": {"scale": 1.0, "mode": "fan_avg", "distribution": "uniform", "seed": null}}, "bias_initializer": {"class_name": "Zeros", "config": {}}, "kernel_regularizer": null, "bias_regularizer": null, "activity_regularizer": null, "kernel_constraint": null, "bias_constraint": null}, "inbound_nodes": [[["concatenate_520", 0, 0, {}]]]}, {"name": "dense_577", "class_name": "Dense", "config": {"name": "dense_577", "trainable": true, "dtype": "float32", "units": 100, "activation": "relu", "use_bias": true, "kernel_initializer": {"class_name": "VarianceScaling", "config": {"scale": 1.0, "mode": "fan_avg", "distribution": "uniform", "seed": null}}, "bias_initializer": {"class_name": "Zeros", "config": {}}, "kernel_regularizer": null, "bias_regularizer": null, "activity_regularizer": null, "kernel_constraint": null, "bias_constraint": null}, "inbound_nodes": [[["concatenate_532", 0, 0, {}]]]}, {"name": "dense_579", "class_name": "Dense", "config": {"name": "dense_579", "trainable": true, "dtype": "float32", "units": 100, "activation": "relu", "use_bias": true, "kernel_initializer": {"class_name": "VarianceScaling", "config": {"scale": 1.0, "mode": "fan_avg", "distribution": "uniform", "seed": null}}, "bias_initializer": {"class_name": "Zeros", "config": {}}, "kernel_regularizer": null, "bias_regularizer": null, "activity_regularizer": null, "kernel_constraint": null, "bias_constraint": null}, "inbound_nodes": [[["concatenate_534", 0, 0, {}]]]}, {"name": "dense_601", "class_name": "Dense", "config": {"name": "dense_601", "trainable": true, "dtype": "float32", "units": 100, "activation": "relu", "use_bias": true, "kernel_initializer": {"class_name": "VarianceScaling", "config": {"scale": 1.0, "mode": "fan_avg", "distribution": "uniform", "seed": null}}, "bias_initializer": {"class_name": "Zeros", "config": {}}, "kernel_regularizer": null, "bias_regularizer": null, "activity_regularizer": null, "kernel_constraint": null, "bias_constraint": null}, "inbound_nodes": [[["concatenate_556", 0, 0, {}]]]}, {"name": "dense_606", "class_name": "Dense", "config": {"name": "dense_606", "trainable": true, "dtype": "float32", "units": 100, "activation": "relu", "use_bias": true, "kernel_initializer": {"class_name": "VarianceScaling", "config": {"scale": 1.0, "mode": "fan_avg", "distribution": "uniform", "seed": null}}, "bias_initializer": {"class_name": "Zeros", "config": {}}, "kernel_regularizer": null, "bias_regularizer": null, "activity_regularizer": null, "kernel_constraint": null, "bias_constraint": null}, "inbound_nodes": [[["concatenate_561", 0, 0, {}]]]}, {"name": "dense_617", "class_name": "Dense", "config": {"name": "dense_617", "trainable": true, "dtype": "float32", "units": 100, "activation": "relu", "use_bias": true, "kernel_initializer": {"class_name": "VarianceScaling", "config": {"scale": 1.0, "mode": "fan_avg", "distribution": "uniform", "seed": null}}, "bias_initializer": {"class_name": "Zeros", "config": {}}, "kernel_regularizer": null, "bias_regularizer": null, "activity_regularizer": null, "kernel_constraint": null, "bias_constraint": null}, "inbound_nodes": [[["concatenate_572", 0, 0, {}]]]}, {"name": "dense_624", "class_name": "Dense", "config": {"name": "dense_624", "trainable": true, "dtype": "float32", "units": 100, "activation": "relu", "use_bias": true, "kernel_initializer": {"class_name": "VarianceScaling", "config": {"scale": 1.0, "mode": "fan_avg", "distribution": "uniform", "seed": null}}, "bias_initializer": {"class_name": "Zeros", "config": {}}, "kernel_regularizer": null, "bias_regularizer": null, "activity_regularizer": null, "kernel_constraint": null, "bias_constraint": null}, "inbound_nodes": [[["concatenate_579", 0, 0, {}]]]}, {"name": "dense_638", "class_name": "Dense", "config": {"name": "dense_638", "trainable": true, "dtype": "float32", "units": 100, "activation": "relu", "use_bias": true, "kernel_initializer": {"class_name": "VarianceScaling", "config": {"scale": 1.0, "mode": "fan_avg", "distribution": "uniform", "seed": null}}, "bias_initializer": {"class_name": "Zeros", "config": {}}, "kernel_regularizer": null, "bias_regularizer": null, "activity_regularizer": null, "kernel_constraint": null, "bias_constraint": null}, "inbound_nodes": [[["concatenate_593", 0, 0, {}]]]}, {"name": "dense_639", "class_name": "Dense", "config": {"name": "dense_639", "trainable": true, "dtype": "float32", "units": 100, "activation": "relu", "use_bias": true, "kernel_initializer": {"class_name": "VarianceScaling", "config": {"scale": 1.0, "mode": "fan_avg", "distribution": "uniform", "seed": null}}, "bias_initializer": {"class_name": "Zeros", "config": {}}, "kernel_regularizer": null, "bias_regularizer": null, "activity_regularizer": null, "kernel_constraint": null, "bias_constraint": null}, "inbound_nodes": [[["concatenate_594", 0, 0, {}]]]}, {"name": "dense_648", "class_name": "Dense", "config": {"name": "dense_648", "trainable": true, "dtype": "float32", "units": 100, "activation": "relu", "use_bias": true, "kernel_initializer": {"class_name": "VarianceScaling", "config": {"scale": 1.0, "mode": "fan_avg", "distribution": "uniform", "seed": null}}, "bias_initializer": {"class_name": "Zeros", "config": {}}, "kernel_regularizer": null, "bias_regularizer": null, "activity_regularizer": null, "kernel_constraint": null, "bias_constraint": null}, "inbound_nodes": [[["concatenate_603", 0, 0, {}]]]}, {"name": "dense_651", "class_name": "Dense", "config": {"name": "dense_651", "trainable": true, "dtype": "float32", "units": 100, "activation": "relu", "use_bias": true, "kernel_initializer": {"class_name": "VarianceScaling", "config": {"scale": 1.0, "mode": "fan_avg", "distribution": "uniform", "seed": null}}, "bias_initializer": {"class_name": "Zeros", "config": {}}, "kernel_regularizer": null, "bias_regularizer": null, "activity_regularizer": null, "kernel_constraint": null, "bias_constraint": null}, "inbound_nodes": [[["concatenate_606", 0, 0, {}]]]}, {"name": "dense_661", "class_name": "Dense", "config": {"name": "dense_661", "trainable": true, "dtype": "float32", "units": 100, "activation": "relu", "use_bias": true, "kernel_initializer": {"class_name": "VarianceScaling", "config": {"scale": 1.0, "mode": "fan_avg", "distribution": "uniform", "seed": null}}, "bias_initializer": {"class_name": "Zeros", "config": {}}, "kernel_regularizer": null, "bias_regularizer": null, "activity_regularizer": null, "kernel_constraint": null, "bias_constraint": null}, "inbound_nodes": [[["concatenate_616", 0, 0, {}]]]}, {"name": "dense_664", "class_name": "Dense", "config": {"name": "dense_664", "trainable": true, "dtype": "float32", "units": 100, "activation": "relu", "use_bias": true, "kernel_initializer": {"class_name": "VarianceScaling", "config": {"scale": 1.0, "mode": "fan_avg", "distribution": "uniform", "seed": null}}, "bias_initializer": {"class_name": "Zeros", "config": {}}, "kernel_regularizer": null, "bias_regularizer": null, "activity_regularizer": null, "kernel_constraint": null, "bias_constraint": null}, "inbound_nodes": [[["concatenate_619", 0, 0, {}]]]}, {"name": "concatenate_511", "class_name": "Concatenate", "config": {"name": "concatenate_511", "trainable": true, "dtype": "float32", "axis": -1}, "inbound_nodes": [[["dense_555", 0, 0, {}], ["dense_542", 0, 0, {}]]]}, {"name": "concatenate_521", "class_name": "Concatenate", "config": {"name": "concatenate_521", "trainable": true, "dtype": "float32", "axis": -1}, "inbound_nodes": [[["dense_565", 0, 0, {}], ["dense_542", 0, 0, {}]]]}, {"name": "concatenate_535", "class_name": "Concatenate", "config": {"name": "concatenate_535", "trainable": true, "dtype": "float32", "axis": -1}, "inbound_nodes": [[["dense_577", 0, 0, {}], ["dense_579", 0, 0, {}]]]}, {"name": "concatenate_557", "class_name": "Concatenate", "config": {"name": "concatenate_557", "trainable": true, "dtype": "float32", "axis": -1}, "inbound_nodes": [[["dense_601", 0, 0, {}], ["dense_546", 0, 0, {}]]]}, {"name": "concatenate_562", "class_name": "Concatenate", "config": {"name": "concatenate_562", "trainable": true, "dtype": "float32", "axis": -1}, "inbound_nodes": [[["dense_606", 0, 0, {}], ["dense_546", 0, 0, {}]]]}, {"name": "concatenate_573", "class_name": "Concatenate", "config": {"name": "concatenate_573", "trainable": true, "dtype": "float32", "axis": -1}, "inbound_nodes": [[["dense_541", 0, 0, {}], ["dense_617", 0, 0, {}]]]}, {"name": "concatenate_580", "class_name": "Concatenate", "config": {"name": "concatenate_580", "trainable": true, "dtype": "float32", "axis": -1}, "inbound_nodes": [[["dense_624", 0, 0, {}], ["dense_546", 0, 0, {}]]]}, {"name": "concatenate_595", "class_name": "Concatenate", "config": {"name": "concatenate_595", "trainable": true, "dtype": "float32", "axis": -1}, "inbound_nodes": [[["dense_638", 0, 0, {}], ["dense_639", 0, 0, {}]]]}, {"name": "concatenate_604", "class_name": "Concatenate", "config": {"name": "concatenate_604", "trainable": true, "dtype": "float32", "axis": -1}, "inbound_nodes": [[["dense_648", 0, 0, {}], ["dense_546", 0, 0, {}]]]}, {"name": "concatenate_607", "class_name": "Concatenate", "config": {"name": "concatenate_607", "trainable": true, "dtype": "float32", "axis": -1}, "inbound_nodes": [[["dense_651", 0, 0, {}], ["dense_544", 0, 0, {}]]]}, {"name": "concatenate_617", "class_name": "Concatenate", "config": {"name": "concatenate_617", "trainable": true, "dtype": "float32", "axis": -1}, "inbound_nodes": [[["dense_661", 0, 0, {}], ["dense_546", 0, 0, {}]]]}, {"name": "concatenate_620", "class_name": "Concatenate", "config": {"name": "concatenate_620", "trainable": true, "dtype": "float32", "axis": -1}, "inbound_nodes": [[["dense_547", 0, 0, {}], ["dense_664", 0, 0, {}]]]}, {"name": "dense_556", "class_name": "Dense", "config": {"name": "dense_556", "trainable": true, "dtype": "float32", "units": 100, "activation": "relu", "use_bias": true, "kernel_initializer": {"class_name": "VarianceScaling", "config": {"scale": 1.0, "mode": "fan_avg", "distribution": "uniform", "seed": null}}, "bias_initializer": {"class_name": "Zeros", "config": {}}, "kernel_regularizer": null, "bias_regularizer": null, "activity_regularizer": null, "kernel_constraint": null, "bias_constraint": null}, "inbound_nodes": [[["concatenate_511", 0, 0, {}]]]}, {"name": "dense_566", "class_name": "Dense", "config": {"name": "dense_566", "trainable": true, "dtype": "float32", "units": 100, "activation": "relu", "use_bias": true, "kernel_initializer": {"class_name": "VarianceScaling", "config": {"scale": 1.0, "mode": "fan_avg", "distribution": "uniform", "seed": null}}, "bias_initializer": {"class_name": "Zeros", "config": {}}, "kernel_regularizer": null, "bias_regularizer": null, "activity_regularizer": null, "kernel_constraint": null, "bias_constraint": null}, "inbound_nodes": [[["concatenate_521", 0, 0, {}]]]}, {"name": "dense_580", "class_name": "Dense", "config": {"name": "dense_580", "trainable": true, "dtype": "float32", "units": 100, "activation": "relu", "use_bias": true, "kernel_initializer": {"class_name": "VarianceScaling", "config": {"scale": 1.0, "mode": "fan_avg", "distribution": "uniform", "seed": null}}, "bias_initializer": {"class_name": "Zeros", "config": {}}, "kernel_regularizer": null, "bias_regularizer": null, "activity_regularizer": null, "kernel_constraint": null, "bias_constraint": null}, "inbound_nodes": [[["concatenate_535", 0, 0, {}]]]}, {"name": "dense_602", "class_name": "Dense", "config": {"name": "dense_602", "trainable": true, "dtype": "float32", "units": 100, "activation": "relu", "use_bias": true, "kernel_initializer": {"class_name": "VarianceScaling", "config": {"scale": 1.0, "mode": "fan_avg", "distribution": "uniform", "seed": null}}, "bias_initializer": {"class_name": "Zeros", "config": {}}, "kernel_regularizer": null, "bias_regularizer": null, "activity_regularizer": null, "kernel_constraint": null, "bias_constraint": null}, "inbound_nodes": [[["concatenate_557", 0, 0, {}]]]}, {"name": "dense_607", "class_name": "Dense", "config": {"name": "dense_607", "trainable": true, "dtype": "float32", "units": 100, "activation": "relu", "use_bias": true, "kernel_initializer": {"class_name": "VarianceScaling", "config": {"scale": 1.0, "mode": "fan_avg", "distribution": "uniform", "seed": null}}, "bias_initializer": {"class_name": "Zeros", "config": {}}, "kernel_regularizer": null, "bias_regularizer": null, "activity_regularizer": null, "kernel_constraint": null, "bias_constraint": null}, "inbound_nodes": [[["concatenate_562", 0, 0, {}]]]}, {"name": "dense_618", "class_name": "Dense", "config": {"name": "dense_618", "trainable": true, "dtype": "float32", "units": 100, "activation": "relu", "use_bias": true, "kernel_initializer": {"class_name": "VarianceScaling", "config": {"scale": 1.0, "mode": "fan_avg", "distribution": "uniform", "seed": null}}, "bias_initializer": {"class_name": "Zeros", "config": {}}, "kernel_regularizer": null, "bias_regularizer": null, "activity_regularizer": null, "kernel_constraint": null, "bias_constraint": null}, "inbound_nodes": [[["concatenate_573", 0, 0, {}]]]}, {"name": "dense_625", "class_name": "Dense", "config": {"name": "dense_625", "trainable": true, "dtype": "float32", "units": 100, "activation": "relu", "use_bias": true, "kernel_initializer": {"class_name": "VarianceScaling", "config": {"scale": 1.0, "mode": "fan_avg", "distribution": "uniform", "seed": null}}, "bias_initializer": {"class_name": "Zeros", "config": {}}, "kernel_regularizer": null, "bias_regularizer": null, "activity_regularizer": null, "kernel_constraint": null, "bias_constraint": null}, "inbound_nodes": [[["concatenate_580", 0, 0, {}]]]}, {"name": "dense_640", "class_name": "Dense", "config": {"name": "dense_640", "trainable": true, "dtype": "float32", "units": 100, "activation": "relu", "use_bias": true, "kernel_initializer": {"class_name": "VarianceScaling", "config": {"scale": 1.0, "mode": "fan_avg", "distribution": "uniform", "seed": null}}, "bias_initializer": {"class_name": "Zeros", "config": {}}, "kernel_regularizer": null, "bias_regularizer": null, "activity_regularizer": null, "kernel_constraint": null, "bias_constraint": null}, "inbound_nodes": [[["concatenate_595", 0, 0, {}]]]}, {"name": "dense_649", "class_name": "Dense", "config": {"name": "dense_649", "trainable": true, "dtype": "float32", "units": 100, "activation": "relu", "use_bias": true, "kernel_initializer": {"class_name": "VarianceScaling", "config": {"scale": 1.0, "mode": "fan_avg", "distribution": "uniform", "seed": null}}, "bias_initializer": {"class_name": "Zeros", "config": {}}, "kernel_regularizer": null, "bias_regularizer": null, "activity_regularizer": null, "kernel_constraint": null, "bias_constraint": null}, "inbound_nodes": [[["concatenate_604", 0, 0, {}]]]}, {"name": "dense_652", "class_name": "Dense", "config": {"name": "dense_652", "trainable": true, "dtype": "float32", "units": 100, "activation": "relu", "use_bias": true, "kernel_initializer": {"class_name": "VarianceScaling", "config": {"scale": 1.0, "mode": "fan_avg", "distribution": "uniform", "seed": null}}, "bias_initializer": {"class_name": "Zeros", "config": {}}, "kernel_regularizer": null, "bias_regularizer": null, "activity_regularizer": null, "kernel_constraint": null, "bias_constraint": null}, "inbound_nodes": [[["concatenate_607", 0, 0, {}]]]}, {"name": "dense_662", "class_name": "Dense", "config": {"name": "dense_662", "trainable": true, "dtype": "float32", "units": 100, "activation": "relu", "use_bias": true, "kernel_initializer": {"class_name": "VarianceScaling", "config": {"scale": 1.0, "mode": "fan_avg", "distribution": "uniform", "seed": null}}, "bias_initializer": {"class_name": "Zeros", "config": {}}, "kernel_regularizer": null, "bias_regularizer": null, "activity_regularizer": null, "kernel_constraint": null, "bias_constraint": null}, "inbound_nodes": [[["concatenate_617", 0, 0, {}]]]}, {"name": "dense_665", "class_name": "Dense", "config": {"name": "dense_665", "trainable": true, "dtype": "float32", "units": 100, "activation": "relu", "use_bias": true, "kernel_initializer": {"class_name": "VarianceScaling", "config": {"scale": 1.0, "mode": "fan_avg", "distribution": "uniform", "seed": null}}, "bias_initializer": {"class_name": "Zeros", "config": {}}, "kernel_regularizer": null, "bias_regularizer": null, "activity_regularizer": null, "kernel_constraint": null, "bias_constraint": null}, "inbound_nodes": [[["concatenate_620", 0, 0, {}]]]}, {"name": "concatenate_503", "class_name": "Concatenate", "config": {"name": "concatenate_503", "trainable": true, "dtype": "float32", "axis": -1}, "inbound_nodes": [[["dense_546", 0, 0, {}], ["dense_546", 0, 0, {}]]]}, {"name": "concatenate_522", "class_name": "Concatenate", "config": {"name": "concatenate_522", "trainable": true, "dtype": "float32", "axis": -1}, "inbound_nodes": [[["dense_556", 0, 0, {}], ["dense_566", 0, 0, {}]]]}, {"name": "concatenate_536", "class_name": "Concatenate", "config": {"name": "concatenate_536", "trainable": true, "dtype": "float32", "axis": -1}, "inbound_nodes": [[["dense_580", 0, 0, {}], ["dense_546", 0, 0, {}]]]}, {"name": "concatenate_563", "class_name": "Concatenate", "config": {"name": "concatenate_563", "trainable": true, "dtype": "float32", "axis": -1}, "inbound_nodes": [[["dense_602", 0, 0, {}], ["dense_607", 0, 0, {}]]]}, {"name": "concatenate_574", "class_name": "Concatenate", "config": {"name": "concatenate_574", "trainable": true, "dtype": "float32", "axis": -1}, "inbound_nodes": [[["dense_618", 0, 0, {}], ["dense_546", 0, 0, {}]]]}, {"name": "concatenate_575", "class_name": "Concatenate", "config": {"name": "concatenate_575", "trainable": true, "dtype": "float32", "axis": -1}, "inbound_nodes": [[["dense_545", 0, 0, {}], ["dense_541", 0, 0, {}]]]}, {"name": "concatenate_581", "class_name": "Concatenate", "config": {"name": "concatenate_581", "trainable": true, "dtype": "float32", "axis": -1}, "inbound_nodes": [[["dense_541", 0, 0, {}], ["dense_625", 0, 0, {}]]]}, {"name": "concatenate_596", "class_name": "Concatenate", "config": {"name": "concatenate_596", "trainable": true, "dtype": "float32", "axis": -1}, "inbound_nodes": [[["dense_640", 0, 0, {}], ["dense_545", 0, 0, {}]]]}, {"name": "concatenate_608", "class_name": "Concatenate", "config": {"name": "concatenate_608", "trainable": true, "dtype": "float32", "axis": -1}, "inbound_nodes": [[["dense_649", 0, 0, {}], ["dense_652", 0, 0, {}]]]}, {"name": "concatenate_621", "class_name": "Concatenate", "config": {"name": "concatenate_621", "trainable": true, "dtype": "float32", "axis": -1}, "inbound_nodes": [[["dense_662", 0, 0, {}], ["dense_665", 0, 0, {}]]]}, {"name": "dense_548", "class_name": "Dense", "config": {"name": "dense_548", "trainable": true, "dtype": "float32", "units": 100, "activation": "relu", "use_bias": true, "kernel_initializer": {"class_name": "VarianceScaling", "config": {"scale": 1.0, "mode": "fan_avg", "distribution": "uniform", "seed": null}}, "bias_initializer": {"class_name": "Zeros", "config": {}}, "kernel_regularizer": null, "bias_regularizer": null, "activity_regularizer": null, "kernel_constraint": null, "bias_constraint": null}, "inbound_nodes": [[["concatenate_503", 0, 0, {}]]]}, {"name": "dense_567", "class_name": "Dense", "config": {"name": "dense_567", "trainable": true, "dtype": "float32", "units": 100, "activation": "relu", "use_bias": true, "kernel_initializer": {"class_name": "VarianceScaling", "config": {"scale": 1.0, "mode": "fan_avg", "distribution": "uniform", "seed": null}}, "bias_initializer": {"class_name": "Zeros", "config": {}}, "kernel_regularizer": null, "bias_regularizer": null, "activity_regularizer": null, "kernel_constraint": null, "bias_constraint": null}, "inbound_nodes": [[["concatenate_522", 0, 0, {}]]]}, {"name": "dense_581", "class_name": "Dense", "config": {"name": "dense_581", "trainable": true, "dtype": "float32", "units": 100, "activation": "relu", "use_bias": true, "kernel_initializer": {"class_name": "VarianceScaling", "config": {"scale": 1.0, "mode": "fan_avg", "distribution": "uniform", "seed": null}}, "bias_initializer": {"class_name": "Zeros", "config": {}}, "kernel_regularizer": null, "bias_regularizer": null, "activity_regularizer": null, "kernel_constraint": null, "bias_constraint": null}, "inbound_nodes": [[["concatenate_536", 0, 0, {}]]]}, {"name": "dense_608", "class_name": "Dense", "config": {"name": "dense_608", "trainable": true, "dtype": "float32", "units": 100, "activation": "relu", "use_bias": true, "kernel_initializer": {"class_name": "VarianceScaling", "config": {"scale": 1.0, "mode": "fan_avg", "distribution": "uniform", "seed": null}}, "bias_initializer": {"class_name": "Zeros", "config": {}}, "kernel_regularizer": null, "bias_regularizer": null, "activity_regularizer": null, "kernel_constraint": null, "bias_constraint": null}, "inbound_nodes": [[["concatenate_563", 0, 0, {}]]]}, {"name": "dense_619", "class_name": "Dense", "config": {"name": "dense_619", "trainable": true, "dtype": "float32", "units": 100, "activation": "relu", "use_bias": true, "kernel_initializer": {"class_name": "VarianceScaling", "config": {"scale": 1.0, "mode": "fan_avg", "distribution": "uniform", "seed": null}}, "bias_initializer": {"class_name": "Zeros", "config": {}}, "kernel_regularizer": null, "bias_regularizer": null, "activity_regularizer": null, "kernel_constraint": null, "bias_constraint": null}, "inbound_nodes": [[["concatenate_574", 0, 0, {}]]]}, {"name": "dense_620", "class_name": "Dense", "config": {"name": "dense_620", "trainable": true, "dtype": "float32", "units": 100, "activation": "relu", "use_bias": true, "kernel_initializer": {"class_name": "VarianceScaling", "config": {"scale": 1.0, "mode": "fan_avg", "distribution": "uniform", "seed": null}}, "bias_initializer": {"class_name": "Zeros", "config": {}}, "kernel_regularizer": null, "bias_regularizer": null, "activity_regularizer": null, "kernel_constraint": null, "bias_constraint": null}, "inbound_nodes": [[["concatenate_575", 0, 0, {}]]]}, {"name": "dense_626", "class_name": "Dense", "config": {"name": "dense_626", "trainable": true, "dtype": "float32", "units": 100, "activation": "relu", "use_bias": true, "kernel_initializer": {"class_name": "VarianceScaling", "config": {"scale": 1.0, "mode": "fan_avg", "distribution": "uniform", "seed": null}}, "bias_initializer": {"class_name": "Zeros", "config": {}}, "kernel_regularizer": null, "bias_regularizer": null, "activity_regularizer": null, "kernel_constraint": null, "bias_constraint": null}, "inbound_nodes": [[["concatenate_581", 0, 0, {}]]]}, {"name": "dense_641", "class_name": "Dense", "config": {"name": "dense_641", "trainable": true, "dtype": "float32", "units": 100, "activation": "relu", "use_bias": true, "kernel_initializer": {"class_name": "VarianceScaling", "config": {"scale": 1.0, "mode": "fan_avg", "distribution": "uniform", "seed": null}}, "bias_initializer": {"class_name": "Zeros", "config": {}}, "kernel_regularizer": null, "bias_regularizer": null, "activity_regularizer": null, "kernel_constraint": null, "bias_constraint": null}, "inbound_nodes": [[["concatenate_596", 0, 0, {}]]]}, {"name": "dense_653", "class_name": "Dense", "config": {"name": "dense_653", "trainable": true, "dtype": "float32", "units": 100, "activation": "relu", "use_bias": true, "kernel_initializer": {"class_name": "VarianceScaling", "config": {"scale": 1.0, "mode": "fan_avg", "distribution": "uniform", "seed": null}}, "bias_initializer": {"class_name": "Zeros", "config": {}}, "kernel_regularizer": null, "bias_regularizer": null, "activity_regularizer": null, "kernel_constraint": null, "bias_constraint": null}, "inbound_nodes": [[["concatenate_608", 0, 0, {}]]]}, {"name": "dense_666", "class_name": "Dense", "config": {"name": "dense_666", "trainable": true, "dtype": "float32", "units": 100, "activation": "relu", "use_bias": true, "kernel_initializer": {"class_name": "VarianceScaling", "config": {"scale": 1.0, "mode": "fan_avg", "distribution": "uniform", "seed": null}}, "bias_initializer": {"class_name": "Zeros", "config": {}}, "kernel_regularizer": null, "bias_regularizer": null, "activity_regularizer": null, "kernel_constraint": null, "bias_constraint": null}, "inbound_nodes": [[["concatenate_621", 0, 0, {}]]]}, {"name": "concatenate_504", "class_name": "Concatenate", "config": {"name": "concatenate_504", "trainable": true, "dtype": "float32", "axis": -1}, "inbound_nodes": [[["dense_548", 0, 0, {}], ["dense_546", 0, 0, {}]]]}, {"name": "concatenate_523", "class_name": "Concatenate", "config": {"name": "concatenate_523", "trainable": true, "dtype": "float32", "axis": -1}, "inbound_nodes": [[["dense_567", 0, 0, {}], ["dense_546", 0, 0, {}]]]}, {"name": "concatenate_537", "class_name": "Concatenate", "config": {"name": "concatenate_537", "trainable": true, "dtype": "float32", "axis": -1}, "inbound_nodes": [[["dense_541", 0, 0, {}], ["dense_581", 0, 0, {}]]]}, {"name": "concatenate_564", "class_name": "Concatenate", "config": {"name": "concatenate_564", "trainable": true, "dtype": "float32", "axis": -1}, "inbound_nodes": [[["dense_608", 0, 0, {}], ["dense_546", 0, 0, {}]]]}, {"name": "concatenate_576", "class_name": "Concatenate", "config": {"name": "concatenate_576", "trainable": true, "dtype": "float32", "axis": -1}, "inbound_nodes": [[["dense_619", 0, 0, {}], ["dense_620", 0, 0, {}]]]}, {"name": "concatenate_582", "class_name": "Concatenate", "config": {"name": "concatenate_582", "trainable": true, "dtype": "float32", "axis": -1}, "inbound_nodes": [[["dense_626", 0, 0, {}], ["dense_545", 0, 0, {}]]]}, {"name": "concatenate_597", "class_name": "Concatenate", "config": {"name": "concatenate_597", "trainable": true, "dtype": "float32", "axis": -1}, "inbound_nodes": [[["dense_542", 0, 0, {}], ["dense_641", 0, 0, {}]]]}, {"name": "concatenate_609", "class_name": "Concatenate", "config": {"name": "concatenate_609", "trainable": true, "dtype": "float32", "axis": -1}, "inbound_nodes": [[["dense_653", 0, 0, {}], ["dense_546", 0, 0, {}]]]}, {"name": "concatenate_622", "class_name": "Concatenate", "config": {"name": "concatenate_622", "trainable": true, "dtype": "float32", "axis": -1}, "inbound_nodes": [[["dense_666", 0, 0, {}], ["dense_546", 0, 0, {}]]]}, {"name": "dense_549", "class_name": "Dense", "config": {"name": "dense_549", "trainable": true, "dtype": "float32", "units": 100, "activation": "relu", "use_bias": true, "kernel_initializer": {"class_name": "VarianceScaling", "config": {"scale": 1.0, "mode": "fan_avg", "distribution": "uniform", "seed": null}}, "bias_initializer": {"class_name": "Zeros", "config": {}}, "kernel_regularizer": null, "bias_regularizer": null, "activity_regularizer": null, "kernel_constraint": null, "bias_constraint": null}, "inbound_nodes": [[["concatenate_504", 0, 0, {}]]]}, {"name": "dense_568", "class_name": "Dense", "config": {"name": "dense_568", "trainable": true, "dtype": "float32", "units": 100, "activation": "relu", "use_bias": true, "kernel_initializer": {"class_name": "VarianceScaling", "config": {"scale": 1.0, "mode": "fan_avg", "distribution": "uniform", "seed": null}}, "bias_initializer": {"class_name": "Zeros", "config": {}}, "kernel_regularizer": null, "bias_regularizer": null, "activity_regularizer": null, "kernel_constraint": null, "bias_constraint": null}, "inbound_nodes": [[["concatenate_523", 0, 0, {}]]]}, {"name": "dense_582", "class_name": "Dense", "config": {"name": "dense_582", "trainable": true, "dtype": "float32", "units": 100, "activation": "relu", "use_bias": true, "kernel_initializer": {"class_name": "VarianceScaling", "config": {"scale": 1.0, "mode": "fan_avg", "distribution": "uniform", "seed": null}}, "bias_initializer": {"class_name": "Zeros", "config": {}}, "kernel_regularizer": null, "bias_regularizer": null, "activity_regularizer": null, "kernel_constraint": null, "bias_constraint": null}, "inbound_nodes": [[["concatenate_537", 0, 0, {}]]]}, {"name": "dense_609", "class_name": "Dense", "config": {"name": "dense_609", "trainable": true, "dtype": "float32", "units": 100, "activation": "relu", "use_bias": true, "kernel_initializer": {"class_name": "VarianceScaling", "config": {"scale": 1.0, "mode": "fan_avg", "distribution": "uniform", "seed": null}}, "bias_initializer": {"class_name": "Zeros", "config": {}}, "kernel_regularizer": null, "bias_regularizer": null, "activity_regularizer": null, "kernel_constraint": null, "bias_constraint": null}, "inbound_nodes": [[["concatenate_564", 0, 0, {}]]]}, {"name": "dense_621", "class_name": "Dense", "config": {"name": "dense_621", "trainable": true, "dtype": "float32", "units": 100, "activation": "relu", "use_bias": true, "kernel_initializer": {"class_name": "VarianceScaling", "config": {"scale": 1.0, "mode": "fan_avg", "distribution": "uniform", "seed": null}}, "bias_initializer": {"class_name": "Zeros", "config": {}}, "kernel_regularizer": null, "bias_regularizer": null, "activity_regularizer": null, "kernel_constraint": null, "bias_constraint": null}, "inbound_nodes": [[["concatenate_576", 0, 0, {}]]]}, {"name": "dense_627", "class_name": "Dense", "config": {"name": "dense_627", "trainable": true, "dtype": "float32", "units": 100, "activation": "relu", "use_bias": true, "kernel_initializer": {"class_name": "VarianceScaling", "config": {"scale": 1.0, "mode": "fan_avg", "distribution": "uniform", "seed": null}}, "bias_initializer": {"class_name": "Zeros", "config": {}}, "kernel_regularizer": null, "bias_regularizer": null, "activity_regularizer": null, "kernel_constraint": null, "bias_constraint": null}, "inbound_nodes": [[["concatenate_582", 0, 0, {}]]]}, {"name": "dense_642", "class_name": "Dense", "config": {"name": "dense_642", "trainable": true, "dtype": "float32", "units": 100, "activation": "relu", "use_bias": true, "kernel_initializer": {"class_name": "VarianceScaling", "config": {"scale": 1.0, "mode": "fan_avg", "distribution": "uniform", "seed": null}}, "bias_initializer": {"class_name": "Zeros", "config": {}}, "kernel_regularizer": null, "bias_regularizer": null, "activity_regularizer": null, "kernel_constraint": null, "bias_constraint": null}, "inbound_nodes": [[["concatenate_597", 0, 0, {}]]]}, {"name": "dense_654", "class_name": "Dense", "config": {"name": "dense_654", "trainable": true, "dtype": "float32", "units": 100, "activation": "relu", "use_bias": true, "kernel_initializer": {"class_name": "VarianceScaling", "config": {"scale": 1.0, "mode": "fan_avg", "distribution": "uniform", "seed": null}}, "bias_initializer": {"class_name": "Zeros", "config": {}}, "kernel_regularizer": null, "bias_regularizer": null, "activity_regularizer": null, "kernel_constraint": null, "bias_constraint": null}, "inbound_nodes": [[["concatenate_609", 0, 0, {}]]]}, {"name": "dense_667", "class_name": "Dense", "config": {"name": "dense_667", "trainable": true, "dtype": "float32", "units": 100, "activation": "relu", "use_bias": true, "kernel_initializer": {"class_name": "VarianceScaling", "config": {"scale": 1.0, "mode": "fan_avg", "distribution": "uniform", "seed": null}}, "bias_initializer": {"class_name": "Zeros", "config": {}}, "kernel_regularizer": null, "bias_regularizer": null, "activity_regularizer": null, "kernel_constraint": null, "bias_constraint": null}, "inbound_nodes": [[["concatenate_622", 0, 0, {}]]]}, {"name": "concatenate_524", "class_name": "Concatenate", "config": {"name": "concatenate_524", "trainable": true, "dtype": "float32", "axis": -1}, "inbound_nodes": [[["dense_549", 0, 0, {}], ["dense_568", 0, 0, {}]]]}, {"name": "concatenate_565", "class_name": "Concatenate", "config": {"name": "concatenate_565", "trainable": true, "dtype": "float32", "axis": -1}, "inbound_nodes": [[["dense_582", 0, 0, {}], ["dense_609", 0, 0, {}]]]}, {"name": "concatenate_577", "class_name": "Concatenate", "config": {"name": "concatenate_577", "trainable": true, "dtype": "float32", "axis": -1}, "inbound_nodes": [[["dense_621", 0, 0, {}], ["dense_545", 0, 0, {}]]]}, {"name": "concatenate_583", "class_name": "Concatenate", "config": {"name": "concatenate_583", "trainable": true, "dtype": "float32", "axis": -1}, "inbound_nodes": [[["dense_627", 0, 0, {}], ["dense_546", 0, 0, {}]]]}, {"name": "concatenate_610", "class_name": "Concatenate", "config": {"name": "concatenate_610", "trainable": true, "dtype": "float32", "axis": -1}, "inbound_nodes": [[["dense_642", 0, 0, {}], ["dense_654", 0, 0, {}]]]}, {"name": "concatenate_623", "class_name": "Concatenate", "config": {"name": "concatenate_623", "trainable": true, "dtype": "float32", "axis": -1}, "inbound_nodes": [[["dense_667", 0, 0, {}], ["dense_545", 0, 0, {}]]]}, {"name": "dense_569", "class_name": "Dense", "config": {"name": "dense_569", "trainable": true, "dtype": "float32", "units": 100, "activation": "relu", "use_bias": true, "kernel_initializer": {"class_name": "VarianceScaling", "config": {"scale": 1.0, "mode": "fan_avg", "distribution": "uniform", "seed": null}}, "bias_initializer": {"class_name": "Zeros", "config": {}}, "kernel_regularizer": null, "bias_regularizer": null, "activity_regularizer": null, "kernel_constraint": null, "bias_constraint": null}, "inbound_nodes": [[["concatenate_524", 0, 0, {}]]]}, {"name": "dense_610", "class_name": "Dense", "config": {"name": "dense_610", "trainable": true, "dtype": "float32", "units": 100, "activation": "relu", "use_bias": true, "kernel_initializer": {"class_name": "VarianceScaling", "config": {"scale": 1.0, "mode": "fan_avg", "distribution": "uniform", "seed": null}}, "bias_initializer": {"class_name": "Zeros", "config": {}}, "kernel_regularizer": null, "bias_regularizer": null, "activity_regularizer": null, "kernel_constraint": null, "bias_constraint": null}, "inbound_nodes": [[["concatenate_565", 0, 0, {}]]]}, {"name": "dense_622", "class_name": "Dense", "config": {"name": "dense_622", "trainable": true, "dtype": "float32", "units": 100, "activation": "relu", "use_bias": true, "kernel_initializer": {"class_name": "VarianceScaling", "config": {"scale": 1.0, "mode": "fan_avg", "distribution": "uniform", "seed": null}}, "bias_initializer": {"class_name": "Zeros", "config": {}}, "kernel_regularizer": null, "bias_regularizer": null, "activity_regularizer": null, "kernel_constraint": null, "bias_constraint": null}, "inbound_nodes": [[["concatenate_577", 0, 0, {}]]]}, {"name": "dense_628", "class_name": "Dense", "config": {"name": "dense_628", "trainable": true, "dtype": "float32", "units": 100, "activation": "relu", "use_bias": true, "kernel_initializer": {"class_name": "VarianceScaling", "config": {"scale": 1.0, "mode": "fan_avg", "distribution": "uniform", "seed": null}}, "bias_initializer": {"class_name": "Zeros", "config": {}}, "kernel_regularizer": null, "bias_regularizer": null, "activity_regularizer": null, "kernel_constraint": null, "bias_constraint": null}, "inbound_nodes": [[["concatenate_583", 0, 0, {}]]]}, {"name": "dense_655", "class_name": "Dense", "config": {"name": "dense_655", "trainable": true, "dtype": "float32", "units": 100, "activation": "relu", "use_bias": true, "kernel_initializer": {"class_name": "VarianceScaling", "config": {"scale": 1.0, "mode": "fan_avg", "distribution": "uniform", "seed": null}}, "bias_initializer": {"class_name": "Zeros", "config": {}}, "kernel_regularizer": null, "bias_regularizer": null, "activity_regularizer": null, "kernel_constraint": null, "bias_constraint": null}, "inbound_nodes": [[["concatenate_610", 0, 0, {}]]]}, {"name": "dense_668", "class_name": "Dense", "config": {"name": "dense_668", "trainable": true, "dtype": "float32", "units": 100, "activation": "relu", "use_bias": true, "kernel_initializer": {"class_name": "VarianceScaling", "config": {"scale": 1.0, "mode": "fan_avg", "distribution": "uniform", "seed": null}}, "bias_initializer": {"class_name": "Zeros", "config": {}}, "kernel_regularizer": null, "bias_regularizer": null, "activity_regularizer": null, "kernel_constraint": null, "bias_constraint": null}, "inbound_nodes": [[["concatenate_623", 0, 0, {}]]]}, {"name": "concatenate_525", "class_name": "Concatenate", "config": {"name": "concatenate_525", "trainable": true, "dtype": "float32", "axis": -1}, "inbound_nodes": [[["dense_569", 0, 0, {}], ["dense_545", 0, 0, {}]]]}, {"name": "concatenate_566", "class_name": "Concatenate", "config": {"name": "concatenate_566", "trainable": true, "dtype": "float32", "axis": -1}, "inbound_nodes": [[["dense_610", 0, 0, {}], ["dense_541", 0, 0, {}]]]}, {"name": "concatenate_578", "class_name": "Concatenate", "config": {"name": "concatenate_578", "trainable": true, "dtype": "float32", "axis": -1}, "inbound_nodes": [[["dense_622", 0, 0, {}], ["dense_546", 0, 0, {}]]]}, {"name": "concatenate_584", "class_name": "Concatenate", "config": {"name": "concatenate_584", "trainable": true, "dtype": "float32", "axis": -1}, "inbound_nodes": [[["dense_547", 0, 0, {}], ["dense_628", 0, 0, {}]]]}, {"name": "concatenate_611", "class_name": "Concatenate", "config": {"name": "concatenate_611", "trainable": true, "dtype": "float32", "axis": -1}, "inbound_nodes": [[["dense_655", 0, 0, {}], ["dense_547", 0, 0, {}]]]}, {"name": "concatenate_624", "class_name": "Concatenate", "config": {"name": "concatenate_624", "trainable": true, "dtype": "float32", "axis": -1}, "inbound_nodes": [[["dense_668", 0, 0, {}], ["dense_544", 0, 0, {}]]]}, {"name": "dense_570", "class_name": "Dense", "config": {"name": "dense_570", "trainable": true, "dtype": "float32", "units": 100, "activation": "relu", "use_bias": true, "kernel_initializer": {"class_name": "VarianceScaling", "config": {"scale": 1.0, "mode": "fan_avg", "distribution": "uniform", "seed": null}}, "bias_initializer": {"class_name": "Zeros", "config": {}}, "kernel_regularizer": null, "bias_regularizer": null, "activity_regularizer": null, "kernel_constraint": null, "bias_constraint": null}, "inbound_nodes": [[["concatenate_525", 0, 0, {}]]]}, {"name": "dense_611", "class_name": "Dense", "config": {"name": "dense_611", "trainable": true, "dtype": "float32", "units": 100, "activation": "relu", "use_bias": true, "kernel_initializer": {"class_name": "VarianceScaling", "config": {"scale": 1.0, "mode": "fan_avg", "distribution": "uniform", "seed": null}}, "bias_initializer": {"class_name": "Zeros", "config": {}}, "kernel_regularizer": null, "bias_regularizer": null, "activity_regularizer": null, "kernel_constraint": null, "bias_constraint": null}, "inbound_nodes": [[["concatenate_566", 0, 0, {}]]]}, {"name": "dense_623", "class_name": "Dense", "config": {"name": "dense_623", "trainable": true, "dtype": "float32", "units": 100, "activation": "relu", "use_bias": true, "kernel_initializer": {"class_name": "VarianceScaling", "config": {"scale": 1.0, "mode": "fan_avg", "distribution": "uniform", "seed": null}}, "bias_initializer": {"class_name": "Zeros", "config": {}}, "kernel_regularizer": null, "bias_regularizer": null, "activity_regularizer": null, "kernel_constraint": null, "bias_constraint": null}, "inbound_nodes": [[["concatenate_578", 0, 0, {}]]]}, {"name": "dense_629", "class_name": "Dense", "config": {"name": "dense_629", "trainable": true, "dtype": "float32", "units": 100, "activation": "relu", "use_bias": true, "kernel_initializer": {"class_name": "VarianceScaling", "config": {"scale": 1.0, "mode": "fan_avg", "distribution": "uniform", "seed": null}}, "bias_initializer": {"class_name": "Zeros", "config": {}}, "kernel_regularizer": null, "bias_regularizer": null, "activity_regularizer": null, "kernel_constraint": null, "bias_constraint": null}, "inbound_nodes": [[["concatenate_584", 0, 0, {}]]]}, {"name": "dense_656", "class_name": "Dense", "config": {"name": "dense_656", "trainable": true, "dtype": "float32", "units": 100, "activation": "relu", "use_bias": true, "kernel_initializer": {"class_name": "VarianceScaling", "config": {"scale": 1.0, "mode": "fan_avg", "distribution": "uniform", "seed": null}}, "bias_initializer": {"class_name": "Zeros", "config": {}}, "kernel_regularizer": null, "bias_regularizer": null, "activity_regularizer": null, "kernel_constraint": null, "bias_constraint": null}, "inbound_nodes": [[["concatenate_611", 0, 0, {}]]]}, {"name": "dense_669", "class_name": "Dense", "config": {"name": "dense_669", "trainable": true, "dtype": "float32", "units": 100, "activation": "relu", "use_bias": true, "kernel_initializer": {"class_name": "VarianceScaling", "config": {"scale": 1.0, "mode": "fan_avg", "distribution": "uniform", "seed": null}}, "bias_initializer": {"class_name": "Zeros", "config": {}}, "kernel_regularizer": null, "bias_regularizer": null, "activity_regularizer": null, "kernel_constraint": null, "bias_constraint": null}, "inbound_nodes": [[["concatenate_624", 0, 0, {}]]]}, {"name": "concatenate_526", "class_name": "Concatenate", "config": {"name": "concatenate_526", "trainable": true, "dtype": "float32", "axis": -1}, "inbound_nodes": [[["dense_570", 0, 0, {}], ["dense_544", 0, 0, {}]]]}, {"name": "concatenate_567", "class_name": "Concatenate", "config": {"name": "concatenate_567", "trainable": true, "dtype": "float32", "axis": -1}, "inbound_nodes": [[["dense_545", 0, 0, {}], ["dense_611", 0, 0, {}]]]}, {"name": "concatenate_585", "class_name": "Concatenate", "config": {"name": "concatenate_585", "trainable": true, "dtype": "float32", "axis": -1}, "inbound_nodes": [[["dense_623", 0, 0, {}], ["dense_629", 0, 0, {}]]]}, {"name": "concatenate_625", "class_name": "Concatenate", "config": {"name": "concatenate_625", "trainable": true, "dtype": "float32", "axis": -1}, "inbound_nodes": [[["dense_656", 0, 0, {}], ["dense_669", 0, 0, {}]]]}, {"name": "dense_571", "class_name": "Dense", "config": {"name": "dense_571", "trainable": true, "dtype": "float32", "units": 100, "activation": "relu", "use_bias": true, "kernel_initializer": {"class_name": "VarianceScaling", "config": {"scale": 1.0, "mode": "fan_avg", "distribution": "uniform", "seed": null}}, "bias_initializer": {"class_name": "Zeros", "config": {}}, "kernel_regularizer": null, "bias_regularizer": null, "activity_regularizer": null, "kernel_constraint": null, "bias_constraint": null}, "inbound_nodes": [[["concatenate_526", 0, 0, {}]]]}, {"name": "dense_612", "class_name": "Dense", "config": {"name": "dense_612", "trainable": true, "dtype": "float32", "units": 100, "activation": "relu", "use_bias": true, "kernel_initializer": {"class_name": "VarianceScaling", "config": {"scale": 1.0, "mode": "fan_avg", "distribution": "uniform", "seed": null}}, "bias_initializer": {"class_name": "Zeros", "config": {}}, "kernel_regularizer": null, "bias_regularizer": null, "activity_regularizer": null, "kernel_constraint": null, "bias_constraint": null}, "inbound_nodes": [[["concatenate_567", 0, 0, {}]]]}, {"name": "dense_630", "class_name": "Dense", "config": {"name": "dense_630", "trainable": true, "dtype": "float32", "units": 100, "activation": "relu", "use_bias": true, "kernel_initializer": {"class_name": "VarianceScaling", "config": {"scale": 1.0, "mode": "fan_avg", "distribution": "uniform", "seed": null}}, "bias_initializer": {"class_name": "Zeros", "config": {}}, "kernel_regularizer": null, "bias_regularizer": null, "activity_regularizer": null, "kernel_constraint": null, "bias_constraint": null}, "inbound_nodes": [[["concatenate_585", 0, 0, {}]]]}, {"name": "dense_670", "class_name": "Dense", "config": {"name": "dense_670", "trainable": true, "dtype": "float32", "units": 100, "activation": "relu", "use_bias": true, "kernel_initializer": {"class_name": "VarianceScaling", "config": {"scale": 1.0, "mode": "fan_avg", "distribution": "uniform", "seed": null}}, "bias_initializer": {"class_name": "Zeros", "config": {}}, "kernel_regularizer": null, "bias_regularizer": null, "activity_regularizer": null, "kernel_constraint": null, "bias_constraint": null}, "inbound_nodes": [[["concatenate_625", 0, 0, {}]]]}, {"name": "concatenate_527", "class_name": "Concatenate", "config": {"name": "concatenate_527", "trainable": true, "dtype": "float32", "axis": -1}, "inbound_nodes": [[["dense_571", 0, 0, {}], ["dense_545", 0, 0, {}]]]}, {"name": "concatenate_568", "class_name": "Concatenate", "config": {"name": "concatenate_568", "trainable": true, "dtype": "float32", "axis": -1}, "inbound_nodes": [[["dense_612", 0, 0, {}], ["dense_545", 0, 0, {}]]]}, {"name": "concatenate_586", "class_name": "Concatenate", "config": {"name": "concatenate_586", "trainable": true, "dtype": "float32", "axis": -1}, "inbound_nodes": [[["dense_630", 0, 0, {}], ["dense_541", 0, 0, {}]]]}, {"name": "concatenate_626", "class_name": "Concatenate", "config": {"name": "concatenate_626", "trainable": true, "dtype": "float32", "axis": -1}, "inbound_nodes": [[["dense_670", 0, 0, {}], ["dense_541", 0, 0, {}]]]}, {"name": "dense_572", "class_name": "Dense", "config": {"name": "dense_572", "trainable": true, "dtype": "float32", "units": 100, "activation": "relu", "use_bias": true, "kernel_initializer": {"class_name": "VarianceScaling", "config": {"scale": 1.0, "mode": "fan_avg", "distribution": "uniform", "seed": null}}, "bias_initializer": {"class_name": "Zeros", "config": {}}, "kernel_regularizer": null, "bias_regularizer": null, "activity_regularizer": null, "kernel_constraint": null, "bias_constraint": null}, "inbound_nodes": [[["concatenate_527", 0, 0, {}]]]}, {"name": "dense_613", "class_name": "Dense", "config": {"name": "dense_613", "trainable": true, "dtype": "float32", "units": 100, "activation": "relu", "use_bias": true, "kernel_initializer": {"class_name": "VarianceScaling", "config": {"scale": 1.0, "mode": "fan_avg", "distribution": "uniform", "seed": null}}, "bias_initializer": {"class_name": "Zeros", "config": {}}, "kernel_regularizer": null, "bias_regularizer": null, "activity_regularizer": null, "kernel_constraint": null, "bias_constraint": null}, "inbound_nodes": [[["concatenate_568", 0, 0, {}]]]}, {"name": "dense_631", "class_name": "Dense", "config": {"name": "dense_631", "trainable": true, "dtype": "float32", "units": 100, "activation": "relu", "use_bias": true, "kernel_initializer": {"class_name": "VarianceScaling", "config": {"scale": 1.0, "mode": "fan_avg", "distribution": "uniform", "seed": null}}, "bias_initializer": {"class_name": "Zeros", "config": {}}, "kernel_regularizer": null, "bias_regularizer": null, "activity_regularizer": null, "kernel_constraint": null, "bias_constraint": null}, "inbound_nodes": [[["concatenate_586", 0, 0, {}]]]}, {"name": "dense_671", "class_name": "Dense", "config": {"name": "dense_671", "trainable": true, "dtype": "float32", "units": 100, "activation": "relu", "use_bias": true, "kernel_initializer": {"class_name": "VarianceScaling", "config": {"scale": 1.0, "mode": "fan_avg", "distribution": "uniform", "seed": null}}, "bias_initializer": {"class_name": "Zeros", "config": {}}, "kernel_regularizer": null, "bias_regularizer": null, "activity_regularizer": null, "kernel_constraint": null, "bias_constraint": null}, "inbound_nodes": [[["concatenate_626", 0, 0, {}]]]}, {"name": "concatenate_569", "class_name": "Concatenate", "config": {"name": "concatenate_569", "trainable": true, "dtype": "float32", "axis": -1}, "inbound_nodes": [[["dense_572", 0, 0, {}], ["dense_613", 0, 0, {}]]]}, {"name": "concatenate_627", "class_name": "Concatenate", "config": {"name": "concatenate_627", "trainable": true, "dtype": "float32", "axis": -1}, "inbound_nodes": [[["dense_631", 0, 0, {}], ["dense_671", 0, 0, {}]]]}, {"name": "dense_614", "class_name": "Dense", "config": {"name": "dense_614", "trainable": true, "dtype": "float32", "units": 100, "activation": "relu", "use_bias": true, "kernel_initializer": {"class_name": "VarianceScaling", "config": {"scale": 1.0, "mode": "fan_avg", "distribution": "uniform", "seed": null}}, "bias_initializer": {"class_name": "Zeros", "config": {}}, "kernel_regularizer": null, "bias_regularizer": null, "activity_regularizer": null, "kernel_constraint": null, "bias_constraint": null}, "inbound_nodes": [[["concatenate_569", 0, 0, {}]]]}, {"name": "dense_672", "class_name": "Dense", "config": {"name": "dense_672", "trainable": true, "dtype": "float32", "units": 100, "activation": "relu", "use_bias": true, "kernel_initializer": {"class_name": "VarianceScaling", "config": {"scale": 1.0, "mode": "fan_avg", "distribution": "uniform", "seed": null}}, "bias_initializer": {"class_name": "Zeros", "config": {}}, "kernel_regularizer": null, "bias_regularizer": null, "activity_regularizer": null, "kernel_constraint": null, "bias_constraint": null}, "inbound_nodes": [[["concatenate_627", 0, 0, {}]]]}, {"name": "concatenate_570", "class_name": "Concatenate", "config": {"name": "concatenate_570", "trainable": true, "dtype": "float32", "axis": -1}, "inbound_nodes": [[["dense_614", 0, 0, {}], ["dense_547", 0, 0, {}]]]}, {"name": "concatenate_628", "class_name": "Concatenate", "config": {"name": "concatenate_628", "trainable": true, "dtype": "float32", "axis": -1}, "inbound_nodes": [[["dense_672", 0, 0, {}], ["dense_545", 0, 0, {}]]]}, {"name": "dense_615", "class_name": "Dense", "config": {"name": "dense_615", "trainable": true, "dtype": "float32", "units": 100, "activation": "relu", "use_bias": true, "kernel_initializer": {"class_name": "VarianceScaling", "config": {"scale": 1.0, "mode": "fan_avg", "distribution": "uniform", "seed": null}}, "bias_initializer": {"class_name": "Zeros", "config": {}}, "kernel_regularizer": null, "bias_regularizer": null, "activity_regularizer": null, "kernel_constraint": null, "bias_constraint": null}, "inbound_nodes": [[["concatenate_570", 0, 0, {}]]]}, {"name": "dense_673", "class_name": "Dense", "config": {"name": "dense_673", "trainable": true, "dtype": "float32", "units": 100, "activation": "relu", "use_bias": true, "kernel_initializer": {"class_name": "VarianceScaling", "config": {"scale": 1.0, "mode": "fan_avg", "distribution": "uniform", "seed": null}}, "bias_initializer": {"class_name": "Zeros", "config": {}}, "kernel_regularizer": null, "bias_regularizer": null, "activity_regularizer": null, "kernel_constraint": null, "bias_constraint": null}, "inbound_nodes": [[["concatenate_628", 0, 0, {}]]]}, {"name": "concatenate_629", "class_name": "Concatenate", "config": {"name": "concatenate_629", "trainable": true, "dtype": "float32", "axis": -1}, "inbound_nodes": [[["dense_615", 0, 0, {}], ["dense_673", 0, 0, {}]]]}, {"name": "dense_674", "class_name": "Dense", "config": {"name": "dense_674", "trainable": true, "dtype": "float32", "units": 100, "activation": "relu", "use_bias": true, "kernel_initializer": {"class_name": "VarianceScaling", "config": {"scale": 1.0, "mode": "fan_avg", "distribution": "uniform", "seed": null}}, "bias_initializer": {"class_name": "Zeros", "config": {}}, "kernel_regularizer": null, "bias_regularizer": null, "activity_regularizer": null, "kernel_constraint": null, "bias_constraint": null}, "inbound_nodes": [[["concatenate_629", 0, 0, {}]]]}, {"name": "concatenate_630", "class_name": "Concatenate", "config": {"name": "concatenate_630", "trainable": true, "dtype": "float32", "axis": -1}, "inbound_nodes": [[["dense_674", 0, 0, {}], ["dense_541", 0, 0, {}]]]}, {"name": "dense_675", "class_name": "Dense", "config": {"name": "dense_675", "trainable": true, "dtype": "float32", "units": 100, "activation": "relu", "use_bias": true, "kernel_initializer": {"class_name": "VarianceScaling", "config": {"scale": 1.0, "mode": "fan_avg", "distribution": "uniform", "seed": null}}, "bias_initializer": {"class_name": "Zeros", "config": {}}, "kernel_regularizer": null, "bias_regularizer": null, "activity_regularizer": null, "kernel_constraint": null, "bias_constraint": null}, "inbound_nodes": [[["concatenate_630", 0, 0, {}]]]}, {"name": "dense_676", "class_name": "Dense", "config": {"name": "dense_676", "trainable": true, "dtype": "float32", "units": 2, "activation": "softmax", "use_bias": true, "kernel_initializer": {"class_name": "VarianceScaling", "config": {"scale": 1.0, "mode": "fan_avg", "distribution": "uniform", "seed": null}}, "bias_initializer": {"class_name": "Zeros", "config": {}}, "kernel_regularizer": null, "bias_regularizer": null, "activity_regularizer": null, "kernel_constraint": null, "bias_constraint": null}, "inbound_nodes": [[["dense_675", 0, 0, {}]]]}], "input_layers": [["input_33", 0, 0], ["input_34", 0, 0], ["input_35", 0, 0], ["input_36", 0, 0], ["input_37", 0, 0], ["input_38", 0, 0], ["input_39", 0, 0], ["input_40", 0, 0]], "output_layers": [["dense_676", 0, 0]]}, "keras_version": "2.3.1", "backend": "tensorflow"}